old_ppo/PoI/PoI-60699.pt (torch, 438243 bytes, 36 tensors)

network_body._body_endoder.seq_layers.0.weight f4 [128, 4]
000000 1a a4 13 bf 18 3e c9 3e fe 59 33 3e 01 64 ae be
       -0.57672274 0.39305186 0.17514798 -0.34060672
000010 93 b3 5c be 1e 62 3d bf d7 90 94 3e ac 70 f6 3c
       -0.21552877 -0.7397784 0.29016754 0.030083023
000020 d2 fc db 3e 45 23 91 be 71 11 b5 3d a3 d8 37 bf
       0.42966324 -0.2834722 0.08841217 -0.71814936
000030 9a 07 96 be a2 70 06 3f 4a e1 dc 3d f3 d5 e2 3e
       -0.29302675 0.52515614 0.10785158 0.44303855
000040 85 0b 03 3e dd 93 57 3e f0 0d c6 3e b8 4b bc bd
       0.12797363 0.21052499 0.38682508 -0.0919413
000050 5f d9 9e 3c e7 81 3c be 85 3f e2 be 3c a9 63 be
       0.01939076 -0.18408929 -0.44189087 -0.22232527
000060 70 dd 03 3f 66 83 cf be a2 b3 78 3d bd b8 3a 3d
       0.5150976 -0.40529937 0.060718186 0.045586336
000070 29 db 31 bf 3c 3a 08 bf 5c 7d 69 3e 01 ec 82 3e
       -0.69475037 -0.5321386 0.22801727 0.25570682
000080 18 68 02 bd b0 47 db be fe b7 e6 3e cc e2 1c 3e
       -0.031837553 -0.4282813 0.4506225 0.15320891
000090 7e 5c 11 bf a6 ab 05 bf 1c 28 59 be 4f b3 f7 be
       -0.56781757 -0.5221504 -0.21206707 -0.4837899
0000a0 ef 1d 2e be ed 33 6a 3f cc 22 a1 3e 9e 04 6d 3d
       -0.17003606 0.9148548 0.3147186 0.05786573
0000b0 31 d2 e3 3d 20 05 7e be 32 f4 b8 be 3c 7a 91 3b
       0.11124075 -0.24806643 -0.36123806 0.0044396203
0000c0 19 3c 21 be ea 38 2a 3e 34 bd 08 bf 46 a3 85 3d
       -0.15745582 0.16623273 -0.534137 0.065252826
0000d0 6d 46 10 bf 5d e4 d2 3e 13 5f 9c 3d 2e 52 32 be
       -0.5635746 0.41189852 0.076353215 -0.17414162
0000e0 e7 c8 1d be b8 e4 c3 3e 34 82 fd 3d 0b 61 7d be
       -0.1540867 0.38260436 0.1237835 -0.2474405
0000f0 33 b1 76 3e 79 a4 c7 be c0 d3 4a bf 84 71 0d bf
       0.24091034 -0.3899267 -0.79229355 -0.55251336
000100 d2 44 f2 3d 22 b6 13 bf 39 dd 17 3f be 64 c1 bd
       0.11829533 -0.5769979 0.59321934 -0.09443043
000110 0e 8a f8 bc ac 86 de bd 5e e0 87 bf d2 68 b2 3e
       -0.030339267 -0.1086553 -1.0615346 0.34845597
000120 71 82 24 bc c2 a2 08 3f eb 5a 86 3e 72 53 a4 be
       -0.010040865 0.5337335 0.2624124 -0.32094914
000130 2f 6e 6e 3e 0d 0a e7 be ac c1 d3 3d 2b d2 15 3f
       0.23284219 -0.45124856 0.10339674 0.58523816
000140 7d 50 a5 be 54 52 86 3e 06 36 d2 3e bf 5e 4a be
       -0.3228797 0.26234686 0.41056842 -0.19762705
000150 86 f2 5a bc bd 37 76 be 16 c2 bf be 2d 77 a6 3e
       -0.013363486 -0.240447 -0.37452763 0.325128
000160 07 20 56 bf 28 e5 b2 3e d9 01 9a be 38 ca 38 3f
       -0.8364262 0.34940457 -0.30079535 0.7218356
000170 6f a8 bf be 2f 7c d5 be 2c 8c fa be b4 06 cf 3e
       -0.37433192 -0.41696307 -0.48935068 0.40434802
000180 79 5c 4c be 41 70 f9 3e 11 55 2c 3f 8c cf 54 bf
       -0.1995715 0.48718455 0.673173 -0.8312919
000190 aa 1a a3 3e 69 b5 16 bf 15 2f 03 be af 60 82 3e
       0.3185628 -0.5887056 -0.12810929 0.2546439
0001a0 1d 47 76 bf 35 84 73 bf fc 98 0f bf 31 16 4d be
       -0.9620226 -0.95123607 -0.5609281 -0.20027997
0001b0 f6 8d 33 3f de a0 37 3f 14 d3 af 3d 26 ac 21 3e
       0.7013849 0.7172984 0.08585182 0.15788326
0001c0 c5 91 c4 3d 83 30 20 3f bd e6 d4 be 54 6a 4c 3c
       0.09598116 0.62574023 -0.4158229 0.0124765225
0001d0 8b 1a 8f 3c 41 ec 93 be a9 a6 26 3f 23 2a 8f be
       0.017468711 -0.28891185 0.65098053 -0.27961835
0001e0 74 d6 0d 3d 56 c5 23 be a9 3e 42 bf 6e 1c b3 bc
       0.034628347 -0.15993246 -0.7587686 -0.021864142
0001f0 ee 3c 35 3f 19 ee 62 3f 84 99 86 bf 89 c5 e6 3d
       0.70796096 0.8864456 -1.0515599 0.112681456
000200 d9 ae 20 3e 76 7b 9d 3e b6 18 c7 be 48 50 3d be
       0.15691699 0.30758256 -0.3888604 -0.18487656
000210 d1 55 d0 be 04 0a 79 3e 09 63 68 3f 7b 89 08 be
       -0.40690473 0.24320227 0.90776116 -0.13333695
000220 e9 02 7b 3c 0b 74 e5 be c4 a9 a9 3e 82 84 db be
       0.015320518 -0.44815096 0.33137333 -0.42874533
000230 8a 4b 19 be da f1 19 bf f5 d1 8e 3e 26 d1 7e bf
       -0.14970222 -0.6013466 0.2789456 -0.99537885
000240 bc 32 28 3d e3 14 6c 3e 1f 87 b8 3e 22 37 98 3e
       0.04106401 0.23054843 0.3604059 0.29729563
000250 e8 b4 0b be 36 fa df 3e a3 88 ee 3b 00 43 c0 bb
       -0.13643229 0.43745583 0.007279472 -0.005867362
000260 3e c1 ca be 2c a4 6a bf a6 67 83 bd dd b2 47 bf
       -0.39600557 -0.91656756 -0.06416254 -0.780073
000270 f2 50 17 bf 52 7c 19 bf 5f 08 cc 3c 67 95 90 be
       -0.5910789 -0.5995532 0.024906335 -0.28238985
000280 1a 8c 11 be 6a 79 81 3d 45 12 0e bf 5a 69 31 3f
       -0.14213601 0.06321986 -0.5549663 0.6930138
000290 09 ba ac bd a7 40 ef 3e 6f 68 cb 3e 81 3f 3b bf
       -0.08433921 0.46729013 0.39728114 -0.73143774
0002a0 b8 dc 25 3e 84 c4 35 bf 14 88 56 3c b2 01 36 be
       0.16197479 -0.71002984 0.013093967 -0.17774084
0002b0 49 43 7e 3f 8f e3 19 3f be 08 b0 be c1 b9 da be
       0.9932142 0.6011285 -0.3438167 -0.42719844
0002c0 33 18 8d 3f 78 a5 49 be a6 fe bc 3e dc 51 53 3f
       1.102301 -0.19692028 0.3691303 0.8254678
0002d0 16 1d 9d 3f ce 26 f0 3e ab f8 dc 3e 67 b8 d4 be
       1.2274501 0.46904606 0.4315847 -0.41546938
0002e0 da 0c 74 bd 16 6a f4 be eb 40 a0 3e 5a 71 95 3e
       -0.05958257 -0.47737187 0.31299528 0.29188043
0002f0 1b 29 a5 bd 8d da b1 3e d5 4a c9 3e 16 04 52 bd
       -0.08064481 0.34737054 0.39314905 -0.051273428
000300 d9 ff 1e bc 06 5a 37 bd fb d9 d5 3d cc e2 bc be
       -0.0097045535 -0.044763587 0.10441967 -0.36891782
000310 e2 f1 a7 be dc b2 60 3e 75 91 47 3f 77 f5 10 be
       -0.3280173 0.2194323 0.77956325 -0.14156137
000320 6c c5 48 be 3d ba 14 3f 60 d0 66 be 3e db 8c be
       -0.1960656 0.5809668 -0.22540426 -0.2751102
000330 b9 38 5f be 6b 95 93 3e 1c 62 09 3d e1 6c 65 bc
       -0.21798982 0.28824934 0.03354083 -0.01400301
000340 98 db 58 bf 12 ff 1e 3e 17 9e 4a bf 0f 78 d2 3e
       -0.84710073 0.15526989 -0.79147476 0.41107222
000350 80 27 86 3e 37 02 c8 3d a4 18 05 3f a9 f1 1d bf
       0.2620201 0.097660474 0.51990724 -0.6169687
000360 14 dc 03 3f d4 64 3d 3c 89 73 cb be 6e 3d 0c be
       0.5150769 0.011559684 -0.39736584 -0.13695309
000370 d5 84 a6 3d 1f cb e1 3e 6e ba c7 bd c4 bd da 3e
       0.081308044 0.44100282 -0.097523555 0.42722905
000380 61 bf 2a bf 3d 81 0a 3f 38 5a 03 3e fc 42 8b be
       -0.6669827 0.5410345 0.12827384 -0.27199543
000390 5e 7b 2f bf f0 ff 7d be 2c 3a be 3d 9d 29 3f 3f
       -0.6854762 -0.24804664 0.09288439 0.7467287
0003a0 50 9f 12 be c6 e8 84 3f 33 f2 c5 be af 9d 1f 3f
       -0.14318585 1.0383537 -0.38661346 0.6234998
0003b0 42 72 4c 3f 70 19 db be 71 aa 86 3f 15 5e a0 3e
       0.79861844 -0.42792845 1.0520765 0.3132178
0003c0 30 03 91 bd be 61 6d be 71 a3 24 be 4f 21 55 bf
       -0.07080686 -0.23181817 -0.16077973 -0.8325395
0003d0 ef 46 c6 3c dc 66 eb 3e e2 a4 30 3e 87 d9 b5 be
       0.024203746 0.45976913 0.17250398 -0.35517523
0003e0 f8 cb 46 3d 34 b0 c6 bd 36 46 8e be 09 30 26 be
       0.048534364 -0.09701577 -0.27787942 -0.16229261
0003f0 86 ce ae be dd 95 e9 be b9 4b c6 be 3d 10 70 3f
       -0.3414194 -0.4562215 -0.38729647 0.9377478

network_body._body_endoder.seq_layers.0.bias f4 [128]
000000 73 c8 88 bd 85 29 9f 3c 87 bb 72 bd 19 8f ea 3c
       -0.06678858 0.019428978 -0.05926087 0.028632687
000010 32 27 ab bd 43 23 b6 bd e1 99 1a 3c 07 a7 10 bd
       -0.08357085 -0.088934444 0.009436102 -0.03531554
000020 8a 8a aa bc bd 55 01 bd b5 8d a7 3c 2d 24 a0 bc
       -0.020818014 -0.031575907 0.020453313 -0.0195485
000030 e2 78 90 bd 3c 63 85 bd 11 25 e1 3a cc 7f 3e bc
       -0.070543066 -0.06513068 0.0017177184 -0.011627149
000040 55 8d fe 3b 06 bf 7c bd ea d9 a5 bd c8 6a b2 3c
       0.007768313 -0.06170561 -0.080982044 0.021779433
000050 a2 c3 93 3c 6c 48 2b 3d f2 87 4c 3c cc 2a 15 bc
       0.018037621 0.041817114 0.012483584 -0.009104442
000060 36 bd 08 bc b6 f5 7a 3d 74 d8 02 3c 12 f1 fd bc
       -0.008345893 0.061269484 0.007986177 -0.03099874
000070 26 73 33 bd 55 59 e3 bb 52 45 f1 bc 23 a9 9b bb
       -0.043810986 -0.0069381394 -0.029452 -0.0047503873
000080 00 4e 1d bd 2b 61 0c bd 1e 37 5e bc 3c 7e 0f bd
       -0.038404465 -0.034272354 -0.013562946 -0.035032496
000090 f5 e4 96 bd 74 1a 41 3c 39 0b 60 3d 6c 17 d2 bc
       -0.07367889 0.011786092 0.054698203 -0.025645934
0000a0 3c 2c a9 bc ae 9b ad bc b2 e3 8d bc 23 e5 2b 3c
       -0.020650975 -0.021192398 -0.017320488 0.010491642
0000b0 b8 97 76 3d 6f 1c 91 bd 03 a2 36 bd 63 40 b5 bc
       0.060203284 -0.070855014 -0.0445881 -0.022125429
0000c0 00 6b ef bc af c8 10 3c 66 9d 71 bd 18 3b 7d bc
       -0.029225826 0.008836909 -0.058987997 -0.015455984
0000d0 eb 9a eb bc 74 6f d7 bc 7d d1 cd bb 80 e8 b5 bd
       -0.028760394 -0.026298262 -0.0062810765 -0.088822365
0000e0 7c f6 83 bd 84 5e 82 bc a1 a7 48 bc cf 3b 14 bd
       -0.064434975 -0.01591421 -0.012246997 -0.03618985
0000f0 c8 08 87 3c 9a 8e 88 bb cc 38 b8 bd 34 fb 15 bd
       0.01648368 -0.00416739 -0.08995208 -0.03661652
000100 cf 3c 8d bb 4b 9c f8 bb 77 c1 14 bd e7 47 28 bd
       -0.0043102275 -0.007586991 -0.036317315 -0.041084196
000110 16 65 1f bb 51 fb 72 bc 45 b3 55 bc df 81 1a bd
       -0.0024321727 -0.014830426 -0.0130432295 -0.03772151
000120 87 f5 a2 bc 2f ba d0 bd 98 dd 90 bc f6 55 34 3c
       -0.019892467 -0.10191762 -0.01768379 0.011006823
000130 c5 18 bf bc 3a 5a 3d bd 74 a6 7a 3c 23 15 2d bd
       -0.02332724 -0.046228625 0.015298475 -0.042256486
000140 19 3c a2 ba 7c 52 7b bd fe 13 f0 bc 3a b4 39 bc
       -0.001237753 -0.06135796 -0.029306408 -0.011334473
000150 95 3c ec bc 60 95 0a bd ce 3c 2e bd 39 f5 a4 bd
       -0.028837482 -0.03383386 -0.042538457 -0.08054585
000160 0e be 25 bd a2 99 d9 3c 12 82 81 bd 58 ee 1d 3b
       -0.040464453 0.026562516 -0.06323637 0.0024098363
000170 13 be b7 ba 30 50 e0 bc 43 c4 30 bb b7 cd 06 3d
       -0.0014018439 -0.027381986 -0.002697245 0.03291103
000180 d2 27 d9 3b 79 1f a0 bc 98 d0 89 bc 6c c7 09 bd
       0.0066270614 -0.019546257 -0.016823098 -0.03363745
000190 2d 84 f0 bc ed c8 21 3c 80 eb cd 3c 6d bc 45 bd
       -0.029359901 0.009874565 0.02513671 -0.0482754
0001a0 43 bb 4f bb 5a 93 fa bc e1 29 6f bd 20 26 04 bc
       -0.003169731 -0.03058784 -0.05838955 -0.00806573
0001b0 3a 91 c4 bd b7 87 02 bb 5c e7 45 bd 76 62 b0 bd
       -0.09598012 -0.0019917318 -0.048316345 -0.0861253
0001c0 d3 94 ad bc 7a 7f 98 bd 7b 75 9c bd 51 b2 bc bc
       -0.021189129 -0.07446189 -0.07639595 -0.023034247
0001d0 54 f2 8b 3c 32 09 6f bc 36 7b 0f bc eb 84 31 3d
       0.017083324 -0.014589595 -0.008757403 0.04333965
0001e0 36 ea b9 3c 3f b6 8d 3c fe 7e a6 bd ca 6f eb 3c
       0.022694688 0.017298816 -0.081296906 0.028739829
0001f0 0e 2c c4 bc 74 5a 2a bd ce 26 84 bd c8 ca b2 3a
       -0.023946788 -0.04159017 -0.06452714 0.0013640756

network_body._body_endoder.seq_layers.2.weight f4 [128, 128]
000000 9c 0d 3c 3d ab 73 0d bb 6f 5d 2a 3b 1a db 3c 3e
       0.045911416 -0.0021583836 0.0025995632 0.18442956
000010 49 19 cc 3d f4 fe dc 3d 98 80 6b be fb 4d ad 3c
       0.0996576 0.10790816 -0.22998273 0.021155348
000020 8c d8 5d bd ba a6 9e bd a3 96 2e bd a9 c5 93 bd
       -0.054161593 -0.07746644 -0.042624127 -0.07215435
000030 70 3d 28 3e 4c 07 6b 3d dd c1 2d be 43 37 10 be
       0.16429687 0.057380006 -0.16968484 -0.1408358
000040 e5 28 ee bd 2c e4 1a bc 9a ce 86 bd e7 0f 2c 3d
       -0.11628894 -0.0094538145 -0.06582375 0.042007353
000050 d1 e1 33 bd 94 f8 e1 bd 99 2f 5d be b1 f9 1d be
       -0.043916527 -0.11033741 -0.21600188 -0.15427281
000060 e6 2a be bd 7c db fc bd 5d 96 98 bd 24 2e 61 3e
       -0.09285526 -0.12346551 -0.074505545 0.21990258
000070 e2 6e cc 3c 93 53 d1 bd a5 08 2f be 8d 25 84 bd
       0.024955217 -0.10221019 -0.17093141 -0.06452475
000080 9d 88 fa 3d 7d 4f 47 3c 34 fd c1 bd 4f d2 77 3d
       0.12233088 0.012164948 -0.09472123 0.0605033
000090 e9 90 9e 3d 69 a4 46 3d 2f 90 95 3c 3a 17 38 bd
       0.07742483 0.048496637 0.018257229 -0.044944026
0000a0 d7 3e 04 be f1 c5 60 bd 4f ed 91 bc c0 35 89 bb
       -0.12914596 -0.05487627 -0.017813353 -0.0041873157
0000b0 83 94 7a bd 00 8e af bc e7 d7 dd 3c a7 7a b7 3d
       -0.061176788 -0.021430016 0.02708049 0.08958941
0000c0 16 e5 51 3e 73 41 83 bd c7 9f 97 3c ac 08 94 3d
       0.20497546 -0.06408968 0.018508805 0.072282165
0000d0 6d ed 4d bc b7 c7 f6 bc 04 a4 f4 3d 85 60 a4 3c
       -0.012568814 -0.030124528 0.11945346 0.020065555
0000e0 6d f5 4c bd 36 8d 0e 3e 16 90 12 3b aa aa e4 3d
       -0.050038744 0.13921055 0.0022363714 0.11165364
0000f0 d1 4d f9 bd 02 6c a3 3c 2d 3c a9 3d 88 28 62 bd
       -0.121730454 0.019948963 0.08263431 -0.055214435
000100 28 ea b4 bd 46 e1 42 3a a7 b8 7c 3c 08 ee 8e bd
       -0.08833724 0.0007434081 0.015424884 -0.069789946
000110 14 42 52 bd d2 32 eb 3d 8b 45 0c 3d 3c 42 a7 bd
       -0.05133255 0.114843026 0.03424601 -0.0816693
000120 ea 27 a3 bd 74 9c 3e 3e d0 75 c2 3d ea b7 f7 3d
       -0.079665974 0.1861437 0.09495127 0.12095626
000130 8f 40 e0 bc 76 ab b7 3d 9c 2d 2a 3c 39 22 1a bd
       -0.027374534 0.089682505 0.010386851 -0.037630294
000140 2b f2 97 3d 0c 7f 0f 3e 46 f9 c9 3c 40 65 0f 3d
       0.07419237 0.14013308 0.024654996 0.03500867
000150 57 23 00 be 54 b7 24 bd 4a 44 95 3d 0f f1 10 3e
       -0.12513481 -0.040213898 0.07288416 0.14154457
000160 6b 02 bb 3c d0 47 1c be 4e 95 27 3b 6e 25 7b bd
       0.022828301 -0.1526177 0.002557117 -0.061314993
000170 17 b8 a2 3d 35 32 4a bd e3 6b 10 3d d5 bc ca 3d
       0.079452686 -0.049364287 0.03525914 0.09899298
000180 12 06 83 bd 15 99 13 3d f3 93 2f be b4 90 2c bd
       -0.06397642 0.036034662 -0.17146282 -0.042130187
000190 87 a9 cd bd a3 b0 03 bd ce 55 0b bd fb 69 b6 3b
       -0.100421004 -0.032150876 -0.034017377 0.005566833
0001a0 ee f0 c9 3d 79 32 55 bc 83 88 c2 bd 0e 4e 41 be
       0.09860407 -0.013012522 -0.09498694 -0.18877432
0001b0 9e 08 1a 3c 4c 35 f8 bd 21 b9 11 be 17 75 8f bb
       0.009401469 -0.121195406 -0.14230777 -0.004377972
0001c0 01 26 04 bc 8b 9c 0a 3d 2d d0 a9 bd dc 8b 9d bc
       -0.008065701 0.033840697 -0.082916595 -0.01923173
0001d0 b0 90 85 bd ac 1d 3f bb 2a a4 98 3d 1a 14 89 bd
       -0.065217376 -0.0029161973 0.07453187 -0.06693287
0001e0 d1 15 c5 bb a3 3d b1 bd c8 79 17 3e fd 26 ab 3c
       -0.0060145636 -0.086543344 0.1479255 0.020892614
0001f0 e3 a6 e0 bc 5f d9 4e bd a0 7d 20 be 31 e6 24 be
       -0.027423328 -0.05050027 -0.15672922 -0.16103436
000200 21 e4 3c bd 1c 41 a6 3c b4 dc 75 bd 01 a5 06 be
       -0.046116 0.020294718 -0.060024932 -0.13148881
000210 5e 76 15 3c da 96 2d 3d a4 b7 79 3d cf eb 9b 3d
       0.009122459 0.04238019 0.06096615 0.07613336
000220 96 35 66 3d 8d 9b ed bd 52 71 cd bc 60 a1 44 bd
       0.056203447 -0.116019346 -0.02507845 -0.04800546
000230 cd 21 cb 3d eb 01 cf bd e8 9f 9c 3d a0 38 44 bd
       0.09918556 -0.10107788 0.07647687 -0.047905564
000240 4a b3 78 be 58 0f 00 3d bc 8e 07 3e af 22 3a 3d
       -0.24287143 0.031264633 0.13238043 0.045443233
000250 f2 56 05 3d 07 b2 b3 bd ff 19 d1 3c d6 c5 00 be
       0.03255362 -0.087741904 0.025525091 -0.12575468
000260 a0 df 3c 3c b8 3c 81 bc 07 72 3e 3d 0d 30 29 3d
       0.011527926 -0.015776023 0.046495464 0.04130559
000270 9c d4 00 3c f7 09 22 bd 7f b4 83 3b 7e 1c 98 3d
       0.00786319 -0.039560284 0.0040193195 0.074273095
000280 b1 60 9d 3d 17 8d c2 bd d5 49 9b 3d 61 c4 16 3e
       0.07684458 -0.09499567 0.07582442 0.1472335
000290 ad 15 1e bc f2 43 d2 3d c9 c7 05 3d 49 20 8d 3c
       -0.009648723 0.10266866 0.032661233 0.017227309
0002a0 6d bd 01 3e 89 3e 47 bd 35 0e 4e 3b 16 1d 43 3b
       0.12669916 -0.048643623 0.0031441574 0.0029771975
0002b0 56 26 0a bd 02 b1 a3 3b 9e 47 da bd ed 62 f9 bd
       -0.033727966 0.004995466 -0.10658191 -0.12177072
0002c0 00 18 42 be f2 2a dd bd b9 b0 7b be 66 7d 39 bc
       -0.18954468 -0.10799207 -0.24579133 -0.011321401
0002d0 bc 04 84 bd de 2d 1d bc b1 64 96 3d e9 77 32 3d
       -0.064462155 -0.009593455 0.07343424 0.043571386
0002e0 50 65 a5 bd 95 c4 84 bd 2d 61 a2 bc 1f 85 8e bd
       -0.080759645 -0.064828075 -0.019821728 -0.069589846
0002f0 a2 e8 53 bb da fa 45 bd dd f5 fc bd 4b c6 88 be
       -0.0032334705 -0.048334934 -0.12351582 -0.26713786
000300 f5 bf c0 3d 9d af df 3d 73 c4 a6 3d 32 86 ba 3c
       0.09411613 0.109221675 0.081429385 0.022769067
000310 a9 8c 46 3d d5 59 c2 bb dc e0 94 bd ce 64 08 3e
       0.048473988 -0.005931119 -0.07269451 0.13319704
000320 83 57 5f 3d d2 74 17 be eb 99 5d bc f9 5e 84 bd
       0.054526817 -0.14790657 -0.013525466 -0.06463427
000330 53 55 55 3d c1 f1 5b bd 4a 67 b7 ba d2 08 06 be
       0.052083325 -0.05369735 -0.0013992575 -0.13089302
000340 ba d1 2a 3e d4 2d 49 bd 03 72 e3 3d 17 c1 9f bd
       0.16681567 -0.04911597 0.111057304 -0.07800501
000350 19 9f d6 3d 70 71 b3 3d d2 1f 1d bc 48 89 ba 3c
       0.10479564 0.08761871 -0.009590106 0.022770539
000360 a7 c3 12 be d8 4a 47 3c 4b cf e2 bd cd 25 b5 3c
       -0.14332448 0.01216384 -0.11074694 0.022112751
000370 2c 01 a6 3b 55 48 95 bc e2 45 80 bd 91 e0 2b be
       0.0050660577 -0.018222967 -0.06263329 -0.16784884
000380 d7 19 80 bc e8 28 da 3d 95 59 04 bd c9 a0 1b bd
       -0.015637321 0.106523335 -0.032311995 -0.037995134
000390 f0 a5 28 bc 59 29 d9 bc b4 0b ac bb 0c dd 4e 3d
       -0.010293469 -0.026508974 -0.0052504186 0.050503775
0003a0 cf 27 f7 bd 08 2a 08 3d 18 35 05 3d 93 31 f6 bc
       -0.1206814 0.03324321 0.032521337 -0.030052936
0003b0 42 28 cb bc 4f 6d 97 39 31 7c af 3d 5f 61 10 bb
       -0.02479947 0.00028882406 0.085686095 -0.0022030694
0003c0 50 da 24 bd bf 5c a1 bd b4 29 11 3e e0 64 a2 3c
       -0.04024726 -0.07879018 0.14176065 0.019823492
0003d0 45 4e e2 bd ec a2 33 bd f7 08 40 bd b1 90 3e 3c
       -0.11050085 -0.043856546 -0.04688355 0.011631177
0003e0 6b 8c 0f be 0b 34 4d bd d6 be 1d 3c c7 b5 23 be
       -0.14018409 -0.05009846 0.009628018 -0.15987311
0003f0 0d d1 b4 bd 94 1f 63 3d c5 f2 43 3d 1d 11 67 3b
       -0.08828936 0.055450037 0.047838945 0.0035258003

network_body._body_endoder.seq_layers.2.bias f4 [128]
000000 e6 86 20 bd fb 39 3f bd f0 c8 18 bd b8 1e f3 bc
       -0.03919115 -0.046686154 -0.037301004 -0.029677734
000010 79 42 92 bc 03 fb 1c bd 3a f0 ab 3c 37 3b 2a bd
       -0.017853962 -0.03832532 0.020988572 -0.041560378
000020 e9 a5 51 bd 9f 2d 89 bd 8b b7 89 bd 19 80 78 bc
       -0.051183615 -0.06698155 -0.06724461 -0.01516726
000030 bc 36 97 bc 19 c2 f3 bc 53 63 47 bd 6d 72 26 bd
       -0.018458717 -0.029755639 -0.048678707 -0.04063647
000040 0e aa ee bc b3 da a1 bd bc 24 98 bc fa 82 ba 3c
       -0.029133823 -0.07903042 -0.018572204 0.022767533
000050 f5 6c db 3c 3b 7e 64 bd c3 50 f3 bc 18 ab 0b bd
       0.026785353 -0.055784445 -0.029701596 -0.034098715
000060 ff 09 1a bd 30 d9 1f bd 35 15 87 bc 40 42 36 bd
       -0.03760719 -0.039025486 -0.016489604 -0.044496775
000070 41 29 f4 bc 42 95 8a bc f9 d3 47 bd 6b 28 19 bd
       -0.029804828 -0.016916875 -0.048786137 -0.03739206
000080 66 20 9b bb 85 7b 3d 3c b9 46 50 3c 9f f4 1c 3c
       -0.004734087 0.011565094 0.012712174 0.009579807
000090 c9 e4 8d bd 9a 66 7c bd 07 f3 44 3d c5 fa 45 bd
       -0.06928403 -0.061621286 0.04808333 -0.048334856
0000a0 84 b1 0b 3d b6 48 8b bc 66 f0 68 bd 07 6c 26 3b
       0.03410484 -0.017002445 -0.056869887 0.002539398
0000b0 c8 e3 c6 bc cb 3f 81 bd d1 5c 56 3c ba 9e 20 bd
       -0.024278536 -0.06310996 0.013083653 -0.039213873
0000c0 45 9e 18 3d 57 a1 48 bd d7 1b 6b 3c 5d b1 28 3d
       0.037260313 -0.04898199 0.014349899 0.04118477
0000d0 94 36 c0 3c 34 9c 95 ba b3 4b de bb 21 f6 3a bd
       0.023463525 -0.001141435 -0.0067839264 -0.045644883
0000e0 ce 2e 1f bd 01 19 03 bd b7 d1 9d bc 6d 97 24 bd
       -0.038862996 -0.032006267 -0.019265039 -0.040183473
0000f0 35 53 bd bc 06 91 33 3d 9e f1 d3 bc 7d 29 52 bd
       -0.023110965 0.043839477 -0.025872048 -0.051309098
000100 fd 5e 5e bc a3 f4 9d bc 8a 15 55 bd b1 a3 56 3b
       -0.013572452 -0.019281691 -0.052022494 0.0032751376
000110 31 c9 08 3c 6f 15 b3 bc 02 18 59 3d cd c2 a0 bd
       0.008348749 -0.021860806 0.05300141 -0.07849655
000120 87 bb 2b bd 77 6a fc bc c3 5d 20 bd eb 95 43 bd
       -0.041926887 -0.030812485 -0.03915192 -0.047750395
000130 61 97 fe 3a 60 09 83 bc d0 3f 13 bb 8a 56 88 bc
       0.0019423777 -0.015995681 -0.0022468455 -0.016642828
000140 14 0d 8d bc 07 ae 9d bc 6c 1d 20 bd db 95 21 bd
       -0.01721815 -0.019248022 -0.03909056 -0.039449554
000150 89 f7 4b bd ea cd 39 bc 40 89 61 bd b8 0a 38 bd
       -0.049796615 -0.011340598 -0.055062532 -0.044932097
000160 48 e2 0f bd ff 2a 2a bd 65 7f e1 3c a1 d9 41 bd
       -0.035127908 -0.04154491 0.027526567 -0.047326688
000170 d5 e4 06 bd f2 79 f4 3c 33 01 94 bd 69 1e 17 bd
       -0.032933075 0.029843304 -0.07226791 -0.036894236
000180 5d 56 4b bd 66 2f 89 bd 07 46 3e bd 61 33 8f 3b
       -0.04964291 -0.06698494 -0.046453502 0.0043701385
000190 c3 b5 45 bd 02 d3 b9 3c b8 a9 81 bc 95 6b 25 bd
       -0.048269045 0.022683624 -0.015827999 -0.0403858
0001a0 d3 3e 88 3c 3d d6 96 bc 79 4c 46 3d be c8 1d bd
       0.01663152 -0.018412704 0.048412774 -0.03852152
0001b0 58 b6 7f bb 06 42 bb 3c 83 70 3a bd 10 bf c2 bb
       -0.0039018597 0.02285863 -0.045517456 -0.0059431866
0001c0 f1 98 c8 bc c8 49 b6 bc bb c0 9c 3c fd 63 21 bd
       -0.02448699 -0.022251979 0.01913487 -0.039401997
0001d0 04 b5 3e bd 2f 3b 3a bd 01 6d 59 bd 43 fe 0d bd
       -0.04655935 -0.045466598 -0.05308247 -0.03466631
0001e0 bb fd 31 bd 7c ae 3f 3a ff a4 e0 bc f4 82 15 bd
       -0.043454867 0.0007312072 -0.027422426 -0.03650184
0001f0 29 af 47 bd b2 4c 04 bd 6e 2c d6 bc ed 44 e2 bc
       -0.04875103 -0.032299705 -0.026144233 -0.027620757

action_model._continuous_distribution.log_sigma f4 [1, 4]
000000 43 01 91 bd ac e6 d3 bd b9 67 44 be 3a 19 58 be
       -0.07080319 -0.103467315 -0.19180192 -0.21103373

action_model._continuous_distribution.mu.weight f4 [4, 128]
000000 0b 8c e3 3b 3f 49 67 bd a7 48 22 3c d2 0a 82 bc
       0.0069441847 -0.056466337 0.009905017 -0.0158743
000010 97 c0 54 bc 58 db be 3c 21 1d 1d 3d 52 a4 89 bd
       -0.01298537 0.02329795 0.038357858 -0.06720795
000020 26 0f 67 bc 54 02 3a bd 21 b4 ec bc df 77 24 bc
       -0.014102733 -0.045412377 -0.028894486 -0.010038345
000030 5e 96 35 3c 7c 27 56 bd 3d d8 63 bd 3f 16 d3 3a
       0.011083214 -0.05228375 -0.055626143 0.0016104652
000040 71 d7 82 bd 57 9a a3 bb 33 1f 1f bd c6 74 db 3c
       -0.063887484 -0.004992764 -0.038848113 0.02678908
000050 fa 05 32 3c f1 68 eb bc 8a ef 3c 3a 53 1a 2a 3c
       0.010865683 -0.028736563 0.0007207325 0.010382253
000060 a7 72 8d 3b 37 b7 7b 3c 35 9d 12 bd 65 04 7a bc
       0.004316646 0.015363506 -0.035794456 -0.015259837
000070 34 f1 74 bd 8f 36 bc bc 0e b2 5a bd ac 7b 98 bc
       -0.05980034 -0.022975234 -0.053392462 -0.018613659
000080 15 4a cd 3b ca 08 26 bd d7 c7 69 3d 35 cc 46 bd
       0.006264935 -0.040535726 0.057075348 -0.04853459
000090 ca ab 9f bc 64 9a 17 bd 6f 37 d0 3c e3 b4 2a bd
       -0.019491095 -0.037012473 0.025417058 -0.041676413
0000a0 92 bb 82 3c 41 91 81 bd 31 78 71 bd d3 77 96 3c
       0.015958581 -0.06326533 -0.058952514 0.018367684
0000b0 7a 00 9f bc 54 8d 43 bd 15 26 4c ba d4 39 1e bd
       -0.019409407 -0.047742203 -0.0007787657 -0.038629368
0000c0 82 c7 d4 3c 2d fd ae bc 13 cc ab 3c 41 47 1e 3d
       0.025974039 -0.021360958 0.020971334 0.03864217
0000d0 0b c7 94 3c 5c 8b 97 3c 08 1c 3c 3c 43 1f 57 3c
       0.018161317 0.018499069 0.011481293 0.013130012
0000e0 cf 1d 01 bd 08 d7 2a bd 0b cf cc bc a1 b5 58 bd
       -0.03152257 -0.041708976 -0.02500107 -0.05290759
0000f0 c0 43 cd bb 6a e5 80 bb cc 3d cf bc 09 8e 3f bd
       -0.00626418 -0.0039335983 -0.025298022 -0.046766315
000100 2f db ee 3c 31 ba 40 3c b3 42 c7 bb 5f fd 83 3d
       0.02915725 0.0117631415 -0.006080949 0.06444811
000110 8d 03 d2 3b e9 df 9e 3c d9 c1 23 bc 02 d8 a6 bc
       0.0064091147 0.019393878 -0.009994947 -0.020366672
000120 da 2c 54 bd 80 2b 27 3a 3f f0 e6 3c e1 e5 ac 3b
       -0.051800586 0.00063770264 0.02819073 0.005276427
000130 11 cb 04 bc 6c 4d 02 3c 68 5f 31 3d 4d 99 f5 3a
       -0.008105055 0.007953029 0.043303877 0.0018737704
000140 1d 2c d5 bb eb 5a ed bc 38 a7 f6 3c a9 c5 0b bd
       -0.006505503 -0.028974017 0.030109033 -0.03412405
000150 8d 4c 3c bb 5d 4b fe b9 89 a7 f8 bc 9d 89 89 bc
       -0.0028732151 -0.00048502805 -0.030353324 -0.016789252
000160 df 88 ed bc 9c 90 d0 bb a2 0b fc 3c 36 41 d8 bc
       -0.02899593 -0.006364895 0.030767266 -0.026398282
000170 71 13 bc 3c 56 c2 3f 3d ae 47 13 bd eb 05 d1 3b
       0.02295849 0.046816193 -0.03595703 0.0063788793
000180 2e 2f 12 bd 9b c8 6e bc c8 3e 40 bd c0 c2 bb 37
       -0.035689525 -0.014574195 -0.046934873 2.2382825e-05
000190 a6 ff b9 3b d3 c2 5a 3d 36 b0 b3 bb 05 c6 9a bc
       0.0056762276 0.053408455 -0.0054836525 -0.018893251
0001a0 b1 c1 e5 bc 8b a4 84 bc 04 43 bc 3c 8a a2 4d bd
       -0.02804646 -0.016191741 0.022981174 -0.050203837
0001b0 b6 9f 4f bd 8b 03 02 3d fc f9 9b bd ea 77 de 3c
       -0.05068942 0.03174166 -0.0761604 0.027156789
0001c0 4b 95 1c bc 9e a2 7a bd 8f fe 22 3d 9d de 3a 3c
       -0.009557079 -0.06119024 0.039793547 0.011405614
0001d0 8b 47 bd 3a 4d 69 a6 bd e6 b1 17 bd 89 dd 6f bd
       0.0014440877 -0.08125553 -0.03703489 -0.05856088
0001e0 6a 19 40 bc 02 97 1c 3d 48 ce 9b bb 67 d7 bf bd
       -0.011724809 0.03822995 -0.0047548153 -0.093672566
0001f0 a2 3c 48 3c 10 95 27 3d 58 94 17 bc 5d fc 2d 3b
       0.012221487 0.04091364 -0.0092516765 0.0026548125
000200 b9 05 18 3d a7 f8 2d 3b e4 e5 53 3c 5f 07 2a 3d
       0.037114833 0.0026545913 0.012933228 0.041510936
000210 a6 df ec bc 17 08 a5 b9 92 eb 91 bc 07 22 b4 bc
       -0.028915238 -0.0003147728 -0.017812524 -0.021988882
000220 47 d3 f8 3c 31 36 2a bc 61 cf 56 3c 60 72 9e bc
       0.030374182 -0.010388897 0.013110966 -0.019341648
000230 57 7a aa bc d0 63 0b 3b 55 3c 36 3c 78 c9 3f 3c
       -0.02081029 0.002126921 0.011122783 0.011705749
000240 1c 6d 77 bc cf 12 12 bc 7c 5f 20 b9 83 19 44 3c
       -0.015101697 -0.008915617 -0.0001529436 0.011968973
000250 46 7d c4 3d 56 3f 0e bd 6d d3 1a 3d c1 ad 4b 3c
       0.095942065 -0.03472837 0.037799288 0.012431563
000260 59 c1 74 3d 10 86 d2 bc a6 52 2f bc f2 e7 02 bc
       0.059754703 -0.025698692 -0.010700857 -0.00798987
000270 b6 4f be bc 52 18 39 bd 7a 31 b2 bb 05 4c af bc
       -0.023231369 -0.04518921 -0.005438027 -0.021398554
000280 a6 8e 27 3d 91 0f 8c 3c de e4 42 3c 88 9d cf bc
       0.040907525 0.017097266 0.0118953865 -0.025343671
000290 94 5c 01 3c c7 71 12 3c 2f 83 e8 bb 9b 1c 44 3c
       0.0078956075 0.008938259 -0.0070957164 0.011969711
0002a0 f9 10 50 3c f8 a5 84 bd e5 02 61 bc f8 46 e9 3c
       0.012699359 -0.064769685 -0.0137336 0.028476223
0002b0 ca 75 58 bc 37 d6 84 3c 5e 07 41 3d 73 cf c1 3b
       -0.013211677 0.016215427 0.047126167 0.0059146225
0002c0 f9 f4 af 3c 3f d8 69 bc 99 ac 0b 3c b8 3d 63 bb
       0.021479117 -0.0142727485 0.008525037 -0.0034674238
0002d0 3f fb 3c bd a2 05 d9 bb c0 54 2d bc d1 a4 94 3c
       -0.046138044 -0.006622986 -0.010579288 0.018144997
0002e0 73 e9 13 3d a5 0d b9 3c 3a 40 40 bc ff 45 d0 bc
       0.036111306 0.022589514 -0.011734063 -0.025424002
0002f0 81 2b e3 3c d8 f0 22 3d ab ed 23 3d ef 91 c2 bc
       0.027730705 0.039780468 0.04002158 -0.023751227
000300 15 64 ca 3b 11 79 12 bc 38 49 0a 3c 33 5e 5d bd
       0.0061764815 -0.008939997 0.008440308 -0.054044914
000310 a8 ca 0f bd 43 47 d1 bb 14 b6 a7 3b 6b 57 2e bd
       -0.035105377 -0.006386669 0.005118141 -0.042563837
000320 c8 f2 d7 bc 27 7a 3a 3d 4b 2f 22 3d d2 d7 c9 39
       -0.026360884 0.04552665 0.039595883 0.00038498506
000330 8b 07 04 3d 00 9e 8b 3c 6b 43 75 bc 07 3a 7a 3c
       0.032233756 0.017043114 -0.014969687 0.015272624
000340 f3 f8 0b bc 24 df 32 bd f2 9c 3f bb 4e f9 89 3b
       -0.008543241 -0.043669835 -0.0029237834 0.0042106276
000350 45 2c 90 3c 9b 47 1f bc c6 d7 f5 3a 15 e3 73 3c
       0.017599234 -0.009721662 0.0018756322 0.014885684
000360 8c eb b0 3c 0e 72 66 3c 81 ad 92 bc 98 64 5e bc
       0.021596693 0.014065279 -0.017904999 -0.013573788
000370 7c 0c 0c bb 43 22 eb 3c ac 30 04 bc b5 e4 84 bc
       -0.0021369746 0.02870286 -0.008068245 -0.016222337
000380 18 06 0d 3d 29 ff 75 bb 38 f9 88 ba 21 57 8d 3b
       0.03442964 -0.003753612 -0.001045025 0.004313365
000390 45 77 34 bb e9 11 8b 3c 2b 7e d1 bc ee 95 b5 3b
       -0.002753691 0.016976314 -0.025572857 0.0055415547
0003a0 73 ab 41 3d bd 18 20 3d d2 cc 5d bd ad 0e ac 3b
       0.047282647 0.039086092 -0.05415041 0.005250773
0003b0 2d eb 35 3a 7c 45 ac 3c 3c 52 5b bd 00 84 67 3b
       0.0006939646 0.021029226 -0.05354522 0.003532648
0003c0 e0 f7 1b 3d 88 26 c7 3b 6d 70 ea 3c fc 4f eb 3b
       0.03807819 0.0060775913 0.028618062 0.0071811657
0003d0 c1 6f 98 bc b7 37 85 bb f1 38 92 3c 03 f9 c8 bc
       -0.018607976 -0.0040654796 0.017849417 -0.0245328
0003e0 d3 8a a7 bb 5a cc 7c 3c 14 58 36 bc da f0 6d bc
       -0.0051129847 0.015429581 -0.011129398 -0.0145227555
0003f0 43 a9 55 bc 61 3b 13 bc 80 55 db bc dc 85 ae 3c
       -0.013040843 -0.008986325 -0.026774168 0.021304063

action_model._continuous_distribution.mu.bias f4 [4]
000000 6d 4b 2e 3d b1 85 de 3c a9 1c 38 bb 3b 0a 5e bd
       0.0425524 0.027163358 -0.0028093255 -0.054208975

exp_avg f4 [128, 4]
000000 fc b1 2c 3a 70 2b e9 b6 7f 63 2c 3b 2d d3 43 3b
       0.0006587801 -6.948998e-06 0.0026304421 0.002988051
000010 aa 89 e7 3a 3a ba b0 3a 39 73 4c 3b 74 b8 69 3b
       0.0017664928 0.0013483234 0.0031196608 0.003566292
000020 ff 71 91 ba 25 8f aa b9 5c 56 c0 bb 73 d2 e3 bb
       -0.0011096596 -0.00032531578 -0.00586967 -0.0069525777
000030 e7 1f 80 b8 ce dd 39 b9 40 5d f2 39 ff 2c cf 39
       -6.109458e-05 -0.00017725604 0.00046227314 0.0003951564
000040 76 03 55 b7 35 cd 0f 38 d4 ed e0 b8 57 e2 ea b8
       -1.2696595e-05 3.428497e-05 -0.00010725451 -0.000112001486
000050 4f 92 e6 3a 55 7a d5 ba a7 0a 8a bb 83 3c 9b bb
       0.0017591211 -0.0016287068 -0.0042126956 -0.004737438
000060 5a 99 55 3b 74 b5 8b ba 92 b5 99 bb 50 bf b2 bb
       0.0032592625 -0.0010658936 -0.0046908343 -0.005454935
000070 b5 25 97 3a c8 c8 46 3a be b0 f6 3a c8 67 14 3b
       0.0011531623 0.00075830193 0.0018820984 0.0022644866
000080 40 c7 fb b5 eb d9 a5 38 04 d2 8f 38 48 7f ee 38
       -1.8758947e-06 7.9084035e-05 6.85789e-05 0.00011372432
000090 74 99 65 bb 3e 2a 32 3a cb 9e 28 3c 51 95 3b 3c
       -0.0035034092 0.0006796456 0.010291765 0.011449174
0000a0 7e 21 d9 39 6e 7a 41 b9 03 6c 11 3a 15 13 fe 39
       0.0004141442 -0.00018451523 0.0005547406 0.00048460872
0000b0 98 74 4d 3b 0a 0d 60 3a 9d d7 31 bb 0e d0 51 bb
       0.0031350013 0.0008546865 -0.0027136572 -0.003201488
0000c0 ab 9f 80 ba ee 3e 28 ba d0 f5 59 3a 21 41 b7 3a
       -0.000981321 -0.00064180687 0.0008314522 0.0013981202
0000d0 1c ef dc 3a 0e 9b 1f 3a 80 f4 47 ba 55 31 58 ba
       0.0016855928 0.00060884736 -0.0007627681 -0.0008247097
0000e0 ac 2c 9f 3a dd dd af 3a 03 2b 8f ba 66 b5 a5 ba
       0.001214405 0.0013417561 -0.0010922853 -0.0012642562
0000f0 e0 13 a0 ba 6e 05 10 3a 4c 9f bb 3a e2 c7 00 3b
       -0.0012212954 0.0005493973 0.0014314442 0.001965039
000100 c5 b3 2f b9 a2 21 a4 38 d0 b8 f6 b6 c0 cd 19 38
       -0.0001675627 7.826394e-05 -7.3528863e-06 3.6669662e-05
000110 0a 49 bc ba 47 36 3d 3b 4d a5 ad 3b 68 ec cb 3b
       -0.0014365029 0.0028871463 0.0052992464 0.00622325
000120 b0 2d c8 39 7a 81 84 39 ce 8b e1 ba fa 46 ec ba
       0.00038181012 0.0002527347 -0.0017207803 -0.0018026524
000130 5a 69 35 b9 f0 e3 cb 38 74 29 5c 39 26 96 80 39
       -0.00017300752 9.722251e-05 0.00020996277 0.00024525932
000140 ca b7 cb 39 54 e2 be 38 a2 8b be 3a 72 c2 da 3a
       0.0003885611 9.102063e-05 0.0014537463 0.0016690029
000150 a8 24 40 3b 56 d2 46 bb ab fe ee bb 72 27 0a bc
       0.0029318724 -0.0030337772 -0.0072935424 -0.008432256
000160 32 24 1f 3a 6e 28 1f ba b8 c7 88 3a b2 45 c8 3a
       0.0006070762 -0.0006071393 0.0010435497 0.001527956
000170 a2 1c 5f 3a 5a 7b 8e 39 64 5b 5a 3a 94 30 9d 3a
       0.00085110415 0.00027176255 0.00083296583 0.0011992627
000180 8e 66 dd 3a bb cf 88 3a d0 42 56 3b 36 7e 76 3b
       0.0016891526 0.0010437885 0.0032693632 0.0037611849
000190 6c 0c 1f 3b 4a 63 44 ba 8d bc 3b bb d6 96 75 bb
       0.0024268879 -0.0007491602 -0.002864632 -0.0037473938
0001a0 30 e6 0a bb f0 60 e1 39 72 cc b0 3b 8c e4 cd 3b
       -0.0021194331 0.00042987568 0.0053954655 0.0062833484
0001b0 e5 8f 0e 3a f2 56 1c 3a 99 ae f7 ba d0 99 1c bb
       0.0005438312 0.00059638836 -0.0018896639 -0.002389539
0001c0 1c ea d4 ba cc c4 ca 3a 34 42 32 ba 20 49 c8 b9
       -0.0016244086 0.0015470027 -0.0006800026 -0.00038201455
0001d0 8e b4 52 b8 04 af 04 39 fb 61 a3 b9 31 f4 af b9
       -5.0236056e-05 0.000126537 -0.00031162784 -0.00033560538
0001e0 a8 eb 77 3a 3c 82 81 3a 3c fc d7 3a 65 8f 0c 3b
       0.0009457418 0.0009880732 0.001647837 0.0021447774
0001f0 0e f5 15 3b 91 fa e1 39 90 76 ba bb 0b 5d cb bb
       0.002288166 0.0004310203 -0.0056904033 -0.00620616
000200 f3 f2 3e ba a9 9d 9b ba da 9b 72 ba 9e 5a 6c ba
       -0.0007284127 -0.0011872548 -0.0009254791 -0.00090161886
000210 70 8f ae b5 7f 15 cf b7 d7 74 9c b8 56 7b a8 b8
       -1.3005756e-06 -2.4686333e-05 -7.460423e-05 -8.0338374e-05
000220 12 6a ec ba 98 7f 78 38 06 4d 0d 3b 9e 09 21 3b
       -0.0018036983 5.924664e-05 0.0021560802 0.0024572383
000230 3a 58 a2 b9 b6 05 96 3a 75 a9 36 3b 6a 41 5e 3b
       -0.00030964782 0.0011445794 0.0027872 0.0033913502
000240 15 7c 9e b8 20 e9 20 b8 d2 3d d1 38 9e 80 f3 38
       -7.557139e-05 -3.8364087e-05 9.9774115e-05 0.000116111
000250 3a a7 b8 3a 74 f1 c1 39 c6 d8 9a ba f4 fc bc ba
       0.0014087923 0.00036991725 -0.0011813871 -0.0014418648
000260 08 4a fe 3a 08 5b a2 39 b8 17 e9 3a 58 7d 03 3b
       0.0019400725 0.0003096687 0.0017783558 0.0020063724
000270 8c 6d 05 bb b8 bc a1 39 a4 70 39 3b 5c 37 4c 3b
       -0.0020359484 0.0003084892 0.0028295899 0.0031160926
000280 7c 5b 08 38 90 b8 44 37 03 89 1f 39 76 4d 8c 39
       3.251013e-05 1.1725482e-05 0.00015214462 0.00026760594
000290 68 6b 25 b9 44 58 74 39 7b 5a 1a 3a 0a 7b 2b 3a
       -0.00015775638 0.00023302535 0.00058881164 0.00065414666
0002a0 3b b9 83 3b 0b 19 92 3a b4 ba 6f 3a fa be c2 3a
       0.004019884 0.0011146379 0.00091449474 0.0014857941
0002b0 91 fc 9d ba 40 a7 25 3b 17 ef 76 3b 45 9a 8d 3b
       -0.001205342 0.002527669 0.003767913 0.004321369
0002c0 2a 55 c9 b9 ac da fa b7 17 c0 d9 39 d6 d2 e7 39
       -0.0003840116 -2.990415e-05 0.00041532583 0.00044216838
0002d0 aa 6b 03 3a e6 85 15 3a 35 32 35 bb c2 67 51 bb
       0.00050132966 0.00057038513 -0.0027648334 -0.0031952714
0002e0 c0 54 f5 36 9d 80 8f b8 54 ad 6d b9 79 a1 8b b9
       7.311435e-06 -6.8427275e-05 -0.00022666651 -0.00026632453
0002f0 44 fe e9 b7 a0 c7 e4 b7 de 7a 8c 39 98 3b aa 39
       -2.7894166e-05 -2.7272676e-05 0.00026794424 0.00032469328
000300 0d 02 4d bb 88 fb bc 39 16 d4 6d 3b 73 5e 8a 3b
       -0.003128174 0.0003604556 0.0036289743 0.004222685
000310 64 15 a7 b8 50 ab d6 b6 1d 03 4c b9 66 43 64 b9
       -7.967165e-05 -6.3976404e-06 -0.00019456116 -0.00021768882
000320 be f0 86 3a 88 87 14 3b 7d 12 e2 bb da 8e fd bb
       0.0010295135 0.002266379 -0.0068991766 -0.0077379765
000330 8e 16 81 3a ea ea bd 39 24 b3 23 bb 42 8b 38 bb
       0.0009848641 0.00036223914 -0.0024978602 -0.0028159176
000340 58 a4 81 3a 3e 9a 12 3b 28 a3 41 bb ba 24 1f bb
       0.0009890897 0.0022369768 -0.0029546712 -0.0024283365
000350 ff 9c 9b ba 30 e3 a4 3a 08 bd b9 3a 9e e6 d6 3a
       -0.001187235 0.0012579914 0.0014170716 0.0016395634
000360 d8 9b 44 3b 84 e3 d6 39 f9 75 f9 bb 02 ce 0f bc
       0.0030000117 0.00040986773 -0.0076129404 -0.008777143
000370 ad 70 a5 38 70 f2 a4 b7 3e 5b 20 b9 37 04 42 b8
       7.8888006e-05 -1.9663217e-05 -0.0001529278 -4.625713e-05
000380 39 7d 71 3a a6 d7 9f 39 a0 0c 89 b7 18 90 32 b9
       0.000921208 0.00030487514 -1.6337552e-05 -0.00017029082
000390 18 3d ac b9 49 dd 2d b9 aa df 0f ba bb 63 d6 b9
       -0.00032851915 -0.00016581001 -0.00054883456 -0.00040891566
0003a0 76 da 55 3a 86 85 91 39 dd b7 55 ba 84 da 61 ba
       0.00081578584 0.00027756038 -0.0008152703 -0.000861563
0003b0 7f d2 7e b8 20 4f 1f 38 6a 44 8d 38 05 a6 96 38
       -6.075436e-05 3.7982245e-05 6.736147e-05 7.183481e-05
0003c0 b0 60 34 3b f4 31 9b ba 46 d1 1d bb f5 91 3e bb
       0.002752345 -0.0011840449 -0.0024081036 -0.0029078696
0003d0 81 85 3f b9 7e d5 d2 3a d4 13 6c bb cf 79 84 bb
       -0.00018264914 0.0016085354 -0.003602256 -0.004042841
0003e0 1e 98 40 3b 0d f5 c8 39 0f 6b 42 bb a6 32 56 bb
       0.0029387544 0.0003832955 -0.0029665863 -0.0032683997
0003f0 f8 50 9d 38 19 8c a1 b8 51 67 a6 38 90 a8 fe 37
       7.501425e-05 -7.7031735e-05 7.934741e-05 3.0357653e-05

exp_avg_sq f4 [128, 4]
000000 84 a9 c2 37 a4 b8 94 37 85 ad 05 38 fc 81 b9 37
       2.3205539e-05 1.7728955e-05 3.1871274e-05 2.2114247e-05
000010 a7 d3 ba 39 97 fb 17 3a f6 93 03 3a 14 b4 92 39
       0.00035634378 0.00057976827 0.00050193013 0.0002798146
000020 b6 21 79 39 f4 7f 99 39 57 9f 91 39 d4 a4 16 39
       0.00023759049 0.00029277767 0.00027775273 0.00014366518
000030 fd a3 84 39 f1 3b 36 39 05 ab 65 39 d2 43 50 39
       0.00025299183 0.00017379202 0.00021902852 0.00019861691
000040 28 c1 6c 38 2e f1 08 38 eb 21 19 38 9d 4c ae 37
       5.6446675e-05 3.2649543e-05 3.650963e-05 2.0778092e-05
000050 89 33 2d 38 61 05 90 38 c3 8e b8 38 0a 37 02 38
       4.129441e-05 6.867457e-05 8.800395e-05 3.1045674e-05
000060 57 96 2f 39 08 37 89 39 6d 4e 78 39 e7 80 0f 39
       0.00016745306 0.00026171678 0.00023680339 0.00013685563
000070 58 b8 d8 38 3b 6f 49 39 c9 90 2e 39 27 6c c7 38
       0.00010334019 0.0001921029 0.0001664787 9.5092044e-05
000080 f4 03 c7 38 2a 03 d6 38 30 d0 d5 38 4d cf d1 38
       9.489796e-05 0.000102049045 0.000101954094 0.000100045094
000090 bd dc 86 39 00 62 02 3a ea 35 06 3a 86 29 3a 39
       0.00025722935 0.00049737096 0.0005119728 0.00017753811
0000a0 f2 40 c4 39 64 f0 18 39 18 ef c7 38 84 78 ba 38
       0.0003743242 0.00014585402 9.533594e-05 8.891619e-05
0000b0 1a 76 8c 39 61 d6 ce 39 75 64 9c 39 bb dc 4c 39
       0.00026790873 0.00039451107 0.00029829485 0.00019537185
0000c0 48 72 52 38 c3 41 6b 38 af 21 df 38 b7 b3 4c 38
       5.0174334e-05 5.608961e-05 0.00010639743 4.8804763e-05
0000d0 f3 26 a7 38 cf d9 24 38 30 c7 8d 38 47 96 27 38
       7.9704354e-05 3.9303497e-05 6.7605055e-05 3.995586e-05
0000e0 46 46 44 38 2a 88 02 38 1c 67 45 38 e6 48 c4 37
       4.679549e-05 3.1121228e-05 4.7064488e-05 2.3398967e-05
0000f0 9d 6b c5 38 39 b4 ce 38 45 0c 08 39 dc ed 42 38
       9.4137366e-05 9.8564145e-05 0.00012974541 4.6474728e-05
000100 00 a1 24 39 0e 7d 2c 39 26 04 e7 38 aa 9f 0e 39
       0.00015700236 0.00016449785 0.00011015711 0.00013601655
000110 26 ab 9d 38 4f 67 ff 38 eb 37 02 39 4d 36 82 38
       7.518222e-05 0.0001217859 0.00012418597 6.2089974e-05
000120 c3 53 61 39 07 9c ae 38 84 ae 48 38 48 72 1c 38
       0.00021488876 8.326029e-05 4.7846246e-05 3.729973e-05
000130 79 bb e6 38 16 33 07 39 96 c3 db 38 e3 8e 57 38
       0.00011002174 0.00012893634 0.000104791645 5.1393068e-05
000140 30 12 a4 38 72 d5 8f 38 e7 9b e0 38 9f e8 7c 38
       7.823517e-05 6.858529e-05 0.000107101914 6.0298127e-05
000150 b3 47 51 39 1a 02 9e 39 b0 80 9e 39 1b 9f 06 39
       0.00019958503 0.00030137674 0.00030231988 0.00012838507
000160 42 5c d4 39 74 b7 ca 39 4a 11 0b 3a 72 ae 9c 39
       0.00040504528 0.00038665126 0.00053050055 0.0002988461
000170 67 4d 3a 39 9e f1 82 39 ee 7a 7d 39 6d 08 cc 38
       0.00017767177 0.0002497555 0.00024173755 9.7290475e-05
000180 1d 41 63 38 03 a5 6a 38 20 97 84 38 6a 2a 41 38
       5.418166e-05 5.5943627e-05 6.3224e-05 4.6054287e-05
000190 21 67 af 39 6a 23 fe 39 69 89 0a 3a 68 d8 8c 39
       0.00033455438 0.0004847304 0.0005284758 0.00026864116
0001a0 b4 ca 88 39 ab b0 e2 39 a2 cd 09 3a d9 d3 41 39
       0.00026090967 0.00043237707 0.0005256777 0.00018484834
0001b0 7c 1b ae 39 f8 6a fe 38 59 2e bf 38 54 ba b4 38
       0.00033208344 0.00012131588 9.116223e-05 8.617775e-05
0001c0 04 75 36 38 23 a8 b7 37 b4 c6 64 38 52 14 ac 37
       4.350116e-05 2.1893595e-05 5.4544493e-05 2.051346e-05
0001d0 28 b2 3c 39 68 a2 24 39 19 b7 18 39 f0 66 d8 38
       0.00017995446 0.0001570076 0.00014564059 0.00010318856
0001e0 82 59 9b 38 95 da fa 38 af 8d 0a 39 ca e6 81 38
       7.407648e-05 0.00011961643 0.00013213487 6.194187e-05
0001f0 93 85 ba 39 35 53 0f 39 ed c0 f0 38 37 55 b6 38
       0.00035576205 0.0001366854 0.00011480027 8.694309e-05
000200 c9 be 27 38 69 10 0e 38 eb cf 81 38 21 ad bd 37
       3.9993585e-05 3.387072e-05 6.189927e-05 2.2611175e-05
000210 92 53 e3 37 b3 29 1b 38 5e a1 13 38 a0 bf da 37
       2.7099424e-05 3.6993715e-05 3.5197816e-05 2.6076857e-05
000220 43 21 b6 38 c2 3f bf 38 b2 d2 aa 38 e4 ed 20 38
       8.684632e-05 9.1194655e-05 8.145477e-05 3.8368526e-05
000230 3a 92 86 39 fe 4f a1 39 f3 44 95 39 61 f7 d1 38
       0.0002566742 0.00030767912 0.00028470866 0.000100119745
000240 9c 97 81 39 08 d2 d9 38 b6 66 73 38 a7 a2 96 38
       0.00024717755 0.00010386488 5.803137e-05 7.182854e-05
000250 a7 48 25 3a b1 f9 6f 39 dd 2d 06 39 79 ba 06 39
       0.00063050765 0.00022885833 0.00012796321 0.00012848702
000260 82 95 28 39 b6 99 77 39 f2 4b 82 39 34 6e 08 39
       0.00016077425 0.00023613017 0.00024852116 0.00013011025
000270 f5 0f e6 38 8f 24 58 39 28 a3 46 39 35 11 b1 38
       0.00010970227 0.00020612984 0.00018943532 8.443223e-05
000280 38 41 34 38 1b a0 46 38 18 f4 78 38 59 26 ee 37
       4.2976084e-05 4.735599e-05 5.9355138e-05 2.8389668e-05
000290 c0 5f 32 38 37 52 1b 38 69 ab 64 38 38 6f 1e 38
       4.252768e-05 3.703145e-05 5.4519074e-05 3.7773716e-05
0002a0 ac 87 94 39 80 12 f1 39 f0 2b fe 39 80 3e 82 39
       0.00028329843 0.00045980886 0.0004847939 0.00024842098
0002b0 2e f2 98 39 22 68 fc 38 02 ef 07 39 8e ef 8d 38
       0.00029172137 0.000120356926 0.0001296364 6.7680245e-05
0002c0 79 59 de 38 e3 cc 24 39 f4 c6 21 39 08 a3 db 38
       0.000106024505 0.00015716585 0.00015428272 0.00010473101
0002d0 90 d8 c2 38 95 33 a9 38 60 00 95 38 62 b9 61 38
       9.290979e-05 8.068156e-05 7.1049435e-05 5.381683e-05
0002e0 3b 96 9f 38 17 4d 0b 39 74 34 ec 38 8e 39 b7 38
       7.6096934e-05 0.00013284791 0.00011263127 8.7368404e-05
0002f0 9e d2 50 38 44 f6 1a 38 47 86 9e 38 d7 56 03 38
       4.9787217e-05 3.6945814e-05 7.559038e-05 3.131371e-05
000300 1e 00 c3 38 a1 33 cb 38 b8 ab b4 38 44 5f 8b 38
       9.2983464e-05 9.689411e-05 8.615054e-05 6.645781e-05
000310 7e 4a 2e 38 4c a2 87 38 80 08 86 38 ce c1 08 38
       4.155421e-05 6.467532e-05 6.391201e-05 3.260542e-05
000320 df 1e 64 38 4a 24 3d 38 82 2f b4 38 e9 8e 44 38
       5.4388187e-05 4.509491e-05 8.591918e-05 4.6863137e-05
000330 3d 1b cc 38 84 79 9d 38 02 2e eb 38 9d da 95 38
       9.7325516e-05 7.5089774e-05 0.00011214243 7.1455936e-05
000340 a4 cc c3 39 7c c6 c5 39 6c b7 04 3a 31 ec 82 39
       0.00037345767 0.0003772265 0.00050627324 0.00024971509
000350 27 38 0b 39 2d 92 ef 38 c6 b8 c2 38 9e 84 5e 38
       0.00013276991 0.000114236354 9.2850576e-05 5.3052434e-05
000360 94 5b 4f 3a e5 ff 1d 3a 84 9f 07 3a ba a3 9e 39
       0.00079100695 0.0006027206 0.0005173611 0.00030258094
000370 d2 96 be 38 55 41 60 38 80 8a ad 38 b0 f1 82 38
       9.0879985e-05 5.3466607e-05 8.2750805e-05 6.243901e-05
000380 a4 ef 41 38 8f d7 f7 37 f5 39 21 38 c3 58 8f 37
       4.623797e-05 2.9545072e-05 3.8439368e-05 1.7088261e-05
000390 f4 cf 75 39 4d a6 a1 39 02 5e 96 39 70 bb 23 39
       0.0002344249 0.00030832217 0.0002868027 0.00015614717
0003a0 dc de 5e 39 75 b4 1a 39 eb b7 6d 39 28 7a d0 38
       0.00021254591 0.0001475381 0.00022670596 9.940966e-05
0003b0 36 e6 8a 38 ca 6f 08 39 57 44 b2 38 03 9d 9e 38
       6.623233e-05 0.00013011615 8.500431e-05 7.563273e-05
0003c0 39 08 d6 38 d9 08 bb 38 e9 0e 0f 39 4a 0b 25 38
       0.00010205847 8.918503e-05 0.00013643097 3.934958e-05
0003d0 fc 65 30 39 0f d4 93 38 5e b6 8c 38 28 c9 87 38
       0.0001682266 7.049005e-05 6.709689e-05 6.47477e-05
0003e0 e4 97 5b 38 64 6b 8c 38 2e 05 c4 38 23 92 e8 37
       5.2355128e-05 6.695723e-05 9.346973e-05 2.7724605e-05
0003f0 bb 7c c2 38 7f a0 0b 39 f0 60 12 39 ed b4 88 38
       9.273874e-05 0.00013315862 0.00013959757 6.5186854e-05

exp_avg f4 [128]
000000 02 04 c5 b9 6e a8 e9 b9 a2 d0 5b 3a 70 7e 8a b8
       -0.00037577754 -0.00044566713 0.0008385276 -6.6039036e-05
000010 e2 86 80 37 09 c3 1d 3a e6 aa 2f 3a 72 f7 8c b9
       1.5321599e-05 0.0006018137 0.0006701186 -0.00026887242
000020 40 5c 24 b7 78 b5 c0 ba 4a 32 a6 b8 83 3f cb 39
       -9.79664e-06 -0.0014702519 -7.924864e-05 0.00038766497
000030 f4 18 f9 b8 fb 84 e4 38 e0 9e 23 39 df 6c 56 b9
       -0.00011877893 0.00010896657 0.00015604077 -0.00020449188
000040 e0 da 8c 35 c5 73 46 ba 2b e2 80 39 15 9c fb b7
       1.0494514e-06 -0.00075703516 0.0002458257 -2.9994213e-05
000050 4c c4 59 b9 89 91 88 3a 02 52 1c b9 f0 8c f9 b8
       -0.00020767859 0.001041935 -0.0001490787 -0.00011899497
000060 bc de f4 b9 22 8e d6 39 3d 0e 4a ba 59 88 8d 39
       -0.00046705257 0.00040923158 -0.000770781 0.00026995203
000070 60 b9 cb 38 97 ba 3a 38 18 d7 76 b9 c9 19 55 3a
       9.714323e-05 4.451963e-05 -0.00023540517 0.00081291475
000080 32 a2 0a 39 e4 ca 32 37 c8 7c a1 b9 e8 c1 d0 b9
       0.00013221128 1.0656866e-05 -0.00030801282 -0.00039817323
000090 93 20 6f b7 b1 f7 30 39 14 32 85 b9 ae ee d3 b9
       -1.4253094e-05 0.0001687694 -0.00025405048 -0.00040422886
0000a0 76 53 b6 b7 71 67 b0 b8 d0 fd 08 b9 e8 1a 0d ba
       -2.1734955e-05 -8.4116014e-05 -0.00013064523 -0.00053827325
0000b0 51 dc 78 b8 f3 14 cf 39 e0 d0 07 38 d9 8b 20 b8
       -5.9332993e-05 0.00039497725 3.238104e-05 -3.8277216e-05
0000c0 f4 e6 07 ba 2d 24 e9 37 22 2f 81 3a db 15 bb 39
       -0.0005184256 2.779261e-05 0.0009855966 0.00035683703
0000d0 c4 4c dd 39 c1 45 54 b9 98 8c 8e 3a a6 43 b7 37
       0.000422096 -0.00020243881 0.001087564 2.1846801e-05
0000e0 50 9d 1c 36 0e 6d a4 38 d3 3f f4 38 5e 72 21 b7
       2.333738e-06 7.8404424e-05 0.00011646715 -9.622976e-06
0000f0 f2 5c b4 39 c1 e6 06 3a 38 31 de 39 30 29 3e b7
       0.00034401525 0.00051460793 0.0004237981 -1.1334472e-05
000100 f0 23 ab 37 42 b0 58 b8 ec 0d 00 ba 28 b9 79 b7
       2.0401523e-05 -5.1662566e-05 -0.0004884887 -1.4884667e-05
000110 4e e0 98 39 94 6c 08 38 d8 b1 ac 39 a8 f0 e9 b9
       0.0002915882 3.2526048e-05 0.000329389 -0.00044620526
000120 d6 6e c1 b9 49 5f 0c ba c3 c0 68 ba c5 bf 8c 39
       -0.00036894408 -0.0005354775 -0.00088788214 0.0002684576
000130 7d 56 27 b9 ee b9 bd 39 a9 3e 84 37 4b fd 06 b5
       -0.0001595858 0.00036187418 1.5764805e-05 -5.028748e-07
000140 24 e6 cd 39 94 98 e7 b9 f9 4e d8 39 ed 33 0f 38
       0.00039272115 -0.00044173433 0.0004125757 3.4142216e-05
000150 0b df d0 39 d5 80 40 35 c2 2e d9 39 31 ac 80 b8
       0.00039839032 7.171305e-07 0.00041424303 -6.135589e-05
000160 6b 6c 0d b9 40 fc 71 39 8c 39 ce b8 d9 41 22 ba
       -0.00013487197 0.00023077521 -9.8335644e-05 -0.00061896216
000170 28 da 07 39 56 96 81 39 c7 b4 e5 b9 46 23 26 ba
       0.00012955873 0.00024716806 -0.00043812973 -0.00063376536
000180 64 a1 d8 38 24 ac d8 b8 70 b0 d9 b8 d6 d3 4f b8
       0.00010329744 -0.00010331746 -0.000103802304 -4.9549933e-05
000190 85 39 73 ba 1b 8e 0a ba fe 14 a8 b8 ea 37 0d b9
       -0.00092782854 -0.00052854576 -8.014774e-05 -0.00013467637
0001a0 88 65 02 b6 56 22 5e 39 e7 5c 8d 35 42 60 37 3a
       -1.9430609e-06 0.00021184361 1.0532357e-06 0.00069952395
0001b0 67 c2 23 3a a0 d1 1e ba 7e 76 85 b7 b6 4f 73 3a
       0.0006246925 -0.0006058458 -1.5910013e-05 0.0009281592
0001c0 b2 da 2a 3a 57 4c 25 39 86 9f f5 35 34 76 0a 36
       0.00065175735 0.00015764065 1.830035e-06 2.0632406e-06
0001d0 5b 3d bd 39 70 b1 8a b9 01 63 62 b9 c0 80 6b 39
       0.00036094603 -0.00026453612 -0.00021589921 0.0002245931
0001e0 d2 cf 03 37 70 33 01 b8 38 e2 c9 b7 16 1b d4 b8
       7.856595e-06 -3.08039e-05 -2.4066409e-05 -0.00010113993
0001f0 31 99 45 b9 12 07 df 38 af a8 00 3a 34 cf e7 39
       -0.00018844452 0.000106347856 0.00049079483 0.00044214132
