old_ppo/PoI/PoI-2896.pt (torch, 438180 bytes, 36 tensors)

network_body._body_endoder.seq_layers.0.weight f4 [128, 4]
000000 ea 19 da 3c 7e ea 49 3f e3 5d 65 3e 3b d2 54 bf
       0.026623685 0.7887343 0.22399096 -0.83133286
000010 47 06 08 3f bd c6 1e 3e 6f 0c 0e be 5e 71 02 3f
       0.5313458 0.155055 -0.1387193 0.50954235
000020 26 1d 28 3a 8e d3 9e be 6c da 6a 3e 75 d3 34 3f
       0.0006413035 -0.31020778 0.22934884 0.7063516
000030 b8 4e c8 bd ce 27 dc be ea 81 aa be 63 04 57 3d
       -0.097806394 -0.4299912 -0.33302242 0.052494418
000040 59 74 fa be 33 45 a3 bd 36 07 a1 bf ad 01 15 be
       -0.4891689 -0.07972183 -1.2580326 -0.1455142
000050 40 97 3f 3f aa 64 39 3f dd a2 01 3e 4f 29 d4 3b
       0.74840164 0.72419226 0.12659784 0.006474651
000060 3e 49 ea 3e a9 3a 5b bf 11 eb 65 bf cb fa a0 3e
       0.45759004 -0.85636383 -0.8981181 0.3144134
000070 b4 c1 3c bf ab eb a6 3e ad e1 bd 3e 26 6f 9e 3e
       -0.7373307 0.32601675 0.3708624 0.30944175
000080 05 c2 e3 3e f3 8c 9e 3e d8 f3 84 3f 8b bd 06 3e
       0.44483963 0.3096691 1.0386915 0.13158242
000090 f2 0c d4 bd 86 b1 66 3e d6 37 52 bd 40 97 0d 3f
       -0.103540316 0.22528657 -0.05132278 0.55308914
0000a0 10 a7 f3 3e f2 f3 63 bf a1 99 3f be 86 d4 0b 3f
       0.47588396 -0.89044106 -0.18710949 0.5462116
0000b0 32 c0 27 3d 4f fe a8 3e a4 bb 17 3f 7f 9e 55 be
       0.040954776 0.33006522 0.5927069 -0.20861243
0000c0 08 35 4e bf ca 82 82 3e c5 b0 2f 3f 7e 7f 92 be
       -0.8054967 0.2549041 0.68629104 -0.28612894
0000d0 78 fc b8 be 6f e8 fc 3e e8 50 5d 3e c1 00 e3 be
       -0.36130118 0.49396083 0.21612895 -0.44336513
0000e0 1d 29 74 bc 54 f4 46 3e 07 63 6d bf 3f 7b 04 3e
       -0.01490238 0.19429141 -0.9272923 0.1293764
0000f0 48 50 26 be 14 c8 23 3f fe 09 93 bc 55 0c 1e bf
       -0.16241562 0.6397717 -0.0179491 -0.6173757
000100 44 4f ff 3d 4f 10 c6 bd ff 95 80 be 20 48 89 3e
       0.124662906 -0.09671079 -0.25114438 0.2681284
000110 dc fb 57 bf a8 6a 96 be 22 2a 5d be 08 5f 5e be
       -0.8436868 -0.29378247 -0.21598104 -0.21715939
000120 9d 6c 1c 3e c2 9f 3b 3c 7d f6 62 3e 5b 98 17 bd
       0.15275808 0.011451663 0.2216434 -0.037010532
000130 1c ce 0d 3f 95 18 36 3f ac b9 c6 3e 20 29 82 3e
       0.5539262 0.7113126 0.3881353 0.25422
000140 72 26 70 3d de 03 25 be 0b cb 75 bf 65 99 40 be
       0.058630414 -0.16114756 -0.96012944 -0.18808515
000150 e1 0a a0 be 47 54 82 bf da 71 07 3f 1b 2e 2f be
       -0.312583 -1.018197 0.529081 -0.17107432
000160 83 a6 a5 3d 4b 5a cb 3e 66 8d 90 3e 11 42 5b 3d
       0.080884 0.39717326 0.28232878 0.053529803
000170 e1 15 0c 3e 1b c3 23 3f 7e ac c8 be db 8d c1 bd
       0.13680221 0.6396958 -0.391941 -0.09450885
000180 4b 72 28 bf fc 76 51 3f ed ea 88 3e 2a 11 8b 3e
       -0.657994 0.8182218 0.26741734 0.27161533
000190 20 88 5f 3f 93 8e 80 3e df a2 7d be 5c ad 8f bd
       0.87317085 0.25108775 -0.24769162 -0.070154876
0001a0 3c 91 47 3f 60 2f 66 3e 70 5c 27 bf 95 78 d3 bf
       0.77955985 0.2247901 -0.65375423 -1.6521174
0001b0 ee 89 0d 3f ee 9d 3f bf 96 c8 fe bc 71 58 11 be
       0.5528859 -0.74850357 -0.031101506 -0.14193894
0001c0 a5 05 0a be 92 44 3a bd db 96 4e bf 29 58 1b bf
       -0.13478716 -0.04547555 -0.8069894 -0.60681397
0001d0 2c 41 d0 3e ab 54 0f 3d 11 27 6b be f0 2c ca be
       0.40674722 0.034992855 -0.22964121 -0.3948741
0001e0 d9 78 55 3e bc b6 3d be 3e 80 2c 3f e8 ff b7 be
       0.20846881 -0.18526739 0.6738318 -0.35937428
0001f0 ed 73 51 be 96 01 d3 3e ec 9a 12 3f 15 2c 96 bf
       -0.20454378 0.41212147 0.5726764 -1.1732203
000200 8c 24 81 bf 6b fe f4 3d aa 12 42 3e af 16 95 be
       -1.0089278 0.11962589 0.18952432 -0.2911887
000210 b7 80 3f bf 3d d4 da be 68 bf 29 3f dd d1 59 3f
       -0.7480578 -0.4274005 0.6630769 0.8508585
000220 46 94 2c bf da f1 ff 3e ef e5 91 be 23 1e 2a 3e
       -0.6741375 0.49989206 -0.28495738 0.16613059
000230 93 a7 31 bf 09 b6 dc 3e 8c f6 d0 be ee 12 36 be
       -0.6939632 0.43107632 -0.408131 -0.17780659
000240 6d 20 c3 3e 01 c0 9a 3e 1d ca 51 be ba d6 71 3e
       0.38110676 0.30224612 -0.20487256 0.23617068
000250 b2 fc 7d be c0 31 d7 3e ec 72 ab 3b 65 83 7f 3d
       -0.24803427 0.42030144 0.0052322056 0.062381167
000260 53 0a f2 3b 85 04 62 be d3 d0 62 3f d2 be f7 3e
       0.0073864846 -0.22072037 0.8859989 0.48387772
000270 2d 2b fc be 0b a3 5c bf 3d 3f 17 3f 6c be 9e 3e
       -0.4925169 -0.86186284 0.5908087 0.31004655
000280 26 de 15 be ed 27 b6 bc a0 f3 8a 3e 01 f2 bc 3e
       -0.14635524 -0.022235835 0.27138996 0.36903384
000290 b0 c6 ff 3e 40 19 00 bf 60 ad 19 be 55 e4 dd 3d
       0.49956274 -0.5003853 -0.15007544 0.108345665
0002a0 d5 14 27 3f 14 d3 df be c0 6b 80 3e 25 0b 28 bf
       0.6526616 -0.43715727 0.25082207 -0.65642005
0002b0 3b 0d d7 3d ea e6 3c 3f 1b d4 8d 3f 8b 3a 39 3e
       0.105005704 0.73789847 1.1080354 0.18088739
0002c0 a8 27 ab 3e cc 73 40 bf 2e f6 47 3f 88 d7 a4 be
       0.33428693 -0.7517669 0.78110015 -0.32195687
0002d0 a6 44 08 3f 05 ac 27 bf f2 2b 47 3e b3 cc 06 3f
       0.5322975 -0.65496856 0.19450358 0.52656096
0002e0 d1 e0 5b 3f 98 5a 13 3f b0 3e cb 3e 7a e7 17 3e
       0.8588992 0.5756011 0.39696264 0.14834395
0002f0 53 ce 2e 3e ae 8d 96 be 05 8e e2 3e ae ce 39 3e
       0.17070894 -0.29404968 0.44248977 0.18145248
000300 57 06 e0 bd 19 a4 b9 be d2 5f 94 be cf 3a f1 bd
       -0.10938709 -0.3625801 -0.28979355 -0.11778795
000310 24 41 41 bf 10 40 55 bf 67 b9 ae be 64 d5 2d 3f
       -0.7549002 -0.83300877 -0.34125826 0.67903733
000320 fd 14 de be 28 3c 48 be 36 4c 07 bf 1e 58 49 bf
       -0.43375388 -0.19554198 -0.52850664 -0.7865008
000330 f2 75 1d 3e 5d b5 93 bd 0c 3b de 3e b4 4b a6 3e
       0.15377024 -0.07212327 0.43404424 0.32479632
000340 86 0c 51 be 8e 90 2e 3e 6f 71 9f bd 63 da 65 bf
       -0.20414934 0.1704733 -0.077853076 -0.89786357
000350 45 fc f2 3e 23 10 7a 3e 28 33 68 3f 07 07 2b be
       0.4745809 0.24420218 0.9070306 -0.167019
000360 cf 80 72 3f d4 58 9b bc 6a 8a 4e 3c 55 43 89 be
       0.94727796 -0.018963255 0.012606243 -0.26809183
000370 06 14 dc 3e 17 1d 41 3f dc 71 93 bf 0f a7 81 3f
       0.42984027 0.7543501 -1.1519122 1.0129107
000380 b4 73 14 bf c5 a2 89 be ae e4 03 bf e9 be bc 3d
       -0.5798905 -0.26881996 -0.5152081 0.09216101
000390 17 82 ea be 15 02 21 bd 91 5d 35 be a9 31 11 3f
       -0.45802376 -0.039308626 -0.17711474 0.567164
0003a0 cf 6a b5 be 47 66 41 3f cd 53 4f bf 3c 00 52 bf
       -0.3543305 0.7554669 -0.80987245 -0.8203161
0003b0 6b 61 5d bf b9 fe 44 3f f5 2f 47 be 0e 0d 84 3c
       -0.86476773 0.76951176 -0.19451888 0.016119506
0003c0 50 04 68 bd 3f d3 16 bf 7f 4b 1f 3e 16 77 e3 3e
       -0.056644738 -0.58916086 0.15556143 0.44426793
0003d0 54 69 af 3e 91 4b ab bf 03 c6 36 3f 06 b2 93 be
       0.34260046 -1.3382436 0.7139589 -0.2884676
0003e0 f1 58 04 bf 69 aa 11 be 80 f8 3c 3e 85 0a 23 bd
       -0.51698214 -0.14225163 0.1845417 -0.039804954
0003f0 50 ae c5 be eb bd 90 be 82 94 59 bf c4 a9 55 bf
       -0.38609552 -0.28269896 -0.8499223 -0.83462167

network_body._body_endoder.seq_layers.0.bias f4 [128]
000000 ce 18 b3 ba 0f 58 98 ba 3e c9 8e bb 6b 7b 03 bb
       -0.0013664009 -0.0011622923 -0.004357486 -0.0020062577
000010 4e 84 23 39 39 4f dc 3b 2c 70 86 bb a8 45 67 39
       0.00015594179 0.0067233113 -0.0041027274 0.00022055826
000020 ad ec 74 3b c4 92 b2 bb 43 b3 a2 bb 88 86 05 3b
       0.0037372515 -0.0054496247 -0.0049652173 0.0020374376
000030 e1 a2 09 bc 2d da a1 3b ef 34 71 ba ff ba 16 3b
       -0.00840065 0.0049393387 -0.0009201308 0.0022999642
000040 51 0d 3b ba 42 f4 b6 3b 45 99 20 b8 76 6b 5f bc
       -0.0007135468 0.005583317 -3.8289716e-05 -0.0136364605
000050 ed e5 75 ba 68 be b7 3b 5b 9f 27 3b 57 c2 14 3a
       -0.000938027 0.005607415 0.002557716 0.0005674711
000060 76 bf 09 bc 87 f6 4d 3a 6b d9 0b ba 8a a8 0e bb
       -0.008407464 0.0007856865 -0.0005334827 -0.0021767938
000070 c2 59 c8 3a bb e9 b4 3a 4c c1 d9 ba e5 48 a8 39
       0.0015285539 0.0013802567 -0.0016613393 0.00032097768
000080 b3 76 a7 3a bf 3c 21 bc e6 eb 7f bb f1 db 71 ba
       0.0012776464 -0.009841143 -0.0039050519 -0.0009226194
000090 29 b6 c2 3a 4c a4 fd bb 14 8c a5 bb 40 fd 95 bb
       0.0014855313 -0.007740533 -0.005052099 -0.004577309
0000a0 9b 86 e8 bb 4b 16 70 3b 0b f6 3f 3b ec e7 2a bb
       -0.0070961243 0.0036634381 0.002929094 -0.0026078178
0000b0 ec da 75 bb 4f 8d 9d bb 04 99 26 38 d6 38 87 ba
       -0.003751452 -0.004808105 3.971999e-05 -0.0010316621
0000c0 c3 1a 1b bb 38 5d ce bb 07 d3 ca bb 5e c5 96 3b
       -0.0023667074 -0.0062977336 -0.006189707 0.0046011647
0000d0 07 7b 2a 3b a3 e6 05 bc 36 c1 19 bb 1f 5f 8c bb
       0.0026013271 -0.008172664 -0.002346111 -0.0042838003
0000e0 9c 04 30 bb 42 98 8b bb eb ad 26 bc 3a 7e 6f bb
       -0.0026858216 -0.004260094 -0.010173301 -0.0036543743
0000f0 bf 99 6a bb 1a c0 e3 ba b7 11 b3 bb eb 8e 2c 3b
       -0.0035797206 -0.0017375976 -0.0054647583 0.0026330303
000100 fc ef fb bb 42 64 b7 3b 17 d3 bf bb 37 25 13 ba
       -0.0076885205 0.0055966685 -0.0058540213 -0.00056131504
000110 54 5a 81 bb 9d 4f 8b 3a 9d d3 ab 3b b6 30 c6 ba
       -0.0039475355 0.0010628585 0.005243732 -0.0015120718
000120 87 30 51 bb 5c 13 e5 ba d9 1a 31 ba ef 58 3c 39
       -0.0031919794 -0.0017477083 -0.0006756015 0.00017962207
000130 79 6c c2 39 9f 5a 2d bc 5f e7 c4 bb 57 c0 d1 ba
       0.00037083382 -0.010580688 -0.006009027 -0.0016002756
000140 b6 8b 24 bc d6 63 4b bb 3e db 5b 3b df 3b e5 ba
       -0.010043075 -0.0031034849 0.0033547427 -0.0017489156
000150 1c 9b 3a bb 93 de cc 3b 19 ec 87 bb fe d8 71 bb
       -0.00284738 0.006252119 -0.004148018 -0.003690302
000160 df 23 8d ba d4 0a 89 3b 04 d1 03 bc ec bb 38 bb
       -0.0010768137 0.004182199 -0.008045439 -0.0028188182
000170 a0 51 a7 3a e0 a2 4a bb c1 26 ec bb 0e b1 4b 3b
       0.0012765415 -0.0030919835 -0.0072067683 0.0031080875
000180 a2 32 0a 3b e3 f3 94 bb 83 74 0e 3b 27 05 8d 39
       0.0021087308 -0.004545675 0.0021736927 0.00026897455
000190 f0 01 8d 3a 80 2f 47 3b f0 58 05 3b 20 b8 82 bc
       0.0010758024 0.0030393302 0.00203472 -0.015956938
0001a0 44 2a 75 bb ed b6 2f bb f8 b3 b2 3b 55 03 3c 3b
       -0.0037409225 -0.0026811913 0.005453583 0.002868851
0001b0 e1 14 03 3b 3a 4f 53 bb 40 9d f8 bb 14 26 69 bb
       0.0020001458 -0.0032243268 -0.007587105 -0.0035575675
0001c0 a3 18 9b bb 07 b6 19 ba 5c 94 97 ba 95 96 59 ba
       -0.0047331615 -0.0005863611 -0.00115646 -0.00083003315
0001d0 8a bd 82 bb 62 48 b0 ba cb 38 c7 3a 62 1d 11 bc
       -0.00398988 -0.0013449306 0.0015199421 -0.008857103
0001e0 8f 40 6c 3a 41 31 cd b9 5c 27 c2 ba fd 6f 20 3b
       0.00090123055 -0.00039137344 -0.0014812755 0.0024480813
0001f0 6a af ca bb 06 5b 92 bb b0 78 f7 3a cc fa b7 3a
       -0.0061854618 -0.0044664172 0.0018880572 0.0014036535

network_body._body_endoder.seq_layers.2.weight f4 [128, 128]
000000 48 e5 4a 3e ec 29 63 3d 09 66 13 bd de e0 5a bd
       0.19814026 0.0554599 -0.03598598 -0.053437106
000010 9d c3 f6 bb 48 4f bb bd 0c b1 45 bc 05 13 54 ba
       -0.007530643 -0.09145981 -0.012066137 -0.00080899923
000020 bf a7 e9 bd 8b 36 cb 3c b7 cb e6 bc 9b f1 28 be
       -0.11408948 0.024806282 -0.02817331 -0.16498415
000030 83 b8 b9 3d 07 f8 11 bd 03 e6 11 3d 4c 51 b1 3d
       0.09068396 -0.035636928 0.035619747 0.08658084
000040 f5 50 32 3c 55 cc e6 3d ab d2 fb 3d 7f d4 c1 bd
       0.0108835595 0.11269442 0.12296041 -0.094643585
000050 f5 8c 90 3d af a2 6b 3c 27 e9 f8 bd 38 6d f7 3c
       0.070581354 0.0143820485 -0.12153845 0.030203447
000060 5a 54 0f be 8d 90 04 3d e9 a8 ec 3d a8 db 8e bd
       -0.13997021 0.032364417 0.115556546 -0.0697549
000070 03 d6 88 3c 70 13 ce bd fd a0 ba 3b d2 49 a0 ba
       0.016703611 -0.10062301 0.005695461 -0.0012229031
000080 d1 66 b9 bd 9e d5 38 3b 0f 06 96 bd a3 bb 93 3c
       -0.09052814 0.0028203498 -0.07325374 0.018033808
000090 4d 7a c6 3d f9 79 fa 3d 57 83 16 3e 98 2d 71 bb
       0.09691296 0.12230296 0.1469854 -0.0036800858
0000a0 84 48 41 3d 24 8b 48 3c b5 c7 61 3d b5 2c 51 bd
       0.047188297 0.012240205 0.055122096 -0.051068027
0000b0 9d 86 50 bd 83 85 80 bc 31 b2 99 bb 3e cc e1 3d
       -0.050909627 -0.015688663 -0.0046904315 0.11025284
0000c0 37 16 ef 3d 04 fd eb 3c 2a bc be 3d 10 cf f7 3c
       0.11674159 0.02880717 0.09313233 0.030250102
0000d0 89 d9 2e 3d 5f e3 89 3c be a8 a0 3d a7 7d 8a bc
       0.042687926 0.016832052 0.07844685 -0.016905619
0000e0 64 4f 41 3d be 3c b0 3d 70 4d 07 be 94 34 22 3d
       0.047194853 0.08605336 -0.13213134 0.039600924
0000f0 a6 0a aa bc 2b 0b 8c 3d 66 9a 81 bd cb 16 62 3e
       -0.02075703 0.068380676 -0.06328277 0.22079007
000100 8d 04 e3 3d 5a f5 ae bd ee 1c 22 be e1 41 23 bd
       0.11084852 -0.08542891 -0.15831348 -0.03985775
000110 fa 19 41 3e 1a a1 ec 3d 4d d2 31 bd 25 3d ff bb
       0.18857566 0.11554165 -0.04341345 -0.0077892714
000120 37 4e fe bc d4 f1 bd bc fd 3b f6 3d 28 6b 8d 3c
       -0.031043155 -0.023186602 0.120231606 0.01726301
000130 18 99 f4 bc 2c 20 c6 3d fa ad d4 3b fe d0 df 3c
       -0.029858157 0.09674105 0.006490466 0.027321335
000140 65 08 0a 3e d4 d2 a7 bd 89 96 2b be 3d b2 18 3d
       0.13479765 -0.08194509 -0.16756643 0.037279356
000150 15 cd 28 bd 52 58 37 be 09 b7 d2 3d 24 93 91 3b
       -0.041211206 -0.17904785 0.102888174 0.0044425894
000160 a3 a1 b2 bd f2 27 02 3d fe 98 5b bd e9 0b 36 3d
       -0.08722236 0.031776376 -0.0536127 0.044444952
000170 5c 6d 94 bd c6 8a 78 3c e5 7a 10 be be 00 ca bc
       -0.07247421 0.015169805 -0.1410938 -0.024658557
000180 e0 8e 93 3d 76 42 a4 3d 9c e1 0f 3e 1e 06 75 bd
       0.072049856 0.08020489 0.14050907 -0.059820287
000190 44 b9 df bd f9 da 0e 3d fd cc 03 3e ee 18 9f 3d
       -0.109240085 0.034876797 0.12871166 0.07768427
0001a0 66 e4 2c bc 15 85 20 3e 28 db bc 3d b9 f7 e8 3d
       -0.010552501 0.15675767 0.09221488 0.11375374
0001b0 5d 74 d5 bc c6 72 92 be 59 9b 7e 3e 08 8d a1 3a
       -0.026056463 -0.2860319 0.24863948 0.0012325356
0001c0 32 f3 60 3d 5e 35 be ba d2 db aa bc cc 92 20 3d
       0.05491943 -0.0014511754 -0.020856772 0.039202496
0001d0 08 ef b9 bb e4 e4 43 3d 9b 37 51 3d e7 66 81 bd
       -0.0056742467 0.04782571 0.05107842 -0.06318455
0001e0 cb cd 06 be 1b 0b 93 3d 50 cf ee 3d 87 56 16 be
       -0.13164441 0.071798526 0.116606355 -0.14681445
0001f0 8d 68 80 3d 3f 32 d6 3d 6a 94 04 3e f1 b2 18 3d
       0.062699415 0.104588024 0.1294724 0.037280027
000200 82 4b ec bd ad b8 2f 3e 40 c0 52 bd 1f f4 74 3d
       -0.115378395 0.17160292 -0.051452875 0.059803125
000210 00 73 aa 3c c4 fa 13 3e 9a 39 28 3d e8 67 a4 bd
       0.02080679 0.14451128 0.041070558 -0.08027631
000220 4a 80 da 3c 9c ee 22 3d fd ef 70 3d ca 6e fc bc
       0.026672501 0.039778337 0.05882262 -0.030814547
000230 be ab 8a bb c3 c2 5a be c2 62 4c bd 72 e2 c6 3d
       -0.004231899 -0.21363358 -0.04989887 0.0971116
000240 4f b0 ab 3d 99 44 9a 3b a5 c7 d1 bd 7a 5b 54 3d
       0.083832376 0.0047078845 -0.10243157 0.05184505
000250 90 ad b7 bc 52 f6 38 3d 3d 9e d1 3d 9a 6c be 3b
       -0.022421628 0.045156784 0.1023526 0.005811286
000260 4f 67 a9 ba a2 89 6b bd cc 25 08 bd 3c 32 a1 bc
       -0.0012924465 -0.057504304 -0.03323917 -0.019677274
000270 89 f8 b9 bc 51 99 34 3e 1f 0d 53 bd 29 94 9f b9
       -0.022701519 0.1763661 -0.051526185 -0.0003043723
000280 ac 20 19 3d a6 3b 10 3e 6c 45 e0 bd 98 f7 8f bc
       0.037384674 0.14085254 -0.10950741 -0.017574117
000290 c5 18 82 3d 23 45 71 ba ce 57 ac bd a5 30 01 3e
       0.06352381 -0.00092037226 -0.08415185 0.12616213
0002a0 73 ed 5b 3d e6 37 4d 3c 61 fd db 3d b1 da d4 bc
       0.053693246 0.012525534 0.107416876 -0.025983186
0002b0 7c 8a 28 3d e7 44 71 bd ea 77 24 3c ab cc 07 3e
       0.041147694 -0.0589036 0.010038355 0.13261668
0002c0 d3 06 a6 3d 9e 73 a6 bc c2 fe 00 bc d1 1a 10 3e
       0.0810677 -0.020318802 -0.007873239 0.1407273
0002d0 37 7a bb 3d f2 84 54 3d a9 f8 23 3e 98 b2 0b 3b
       0.0915417 0.0518846 0.16012825 0.0021316167
0002e0 6a 03 8f 3c 74 24 08 be f6 13 1f 3d db 64 23 bd
       0.017457683 -0.13295156 0.038837396 -0.039891105
0002f0 cf 34 a6 ba b7 bc af 3d 7f 81 01 3c ca 54 b3 bd
       -0.0012680533 0.085809164 0.007904409 -0.087564066
000300 86 9e 08 be 5a 87 39 be 46 59 ae bd a4 89 7b 3c
       -0.13341722 -0.18118039 -0.08513121 0.01535264
000310 e1 69 d0 3d 14 e5 10 be 82 be e3 3d 06 df de 3d
       0.10176445 -0.14149886 0.11120321 0.10882382
000320 51 6e a0 3d 64 49 72 bc 28 d6 19 be a9 a7 97 3d
       0.07833541 -0.0147880055 -0.150231 0.074050255
000330 02 ab 39 3c d8 a9 c7 bc fc 25 84 3c f1 37 37 bd
       0.011332275 -0.02437298 0.016131394 -0.044731084
000340 ca 9f 51 be fa db a8 bc 9f 49 5f 3e b6 c4 2d bd
       -0.20471111 -0.020612705 0.21805428 -0.042423926
000350 72 ce 1a 3b 2a 2f 0b be b4 d5 9f bd f6 6c 39 be
       0.0023621586 -0.1359221 -0.078044325 -0.18107972
000360 28 29 a2 3c 98 87 6d bd f6 34 06 3d 4f d0 11 be
       0.019795015 -0.05799064 0.03276535 -0.1423962
000370 94 88 1b bd 69 47 20 bc 1e 7b 8b 3d b2 48 eb bb
       -0.037972048 -0.0097826505 0.06810592 -0.007180297
000380 e2 b5 1f 3e 0a c1 f4 3d 95 f0 7c bd f8 fc 03 3e
       0.15596727 0.11950882 -0.061752874 0.12889469
000390 63 bd a0 3d df b9 f8 3d 3c 9b 95 bd 4e 5b f7 3d
       0.07848623 0.12144827 -0.07304999 0.12077962
0003a0 f4 19 ec 3c 02 a6 9f bc 75 b6 85 bd 11 0a c1 bd
       0.02882097 -0.019488338 -0.065289415 -0.09425748
0003b0 39 6e a8 bd ff ee 19 3e 2d 1c 30 3d e2 af ff 3c
       -0.08224148 0.15032576 0.04299562 0.031211797
0003c0 4d 5b 8c bd df 06 92 3d a6 7d 04 3d f2 90 9a bd
       -0.06853352 0.07130217 0.03234639 -0.075471774
0003d0 09 13 cb 3d 9c 26 b0 3d 41 f9 07 be f9 f2 6e 3d
       0.0991574 0.08601114 -0.13278677 0.058337186
0003e0 6b db 74 3e 2d 9e 04 bd 04 9e 83 bd d8 f8 07 bd
       0.23911826 -0.03237741 -0.064266235 -0.0331963
0003f0 93 c0 11 be af c4 c0 38 00 13 5e 3e dc 52 cf 3d
       -0.14233617 9.1919086e-05 0.21686935 0.10123226

network_body._body_endoder.seq_layers.2.bias f4 [128]
000000 e7 f6 b6 bb f4 f5 af b9 56 69 98 3a 6c 38 86 bb
       -0.0055836323 -0.0003356185 0.0011628072 -0.0040960815
000010 1e 1a 20 ba a8 e9 38 bb 1c 7e ca bb 30 33 67 bb
       -0.00061074074 -0.0028215442 -0.006179584 -0.0035278313
000020 1c bf 2b 3b ab 57 86 ba 38 77 6f bb 7a 34 9b 3a
       0.002620644 -0.0010249516 -0.0036539566 0.0011841201
000030 dc ed 24 bc 64 5e d0 ba 8d 63 71 bb b2 b0 99 3a
       -0.010066476 -0.0015897271 -0.0036833019 0.0011725633
000040 7d 79 f8 bb aa 1f 3a ba e0 55 41 3b 1d 7c 72 3b
       -0.007582842 -0.0007100055 0.0029500648 0.0037000247
000050 e4 8a a1 ba 1c e1 b6 ba 95 a7 ea ba 35 dd 6d bb
       -0.0012324718 -0.0013952586 -0.0017902727 -0.003629518
000060 55 be a9 ba c2 4d b0 ba d1 5a 10 bb dd be f5 ba
       -0.00129504 -0.0013450908 -0.0022026787 -0.0018748898
000070 8b e1 9f ba 3b 27 48 3a 07 62 b2 ba 1c 7d 5f 3a
       -0.0012197954 0.00076352403 -0.0013609537 0.00085254177
000080 d2 34 2c ba d2 49 46 bb 4e 60 22 3b 0d 07 82 bb
       -0.000656915 -0.0030256403 0.002477664 -0.0039681257
000090 b6 ea 5a 3b 4e 0f 58 bb cf fd a8 bb 38 ca dc ba
       0.0033404059 -0.0032968107 -0.0051572095 -0.0016844934
0000a0 5f ad 5b bb 8c a9 ef bb fa e2 f2 3a d3 55 1d bc
       -0.0033520085 -0.0073139127 0.0018530779 -0.009602982
0000b0 61 50 bc 3b 77 37 59 bb be 13 b0 39 97 78 3d bb
       0.0057468866 -0.0033144632 0.00033584045 -0.0028910988
0000c0 8b 58 e3 bb bb f4 04 39 31 1b fe ba 2b 3c 8c bb
       -0.0069380454 0.0001267967 -0.0019386766 -0.0042796335
0000d0 11 b8 83 3a ea 56 8c ba 00 a0 18 3a 11 0d 41 bb
       0.0010049363 -0.0010707055 0.00058221817 -0.002945725
0000e0 b6 c9 62 bc 11 d8 bb b9 80 a4 20 bb bb 0c a1 bb
       -0.013842037 -0.000358284 -0.0024512112 -0.0049148477
0000f0 98 5f df bb e9 7b 77 3b 38 2f 1d bc dc 87 f8 bb
       -0.0068168156 0.0037763065 -0.009593777 -0.007584555
000100 36 e4 c1 ba 07 f9 a2 ba 6e b2 4c bb cb 91 34 bb
       -0.0014792744 -0.0012433835 -0.0031234282 -0.002755272
000110 bb 82 1a 3a 99 70 4d bb ae aa 5b b9 c5 93 a9 3a
       0.0005894114 -0.003134763 -0.0002094905 0.0012937716
000120 db 67 21 bb ce dc 81 bb 8a 7e 23 bb aa 3b 89 ba
       -0.0024628553 -0.0039630895 -0.002494725 -0.0010470052
000130 f1 89 cd bb af db 44 3b e4 d7 75 39 7e a3 86 bb
       -0.0062725474 0.0030038168 0.00023445446 -0.0041088453
000140 d8 63 53 ba 59 13 cb bb 17 ed 68 3b 55 a4 a2 bb
       -0.0008063889 -0.006197375 0.0035541707 -0.0049634376
000150 42 7e 3d 3a 1e 29 19 bc f7 96 76 ba 4f 4e 79 bb
       0.0007228592 -0.009348182 -0.0009406651 -0.003804106
000160 6a c4 07 bc 9e 8e c5 ba e2 49 af ba 83 cc 34 bb
       -0.008286575 -0.001507241 -0.0013373459 -0.0027587719
000170 6a 2c 85 bb 0f 91 15 ba 9d ef 62 bb 8a df b9 ba
       -0.0040641325 -0.00057055143 -0.0034627684 -0.0014181
000180 34 e3 95 b8 fb 8f de bb 69 50 2b b9 69 72 10 bb
       -7.1471935e-05 -0.006792066 -0.00016337786 -0.002204085
000190 c6 01 2a 3b cb 61 a2 b8 01 2b 85 39 0e fd eb ba
       0.0025940998 -7.742977e-05 0.00025399777 -0.0018004493
0001a0 24 5a 96 ba 41 cd 32 bb b2 24 b7 b9 c6 7c 3f ba
       -0.0011470956 -0.0027282985 -0.0003493182 -0.00073046645
0001b0 66 ae 80 3b 62 37 22 3b 03 e8 cb 3a 81 3a 98 39
       0.00392704 0.002475225 0.0015556816 0.00029035288
0001c0 c8 58 41 bb f0 47 d5 ba a2 59 c5 ba 19 e5 66 3b
       -0.002950238 -0.0016272049 -0.001505662 0.0035231768
0001d0 39 89 8e ba 36 fe f0 bb 22 10 6e b9 d4 2a 41 b9
       -0.0010874636 -0.007354523 -0.00022703459 -0.00018421869
0001e0 6a c3 06 bc 67 74 de ba 9d 4d 9b bb c7 52 8d bb
       -0.008225301 -0.0016971946 -0.004739477 -0.0043128463
0001f0 87 60 fb b9 68 ce bb ba cf a3 4e bb 8d f5 b0 bb
       -0.0004794637 -0.0014328482 -0.0031530743 -0.0054003657

action_model._continuous_distribution.log_sigma f4 [1, 4]
000000 13 f1 a3 bc e3 7f 8e bc 0f 9f 0e bd 2a 72 e6 3b
       -0.020012414 -0.017394966 -0.03481966 0.0070326524

action_model._continuous_distribution.mu.weight f4 [4, 128]
000000 d7 ba 36 bc b6 af 99 3c c3 80 b2 bc ee 04 df bc
       -0.0111529445 0.018760543 -0.021789914 -0.02722403
000010 26 64 db ba 0e 17 d9 bc 4d e0 ec 3b 6e 37 b3 ba
       -0.0016738221 -0.026500251 0.007228887 -0.0013673136
000020 d5 7c 26 3c f8 15 4d bb 3e 7b e6 bc c3 d6 22 bd
       0.010161598 -0.0031293612 -0.028134938 -0.039755594
000030 db bd 0f 3c 93 9b 4e 3c 85 70 1a bc c6 37 32 3c
       0.008773292 0.012610334 -0.009426241 0.010877555
000040 a4 70 c9 bb 7a be b1 bc 99 af 16 3b 1c a0 d3 bc
       -0.006147461 -0.021697272 0.0022992848 -0.025833182
000050 8c 01 69 3c ee 31 32 bb 9c 22 22 bd 50 ae 6d bb
       0.01422156 -0.0027190405 -0.039583787 -0.0036267228
000060 6e c8 f9 bb 89 e6 5d bc 66 5b 87 3a 49 52 f2 bb
       -0.00762277 -0.013543733 0.0010326921 -0.007395063
000070 b2 df d3 bb 0a 1c 81 3a 8b 16 a5 3b 91 5f c9 3c
       -0.0064658755 0.0009850275 0.0050380877 0.024581702
000080 f0 b9 01 3d e3 3a 7e 3c 72 7a a6 3c 7d 9d a0 3b
       0.031671464 0.015516969 0.020322058 0.0049015866
000090 97 b3 8e 3c 90 a8 0e 3b b3 45 c6 bc a1 11 f1 3b
       0.01741962 0.0021767952 -0.024203157 0.007356838
0000a0 93 54 85 bc 84 f6 7c 3c 2a 1d 49 3c 0c 8c 1b bb
       -0.01627568 0.015439633 0.01227502 -0.0023734597
0000b0 3d 92 19 bd be 9a be bc 91 6d 43 3c ed 6d 17 3c
       -0.03749298 -0.023267146 0.011927978 0.009242517
0000c0 a1 58 0a bd 61 8d 83 ba ad de 89 bc 6e 6a 56 bb
       -0.03377593 -0.0010036641 -0.016829813 -0.0032717246
0000d0 ef 82 33 bc b8 bb 1d bd 55 e6 c3 3b 71 b5 37 3b
       -0.01095651 -0.0385091 0.0059783855 0.0028031731
0000e0 00 fe cd 3b f4 49 a7 3b 1e 7c da 3c 94 38 02 bc
       0.0062863827 0.0051052514 0.026670512 -0.00794806
0000f0 d5 1c 55 bb 34 30 95 3c 5b 91 24 3c 8b 4d 7a 3c
       -0.0032518406 0.018211462 0.010044421 0.015277277
000100 98 f5 a7 ba c8 88 56 3c 70 68 76 bd 04 a2 07 bc
       -0.0012814282 0.013094135 -0.060158193 -0.008278374
000110 6d 58 3c bc f7 e3 86 bc f1 00 3e bc 8c 1b 7c 3b
       -0.011495692 -0.016466124 -0.011596904 0.0038468568
000120 91 72 c5 3c 02 fa 85 bb 40 67 57 3b 54 c6 8e 3b
       0.024102481 -0.004088641 0.0032867938 0.0043571386
000130 06 e3 9c bc 10 a4 7f 3c 8f 8b 32 bd 34 49 88 bb
       -0.019151222 0.01560308 -0.043590125 -0.004159117
000140 c0 95 b9 3a cb 15 8c bc 2b 79 53 3d 1a 8d bd 38
       0.0014159009 -0.017100235 0.051629227 9.0385045e-05
000150 b8 b8 18 bc 2f 4e 52 3c 7a e0 c7 3c 68 d4 e2 bb
       -0.009321384 0.012836023 0.024399031 -0.0069222935
000160 96 e2 ac 3c e0 e6 5f 3a a9 64 4b bb c6 90 35 3a
       0.021104138 0.0008541178 -0.003103534 0.0006926175
000170 ab 47 0a 3d 04 26 b8 bc 95 47 34 3c 26 f6 e8 3a
       0.033759754 -0.022479065 0.011003395 0.0017773553
000180 ba 70 27 3c 86 5e 80 ba a6 ca bc ba 4c a3 cc bb
       0.010219747 -0.0009793795 -0.0014403656 -0.0062450524
000190 05 00 63 bc 8f 25 64 3d ad c2 79 3c 9a 1c db 3b
       -0.013854985 0.05569988 0.015244168 0.006686759
0001a0 d0 5a ae bb 97 aa 29 bc 95 bb 92 bc ea 8a d8 3b
       -0.0053208843 -0.010355613 -0.017911712 0.0066083567
0001b0 fd a4 c8 bc 06 cb 4b 3c 17 67 65 bc 06 69 08 bc
       -0.024492735 0.012438541 -0.014001629 -0.008325821
0001c0 e9 44 07 bd f3 82 43 b9 f0 93 89 bc 2f 00 94 3c
       -0.033024702 -0.00018645432 -0.016794175 0.018066494
0001d0 8d 1c 43 3b 0a 30 67 3c e6 cf eb 3b 8d 14 02 bb
       0.0029771656 0.0141105745 0.0071964143 -0.0019848675
0001e0 95 70 b7 39 75 aa 50 bc 6b 64 08 3a eb c6 00 bb
       0.0003498836 -0.012735953 0.0005202952 -0.0019649814
0001f0 02 e3 35 3c 39 61 58 ba a8 e8 5b bb c5 a4 37 bc
       0.011101486 -0.00082542334 -0.0033555422 -0.011208718
000200 68 b3 e7 3c b2 67 2c bc 31 00 97 3c 1d 36 f8 3c
       0.02828379 -0.01052277 0.018432708 0.03029924
000210 1f 37 9d bc 66 33 e4 3b ee 44 87 bb 12 a0 19 3c
       -0.019191323 0.006964135 -0.00412809 0.009376543
000220 35 68 4c bc 8e e2 50 3b 1b 2c 80 b8 80 41 4c 3c
       -0.012476017 0.0031873318 -6.111731e-05 0.012466788
000230 60 64 36 3a 77 da 3e bc 0a 26 c4 3b ae df 5d bc
       0.0006957706 -0.011648766 0.00598598 -0.013542099
000240 af da 37 bc 18 bb 68 3a 19 21 fc 3c 71 02 e4 3b
       -0.011221572 0.0008877977 0.030777501 0.006958299
000250 a7 24 a0 bc c7 6f 38 bb 33 82 4d 3c d2 a3 de 3c
       -0.019548727 -0.0028142796 0.012543249 0.027177725
000260 d9 37 36 bc 03 85 06 bc dd bc 4d bb b6 4a e0 bb
       -0.011121714 -0.008210423 -0.003139309 -0.0068448437
000270 8c 1e 4b bc 2c 15 af 3b ad 9f ef 3c 02 79 88 3b
       -0.01239742 0.0053431 0.029250944 0.004164816
000280 aa d3 63 3b 33 d0 2c bc 48 16 8d bb eb 07 41 bc
       0.0034763613 -0.010547685 -0.0043056346 -0.011781673
000290 7d f6 e6 ba 18 0c bf bb c6 76 7e 3c ea 1a 85 3b
       -0.0017621067 -0.005830299 0.0155312475 0.0040620463
0002a0 23 06 3b bc 72 b4 7d bb 05 fa 47 bc e9 8b ef 3b
       -0.011415037 -0.003871229 -0.012205605 0.0073103798
0002b0 a0 ac 3c 3d aa 44 07 3b f7 e4 09 bc 4a d5 b1 3b
       0.046063066 0.0020640292 -0.008416406 0.0054270374
0002c0 f5 2d de bb fd 4c 92 b9 16 66 52 b8 da 66 09 bc
       -0.006780381 -0.0002790465 -5.0162977e-05 -0.008386338
0002d0 60 a9 56 3a c0 2f ff 3c 5b c1 3a 3c d8 06 4f 3b
       0.0008188691 0.031150699 0.011398639 0.0031589773
0002e0 a4 37 42 3b 6d cc f9 3c e6 e6 82 3c 95 53 ed bb
       0.0029635215 0.030492986 0.015979242 -0.00724263
0002f0 1d d0 91 3b 4d e6 cf bc da 2b 9f bc 5e 49 0d bd
       0.004449858 -0.02537837 -0.01943009 -0.034493797
000300 99 d4 b1 3b 52 5a 44 bc 12 46 69 3c ed e3 51 3c
       0.005426955 -0.011984425 0.0142378975 0.012810689
000310 b5 b3 bd 3c 97 20 8d 3c 00 ac 32 3c 9f d6 aa 3c
       0.02315698 0.017227454 0.010905266 0.020854292
000320 b8 b3 ee bb bb 73 7b 3c 66 a0 cd ba 76 40 35 3c
       -0.0072846077 0.0153474165 -0.0015688061 0.011062732
000330 28 20 36 3c 13 d4 d6 bc b4 94 a7 3b 38 52 aa 3c
       0.011116065 -0.026224172 0.0051141623 0.020791158
000340 ad 37 e7 3c ce 6e 31 3b 47 d4 85 bc 72 e0 1f 3b
       0.02822479 0.0027074101 -0.016336573 0.0024395254
000350 3c 5e 08 ba 1f 9a 0e bc 42 82 e8 bb 72 ef 54 bb
       -0.00052020303 -0.0087037375 -0.007095606 -0.0032491353
000360 5a f6 01 3c 50 17 de 3b 49 62 80 bb d3 f1 19 bb
       0.00793227 0.0067776814 -0.0039179665 -0.0023490086
000370 4b 5c 0e 3c 6a b1 9c bc 45 39 ee bb 94 76 77 bc
       0.008688997 -0.019127566 -0.0072700107 -0.015103955
000380 35 e3 9d bb 04 45 a4 3c 75 0b 7d 3c a8 6c b5 3c
       -0.004818345 0.02005244 0.015444626 0.022146538
000390 2a f4 e9 bc c4 b4 11 bc d0 4e 2e bd 95 ac 1c bc
       -0.02855881 -0.008893196 -0.04255563 -0.009562631
0003a0 45 1a 9b 3b 31 8d 69 bb 36 76 7c ba 68 10 0e bc
       0.004733356 -0.0035637135 -0.0009630652 -0.008670904
0003b0 56 1b 95 3c 4f e0 52 bc ee 92 82 3c 1a 6b eb bb
       0.018201511 -0.012870862 0.015939202 -0.0071843984
0003c0 12 12 6c 3c 28 b3 0a bd 89 36 3f 3c d3 da 69 bb
       0.014408605 -0.033862263 0.011670717 -0.0035683408
0003d0 24 ac 92 bc d1 57 3e bd fd 5c b5 3a 0e 3a e6 3a
       -0.017904349 -0.046470467 0.0013836917 0.0017564909
0003e0 6e 4d 8c 3b 43 bb 46 3a 90 d6 31 3c b0 23 05 bd
       0.0042816913 0.0007581005 0.010854378 -0.032504737
0003f0 48 fa ca bb 28 d4 d4 bb 3c 5a 09 3d 9e 1a ae bc
       -0.0061943866 -0.0064950176 0.03353332 -0.021252926

action_model._continuous_distribution.mu.bias f4 [4]
000000 c1 07 8a 3b 15 bf 5d bb a2 33 a6 bb 8e fa 62 3b
       0.00421235 -0.0033835818 -0.005072073 0.0034634206

exp_avg f4 [128, 4]
000000 00 00 00 00 00 00 00 00 a2 46 00 b9 a2 46 00 b9
       0.0 0.0 -0.00012233344 -0.00012233344
000010 00 00 00 00 00 00 00 00 f4 93 21 3b f4 93 21 3b
       0.0 0.0 0.0024654837 0.0024654837
000020 00 00 00 00 00 00 00 00 2b 26 a2 3a 2b 26 a2 3a
       0.0 0.0 0.0012370994 0.0012370994
000030 00 00 00 00 00 00 00 00 0c d7 9f 37 0c d7 9f 37
       0.0 0.0 1.9054416e-05 1.9054416e-05
000040 00 00 00 00 00 00 00 00 70 d7 c5 b6 70 d7 c5 b6
       0.0 0.0 -5.8961377e-06 -5.8961377e-06
000050 00 00 00 00 00 00 00 00 48 d8 bf b9 48 d8 bf b9
       0.0 0.0 -0.000365915 -0.000365915
000060 00 00 00 00 00 00 00 00 ff b5 29 38 ff b5 29 38
       0.0 0.0 4.0462237e-05 4.0462237e-05
000070 00 00 00 00 00 00 00 00 e4 7f c0 ba e4 7f c0 ba
       0.0 0.0 -0.0014686552 -0.0014686552
000080 00 00 00 00 00 00 00 00 10 3d 3b 3a 10 3d 3b 3a
       0.0 0.0 0.0007142583 0.0007142583
000090 00 00 00 00 00 00 00 00 89 fc 9e 38 89 fc 9e 38
       0.0 0.0 7.5810654e-05 7.5810654e-05
0000a0 00 00 00 00 00 00 00 00 1a 60 b8 ba 1a 60 b8 ba
       0.0 0.0 -0.0014066726 -0.0014066726
0000b0 00 00 00 00 00 00 00 00 e9 0e 33 3a e9 0e 33 3a
       0.0 0.0 0.000683053 0.000683053
0000c0 00 00 00 00 00 00 00 00 75 05 04 3a 75 05 04 3a
       0.0 0.0 0.00050362136 0.00050362136
0000d0 00 00 00 00 00 00 00 00 ac ca 84 37 ac ca 84 37
       0.0 0.0 1.5830003e-05 1.5830003e-05
0000e0 00 00 00 00 00 00 00 00 20 76 9c 38 20 76 9c 38
       0.0 0.0 7.460662e-05 7.460662e-05
0000f0 00 00 00 00 00 00 00 00 3d 16 ca b8 3d 16 ca b8
       0.0 0.0 -9.636253e-05 -9.636253e-05
000100 00 00 00 00 00 00 00 00 d7 6f c4 b9 d7 6f c4 b9
       0.0 0.0 -0.0003746736 -0.0003746736
000110 00 00 00 00 00 00 00 00 80 85 24 36 80 85 24 36
       0.0 0.0 2.4515612e-06 2.4515612e-06
000120 00 00 00 00 00 00 00 00 0e aa b9 3a 0e aa b9 3a
       0.0 0.0 0.001416506 0.001416506
000130 00 00 00 00 00 00 00 00 e8 24 03 3a e8 24 03 3a
       0.0 0.0 0.0005002753 0.0005002753
000140 00 00 00 00 00 00 00 00 ba a7 0a 37 ba a7 0a 37
       0.0 0.0 8.264493e-06 8.264493e-06
000150 00 00 00 00 00 00 00 00 ba 89 57 ba ba 89 57 ba
       0.0 0.0 -0.0008222122 -0.0008222122
000160 00 00 00 00 00 00 00 00 a0 a1 63 3a a0 a1 63 3a
       0.0 0.0 0.0008683447 0.0008683447
000170 00 00 00 00 00 00 00 00 10 70 f7 36 10 70 f7 36
       0.0 0.0 7.3742194e-06 7.3742194e-06
000180 00 00 00 00 00 00 00 00 0d ae b4 b8 0d ae b4 b8
       0.0 0.0 -8.615488e-05 -8.615488e-05
000190 00 00 00 00 00 00 00 00 cc ed 10 38 cc ed 10 38
       0.0 0.0 3.455374e-05 3.455374e-05
0001a0 00 00 00 00 00 00 00 00 03 e0 4c 34 03 e0 4c 34
       0.0 0.0 1.9080476e-07 1.9080476e-07
0001b0 00 00 00 00 00 00 00 00 d0 8f 71 38 d0 8f 71 38
       0.0 0.0 5.7592813e-05 5.7592813e-05
0001c0 00 00 00 00 00 00 00 00 3e 45 94 b6 3e 45 94 b6
       0.0 0.0 -4.4188046e-06 -4.4188046e-06
0001d0 00 00 00 00 00 00 00 00 7b 59 1e 38 7b 59 1e 38
       0.0 0.0 3.775347e-05 3.775347e-05
0001e0 00 00 00 00 00 00 00 00 b6 a2 21 3a b6 a2 21 3a
       0.0 0.0 0.00061659084 0.00061659084
0001f0 00 00 00 00 00 00 00 00 94 08 30 b8 94 08 30 b8
       0.0 0.0 -4.196966e-05 -4.196966e-05
000200 00 00 00 00 00 00 00 00 58 b1 d7 b7 58 b1 d7 b7
       0.0 0.0 -2.571258e-05 -2.571258e-05
000210 00 00 00 00 00 00 00 00 a9 32 62 3a a9 32 62 3a
       0.0 0.0 0.0008628765 0.0008628765
000220 00 00 00 00 00 00 00 00 84 3e 01 39 84 3e 01 39
       0.0 0.0 0.00012325688 0.00012325688
000230 00 00 00 00 00 00 00 00 e0 e3 c9 36 e0 e3 c9 36
       0.0 0.0 6.016795e-06 6.016795e-06
000240 00 00 00 00 00 00 00 00 d0 e3 a1 b7 d0 e3 a1 b7
       0.0 0.0 -1.9298779e-05 -1.9298779e-05
000250 00 00 00 00 00 00 00 00 20 be f3 38 20 be f3 38
       0.0 0.0 0.000116225565 0.000116225565
000260 00 00 00 00 00 00 00 00 09 f4 05 3b 09 f4 05 3b
       0.0 0.0 0.0020439646 0.0020439646
000270 00 00 00 00 00 00 00 00 b0 fd 39 3a b0 fd 39 3a
       0.0 0.0 0.00070949923 0.00070949923
000280 00 00 00 00 00 00 00 00 d8 b1 7c 3a d8 b1 7c 3a
       0.0 0.0 0.0009639538 0.0009639538
000290 00 00 00 00 00 00 00 00 f0 c2 58 39 f0 c2 58 39
       0.0 0.0 0.00020671985 0.00020671985
0002a0 00 00 00 00 00 00 00 00 99 e6 92 38 99 e6 92 38
       0.0 0.0 7.004775e-05 7.004775e-05
0002b0 00 00 00 00 00 00 00 00 bc bd 8f 3a bc bd 8f 3a
       0.0 0.0 0.001096658 0.001096658
0002c0 00 00 00 00 00 00 00 00 4e d5 f3 b9 4e d5 f3 b9
       0.0 0.0 -0.00046507496 -0.00046507496
0002d0 00 00 00 00 00 00 00 00 be 77 74 3a be 77 74 3a
       0.0 0.0 0.00093257043 0.00093257043
0002e0 00 00 00 00 00 00 00 00 cb 05 33 3a cb 05 33 3a
       0.0 0.0 0.00068291713 0.00068291713
0002f0 00 00 00 00 00 00 00 00 13 0e e6 b9 13 0e e6 b9
       0.0 0.0 -0.00043879505 -0.00043879505
000300 00 00 00 00 00 00 00 00 1c da 1d b8 1c da 1d b8
       0.0 0.0 -3.7634847e-05 -3.7634847e-05
000310 00 00 00 00 00 00 00 00 a1 0d ef 3a a1 0d ef 3a
       0.0 0.0 0.0018238315 0.0018238315
000320 00 00 00 00 00 00 00 00 ca a6 ea b5 ca a6 ea b5
       0.0 0.0 -1.7482901e-06 -1.7482901e-06
000330 00 00 00 00 00 00 00 00 ce 14 9b 39 ce 14 9b 39
       0.0 0.0 0.00029579405 0.00029579405
000340 00 00 00 00 00 00 00 00 10 2a 0e 36 10 2a 0e 36
       0.0 0.0 2.1184132e-06 2.1184132e-06
000350 00 00 00 00 00 00 00 00 9a 29 e9 3a 9a 29 e9 3a
       0.0 0.0 0.0017788887 0.0017788887
000360 00 00 00 00 00 00 00 00 00 40 d0 ad 00 40 d0 ad
       0.0 0.0 -2.3675284e-11 -2.3675284e-11
000370 00 00 00 00 00 00 00 00 10 b3 01 b9 10 b3 01 b9
       0.0 0.0 -0.00012369105 -0.00012369105
000380 00 00 00 00 00 00 00 00 04 a6 be b8 04 a6 be b8
       0.0 0.0 -9.090829e-05 -9.090829e-05
000390 00 00 00 00 00 00 00 00 ac f3 d8 39 ac f3 d8 39
       0.0 0.0 0.0004138028 0.0004138028
0003a0 00 00 00 00 00 00 00 00 c6 d9 0d 36 c6 d9 0d 36
       0.0 0.0 2.1137398e-06 2.1137398e-06
0003b0 00 00 00 00 00 00 00 00 f8 24 bf b7 f8 24 bf b7
       0.0 0.0 -2.278619e-05 -2.278619e-05
0003c0 00 00 00 00 00 00 00 00 68 b0 aa 39 68 b0 aa 39
       0.0 0.0 0.0003255636 0.0003255636
0003d0 00 00 00 00 00 00 00 00 32 43 8f b9 32 43 8f b9
       0.0 0.0 -0.0002732515 -0.0002732515
0003e0 00 00 00 00 00 00 00 00 72 cb 81 b9 72 cb 81 b9
       0.0 0.0 -0.00024756376 -0.00024756376
0003f0 00 00 00 00 00 00 00 00 04 34 96 b4 04 34 96 b4
       0.0 0.0 -2.7977524e-07 -2.7977524e-07

exp_avg_sq f4 [128, 4]
000000 00 00 00 00 00 00 00 00 42 9f 38 34 42 9f 38 34
       0.0 0.0 1.7194273e-07 1.7194273e-07
000010 00 00 00 00 00 00 00 00 f0 3a b3 38 f0 3a b3 38
       0.0 0.0 8.546363e-05 8.546363e-05
000020 00 00 00 00 00 00 00 00 b1 99 00 38 b1 99 00 38
       0.0 0.0 3.0660714e-05 3.0660714e-05
000030 00 00 00 00 00 00 00 00 da ce 2b 32 da ce 2b 32
       0.0 0.0 1.0000543e-08 1.0000543e-08
000040 00 00 00 00 00 00 00 00 7c c9 86 30 7c c9 86 30
       0.0 0.0 9.807049e-10 9.807049e-10
000050 00 00 00 00 00 00 00 00 2e 39 d8 36 2e 39 d8 36
       0.0 0.0 6.4439582e-06 6.4439582e-06
000060 00 00 00 00 00 00 00 00 f9 0c a4 34 f9 0c a4 34
       0.0 0.0 3.055682e-07 3.055682e-07
000070 00 00 00 00 00 00 00 00 4c c8 8b 38 4c c8 8b 38
       0.0 0.0 6.665345e-05 6.665345e-05
000080 00 00 00 00 00 00 00 00 a9 c6 44 38 a9 c6 44 38
       0.0 0.0 4.691506e-05 4.691506e-05
000090 00 00 00 00 00 00 00 00 de 7c 3f 37 de 7c 3f 37
       0.0 0.0 1.141356e-05 1.141356e-05
0000a0 00 00 00 00 00 00 00 00 3b dd 83 38 3b dd 83 38
       0.0 0.0 6.287774e-05 6.287774e-05
0000b0 00 00 00 00 00 00 00 00 7b 0c f8 37 7b 0c f8 37
       0.0 0.0 2.9569715e-05 2.9569715e-05
0000c0 00 00 00 00 00 00 00 00 ef 59 15 38 ef 59 15 38
       0.0 0.0 3.5608125e-05 3.5608125e-05
0000d0 00 00 00 00 00 00 00 00 e7 45 95 32 e7 45 95 32
       0.0 0.0 1.737767e-08 1.737767e-08
0000e0 00 00 00 00 00 00 00 00 a1 ab bb 33 a1 ab bb 33
       0.0 0.0 8.739085e-08 8.739085e-08
0000f0 00 00 00 00 00 00 00 00 61 6a 67 34 61 6a 67 34
       0.0 0.0 2.1552252e-07 2.1552252e-07
000100 00 00 00 00 00 00 00 00 4b d7 d9 35 4b d7 d9 35
       0.0 0.0 1.6230418e-06 1.6230418e-06
000110 00 00 00 00 00 00 00 00 d6 af 13 35 d6 af 13 35
       0.0 0.0 5.501764e-07 5.501764e-07
000120 00 00 00 00 00 00 00 00 17 30 81 38 17 30 81 38
       0.0 0.0 6.160157e-05 6.160157e-05
000130 00 00 00 00 00 00 00 00 73 be f4 36 73 be f4 36
       0.0 0.0 7.293938e-06 7.293938e-06
000140 00 00 00 00 00 00 00 00 d3 e7 09 32 d3 e7 09 32
       0.0 0.0 8.02716e-09 8.02716e-09
000150 00 00 00 00 00 00 00 00 9e 83 89 37 9e 83 89 37
       0.0 0.0 1.6392962e-05 1.6392962e-05
000160 00 00 00 00 00 00 00 00 4f b1 48 38 4f b1 48 38
       0.0 0.0 4.7848847e-05 4.7848847e-05
000170 00 00 00 00 00 00 00 00 5f 87 a7 33 5f 87 a7 33
       0.0 0.0 7.8011674e-08 7.8011674e-08
000180 00 00 00 00 00 00 00 00 1e 01 89 37 1e 01 89 37
       0.0 0.0 1.6332193e-05 1.6332193e-05
000190 00 00 00 00 00 00 00 00 93 94 85 33 93 94 85 33
       0.0 0.0 6.2203206e-08 6.2203206e-08
0001a0 00 00 00 00 00 00 00 00 7b 72 07 2b 7b 72 07 2b
       0.0 0.0 4.812051e-13 4.812051e-13
0001b0 00 00 00 00 00 00 00 00 4b 4d 15 35 4b 4d 15 35
       0.0 0.0 5.56193e-07 5.56193e-07
0001c0 00 00 00 00 00 00 00 00 53 0f c3 30 53 0f c3 30
       0.0 0.0 1.4192473e-09 1.4192473e-09
0001d0 00 00 00 00 00 00 00 00 94 28 7b 34 94 28 7b 34
       0.0 0.0 2.3390959e-07 2.3390959e-07
0001e0 00 00 00 00 00 00 00 00 d8 de a1 38 d8 de a1 38
       0.0 0.0 7.718586e-05 7.718586e-05
0001f0 00 00 00 00 00 00 00 00 e8 87 87 34 e8 87 87 34
       0.0 0.0 2.5244594e-07 2.5244594e-07
000200 00 00 00 00 00 00 00 00 4f 93 ea 35 4f 93 ea 35
       0.0 0.0 1.7477231e-06 1.7477231e-06
000210 00 00 00 00 00 00 00 00 35 cb be 37 35 cb be 37
       0.0 0.0 2.274439e-05 2.274439e-05
000220 00 00 00 00 00 00 00 00 84 8b 4c 36 84 8b 4c 36
       0.0 0.0 3.0479578e-06 3.0479578e-06
000230 00 00 00 00 00 00 00 00 85 86 c0 33 85 86 c0 33
       0.0 0.0 8.965166e-08 8.965166e-08
000240 00 00 00 00 00 00 00 00 93 95 95 37 93 95 95 37
       0.0 0.0 1.7831835e-05 1.7831835e-05
000250 00 00 00 00 00 00 00 00 e0 23 3e 37 e0 23 3e 37
       0.0 0.0 1.1333235e-05 1.1333235e-05
000260 00 00 00 00 00 00 00 00 c9 f6 05 39 c9 f6 05 39
       0.0 0.0 0.00012775803 0.00012775803
000270 00 00 00 00 00 00 00 00 40 fa 45 37 40 fa 45 37
       0.0 0.0 1.1800381e-05 1.1800381e-05
000280 00 00 00 00 00 00 00 00 d6 41 b1 37 d6 41 b1 37
       0.0 0.0 2.1130701e-05 2.1130701e-05
000290 00 00 00 00 00 00 00 00 5d 87 04 37 5d 87 04 37
       0.0 0.0 7.89933e-06 7.89933e-06
0002a0 00 00 00 00 00 00 00 00 a5 1d 4f 34 a5 1d 4f 34
       0.0 0.0 1.9289162e-07 1.9289162e-07
0002b0 00 00 00 00 00 00 00 00 da 10 34 38 da 10 34 38
       0.0 0.0 4.293104e-05 4.293104e-05
0002c0 00 00 00 00 00 00 00 00 d1 a7 1e 38 d1 a7 1e 38
       0.0 0.0 3.7826427e-05 3.7826427e-05
0002d0 00 00 00 00 00 00 00 00 46 cf cc 37 46 cf cc 37
       0.0 0.0 2.4415214e-05 2.4415214e-05
0002e0 00 00 00 00 00 00 00 00 47 19 49 38 47 19 49 38
       0.0 0.0 4.7945676e-05 4.7945676e-05
0002f0 00 00 00 00 00 00 00 00 67 b5 6c 38 67 b5 6c 38
       0.0 0.0 5.643573e-05 5.643573e-05
000300 00 00 00 00 00 00 00 00 ce ce 21 34 ce ce 21 34
       0.0 0.0 1.5069529e-07 1.5069529e-07
000310 00 00 00 00 00 00 00 00 be f3 1b 38 be f3 1b 38
       0.0 0.0 3.7181882e-05 3.7181882e-05
000320 00 00 00 00 00 00 00 00 84 67 2a 31 84 67 2a 31
       0.0 0.0 2.4797098e-09 2.4797098e-09
000330 00 00 00 00 00 00 00 00 d9 19 bb 37 d9 19 bb 37
       0.0 0.0 2.2304173e-05 2.2304173e-05
000340 00 00 00 00 00 00 00 00 ce ee d4 32 ce ee d4 32
       0.0 0.0 2.4788644e-08 2.4788644e-08
000350 00 00 00 00 00 00 00 00 95 6f 06 38 95 6f 06 38
       0.0 0.0 3.205201e-05 3.205201e-05
000360 00 00 00 00 00 00 00 00 de f4 62 2e de f4 62 2e
       0.0 0.0 5.1603936e-11 5.1603936e-11
000370 00 00 00 00 00 00 00 00 f3 97 8f 35 f3 97 8f 35
       0.0 0.0 1.0698553e-06 1.0698553e-06
000380 00 00 00 00 00 00 00 00 71 4a dc 34 71 4a dc 34
       0.0 0.0 4.1032357e-07 4.1032357e-07
000390 00 00 00 00 00 00 00 00 6b a3 71 38 6b a3 71 38
       0.0 0.0 5.7611072e-05 5.7611072e-05
0003a0 00 00 00 00 00 00 00 00 ff be d5 2e ff be d5 2e
       0.0 0.0 9.720046e-11 9.720046e-11
0003b0 00 00 00 00 00 00 00 00 a6 62 30 35 a6 62 30 35
       0.0 0.0 6.570866e-07 6.570866e-07
0003c0 00 00 00 00 00 00 00 00 c3 8f 7b 38 c3 8f 7b 38
       0.0 0.0 5.9976952e-05 5.9976952e-05
0003d0 00 00 00 00 00 00 00 00 ec 52 01 38 ec 52 01 38
       0.0 0.0 3.0833224e-05 3.0833224e-05
0003e0 00 00 00 00 00 00 00 00 a6 a6 35 36 a6 a6 35 36
       0.0 0.0 2.7068104e-06 2.7068104e-06
0003f0 00 00 00 00 00 00 00 00 8d b0 ad 2d 8d b0 ad 2d
       0.0 0.0 1.9746227e-11 1.9746227e-11

exp_avg f4 [128]
000000 ce 3d cd b7 29 43 01 3a 21 b8 81 39 7c be 7f 36
       -2.4466684e-05 0.0004930967 0.00024741984 3.8108838e-06
000010 f4 45 9e b5 d0 79 99 b8 c8 c4 07 37 ea ff 99 b9
       -1.1792276e-06 -7.318298e-05 8.092444e-06 -0.00029373105
000020 76 ca 15 39 e7 60 7e 37 16 80 93 b9 21 3f 0f 39
       0.0001428517 1.5162142e-05 -0.00028133456 0.0001366106
000030 f0 3b d3 38 74 77 54 36 9b 56 7a 37 64 ab a1 b7
       0.00010072428 3.1659993e-06 1.4921326e-05 -1.9272506e-05
000040 47 26 9d b8 c0 9e 03 35 0b 88 94 39 a4 d4 d1 38
       -7.493473e-05 4.9032315e-07 0.0002833012 0.00010005504
000050 2e d9 dd 35 30 6e 2c b9 e5 1a 36 39 32 f3 c5 35
       1.6528991e-06 -0.00016444246 0.00017366892 1.4748423e-06
000060 3b 8b 90 b7 e2 e2 e7 36 68 e6 23 33 d8 3f 41 37
       -1.7230972e-05 6.910749e-06 3.8160948e-08 1.1518561e-05
000070 9a 3b 6d b5 fa 5b fd 36 f8 4e 01 39 ae d3 0c b7
       -8.837611e-07 7.550695e-06 0.00012331817 -8.393936e-06
000080 d0 8d ac b6 50 f5 34 39 6c ca ce 37 10 83 a1 35
       -5.1425086e-06 0.00017257524 2.4651374e-05 1.2033579e-06
000090 90 82 81 b6 80 fe c2 37 43 53 d6 39 f5 ca 14 39
       -3.859699e-06 2.3245113e-05 0.00040879296 0.00014189987
0000a0 e0 27 4a 39 c2 68 2d 38 91 0a 6b 37 5e fc 65 39
       0.00019279076 4.1343978e-05 1.4009552e-05 0.00021933156
0000b0 11 11 c3 b8 04 93 43 39 d4 37 0f 39 3a 0b b8 b8
       -9.3015035e-05 0.00018651417 0.0001365834 -8.775895e-05
0000c0 30 90 fc b6 18 3e bf 39 aa b8 bb b4 54 21 78 38
       -7.526971e-06 0.00036476622 -3.4965825e-07 5.9158847e-05
0000d0 c0 76 e3 34 ac 87 ba 39 00 a0 a6 ac ea 84 cf b7
       4.2368447e-07 0.00035577768 -4.7357673e-12 -2.4738216e-05
0000e0 d0 84 98 b7 b8 8f ad 38 0a f6 e2 34 60 ea 98 b6
       -1.8181658e-05 8.2760525e-05 4.2274797e-07 -4.557238e-06
0000f0 10 8d 88 38 48 38 65 b8 e9 ab 4f b8 30 53 70 b3
       6.51126e-05 -5.465027e-05 -4.951275e-05 -5.5955013e-08
000100 8c 2b 15 39 c0 0a d9 36 24 29 3a 39 b2 a1 1a b9
       0.0001422597 6.4683554e-06 0.00017753668 -0.0001474682
000110 20 f9 fb b6 86 08 15 b7 fa 73 e1 38 48 5d 45 35
       -7.509385e-06 -8.883077e-06 0.000107504384 7.352396e-07
000120 68 02 0c b8 fa d2 07 39 c0 42 9f b4 c1 fb 05 37
       -3.3380842e-05 0.00012953198 -2.9664625e-07 7.986034e-06
000130 f4 4a 2a b9 f0 c7 ce 34 d4 ad 7f 38 cf 2b 02 b9
       -0.00016240386 3.8515964e-07 6.0958628e-05 -0.00012414086
000140 0c bd d6 38 83 fd 12 39 b8 c7 37 38 08 49 6c b9
       0.00010239528 0.00014018085 4.3816603e-05 -0.0002253392
000150 38 a1 63 35 10 28 06 b8 ff 70 fa 39 04 ae dd 36
       8.4798694e-07 -3.19854e-05 0.00047767904 6.6065713e-06
000160 4c 5b 5e b9 ee 11 91 36 7c 46 39 39 00 cb da b6
       -0.0002120558 4.323424e-06 0.00017669232 -6.5205386e-06
000170 78 c0 2c 36 62 3d 5f 37 d0 a9 1f 37 f0 00 18 38
       2.5742029e-06 1.3306128e-05 9.516676e-06 3.6240497e-05
000180 58 b3 4a 36 5e 42 c9 b8 df b9 1c b7 3f 4d 86 b8
       3.0204737e-06 -9.596789e-05 -9.341601e-06 -6.404006e-05
000190 30 aa bb 37 6e 94 8d 37 0e bb 57 37 fc 72 c4 b7
       2.2371387e-05 1.6877628e-05 1.2858551e-05 -2.3418565e-05
0001a0 6e 38 fe 38 66 fc 94 39 40 01 1c b7 98 ec 3e b7
       0.00012122175 0.0002841681 -9.298616e-06 -1.1379969e-05
0001b0 32 79 42 39 88 17 da 37 40 6b d9 38 5e 1c 10 39
       0.0001854643 2.5998583e-05 0.00010367343 0.00013743478
0001c0 02 00 f1 b8 24 63 db 38 bf ed 8d b7 d1 0b c6 b7
       -0.00011491777 0.000104612 -1.6919219e-05 -2.3608942e-05
0001d0 ba 37 da 38 42 70 3a 36 78 b8 76 36 90 50 06 37
       0.0001040543 2.7781502e-06 3.6764231e-06 8.00578e-06
0001e0 14 cd 12 b7 76 fa 04 39 8d bd 96 b8 80 0d db 35
       -8.750027e-06 0.00012681805 -7.187864e-05 1.63207e-06
0001f0 c5 48 cb 38 5f 80 b6 b6 64 b7 eb 37 d8 7a 10 39
       9.693349e-05 -5.438967e-06 2.8099581e-05 0.00013778673

exp_avg_sq f4 [128]
000000 0c 51 ec 31 1e 6a 65 36 d4 9b a4 35 16 ea db 2f
       6.877718e-09 3.4185427e-06 1.2264304e-06 4.0002196e-10
000010 1b 87 2c 2e 0d 62 8a 34 1f fc 51 32 e8 eb 32 36
       3.922827e-11 2.5775844e-07 1.2222727e-08 2.6661382e-06
000020 87 df fb 35 b0 1a f5 34 39 c9 28 36 51 c0 9e 35
       1.8766012e-06 4.5654224e-07 2.5151078e-06 1.1827889e-06
000030 78 2b bf 35 c3 11 3f 30 c5 37 70 31 13 1b 14 32
       1.424326e-06 6.9510636e-10 3.4956298e-09 8.62089e-09
000040 11 6b 8b 33 08 0a bd 32 4d 5c 25 36 e5 a2 9c 34
       6.492167e-08 2.2007058e-08 2.4640642e-06 2.9175786e-07
000050 ef 84 b0 2f 9a 04 30 35 74 71 00 36 ca 6f 56 31
       3.2108669e-10 6.5571805e-07 1.9139525e-06 3.1204643e-09
000060 94 5d 2f 35 90 fb 2a 31 61 5f ad 28 39 1b bf 32
       6.5328754e-07 2.4881253e-09 1.9248222e-14 2.2247706e-08
000070 48 ad 79 2e dd bd 20 32 b1 31 4f 36 bb 7a 2d 32
       5.676995e-11 9.356396e-09 3.0874328e-06 1.0097831e-08
000080 d1 20 96 33 43 37 74 35 a0 e8 02 34 d3 6e 76 31
       6.9908886e-08 9.09775e-07 1.2191822e-07 3.5860708e-09
000090 b3 77 3f 35 10 61 f3 34 50 79 ab 36 50 69 fd 34
       7.132723e-07 4.53329e-07 5.1103198e-06 4.7201547e-07
0000a0 9c e3 62 35 f6 a2 a9 34 dd 8d 04 32 ee 7b e6 35
       8.4522776e-07 3.1597273e-07 7.715667e-09 1.7172404e-06
0000b0 3e 14 cb 35 fd 13 83 35 08 b4 00 36 5c 7e 17 36
       1.513057e-06 9.766078e-07 1.9178278e-06 2.2574304e-06
0000c0 32 1d cf 31 60 9e c7 35 05 1e da 2e 42 7d 6f 35
       6.027812e-09 1.4872749e-06 9.918825e-11 8.921671e-07
0000d0 e7 46 88 30 ea 13 ac 35 96 40 11 2c a6 cc 37 33
       9.915454e-10 1.2820794e-06 2.0641592e-12 4.2794134e-08
0000e0 7b fc 8c 32 07 a6 1a 36 38 cc 88 2c ec c5 e1 32
       1.641296e-08 2.304443e-06 3.8880253e-12 2.6283452e-08
0000f0 e3 ff 20 36 d4 88 a5 35 57 83 e8 33 a4 52 5e 2b
       2.3990804e-06 1.233328e-06 1.08272324e-07 7.898493e-13
000100 7f ba c4 35 42 1f 93 34 62 68 a6 36 ce b2 8e 36
       1.4657415e-06 2.7403627e-07 4.9593373e-06 4.2527454e-06
000110 e3 b3 3b 34 2e fb 8c 31 78 62 38 34 0e 14 03 2f
       1.7481175e-07 4.103092e-09 1.7172158e-07 1.1921505e-10
000120 d3 7d f6 35 c2 03 b5 35 7d a3 0b 32 63 eb 56 33
       1.8365048e-06 1.3486645e-06 8.128038e-09 5.003984e-08
000130 e9 30 94 35 6f 02 13 31 1d df 2a 35 75 df 50 35
       1.1041094e-06 2.1392699e-09 6.365461e-07 7.781121e-07
000140 8f 44 5d 35 6b c8 64 35 da 8e 8f 33 01 ba 5a 36
       8.242868e-07 8.5228265e-07 6.684941e-08 3.25928e-06
000150 3a b8 d3 31 6c c2 75 35 61 43 5b 36 d2 0f 86 32
       6.1618524e-09 9.1552533e-07 3.2672763e-06 1.5606847e-08
000160 e2 89 ad 35 24 e5 99 31 07 bd e0 34 76 28 ba 35
       1.2929634e-06 4.4789363e-09 4.1860787e-07 1.3869856e-06
000170 a6 7c 1d 32 1c bf 15 31 f4 8a a4 32 e3 38 6f 36
       9.1669445e-09 2.1790987e-09 1.9155301e-08 3.5646888e-06
000180 7d 6d 2a 30 96 5d b8 34 d2 1a fc 30 dc b6 8b 33
       6.200123e-10 3.4340763e-07 1.8343036e-09 6.505954e-08
000190 45 9f 3a 35 13 3d 6c 32 2f 75 f1 31 15 9d a1 34
       6.952217e-07 1.3750895e-08 7.0273454e-09 3.010288e-07
0001a0 33 5d 97 35 75 80 a7 35 f3 08 bb 34 90 a5 f0 32
       1.1277501e-06 1.2479856e-06 3.4837976e-07 2.8014966e-08
0001b0 33 6f 0a 35 19 c9 a3 32 41 ab 88 35 de 3e e2 35
       5.157082e-07 1.9067146e-08 1.0182631e-06 1.6856609e-06
0001c0 63 00 7c 35 c4 c0 ec 35 fb f4 1a 32 d8 20 4e 32
       9.387788e-07 1.7639472e-06 9.019682e-09 1.1998246e-08
0001d0 4f 96 6a 35 20 e9 b5 2f 5e b2 16 30 4a ef 02 35
       8.739052e-07 3.3089353e-10 5.4823157e-10 4.8776985e-07
0001e0 20 ec 59 31 9b be 73 34 54 9f 76 34 57 b5 f5 34
       3.1711878e-09 2.270048e-07 2.2968499e-07 4.5766748e-07
0001f0 09 dc 16 35 b5 b3 0f 32 9d 12 c7 32 72 20 14 36
       5.619955e-07 8.364556e-09 2.3175113e-08 2.2072604e-06
