old_ppo/PoI/PoI-1911.pt (torch, 428964 bytes, 36 tensors)

network_body._body_endoder.seq_layers.0.weight f4 [128, 1]
00000000: b663 3b3f 0dc2 95bf 14ea 843f b4eb b13f
00000010: 367d 70be 7323 d5be 1b62 e1be b1f9 e8be
00000020: aace 7bbf 6074 843f 078f a53d 09e0 a63e
00000030: e378 e93e a267 2c3f b673 663d 9022 5c3f
00000040: 1aa3 0abf 3134 fcbc dbdf a63e df07 26c0
00000050: f2a1 0dc0 f8d1 813f 4ce2 02bf f85e f3be
00000060: aff0 df3f bf28 4d3f 4797 2e3f 9adb 21c0
00000070: 7009 003f bb0b e53f 793d 123f 0c14 d1bf
00000080: 2b3c 0d3f 90ea db3f 064f c3bf c223 3fbf
00000090: a608 f6be a6fc 81bf 8c35 df3c 31a5 143f
000000a0: 241e 30bf 84d2 98bf b052 8bbe f344 c5bf
000000b0: afd0 b8be 2d75 973d 680f ab3e 6330 17bd
000000c0: 8069 82bf bbef fcbf b9cf 323f aa12 393f
000000d0: 959d 973e 9ab1 803f 1d25 e43f cbf6 3ebf
000000e0: 7841 843f beb6 12c0 cdb6 5ebf 3e0a 51be
000000f0: 3713 24bf 6351 c7bf b2b7 223f 4691 f2bd
00000100: 8a19 e33c bb94 623d bfba 5fbf ce1e 0abf
00000110: dff0 15c0 2181 613e 23ef 423d ed7f 8c3e
00000120: 0db6 89bf e8a4 2a3e 32aa 0cbf 1f0c 49be
00000130: 7db4 4cbf d46e 733f 0afc 23bf d407 57bf
00000140: 77ad 613f bd22 9c3f f3b9 be3f 1b8c 0ebf
00000150: 4a73 fbbd ec30 d6bf 8859 93be 04dd edbc
00000160: 27c4 eabe e98b 98bf 0946 eebf 4266 52bf
00000170: cdb5 d13f a4a5 823f 40c2 3fbf cda8 3c3d
00000180: 508b c53e 2df6 cebe a3be 70bf dc86 1b3f
00000190: 97ab 613e 0362 81bd 93fd 35be 52af be3f
000001a0: cbe1 e4bf 7821 8cbf ac27 873f 65e9 a93d
000001b0: 2b40 00bf c453 0dbf d1ee 8e3e a583 2ebf
000001c0: 14e4 62bf 75bd e03e b1f1 a23f fda8 99bf
000001d0: ad89 a0bf 9330 e43f ee0e 93be 7ade 913d
000001e0: 4236 c53e 29b4 fcbe bdb6 123f 2eec 14c0
000001f0: 6d24 b2be da03 65bf 0b5e 0a3f c828 e13e
0.7319902 -1.1699845 1.0383935 1.3900056 -0.23485264 -0.41628608 -0.4402016 -0.45503
-0.9836222 1.0348015 0.08083921 0.325928 0.45600042 0.6734563 0.056262694 0.8599024
-0.54155123 -0.030786606 0.32592663 -2.5942304 -2.2130094 1.0142202 -0.5112655 -0.47533393
1.7495326 0.801403 0.6819958 -2.5290284 0.500144 1.7894205 0.5712505 -1.6334243
0.55169934 1.7180958 -1.5258491 -0.7466394 -0.48053473 -1.0155227 0.027247213 0.5806456
-0.6879599 -1.1939244 -0.27211523 -1.5411667 -0.36096713 0.073953964 0.33410192 -0.03691138
-1.0188446 -1.976066 0.6984821 0.72294104 0.29612413 1.00542 1.7823826 -0.74595326
1.033248 -2.2924037 -0.8699768 -0.20414063 -0.6409182 -1.5571712 0.63561547 -0.11844115
0.027722139 0.05531762 -0.87394327 -0.53953254 -2.3428266 0.22021915 0.04759134 0.2744135
-1.0758682 0.16664469 -0.549472 -0.1963353 -0.79962903 0.95090985 -0.64056456 -0.8399632
0.8815531 1.2198101 1.4900497 -0.55682534 -0.12277849 -1.673368 -0.28779244 -0.029036053
-0.45852777 -1.1917697 -1.8615123 -0.82187283 1.6383606 1.02068 -0.74905777 0.04605942
0.3858285 -0.40422192 -0.9404089 0.60752654 0.22038113 -0.063175224 -0.17772512 1.4897254
-1.7881407 -1.0947714 1.0558982 0.082964696 -0.5009791 -0.5520594 0.27916577 -0.68169624
-0.8862927 0.43894544 1.2730008 -1.2004696 -1.2542015 1.7827324 -0.28722328 0.07122512
0.38517958 -0.493562 0.57310086 -2.3269153 -0.34793416 -0.89459 0.5404975 0.43976426

network_body._body_endoder.seq_layers.0.bias f4 [128]
00000000: 058c 7f3b 3436 2ebc dad2 cbbb 9083 a6bc
00000010: 52dd 88ba 95e9 d53b 2a69 803c a949 6c3c
00000020: 16ab f2ba 9cd0 16bc 018f 183c acd7 b0bc
00000030: 7399 1ebc 9aae c03b d267 79bb 10da c53b
00000040: d908 3f3c dd97 9d3c 38cf 933b fbb6 54bc
00000050: 0186 01bb 4cf8 cfbc 25dc 52bc 099e 453c
00000060: a1f6 87bc 2e66 28bc fecc f93b 6ff6 86bc
00000070: 47a5 5bbb a4a3 79bc f476 1b3c 0304 ddbb
00000080: 111b 3fbb 947b a6bc 6a3a 6ebc ff4d 94bc
00000090: 419b 4e3b 43f8 b13c 187e 03bb cae9 7cbb
000000a0: 8eaa 723c 2baa 05bc e290 4d3b 0e2a b3bb
000000b0: e356 32bc 34de c23b 150b 703b ce4c 313c
000000c0: 3abc 143c fa3c 6c3c 88c2 6fba 611f 6c3c
000000d0: 344a 40bb 8a35 38bc 7c43 9dbb cdea b4bb
000000e0: 22dd aabc 38cd d9ba 232f 4bbb fc45 1bbc
000000f0: 8274 0ebc b3f7 163c 9e7a 0d3a 2463 dcbc
00000100: b315 de3c b625 9cbc e2fc 10bc 9d90 db3a
00000110: f322 abbb d191 b2bc 70dc b0bc 3d51 323c
00000120: eaa4 4a3b a6ed e83c 9afe b1bc 01be 193c
00000130: fc44 4dba a28f 1c3c 9f8d e7ba a5c0 5a3c
00000140: febf b6bb e709 063b 084f 9ebc 1880 20bc
00000150: 6444 13bb 44ef 46bc 93fc d7bb 61dc ae3b
00000160: 0b72 02bc 371f 0ebc 2dff d03b 3c34 acbb
00000170: db22 65bc 1f9c 273c bc75 4139 cfbc b1bc
00000180: bec4 c4bc 469c 20bb 930b a8ba ec7c c0bc
00000190: 762a 9f3c d92d 6c3c f36a 8339 fdc5 cabc
000001a0: dbe3 1a3c 7a0a 48bc 35b2 b5bc 29ec 8a3c
000001b0: 4eff 82bc 4228 d1bc f94a 10bc e8c7 0d3a
000001c0: 9507 a33b 0677 57bb d2a9 9c3c b84d 163b
000001d0: 09d2 de3c 4f00 87bb f015 7dbc d3bb e23c
000001e0: 2fcb e2bc 74c8 e93b 036d eabb 09d8 ecbb
000001f0: 56b1 ab3c b8b0 e63b ba64 c4bc c245 04bc
0.003899337 -0.01063304 -0.006220204 -0.020326406 -0.0010441935 0.0065280893 0.015675146 0.014421859
-0.0018514122 -0.00920501 0.009311439 -0.021587215 -0.00968014 0.005880189 -0.0038056266 0.006037958
0.011659824 0.019237453 0.0045107864 -0.012983079 -0.001976371 -0.025386952 -0.012869869 0.012061604
-0.016597094 -0.010278268 0.007623314 -0.01647493 -0.003351526 -0.015236769 0.00948881 -0.006744863
-0.002916042 -0.020322599 -0.014540294 -0.018103598 0.0031525644 0.021724826 -0.0020064171 -0.0038591498
0.014811171 -0.008158247 0.0031366874 -0.00546766 -0.010884973 0.005946899 0.00366277 0.010821534
0.00907808 0.014418835 -0.0009146114 0.014411778 -0.0029341104 -0.011243233 -0.0047993045 -0.0055211545
-0.020857397 -0.0016616946 -0.0031003437 -0.009477135 -0.00869477 0.0092143295 0.00053969945 -0.026902743
0.027109956 -0.01906095 -0.008849354 0.0016751472 -0.005222672 -0.021798046 -0.021589488 0.0108836265
0.003092105 0.028433632 -0.021727849 0.009383679 -0.0007830409 0.009555729 -0.0017666108 0.013351594
-0.0055770865 0.002045268 -0.019324794 -0.009796165 -0.0022471184 -0.012142006 -0.0065913885 0.00533633
-0.00796176 -0.008674434 0.0063780756 -0.0052552503 -0.013985361 0.010230093 0.00018449774 -0.021696476
-0.024019595 -0.0024507209 -0.0012820832 -0.023497067 0.019429427 0.014415228 0.0002506595 -0.024752611
0.009453739 -0.012209529 -0.022179702 0.016958313 -0.01599088 -0.025531892 -0.008806937 0.00054085115
0.004975269 -0.003287734 0.019123945 0.0022934508 0.027199762 -0.00411991 -0.015447125 0.027677452
-0.027684776 0.0071344916 -0.0071541085 -0.007227902 0.020958584 0.0070401095 -0.023973811 -0.008073272

network_body._body_endoder.seq_layers.2.weight f4 [128, 128]
00000000: 585b 91bd 14a3 32bd ec8a ca3d d05c 4fbd
00000010: 24ac 203e 8741 513e 99fc e6bc 4a86 cf3d
00000020: 0e6e a13d d477 41bd 365e a5bd 3bc7 50be
00000030: 7fdf d3bc f9fb 253c 88fe 603b 9345 803d
00000040: b238 10bd bca7 273d 560e 96bd 3ac2 a03c
00000050: b719 2dbe 59c8 a43d e1c6 0a3e 63f5 f43c
00000060: 5746 973b 3df1 26bc e574 393d 5e47 44ba
00000070: abac a5bc c80b 8c3d 50e6 41be b06b 46bd
00000080: 2de2 6c3d 75a5 123d 57b5 653d 7adb 8e3c
00000090: a834 183e 308c 8d3c 1740 20be 18d1 17bd
000000a0: 0375 253e c586 37bd ec58 a13c 552b d63c
000000b0: 9dbd 4ebd c011 053d 717c 0c3e ee47 3a3d
000000c0: 3b67 a33c 99ac 253d 3df2 cf3d 6f0a fe3c
000000d0: 91d9 883d 259f 503d 5429 3c3d 0071 b43d
000000e0: c0a8 123e 5b1b 2abd d5a3 8b3c ef1c 893d
000000f0: 6b19 a9bd 6d35 fbba 2b40 4ebe 2a09 d3bd
00000100: 44f7 a0bd c845 273d 18dd a43d 8270 2bbe
00000110: ea73 2b3c f8e0 00bd a2c8 05be c230 cf3d
00000120: 60d7 61bd 1dda a13d 0918 17be ed78 38bd
00000130: 902e f8bc 1b4b efbd afb2 003d f4ee 3d3d
00000140: 613a 4d3d 3b52 443d 4d26 4c3d c417 ab3d
00000150: 5041 13be 214a 3fbe 9909 5a3d c6ba 143d
00000160: 9139 783d 9294 0a3c f377 2d3b 473f 02be
00000170: 7dde 753d ff46 b7bd b530 0f3e dd55 f43d
00000180: f035 173c 32d5 49bc 14d4 263e 0ef4 513d
00000190: 92fe d1bd 81bf a33d 7f59 70bd 51e8 2e3d
000001a0: 484c acbd e8a8 a23d 4aad 07bd 4799 a03d
000001b0: 832b 8c3c e57a e83d 11c1 c43d 6004 28be
000001c0: 1444 dfbd f3e6 0b3c 7c59 643c 1226 853e
000001d0: 823b 4dbc a97c 3e3d 00d5 053d 1730 0ebb
000001e0: d1a0 12bd a05f 3dbd 830e dbbd 432e 8bbd
000001f0: 1edf 5b3d 164c 3f3d ab88 e33d cf14 46bc
00000200: 0e61 013d ff0a a73d 9024 bcb9 c51e ed3d
00000210: ff2e f8bc 6519 22bd 647c 0b3e d57d e23d
00000220: 0cc2 a6bd 6df7 a93d 5dbe 453d f5af 64bd
00000230: 83c9 13be b6e6 893c 6980 393d 75d6 5f3b
00000240: e1f0 1b3e c43d 2bbd 8a3c 773e fe40 9d3d
00000250: bf7d 97bd c468 adbc c6ef 75bc 8aa5 e4bc
00000260: 4a2a 52be 7695 9abd 650c 213e 23f3 0bbd
00000270: fadc 963d cf05 a8bc 8dbf cc3c 29e0 343d
00000280: b8cb a93c de3e db3d 1ea0 de3d cb85 f43d
00000290: fae0 8d3c 31b8 e7bd ee13 16be e50c 43bd
000002a0: 7532 1bbe 0f17 86bd 8b5c 203e 29c5 df3c
000002b0: 6e66 913c 740f 1b3c df40 a73c 54bb 0cbe
000002c0: 55df 933c f45d 24bd 85cb d2bc 7b87 ddbd
000002d0: b4df 1f3d f115 b03c 6e01 2abe 2816 0cbd
000002e0: 027b d8bd d86f 0fbe bfcd 8bbd b923 3e3d
000002f0: 744c 593c 03a8 373e 336f 023e 4f9d 8fbd
00000300: 7473 5ebc 8d2a 02bb a003 9f3d 04bb bb3c
00000310: a750 333d 7cdc 33bd 5f52 bdbc c0d6 df3c
00000320: c89d b9bd 5026 163e 0dee 3fbe d2af e23d
00000330: 6aa9 b6bc c931 00be d7bc 44bd de6d ba3d
00000340: 1133 e13d fa55 943d 5f8a ecbc 513d b23c
00000350: 0b6e d63c 9657 17be b59c 943d ddb9 db3c
00000360: 41be 2f3e d2a9 8bbd cb9c 04be f766 0fbc
00000370: a4ba 0dbd 6672 9fbd 1101 c2bc e779 2bbe
00000380: 4c78 963d a4a4 85bd 5dda b5bd 9ca9 50bb
00000390: 3e6f 053e 2cbf 80bd 7a25 963d 36fe fe3d
000003a0: 7c99 323c aecd d5bd 56df 073c fbcf 27bc
000003b0: a45b 0abe f7d6 8ebe fc66 bcbd b3ee 773b
000003c0: 2418 a93d a146 cfbb 15b6 cbbc 5f66 1d3e
000003d0: 9ae7 0e3d 76c6 a9bd df08 103d d844 d0bd
000003e0: 5156 4fbe 98f6 3dbe fdbd f2bc 7584 c03d
000003f0: 03b7 d6bc 1f38 4d3d d795 933c a276 1ebd
-0.070975006 -0.043612555 0.098897785 -0.050625622 0.15690666 0.20435153 -0.02819662 0.101330355
0.078823194 -0.047233418 -0.0807461 -0.203885 -0.025863407 0.010130876 0.00343314 0.0626327
-0.03521032 0.04093145 -0.07326953 0.019623864 -0.1690434 0.08046026 0.13552429 0.029902166
0.0046165395 -0.010189352 0.045277495 -0.0007487441 -0.020223936 0.068381846 -0.18935513 -0.048442543
0.057832886 0.035802323 0.056081142 0.017438639 0.14863837 0.01727876 -0.15649448 -0.03706464
0.16157918 -0.04480626 0.019695722 0.02614371 -0.050473798 0.03248763 0.13719346 0.045478754
0.019946685 0.040447805 0.10153625 0.031010835 0.066821225 0.050933022 0.04593785 0.088106155
0.14322186 -0.041529994 0.017045895 0.06694972 -0.08256801 -0.0019165702 -0.20141666 -0.10304482
-0.07859662 0.040838033 0.08049983 -0.16742137 0.010464648 -0.031464547 -0.13064817 0.10116722
-0.05513704 0.0790293 -0.14755262 -0.0450372 -0.03029564 -0.11684247 0.031420406 0.04637046
0.050104503 0.047929984 0.049841214 0.08354142 -0.14380383 -0.18680622 0.05323181 0.036310934
0.060601775 0.0084582735 0.00264692 -0.12719451 0.060026634 -0.08949088 0.13983424 0.119304396
0.009229168 -0.012318896 0.16291839 0.05125814 -0.102536336 0.07995511 -0.0586791 0.042702023
-0.08412987 0.079423726 -0.033124246 0.07841735 0.017110592 0.11351565 0.09607137 -0.16407919
-0.10901657 0.008538949 0.01393735 0.26005608 -0.012526395 0.046505604 0.032673836 -0.0021696144
-0.035797898 -0.046233773 -0.10696127 -0.06795933 0.053679578 0.04670342 0.11110052 -0.012089922
0.0315867 0.08156394 -0.00035885395 0.115781344 -0.030295847 -0.039575 0.1362167 0.11059157
-0.0814248 0.08299146 0.048277248 -0.05583187 -0.1443234 0.016833644 0.045288477 0.0034154926
0.15228607 -0.04180695 0.24144188 0.07678412 -0.07397031 -0.02116812 -0.01501078 -0.027910966
-0.20523944 -0.07548039 0.15727384 -0.03416742 0.07366367 -0.020510582 0.024993682 0.04415909
0.020727023 0.1070535 0.10870384 0.119395815 0.017319191 -0.113144286 -0.1465604 -0.04761972
-0.15155967 -0.06547367 0.15660302 0.027315693 0.017749038 0.0094641335 0.020416675 -0.13743335
0.018050829 -0.040128663 -0.025731811 -0.108168565 0.0390317 0.021494837 -0.16602108 -0.034200817
-0.10570337 -0.14007509 -0.06826352 0.046420787 0.013262857 0.17935185 0.12737732 -0.07012426
-0.013577331 -0.0019861788 0.07764363 0.022916324 0.043778088 -0.043911442 -0.023110567 0.02732408
-0.090632975 0.14663053 -0.18743153 0.11068691 -0.02229758 -0.12518992 -0.048031654 0.09102987
0.10996068 0.07242961 -0.028874574 0.021757754 0.02617552 -0.14779505 0.07256452 0.026822025
0.1716242 -0.068195 -0.12950437 -0.008752576 -0.034601822 -0.07785492 -0.02368215 -0.16745721
0.073471636 -0.06525543 -0.0887954 -0.0031839376 0.13030717 -0.06286463 0.07331367 0.12450831
0.010900851 -0.10439621 0.0082929935 -0.0102424575 -0.1351152 -0.2789838 -0.0919933 0.0037831485
0.082565576 -0.0063255583 -0.024867097 0.15371083 0.03488884 -0.082898065 0.03516471 -0.10169381
-0.20247771 -0.185511 -0.02963161 0.09400264 -0.026210314 0.05010235 0.018015785 -0.038687356

network_body._body_endoder.seq_layers.2.bias f4 [128]
00000000: d821 b73b 0bbb 0a3c e6e3 6a3a ab51 643c
00000010: fa8e 54bc b9de 7dbc 3226 9d3c e669 d4bc
00000020: f75c 9bbc 5bfc d8bb 5a98 8a3c f0d7 283c
00000030: 2a68 abba 57b9 5f3c d386 943c 48f6 993b
00000040: b216 fbbc 604f 263c a602 123c a892 9cbc
00000050: d43f 70bc ccdd 973b b709 10bc 60d2 2f3b
00000060: 35f5 3d3c cbca ddbc 5018 93bc 6ed8 dabb
00000070: 9a1e 5fbb c18d dbbc 5c0b 79bb 43e6 aebc
00000080: eca6 c0bc cc4e 9fbc 57f5 133c bb67 8cbc
00000090: 076e a1bc b80d 03bd 2dc3 adbc 0a30 803b
000000a0: d6e8 143c a290 d03c 0c93 e53b c1b3 d2bc
000000b0: dda9 98bc 1338 31bc 2835 9e3b ed41 06bc
000000c0: 215f d7bb 84bc 81bc ee26 663c a7f0 fd3b
000000d0: b364 5ebc 0bd9 6ebc 80d4 24bb 63a6 15bc
000000e0: 9b8f 663a 3887 463c 7510 dcbb fa13 36bc
000000f0: 82f1 8d3c c407 3cbc 06ee e83b 2d75 f1bb
00000100: 722b bfbb ed09 8c3c 9685 ce3a c1f5 94bc
00000110: 158d 90bc dd8f 833c 0b72 b63c 28d9 c1bb
00000120: ca0d 9ebb 38f5 6abc f4b3 d4ba 1122 23bc
00000130: 5f01 1abc 90c3 d9bb 8095 99bc 0a39 3e3b
00000140: d67c 1fbc a668 d53c e430 30bc a639 773c
00000150: b207 8d3c d1f4 01bd 5433 dfbc 1202 993c
00000160: 0550 cb3b b4e8 373c 0180 99bc 7d47 9c3c
00000170: 93a9 4e3b 907d 92bc 02fb aabc f051 ef3b
00000180: 0ea3 adbc 8009 ebbc b96f e73a 985a c53c
00000190: 09ee 56bc b2df 77bb 1baa a3bb 6c13 a3bc
000001a0: 47ac 803c 5e2b aabc 4353 86bc d7f3 dbbc
000001b0: 708a c1bc b96a b83c b5f8 3439 4e79 3f3c
000001c0: 9449 76bc 5aca 9fbb db35 8e3c 19fe 4bbc
000001d0: 5b92 843c 5fbf 01bd 9e1a 933b 78b0 9a3c
000001e0: e16b 9c3b 8058 ecbb b954 81bc 6b4b a1bc
000001f0: 9228 743c 7b52 63bc ee85 54bc b734 873a
0.0055887513 0.008467446 0.0008960351 0.013935487 -0.012973541 -0.015494996 0.019183252 -0.025929403
-0.018965228 -0.00662188 0.01691835 0.01030539 -0.0013077308 0.013655028 0.018130695 0.0046985485
-0.03065047 0.01015076 0.008911764 -0.0191129 -0.014663655 0.0046345945 -0.008791379 0.0026828274
0.011594106 -0.027074238 -0.017955929 -0.0066786325 -0.003404534 -0.026800992 -0.0038001155 -0.021350032
-0.023517095 -0.019446753 0.009030662 -0.017139306 -0.019705785 -0.031995505 -0.021211231 0.0039119767
0.009088716 0.025459591 0.0070060547 -0.025720479 -0.018635685 -0.010816592 0.004828114 -0.008194429
-0.0065726195 -0.015836962 0.0140473675 0.0077496353 -0.013573813 -0.014578114 -0.0025151074 -0.009133908
0.00087952026 0.0121172 -0.006715829 -0.011113161 0.017327074 -0.011476461 0.0071084527 -0.007368705
-0.0058340365 0.017094577 0.0015756364 -0.01818359 -0.017645398 0.01605981 0.022271177 -0.0059157796
-0.004823421 -0.014340691 -0.0016227947 -0.0099568525 -0.009399741 -0.0066456273 -0.018748045 0.0029025697
-0.009734353 0.026050877 -0.010753844 0.015089428 0.017215583 -0.031727616 -0.027246155 0.018677745
0.0062046074 0.011224914 -0.018737795 0.019077057 0.003153418 -0.017882138 -0.020871643 0.007303469
-0.021195915 -0.028691053 0.0017657197 0.02409105 -0.013118275 -0.0037822542 -0.0049946434 -0.019906722
0.015707148 -0.020772632 -0.016397124 -0.02684967 -0.023625582 0.022511827 0.00017258788 0.011686636
-0.015032191 -0.004876417 0.017359665 -0.012450718 0.016183069 -0.031676646 0.004489257 0.018882975
0.0047736024 -0.0072126985 -0.01578747 -0.019689282 0.014902251 -0.013874645 -0.012971384 0.0010315393

action_model._continuous_distribution.log_sigma f4 [1, 4]
00000000: 6d56 3fbc f025 39ba ed96 3bbc aee7 0d3c
-0.01167832 -0.0007062843 -0.011449558 0.008661194

action_model._continuous_distribution.mu.weight f4 [4, 128]
00000000: 799c 88bb 3877 94bc 3ce9 363b d76b 3cbb
00000010: 67f9 9abc d1cb 90bc cde9 063c 5405 a8b8
00000020: 796f 203c 5240 d6bb 204c 35bc a12d 58bc
00000030: cbb3 3d3c ba6d 3c3c 5354 c03c 4420 7ebc
00000040: bdc0 b6bb 1d7b bc3c e760 743c a34c 293a
00000050: 502d 21bd 2792 00ba 2f72 133c 8366 80bc
00000060: 0fe2 00bd 92ee 893c 11ff 0a3c f67c 153d
00000070: 4970 843c 1838 a53b a622 c5bc 7099 27bc
00000080: 9ab7 443b 3233 93bb d30f 81bc 52a4 debc
00000090: 5690 e43b 47ef 5fbb 282e da3a 84b3 3939
000000a0: 476e 373c 980a 1f3c 5c59 b5bb 7f5d 0c3b
000000b0: a164 f3bc 7c32 84bc cecc 7b3b cc4a 6bbc
000000c0: 52d4 94bc b504 e73b 2278 e83c 0949 4dbc
000000d0: ed23 933c 92a5 efbc 87b2 edbb 9450 4c3b
000000e0: 10d0 b03b 8e16 74bb 6e77 01bc a64e 1cbd
000000f0: faa3 55bc e11e beba c3fc 723c 590a 2b3a
00000100: dc99 423c d1f4 43bb 073a ecbc c8da 2439
00000110: f55e ef3a 99c4 5bbb 85ab 313c a0c9 913c
00000120: 7b46 41bc fca6 0bbc 4918 4cbd c85b 4f3c
00000130: 246b 5fba 1c8d 8b3c 2f4e f9ba 3528 943c
00000140: 4882 26bc fec1 37bd 23d0 f9bc a919 53bc
00000150: ea3b d43c 9554 17bc 3ba9 e8bb 4806 2f3d
00000160: 8233 733c 2892 28bc 7a64 793c 8f59 9b3c
00000170: 5e09 a23c 4495 3bbc f8ef 10bc 7e26 163d
00000180: 20ac cfbc bbe3 8d3b a4bc 10bd 45b2 f33b
00000190: d94b c93c b3d9 0ebd ace9 80bd d260 6abb
000001a0: 2dc6 10bc 99a5 7138 b267 52bb 1e3d 04bc
000001b0: 92ce 5ebc 3a90 19ba a1ad 1aba 3264 a2bc
000001c0: ae60 51bc cc80 4e3b 4b09 723b 263a e1bc
000001d0: 488d b8bb dd90 bcbc 5d98 183d 6e7e b83c
000001e0: d56a b8bb 61ec 403b 2ee9 10bd 04a8 7fba
000001f0: 23ee 3f3c bd44 96bb 8ba1 bdbc 036a 58bc
00000200: 3356 4abc 487a 47bb 5808 903c b213 42bc
00000210: 740c 663c 610a 5d3b 185d 8c3a e9a3 bc3c
00000220: 020b 253c 009b d13b 0909 84bc e3dc 48bc
00000230: 0729 2bbc df4e 86bb 5f40 04bd 88d3 813c
00000240: 5db4 cd3b b25e 8fbc 96dc e939 1359 7b3d
00000250: bf73 a63c efac 98bc 746e 38bc 4e60 0cbc
00000260: bf26 be3c d656 d03c b4e2 8b3b 92c7 913c
00000270: 66ec 043d 42d8 ab3c 363c bcbc 8a25 233d
00000280: 7eec 233d 7f8e 6e3c 605a 403c e0d1 a53b
00000290: 612a 173c 2dc1 fb3c bcfa e53a aa7c be3c
000002a0: 51e7 b93b c728 46bc b473 d33c 12f3 603c
000002b0: 1a6c bf3c 5b10 b13c f998 d83c 1949 33bc
000002c0: a1c9 103d c61c d13a 042c 11bc 1a7e 573c
000002d0: fcf1 5b3c b293 ad3c e775 883c 7444 753c
000002e0: 369a c53c 76f4 3bbb d8f3 123b 029c fd3c
000002f0: 6f04 fa3c 7bb5 ddbb 4d19 a03c ea6c deba
00000300: 55be 77bc 9ec2 17bd 1cc2 1fbc d701 443c
00000310: 9a18 84bb f60d 07bd 2007 c2bc aadd 6b3c
00000320: 2030 f23c 784d 243d bd30 1ebd 788c f53c
00000330: 8709 a83c c759 19bc 0bbd 903b dac8 8f3c
00000340: 635f 0e3c 888c 7d3c f4d9 c83a f70a e33b
00000350: fb44 54bc f9f5 2c3d da7c 083d 258f d3bc
00000360: c8a2 8fbc 3d6e 1abb fd75 d93c 07bd 3cbd
00000370: cc6b d03c 0b65 89ba 4b07 a43c ae03 8dba
00000380: 6506 af3b 2913 113d d6fc e03c 3895 16bc
00000390: 1e15 a63c 3a39 18bd 6113 023d d083 113d
000003a0: 2d70 9dbc b7a3 453c fbec 153d 6549 8f3c
000003b0: c3ec c83b c214 5dbd d80f aebb f698 7ebb
000003c0: 48c0 fd3c 0cd2 883c db5b 4ebd ee2b 0ebc
000003d0: 8a8e e4bb e663 b23c 14aa 0e3a 15d1 133b
000003e0: 8f77 773c 2f7c 2b3c a625 3a3d 7e83 8e3b
000003f0: 16fa 8a3c 2041 6f3d 4427 4ebc 581f 3f3d
-0.0041690436 -0.018123254 0.0027910015 -0.00287508 -0.018917752 -0.017675312 0.008234453 -8.011857e-05
0.009792202 -0.0065384293 -0.011065513 -0.0131944725 0.0115785105 0.01150077 0.023477709 -0.015510622
-0.0055771754 0.023007924 0.014915681 0.0006458258 -0.039349854 -0.0004904591 0.008999391 -0.015673881
-0.031465586 0.016837392 0.008483664 0.036496125 0.016166823 0.0050420873 -0.024064373 -0.010229453
0.0030016662 -0.004492187 -0.015754616 -0.027177963 0.006975214 -0.003416972 0.0016645836 0.0001770985
0.011195726 0.009707116 -0.005534334 0.0021418033 -0.02971107 -0.016137354 0.0038421634 -0.014361095
-0.018167648 0.0070501217 0.028377596 -0.01252962 0.017961467 -0.029253755 -0.007253948 0.0031175958
0.0053958967 -0.003724489 -0.007902009 -0.038160942 -0.013039583 -0.0014505052 0.014830771 0.0006524674
0.011877503 -0.002990056 -0.028836263 0.00015721761 0.0018262552 -0.003353393 0.010844116 0.017796338
-0.011796589 -0.008523699 -0.049827848 0.01265616 -0.000852274 0.01703506 -0.0019020493 0.018085578
-0.010162897 -0.04486274 -0.030494755 -0.012884536 0.025907476 -0.0092364745 -0.007100252 0.0427306
0.014843823 -0.010288753 0.015221709 0.018963603 0.019779857 -0.011449162 -0.0088462755 0.036657803
-0.02535063 0.004330126 -0.03533615 0.007437023 0.0245723 -0.034875583 -0.062945694 -0.0035763276
-0.008836311 5.7613102e-05 -0.0032105264 -0.008071212 -0.013599055 -0.0005857978 -0.00059005065 -0.019823167
-0.012779398 0.0031509874 0.0036931809 -0.027493548 -0.0056320764 -0.023018295 0.03725468 0.022521224
-0.0056279697 0.0029437768 -0.035378627 -0.00097525143 0.011714491 -0.004585831 -0.023148319 -0.013208869
-0.012349653 -0.0030437876 0.017582104 -0.011845516 0.014041055 0.003372811 0.0010708896 0.023027377
0.010073425 0.0063966513 -0.01611759 -0.012259695 -0.010446793 -0.0040987576 -0.03228795 0.015847936
0.0062776045 -0.017501209 0.00044605572 0.061364245 0.020318864 -0.018637149 -0.011256803 -0.008567883
0.023211835 0.025432032 0.0042689685 0.017795358 0.03245201 0.020977143 -0.02297793 0.039830722
0.04002046 0.014560341 0.011740297 0.0050604194 0.0092264125 0.030731762 0.0017546038 0.023252804
0.005673327 -0.012094683 0.025812007 0.0137298275 0.023366977 0.021614244 0.02644013 -0.010942721
0.03534854 0.001595401 -0.008860592 0.013152624 0.013424393 0.02118859 0.016657783 0.014969934
0.024121385 -0.0028679646 0.0022423174 0.03095818 0.030519692 -0.006766019 0.019543314 -0.0016969715
-0.015121062 -0.037050836 -0.009750869 0.011963329 -0.004031253 -0.0329723 -0.023685038 0.014396111
0.029563963 0.040112942 -0.0386207 0.029974207 0.020512355 -0.0093597835 0.004417067 0.017551828
0.008689734 0.0154754 0.0015323744 0.0069287973 -0.012955899 0.042226765 0.033322193 -0.025825093
-0.017533675 -0.0023564242 0.026545519 -0.046078708 0.025442027 -0.0010482384 0.020023009 -0.0010758543
0.0053413385 0.035418663 0.027464312 -0.00919085 0.020273741 -0.03716395 0.031756762 0.035526097
-0.019218529 0.012062958 0.036602955 0.017491052 0.00613174 -0.053974874 -0.0053119473 -0.0038848496
0.030975476 0.01670172 -0.05038057 -0.008677466 -0.006975 0.02177615 0.0005442214 0.0022555043
0.015104189 0.010466619 0.04544606 0.004349171 0.016964953 0.058411717 -0.012582604 0.04666075

action_model._continuous_distribution.mu.bias f4 [4]
00000000: a2f4 ff3b c959 9fbc 3103 d7bc 1eca e2ba
0.007811145 -0.019451993 -0.026246639 -0.0017302667

exp_avg f4 [128, 1]
00000000: 8c7f 313a 1694 c739 2b4f 75b8 3f64 01bb
00000010: aacd 24ba c8e0 a2b7 28f3 bab8 bccb 39ba
00000020: 5713 f439 b028 f43a d412 c7ba c64c 27b9
00000030: b857 cfb9 0041 c0b9 405c f23a f07d 77ba
00000040: 9857 93b7 3091 9b39 13da a03a c82a ad3a
00000050: 44c1 3839 b894 233a a3ff f939 804b b6b6
00000060: 68c6 e33a 9541 b9b9 3e75 fbb8 2eab d039
00000070: 5f73 133a b71e 8f3a 22c0 1db8 a87d 7db8
00000080: df53 8dba 8b6e 823a 5ea2 3b3a df61 bb39
00000090: 8e41 bc39 46ba 33ba 4ebb 713a 2fe4 a8ba
000000a0: fa8d b4b9 05fc 49b9 3aee fbb9 4008 9b38
000000b0: 8415 f939 965f f73a 4fd6 123a 21c5 bb39
000000c0: c740 1eb9 c0c1 1f39 6829 3436 0951 31ba
000000d0: d093 ec38 b97d ebb9 0851 d2ba 0e10 5cba
000000e0: 8a27 31b9 3889 abb7 ab81 db39 8ab9 4e3a
000000f0: 68cc f639 654c 93ba 64b8 c038 4eca 943a
00000100: a43c ce38 030c d03a 3810 b437 6044 03b8
00000110: f8f9 ca38 fd0b aa39 5246 f5b8 cd47 d1b9
00000120: ce3d 423a 9ca7 deb9 0672 9438 ec2a 09b8
00000130: 06fe c2b8 a0d6 7b3a c290 6039 7707 f7b9
00000140: 3f2b 753a e908 94ba 6fe9 24bb 8697 2a3a
00000150: adb4 1bba 48df b23a 9253 253a 4b6a dfb9
00000160: da72 3039 6c21 2238 6428 423a 823f ee39
00000170: 265c 0e39 993f 8239 793d 8cb9 684c ca39
00000180: ed09 e3ba 9b23 143a 66d2 d5b9 4219 54ba
00000190: 6e21 a13a 9eb6 d4b9 a6ca 06b9 095f 893a
000001a0: 305d e9b7 0816 073a 4019 c2ba 36fc 8e38
000001b0: 5c58 f938 0e26 783a d2a5 f5ba e1ff 7f39
000001c0: 0221 ce39 756b 8c3a 5f12 c939 bc5a 12b8
000001d0: 19d2 363a 6b66 153b af4e 5f3a 2785 303a
000001e0: c45f edb9 7bba 2bba 21f7 6bba 07d5 3739
000001f0: 203e 63b9 5743 4bb9 7ffd 84ba 78ef 453a
0.000677102 0.0003806657 -5.8486283e-05 -0.001974359 -0.000628675 -1.9416577e-05 -8.9144625e-05 -0.0007087549
0.00046553716 0.0018627848 -0.0015188106 -0.00015954961 -0.00039547472 -0.00036669523 0.0018490627 -0.00094410684
-1.7564555e-05 0.00029672077 0.0012272022 0.0013211602 0.00017619604 0.00062401174 0.00047683445 -5.432812e-06
0.0017377855 -0.00035334812 -0.00011990451 0.0003980039 0.00056247966 0.0010919188 -3.7610655e-05 -6.0436927e-05
-0.0010782442 0.0009951157 0.00071576785 0.0003574034 0.00035906996 -0.0006856065 0.0009221331 -0.0012885387
-0.00034438056 -0.00019262738 -0.00048051943 7.3925126e-05 0.0004750901 0.0018873091 0.00056013925 0.00035814292
-0.00015092186 0.00015235599 2.6846192e-06 -0.00067640893 0.00011280889 -0.00044916364 -0.0016045878 -0.00083947263
-0.00016894765 -2.0448686e-05 0.00041867545 0.0007885924 0.0004707307 -0.0011237977 9.189619e-05 0.0011351795
9.834141e-05 0.001587272 2.1465225e-05 -3.1296513e-05 9.678671e-05 0.0003243386 -0.000116956086 -0.00039917082
0.00074097223 -0.00042468018 7.0784285e-05 -3.270332e-05 -9.2979564e-05 0.0009606872 0.00021416231 -0.00047117073
0.00093524525 -0.0011294159 -0.0025163551 0.0006507564 -0.00059397036 0.0013646865 0.00063067034 -0.0004261307
0.00016827454 3.8654936e-05 0.00074065314 0.00045442214 0.00013576503 0.00024842916 -0.00026748682 0.0003858537
-0.0017321684 0.00056510576 -0.00040783285 -0.0008090922 0.0012293288 -0.0004057185 -0.00012854728 0.0010480593
-2.7819158e-05 0.0005153124 -0.001480855 6.8180656e-05 0.000118897035 0.000946612 -0.0018741435 0.00024414017
0.00039315975 0.0010713177 0.00038351395 -3.4893616e-05 0.0006974056 0.0022796642 0.00085184997 0.00067337084
-0.00045275514 -0.000655092 -0.00090013637 0.00017531599 -0.0002167155 -0.00019384675 -0.0010146349 0.0007550637

exp_avg_sq f4 [128, 1]
00000000: 7f23 7637 b2fa 0938 8ae3 fe36 896b 0338
00000010: 734d 2739 d261 fa38 0d4c 8138 e336 6f39
00000020: 1f3f f338 2043 9436 82a5 1a37 68f4 5e36
00000030: c372 a936 59cd ed36 09d0 0437 1c91 9136
00000040: 40c2 4837 f43b ed37 17e8 1038 41dd da39
00000050: 6a42 4138 0808 8937 1864 9837 c5b5 2839
00000060: 3848 8037 06f8 ad36 eade ab36 0467 3138
00000070: 033a 1937 6235 5b37 334e f635 3ac3 0339
00000080: bbe6 5f37 dc08 6137 026d 9938 e8c0 c938
00000090: a709 b738 c977 6238 44a8 1837 040c 0438
000000a0: bb89 3138 3cfc 5b39 31ec d938 001b 9638
000000b0: a1b6 e438 d5ca 8337 8a95 7b36 cc37 4337
000000c0: 8b78 5739 e829 c938 27cf c936 2708 c036
000000d0: 0133 1137 d01b 3137 4c93 3837 3f19 0139
000000e0: 290a 3a37 0108 3137 a521 e739 63a7 4238
000000f0: 8910 9439 bda1 4239 8836 cc36 2fda c237
00000100: 864a 1337 d71f 1b37 6fec 0539 22be f637
00000110: eacd 9239 af69 ba37 30a9 f636 cb13 4c36
00000120: 29bd 9238 0fe2 ae37 f81a a237 76f4 f337
00000130: bd33 0c38 af0d a336 9843 0438 8ea0 8e37
00000140: b77e 5a36 ca79 1837 116e fb37 31f1 5438
00000150: 3f80 8b39 f3c4 0139 efce 4138 dbe3 de36
00000160: 0a3b 9539 a2ea d837 6a40 4d38 fc79 a639
00000170: dbc8 fc36 ac09 0237 1b3a 8138 d6f1 a237
00000180: cf0f 3e38 e47b 2b38 9782 5737 3870 4237
00000190: f266 2237 a619 ec37 0116 7139 382d b837
000001a0: 2ea2 8c38 5127 cb38 e4f6 1238 0b78 9a36
000001b0: 7e5e b137 471b d237 a8c9 6937 e434 0d38
000001c0: 4e3e 9c38 53dc fe36 b1da 2637 6fad 6c38
000001d0: f204 1f37 eb1e 4037 1dea 1039 b79a ab36
000001e0: 294f 5637 de39 0238 2731 4936 171d 2739
000001f0: 858c 9737 34a9 c138 0774 8438 862f 7a36
1.4671007e-05 3.2896824e-05 7.596279e-06 3.1332984e-05 0.00015955213 0.000119391494 6.165365e-05 0.00022813263
0.000115989 4.418558e-06 9.217651e-06 3.322284e-06 5.0499525e-06 7.087056e-06 7.91625e-06 4.3382297e-06
1.1966156e-05 2.828052e-05 3.4548426e-05 0.00041745047 4.607664e-05 1.6335413e-05 1.8166422e-05 0.00016089443
1.5292419e-05 5.1846755e-06 5.1221477e-06 4.229603e-05 9.133018e-06 1.3065846e-05 1.8351187e-06 0.00012565861
1.3345557e-05 1.3413108e-05 7.315913e-05 9.6203585e-05 8.727918e-05 5.3994157e-05 9.099083e-06 3.1482443e-05
4.232836e-05 0.00020979432 0.000103913604 7.1575865e-05 0.000109059045 1.5710868e-05 3.7488958e-06 1.1635897e-05
0.00020548904 9.5922325e-05 6.0143825e-06 5.722995e-06 8.654549e-06 1.0556498e-05 1.100155e-05 0.00012311804
1.10888295e-05 1.0551886e-05 0.0004408482 4.6409095e-05 0.0002824108 0.00018561534 6.086022e-06 2.3228202e-05
8.779234e-06 9.246133e-06 0.00012771947 2.9414023e-05 0.00028000708 2.222214e-05 7.3510673e-06 3.040989e-06
6.997056e-05 2.0847683e-05 1.9324463e-05 2.9081693e-05 3.3426786e-05 4.8593715e-06 3.1534204e-05 1.7002483e-05
3.255829e-06 9.088262e-06 2.9972785e-05 5.0769366e-05 0.00026607697 0.00012375768 4.6207508e-05 6.6426414e-06
0.00028463482 2.5858466e-05 4.89358e-05 0.00031752873 7.533568e-06 7.750856e-06 6.162022e-05 1.9424519e-05
4.5314253e-05 4.088496e-05 1.2845404e-05 1.1589429e-05 9.679921e-06 2.8145336e-05 0.00022991748 2.1955566e-05
6.7059285e-05 9.6871176e-05 3.5039047e-05 4.6035325e-06 2.1144046e-05 2.5046653e-05 1.3934834e-05 3.3666278e-05
7.450265e-05 7.595439e-06 9.945289e-06 5.6428307e-05 9.47829e-06 1.145129e-05 0.00013820124 5.1142083e-06
1.2773825e-05 3.104831e-05 2.9979944e-06 0.00015937198 1.8066037e-05 9.234474e-05 6.315862e-05 3.7280565e-06

exp_avg f4 [128]
00000000: 304b ddb7 c14b 7db8 1ba8 3d38 c5ed 3bb8
00000010: e088 fc35 d54a 5db9 56ef f9b8 a8f1 6236
00000020: d490 1438 b882 8239 c777 4738 68f9 1e38
00000030: 8387 62b8 ee7e 2d38 154f 8039 47ef 32b7
00000040: b700 4037 a539 71b8 e2f0 2538 249a 1839
00000050: 0e2f d437 7f4c 9538 dc47 58b8 7afb 2f38
00000060: 5ef3 f638 6071 1a38 d081 02b9 00dd 0837
00000070: cf42 9538 98c8 8138 b85d 5038 c27a 1eb9
00000080: fcad 23b9 1404 4e39 1ab1 39b9 e0d2 7bb6
00000090: 288e 0fb9 ed74 4d39 98bc 9438 6d89 a338
000000a0: a381 1838 7f2a 0fb8 f03e 8636 86ab 1f38
000000b0: 7923 a2b8 d69f c3b7 8d58 9b38 d820 d338
000000c0: a60a 2437 2c48 e838 68dc b038 f874 8337
000000d0: 5db2 2c39 a9f2 08b8 80d7 9236 32f6 6539
000000e0: 392b 2c39 bc7a 4437 4a7e 1039 3e10 1fb9
000000f0: 900c 9038 0e55 e738 2508 b0b8 9cc7 f2b8
00000100: 46b0 6738 8f74 9838 8ad0 0ab9 62f6 6f38
00000110: 7709 ae38 409f 5939 bd1c 0438 84f3 3239
00000120: 8c3d ae37 f3f6 86b8 7e32 e1b8 ec80 8e37
00000130: 873b dd38 b3e1 bd38 c437 03b9 b94e 8ab8
00000140: 541b c138 d692 e737 385d 5cb7 acc3 2e38
00000150: 6d40 d538 860c 0fb9 d2dd 6238 589f 2db7
00000160: 8c0f 8737 5aba 4cb6 486a b6b8 e04f 7039
00000170: c6a4 df38 64b2 bd38 9005 f438 64a7 c838
00000180: d6b5 5e37 302c f0b7 e57f 56b7 4241 1337
00000190: 7672 5138 fbcb bd36 d897 98b8 f642 5139
000001a0: d37b 0039 105d 7938 dea4 aa38 e64b e438
000001b0: 7f00 cab7 a0c1 24b8 f015 5cb8 4031 a1b8
000001c0: 2a43 c538 c5a8 ca38 7ea3 43b8 4d1e 1e38
000001d0: 2ea0 1d37 b522 7839 e8c2 84b9 51bd 0639
000001e0: 00a3 ffb5 be0d 2739 9212 77b8 4eae 0fb9
000001f0: b0f9 c238 767e 9538 cd2b 8b39 96b7 1f37
-2.6380265e-05 -6.0390452e-05 4.5217672e-05 -4.4805714e-05 1.8815299e-06 -0.0002110408 -0.00011917825 3.3817287e-06
3.542083e-05 0.00024892925 4.755685e-05 3.7902413e-05 -5.4008804e-05 4.1364627e-05 0.00024472983 -1.0665338e-05
1.1444258e-05 -5.7512563e-05 3.9563405e-05 0.00014553271 2.5294281e-05 7.119122e-05 -5.1565337e-05 4.1957457e-05
0.00011775525 3.682205e-05 -0.00012446125 8.157687e-06 7.117318e-05 6.188563e-05 4.9678347e-05 -0.00015113785
-0.00015609706 0.0001964721 -0.0001770895 -3.752466e-06 -0.000136905 0.00019593882 7.092318e-05 7.798043e-05
3.6360358e-05 -3.4133434e-05 4.000838e-06 3.8068298e-05 -7.731369e-05 -2.332024e-05 7.40747e-05 0.00010067382
9.777641e-06 0.00011076065 8.433388e-05 1.5670885e-05 0.00016469644 -3.265092e-05 4.3762266e-06 0.00021930857
0.000164193 1.1711087e-05 0.00013779956 -0.00015169472 6.868795e-05 0.00011030781 -8.393851e-05 -0.000115766394
5.523886e-05 7.2696355e-05 -0.00013238392 5.7211502e-05 8.2987295e-05 0.00020754058 3.1498017e-05 0.0001706612
2.0771076e-05 -6.435616e-05 -0.00010738241 1.6987753e-05 0.00010549189 9.054262e-05 -0.00012513908 -6.595016e-05
9.2080474e-05 2.7605722e-05 -1.3134726e-05 4.1667066e-05 0.00010168632 -0.00013642208 5.4089185e-05 -1.0348704e-05
1.6100494e-05 -3.050684e-06 -8.698233e-05 0.0002291794 0.0001066416 9.04545e-05 0.00011635863 9.567922e-05
1.3274568e-05 -2.8630806e-05 -1.2785172e-05 8.777077e-06 4.9936083e-05 5.6563854e-06 -7.276208e-05 0.00019956738
0.0001225316 5.9452897e-05 8.1369406e-05 0.000108860244 -2.4080508e-05 -3.9280974e-05 -5.247252e-05 -7.686252e-05
9.406202e-05 9.6635464e-05 -4.6643887e-05 3.7698355e-05 9.395224e-06 0.00023664052 -0.00025322218 0.00012849762
-1.904642e-06 0.0001593148 -5.8906684e-05 -0.00013702476 9.297149e-05 7.128429e-05 0.0002654478 9.519883e-06

exp_avg_sq f4 [128]
00000000: fb03 f534 092e 0635 d533 8a34 7487 3135
00000010: fb9c 9335 dd8c 7135 a47e 2635 a5a4 d935
00000020: 9815 8c35 fe20 1b34 a6a0 5234 d7cb ce33
00000030: 04d3 3134 b95a 5534 efd3 7334 9f21 0034
00000040: 4247 fb33 3c8c b334 f709 6035 7bda 4f36
00000050: 4784 d534 dce9 1135 56be 4734 247c 9f35
00000060: b936 3535 f811 2a34 706d 8334 b48c 2035
00000070: 712c 4034 b595 1635 cfa0 9233 574a 8035
00000080: ae62 8f34 5697 0435 8c5d 4035 9dc6 4d35
00000090: 7745 4335 6b5c 7235 9844 c734 c9fd 4835
000000a0: e3fa b134 4216 db35 18c4 5035 78e2 2835
000000b0: 9581 7535 9ea3 7a34 ca93 0c34 f5d2 1b34
000000c0: a3dd d535 5732 4835 44b4 5034 8896 9334
000000d0: c349 aa34 c880 a834 3e4b 9334 523b 8c35
000000e0: 2052 c534 9679 e833 127b 4836 9951 dd34
000000f0: 4ef9 0836 bd5a ee35 600b a334 9f72 8e34
00000100: 4fa3 3034 427a 7134 cd0c 7b35 f239 8c34
00000110: ac79 0236 ba05 f334 5537 d933 0f9b 7934
00000120: f97d 0e35 63f9 f334 628a 3934 06b0 6b34
00000130: 1c53 c134 d176 3734 ba29 ab34 fea6 5f34
00000140: 8740 9d33 c97a 3934 26f6 0535 27ab f134
00000150: b92c eb35 d1e1 8c35 8f6c d034 da01 4134
00000160: aaf3 1136 34dd 9534 302b 1935 43f3 2136
00000170: 67d6 5234 ff04 6934 17e9 0c35 4f0e e534
00000180: 7469 6c35 4835 e334 970d 2a34 fdef b034
00000190: 337d 5034 d8be 6b34 73f7 c035 af75 4f35
000001a0: 5bf6 2635 8903 7435 5b0e 4435 3b6e 5d34
000001b0: 3768 7d34 b7c2 9834 e3b0 7134 a482 8d34
000001c0: 08d4 6335 f586 6434 fb28 8834 89bc e734
000001d0: 2515 2934 4651 0c35 3bbf 9335 2115 8a34
000001e0: 3f2e 8b34 6706 1635 ce3a 0434 754b 9535
000001f0: 95e8 6734 7332 5235 fb78 8735 5ac5 2334
4.5637702e-07 4.998588e-07 2.5742216e-07 6.613475e-07 1.0998041e-06 8.998448e-07 6.2024105e-07 1.6215678e-06
1.0437097e-06 1.4447502e-07 1.9616218e-07 9.629701e-08 1.6561177e-07 1.9870176e-07 2.270824e-07 1.193316e-07
1.170106e-07 3.3443382e-07 8.3461003e-07 3.0972576e-06 3.9770586e-07 5.435702e-07 1.8602563e-07 1.1882553e-06
6.7507386e-07 1.5839021e-07 2.4480278e-07 5.9809395e-07 1.7897561e-07 5.6097207e-07 6.827906e-08 9.558379e-07
2.6707625e-07 4.9394055e-07 7.16617e-07 7.665747e-07 7.2744245e-07 9.028651e-07 3.7116547e-07 7.487511e-07
3.3151363e-07 1.6323249e-06 7.777139e-07 6.291443e-07 9.145818e-07 2.3342588e-07 1.3092281e-07 1.4512246e-07
1.5934241e-06 7.457906e-07 1.943709e-07 2.749041e-07 3.1718636e-07 3.138614e-07 2.743563e-07 1.0448077e-06
3.6753863e-07 1.0825458e-07 2.9873959e-06 4.1223828e-07 2.0410694e-06 1.775879e-06 3.0369392e-07 2.653296e-07
1.6450689e-07 2.2489351e-07 9.3523414e-07 2.6119193e-07 1.9442332e-06 4.5266444e-07 1.0114915e-07 2.3246342e-07
5.3082437e-07 4.544373e-07 1.7279811e-07 2.1950117e-07 3.600952e-07 1.7086428e-07 3.1881592e-07 2.0829245e-07
7.32262e-08 1.7274137e-07 4.9904554e-07 4.5014278e-07 1.752188e-06 1.0496534e-06 3.8822006e-07 1.7975199e-07
2.1748515e-06 2.791436e-07 5.705979e-07 2.4132466e-06 1.9635773e-07 2.1701634e-07 5.2493255e-07 4.2664985e-07
8.8070306e-07 4.2320812e-07 1.5837428e-07 3.295717e-07 1.9417057e-07 2.1955509e-07 1.4377132e-06 7.728476e-07
6.2198313e-07 9.090223e-07 7.303658e-07 2.062233e-07 2.3600374e-07 2.845388e-07 2.2509225e-07 2.635835e-07
8.4872636e-07 2.1283252e-07 2.536179e-07 4.316428e-07 1.5747044e-07 5.227233e-07 1.1008009e-06 2.5719876e-07
2.5924416e-07 5.588867e-07 1.2314851e-07 1.1123326e-06 2.1598164e-07 7.830451e-07 1.0093494e-06 1.5252354e-07

exp_avg f4 [128, 128]
00000000: d224 9539 5b5f 1bb8 695b d339 3503 0d3a
00000010: fc19 feb6 be39 49b7 39c1 5cb7 3d2c 66b7
00000020: 9200 02b8 5bd9 d239 d109 cd37 b8fd 0539
00000030: e492 3a39 4f19 8939 9aee 8637 dbeb ae39
00000040: a880 8eb7 aa27 b7b6 d49d 0639 841f bdb8
00000050: 70af 9fb8 6454 ce39 660d 7fb7 199f 72b7
00000060: 9139 313a c804 a339 66ee 8a39 3fb3 b7b8
00000070: 4d79 4c39 1931 353a c9e2 6839 30f3 62b8
00000080: 41e0 6039 e001 2e3a 2b11 51b8 b49c c1b7
00000090: 8410 72b7 5a34 09b8 a23e e536 9f52 6c39
000000a0: 049a b9b7 e530 1fb8 ed12 03b7 a4ab 54b8
000000b0: 446c 20b7 247f bd37 f3ca 0939 533d cfb6
000000c0: b622 08b8 f0fd 8db8 871f 8e39 aa37 9339
000000d0: fc97 f338 388b cc39 855c 343a 175c c4b7
000000e0: e01c d239 4401 a6b8 5d4d e5b7 4d1f 00b7
000000f0: a443 a7b7 82ff 58b8 5070 8139 4fd7 13b7
00000100: b8f4 e336 b3c0 8337 4ef4 e4b7 7cab 8bb7
00000110: 2dbf a9b8 1232 b138 ba88 5637 b7c6 e038
00000120: ec69 0fb8 8543 8138 a594 89b7 fad0 0ab7
00000130: 7977 d3b7 04e7 c139 20a4 a8b7 322c e1b7
00000140: fea1 b339 ade4 f739 6403 173a 807e 8eb7
00000150: 40c5 1db7 fc8b 68b8 ba99 02b7 f23c acb6
00000160: 3105 5fb7 ded5 1eb8 e859 84b8 a43e d8b7
00000170: f0fe 253a 04e5 cf39 a37b c6b7 258d 4e37
00000180: 5716 1e39 5ad9 3db7 bc66 f8b7 a5f9 7639
00000190: f214 b338 2399 10b7 299c 0cb7 8a14 173a
000001a0: 6b85 7db8 de55 10b8 54a5 d639 a32a d837
000001b0: b14f 77b7 e392 89b7 7f4f e438 c681 b4b7
000001c0: a786 ebb7 c73c 3439 987f 013a f764 21b8
000001d0: ae60 2cb8 4fa0 343a df3e fdb6 ad14 b437
000001e0: 4607 1e39 fda5 7cb7 7619 6939 fc54 a8b8
000001f0: f674 26b7 af24 eeb7 a203 5c39 f479 3439
00000200: 4352 f1b7 6053 4b38 ddd6 2fb8 8a75 6eb8
00000210: 3a2f 6337 867e ab37 f2b7 ad37 201d b237
00000220: 5274 2b38 16b3 2eb8 8bde 55b6 add1 00b7
00000230: 8b90 74b7 4306 ddb7 dc14 d5b5 2394 12b8
00000240: 936a cb37 5e37 8434 2d63 1fb7 be8e ce38
00000250: 191a b238 d0ef 25b8 724c cf37 d0ce b837
00000260: 0045 9ab8 cc6d 02b8 9ff0 dfb7 08a4 ca38
00000270: 785a 90b7 955d 9eb8 7156 b6b7 38c9 8838
00000280: 999e a5b7 01ef 96b8 fbda 8138 30e8 0a38
00000290: 3cf6 be37 40d0 2938 8d94 67b5 f34c b2b7
000002a0: be43 f337 006b 4e38 888b 7c37 6b87 8138
000002b0: 7336 a337 42eb 26b6 428f 25b7 7f96 8435
000002c0: d9f7 2d38 0d9a 9e38 cd04 e3b7 f177 f4b7
000002d0: 56ff 04b7 0c80 28b8 866e 9fb8 6c81 0738
000002e0: 1f72 2bb8 97a0 b738 eaf7 1938 afbf 5037
000002f0: 4caf f137 329f 8038 ca6b c9b7 5f9c 0b37
00000300: 25e3 40b6 ca48 e1b4 de3e 1c38 12d6 cf37
00000310: 39c5 bb38 3e7b 80b6 e6e6 31b4 9c20 0ab7
00000320: 36ae 3838 aa6e ccb6 4a6b de37 7a93 3537
00000330: 876e 0e38 9a9f 23b8 7e84 ee37 2b2a 1138
00000340: ccbe 12b8 aa75 54b8 ff15 81b8 ab26 da37
00000350: adb4 ec36 5b95 8c38 98ad 8837 03d3 7f35
00000360: 0c19 be37 4710 4e38 6c9b 9738 bbfd 1238
00000370: 4cf9 8fb8 4a59 31b8 c976 0638 065f 00b4
00000380: 6975 2cb7 5703 ac37 6ea3 2438 b6ac b0b7
00000390: ae60 e2b6 85ec 1936 0748 2d37 342b 80b8
000003a0: c4b5 9138 ecd5 3f38 ae0c 2fb8 bdf2 73b6
000003b0: e6bc cd37 249b e037 97fb e5b6 743a f937
000003c0: f634 1a38 2676 6db7 9e22 62b8 ea75 4c38
000003d0: 7a99 4d38 2f2e 9fb8 8a31 8d37 2219 8bb6
000003e0: 8f44 26b7 da0a c037 be8a acb7 0d07 bb38
000003f0: b264 8f37 b420 1b38 b87a 95b7 7c3e 67b7
0.00028446928 -3.7043686e-05 0.00040313162 0.0005379201 -7.572815e-06 -1.1993978e-05 -1.315801e-05 -1.3719368e-05
-3.0994946e-05 0.00040216264 2.4442475e-05 0.00012778386 0.00017793063 0.00026149533 1.6085152e-05 0.00033363592
-1.698763e-05 -5.4584425e-06 0.00012838031 -9.0180925e-05 -7.6143886e-05 0.00039354258 -1.5202304e-05 -1.4461367e-05
0.0006760592 0.00031093345 0.00026499032 -8.759507e-05 0.00019500144 0.0006911918 0.00022209728 -5.4109085e-05
0.00021445846 0.00066378526 -4.9845472e-05 -2.3080363e-05 -1.4428169e-05 -3.27121e-05 6.8320232e-06 0.00022537493
-2.2125438e-05 -3.795409e-05 -7.812615e-06 -5.070459e-05 -9.561951e-06 2.258976e-05 0.00013140943 -6.17622e-06
-3.2457254e-05 -6.7707035e-05 0.0002710784 0.00028079498 0.00011615452 0.00039013638 0.00068802416 -2.3407903e-05
0.00040075835 -7.9157326e-05 -2.7334952e-05 -7.636682e-06 -1.9939449e-05 -5.1736373e-05 0.00024688477 -8.812013e-06
6.793616e-06 1.570615e-05 -2.7293481e-05 -1.6649945e-05 -8.094157e-05 8.449344e-05 1.2787228e-05 0.00010718166
-3.4192504e-05 6.163776e-05 -1.640089e-05 -8.274097e-06 -2.5208794e-05 0.0003698395 -2.0103587e-05 -2.684267e-05
0.00034262234 0.00047281888 0.0005760698 -1.6986625e-05 -9.403855e-06 -5.544348e-05 -7.784396e-06 -5.1330944e-06
-1.32930445e-05 -3.7869315e-05 -6.310997e-05 -2.5778376e-05 0.0006332239 0.00039652747 -2.3661012e-05 1.231142e-05
0.00015076376 -1.1315884e-05 -2.9611743e-05 0.00023553388 8.5392865e-05 -8.618724e-06 -8.381009e-06 0.00057632534
-6.0444156e-05 -3.4412245e-05 0.0004094044 2.576906e-05 -1.4740902e-05 -1.6400072e-05 0.000108866945 -2.1518103e-05
-2.8076885e-05 0.00017188779 0.00049399724 -3.8479422e-05 -4.1098036e-05 0.0006890343 -7.5473067e-06 2.14673e-05
0.00015070764 -1.5059018e-05 0.00022230097 -8.026694e-05 -9.921603e-06 -2.8388893e-05 0.00020982188 0.00017211569
-2.8767745e-05 4.847662e-05 -4.192336e-05 -5.685309e-05 1.354125e-05 2.0443706e-05 2.0708863e-05 2.1232816e-05
4.087791e-05 -4.165162e-05 -3.186901e-06 -7.6782135e-06 -1.4577187e-05 -2.6348169e-05 -1.5875808e-06 -3.4947076e-05
2.4249113e-05 2.46272e-07 -9.50023e-06 9.849433e-05 8.4925625e-05 -3.956241e-05 2.471192e-05 2.2030814e-05
-7.3561445e-05 -3.109667e-05 -2.669572e-05 9.662664e-05 -1.7208265e-05 -7.551458e-05 -2.1736343e-05 6.522465e-05
-1.9743386e-05 -7.197075e-05 6.1919876e-05 3.3118005e-05 2.2764427e-05 4.0486688e-05 -8.6270376e-07 -2.1255086e-05
2.8999402e-05 4.921388e-05 1.5052858e-05 6.176423e-05 1.9456469e-05 -2.4872866e-06 -9.868121e-06 9.878567e-07
4.147724e-05 7.562721e-05 -2.7062744e-05 -2.9142919e-05 -7.927263e-06 -4.0173574e-05 -7.6022974e-05 3.230704e-05
-4.087586e-05 8.756032e-05 3.670893e-05 1.2442396e-05 2.8811068e-05 6.133168e-05 -2.401126e-05 8.321454e-06
-2.8742445e-06 -4.1962477e-07 3.7251848e-05 2.4776007e-05 8.9535904e-05 -3.8290445e-06 -1.656841e-07 -8.233033e-06
4.4031265e-05 -6.0925568e-06 2.6514423e-05 1.0822778e-05 3.3958375e-05 -3.901087e-05 2.8433507e-05 3.4609966e-05
-3.4986806e-05 -5.0654322e-05 -6.1552964e-05 2.6005631e-05 7.0543815e-06 6.70354e-05 1.62933e-05 9.5301965e-07
2.2661428e-05 4.9129387e-05 7.229191e-05 3.5045417e-05 -6.8652065e-05 -4.2283245e-05 3.2058717e-05 -1.1955498e-07
-1.0279336e-05 2.0505553e-05 3.9252853e-05 -2.106126e-05 -6.74658e-06 2.293645e-06 1.0328374e-05 -6.111563e-05
6.947995e-05 4.573718e-05 -4.173506e-05 -3.6351114e-06 2.4525867e-05 2.6775124e-05 -6.8540207e-06 2.9710332e-05
3.6765785e-05 -1.4153809e-05 -5.391484e-05 4.8747206e-05 4.9018745e-05 -7.590313e-05 1.6831578e-05 -4.1454487e-06
-9.910334e-06 2.2893237e-05 -2.0568605e-05 8.918168e-05 1.7093818e-05 3.6985337e-05 -1.781933e-05 -1.3783221e-05

exp_avg_sq f4 [128, 128]
00000000: daca 9436 0386 1c35 6ae8 1537 1a7d 8637
00000010: f5e8 0733 25a0 b033 118c c333 bdc1 cf33
00000020: 4145 df34 b480 1637 3af5 f032 c98d 5135
00000030: f5ae de35 7608 7b36 7a93 5232 09aa ce36
00000040: a411 0f34 4ee6 df30 fef9 5235 7289 3d36
00000050: c65d 0a36 b735 0f37 f2e2 fa33 4093 e033
00000060: 6121 d637 1de5 b136 2a2f 8136 0c39 3436
00000070: ebcf 0736 f788 df37 f29d 3436 2bde 9735
00000080: 40a5 2436 0a1b ce37 9a83 8435 131a 8034
00000090: f768 e433 e558 ee34 b82f 2c31 4459 3936
000000a0: b37c 6034 4a93 2135 d3e1 2d33 a012 8735
000000b0: 524c 8633 007f b432 81ff 6235 19bf 2931
000000c0: 406c ef34 0a8d dc35 cba5 8736 8093 8f36
000000d0: 960a 2b35 30d2 0d37 0335 de37 d998 8034
000000e0: e5f1 1437 1c05 1536 a332 ad34 9132 dc32
000000f0: 4214 3f34 0b28 8a35 53b3 5f36 b355 5b32
00000100: 7af3 1a31 e8e5 4332 4871 b134 b6d6 0a34
00000110: a298 1a36 2ab5 a234 f2c6 1032 ca63 0f35
00000120: da9d 0335 7603 3534 7e09 1134 995b d132
00000130: 5952 9434 695d fc36 b5e2 4334 be78 a534
00000140: 8f79 d936 b82a 4f37 4be5 9a37 e1a7 1434
00000150: 70a1 6f32 8cb8 9d35 0cf9 3433 beac a530
00000160: 7d2e cb33 bc69 2235 d9f9 c435 3bd3 9a34
00000170: 5c45 bb37 a26f 1137 310e 8334 1f6b d931
00000180: 1815 9935 5f64 a633 741e cc34 4a14 4936
00000190: e2e7 b034 135d c431 2439 be32 e20e 9b37
000001a0: dcd7 b435 4826 0835 dccc 1a37 7838 0e33
000001b0: 5887 f333 e29b 0f34 5ab8 1135 9951 5b34
000001c0: 146c b634 3059 cb35 0560 6237 b2ff 2435
000001d0: 51ec 3435 1c5f de37 ba06 3a33 cc0e d032
000001e0: 7b80 9735 e2b7 ee33 1bb2 3336 dc74 1936
000001f0: 5cfe 8133 ced6 b734 3345 1d36 9462 cd35
00000200: 4033 2833 b222 2937 c063 a533 e7af 1234
00000210: 53f0 d334 2a62 ac35 6559 c135 e1cb ce35
00000220: 531e f136 a3f0 a533 2463 3231 052b 0732
00000230: f9ba 8432 eabf 0e33 81b8 1631 5182 6633
00000240: 6099 1236 0600 2a31 ab7d 0532 ab84 4f38
00000250: 4964 1738 8836 9e33 35dc fc35 cdac e235
00000260: 1113 6934 98b7 4733 2cf5 1233 4e7c 4538
00000270: 7a8e 9f32 a239 7334 9e60 d032 a9a1 a537
00000280: c9a4 bf32 ed61 6034 9749 9037 a63c 8736
00000290: 7ace e635 bf80 0037 dfe3 8430 bc45 d632
000002a0: 30cc 6b36 a6d2 2e37 30ca 1235 8620 9337
000002b0: c072 7b35 5daf 2b31 f9d9 0e32 e22e af31
000002c0: 1908 0137 323b f137 46e3 1933 826d 2233
000002d0: 3224 df31 97ae 9c33 d418 7234 685c 8836
000002e0: 6351 a433 3152 2338 2551 b936 58af 9434
000002f0: 559c 4736 04ec 9637 8235 0033 48e9 9c33
00000300: 8030 4830 d6fd 1c31 34f8 bc36 a098 0e36
00000310: 3817 2938 557f 8731 a482 0f31 3ca6 bf31
00000320: ec68 0d37 80bd 4b31 00fa 1436 c056 8834
00000330: 327b 9e36 eae0 8b33 b6dd 4b36 208d b036
00000340: 6960 7233 b2dd e233 7eb5 2834 4174 1836
00000350: c62d c733 01de ab37 7a48 1935 58e6 0031
00000360: 6b18 cc35 e6ac 2f37 5e20 d737 a23b a536
00000370: 9fdb 4b34 6495 a033 0cbb 8a36 ba7a 0031
00000380: cca3 3d32 d83f a235 10cb db36 256d e832
00000390: 5ccf 8731 5678 9a32 c4d1 6834 36e9 2834
000003a0: 68eb c537 555b 1337 9fa4 aa33 aace 3631
000003b0: 15ad f435 710c 1236 4309 c631 6de0 6436
000003c0: 0c90 c236 1269 7332 18e5 f733 c87b 3337
000003d0: 180d 4437 544b 7234 269b 1f35 8903 2e31
000003e0: 7eb3 3c32 d4df ef35 846d d032 3ee4 2738
000003f0: 7fff 7435 e58a c536 4f6b b832 3c7a 7632
4.4343587e-06 5.830954e-07 8.935205e-06 1.60323e-05 3.164401e-08 8.224769e-08 9.105873e-08 9.6744294e-08
4.1587376e-07 8.970663e-06 2.8051193e-08 7.806489e-07 1.6591208e-06 3.740684e-06 1.2257141e-08 6.159073e-06
1.332433e-07 1.6290842e-09 7.859488e-07 2.8243198e-06 2.0618186e-06 8.535971e-06 1.1682813e-07 1.04575975e-07
2.5526331e-05 5.3016834e-06 3.84999e-06 2.6855296e-06 2.0237592e-06 2.664745e-05 2.6914026e-06 1.1315036e-06
2.4534093e-06 2.4569705e-05 9.873067e-07 2.386083e-07 1.063617e-07 4.4395634e-07 2.505642e-09 2.7619108e-06
2.0906991e-07 6.019151e-07 4.0485087e-08 1.0063704e-06 6.253744e-08 2.101251e-08 8.456337e-07 2.4701363e-09
4.459598e-07 1.6432325e-06 4.0426144e-06 4.2789034e-06 6.371787e-07 8.453193e-06 2.6489148e-05 2.395307e-07
8.877808e-06 2.2205704e-06 3.2260604e-07 2.5634366e-08 1.7795631e-07 1.0293455e-06 3.333397e-06 1.27669635e-08
2.254835e-09 1.14027685e-08 3.3051242e-07 1.2930363e-07 2.3036632e-06 3.0306666e-07 8.427138e-09 5.3416863e-07
4.903101e-07 1.6858198e-07 1.350763e-07 2.4372456e-08 2.7627064e-07 7.5210596e-06 1.8243266e-07 3.0821496e-07
6.4812552e-06 1.2348108e-05 1.8465003e-05 1.3844648e-07 1.3948338e-08 1.1751122e-06 4.2136023e-08 1.2054426e-09
9.46138e-08 6.0503567e-07 1.4675853e-06 2.8838426e-07 2.2324435e-05 8.668665e-06 2.4410977e-07 6.3277095e-09
1.1405527e-06 7.748235e-08 3.802012e-07 2.9963144e-06 3.2951272e-07 5.714932e-09 2.2144896e-08 1.848437e-05
1.3473868e-06 5.0719655e-07 9.226813e-06 3.311331e-08 1.1340188e-07 1.3374623e-07 5.4284976e-07 2.042565e-07
3.397878e-07 1.5150636e-06 1.3493006e-05 6.1466847e-07 6.739911e-07 2.6508751e-05 4.3312617e-08 2.4221116e-08
1.128777e-06 1.1116187e-07 2.677675e-06 2.2866798e-06 6.053298e-08 3.4242697e-07 2.3435102e-06 1.530238e-06
3.916216e-08 1.0081263e-05 7.701556e-08 1.3661302e-07 3.9476672e-07 1.2843568e-06 1.4405638e-06 1.5407533e-06
7.18589e-06 7.727183e-08 2.5958764e-09 7.867816e-09 1.5451848e-08 3.3236496e-08 2.1932751e-09 5.366957e-08
2.1844971e-06 2.473827e-09 7.7701925e-09 4.9476203e-05 3.6094603e-05 7.3673675e-08 1.8839552e-06 1.6888604e-06
2.1706752e-07 4.6500276e-08 3.4216256e-08 4.7084228e-05 1.8574827e-08 2.2652105e-07 2.4258323e-08 1.9744812e-05
2.2310262e-08 2.0897251e-07 1.7200406e-05 4.030374e-06 1.7196428e-06 7.659371e-06 9.669029e-10 2.494459e-08
3.5136582e-06 1.0420254e-05 5.468346e-07 1.753891e-05 9.367177e-07 2.4983458e-09 8.315049e-09 5.0985003e-09
7.690885e-06 2.8757004e-05 3.5829792e-08 3.781816e-08 6.494269e-09 7.296074e-08 2.2547039e-07 4.0638733e-06
7.651649e-08 3.8938775e-05 5.522876e-06 2.7694728e-07 2.9744308e-06 1.7991297e-05 2.9850987e-08 7.30675e-08
7.28285e-10 2.2845277e-09 5.6317313e-06 2.1248488e-06 4.0314364e-05 3.943493e-09 2.08835e-09 5.5777303e-09
8.428684e-06 2.9648106e-09 2.2199238e-06 2.5395093e-07 4.7231088e-06 6.5136035e-08 3.037841e-06 5.261638e-06
5.64327e-08 1.0564271e-07 1.5712246e-07 2.2717434e-06 9.274986e-08 2.0488167e-05 5.710241e-07 1.8757387e-09
1.5206291e-06 1.0471069e-05 2.564507e-05 4.9243254e-06 1.8985746e-07 7.4777546e-08 4.1344956e-06 1.8696213e-09
1.1038491e-08 1.2088522e-06 6.550348e-06 2.7057988e-08 3.952591e-09 1.7982682e-08 2.1682996e-07 1.5731061e-07
2.359385e-05 8.783148e-06 7.946186e-08 2.660196e-09 1.822979e-06 2.1762937e-06 5.7636114e-09 3.410528e-06
5.79842e-06 1.4168352e-08 1.1543506e-07 1.06980515e-05 1.1685559e-05 2.256541e-07 5.9457886e-07 2.5322342e-09
1.0983852e-08 1.787203e-06 2.4264189e-08 4.002847e-05 9.126888e-07 5.887227e-06 2.1469218e-08 1.43468775e-08
