old_ppo/PoI/PoI-7216.pt (torch, 514980 bytes, 36 tensors)

network_body._body_endoder.seq_layers.0.weight f4 [128, 29]
0	0xbdfc6c2b	-0.12325319
1	0xbe296529	-0.16542496
2	0x3d88fc49	0.066887446
3	0x3e839d65	0.2570602
4	0x3d1a0ac7	0.037607934
5	0xbe4117ab	-0.18856685
6	0x3ab8c460	0.001409661
7	0xbe1119d5	-0.1417001
8	0x3c9fd45d	0.019510442
9	0x3ed00771	0.40630677
10	0xbc984937	-0.018589599
11	0x3dd5343e	0.10410355
12	0x3e384894	0.17996436
13	0x3d90ed5c	0.07076523
14	0xbe0a825d	-0.13526292
15	0x3e27768e	0.16353819
16	0xbdd4af85	-0.1038504
17	0xbe58128e	-0.21100828
18	0xbed7961e	-0.42106718
19	0x3c12fbc0	0.008971155
20	0x39341672	0.00017174499
21	0xbcc96b4e	-0.0245873
22	0x3da8ecb1	0.0824827
23	0xbdf2fae9	-0.118642636
24	0xbe02b4e8	-0.12764323
25	0xbe38e283	-0.18055157
26	0xbd72a885	-0.059242744
27	0xbde3b69a	-0.11118813
28	0x3d8e5e99	0.06951637
29	0x3cdbde14	0.026839294
30	0x3ed819db	0.42207226
31	0x3d89c6ff	0.067274086
32	0xbdb1a3dc	-0.08673832
33	0x3c6f9a37	0.01462417
34	0x3e634dff	0.22197722
35	0x3e1254d8	0.14290178
36	0xbe643769	-0.22286762
37	0xbe08ecd1	-0.13371588
38	0xbd9710bb	-0.07376238
39	0x3c846f06	0.016166221
40	0x3d213ac8	0.0393627
41	0x3d6a1cf4	0.057156518
42	0x3d81525a	0.063145354
43	0x3da787e4	0.08180216
44	0x3e8cce10	0.27500963
45	0x3c9e581d	0.019329125
46	0xbda6a326	-0.08136587
47	0xbd8e447d	-0.06946657
48	0xbe56af77	-0.20965372
49	0xbb1eb90d	-0.0024219186
50	0xbe2fff9f	-0.17187355
51	0xbdee3beb	-0.11632522
52	0xbe3cd718	-0.18441427
53	0xbda579b0	-0.08079851
54	0xbed5ba2b	-0.41743597
55	0xbd1b8829	-0.03797165
56	0xbd4b13aa	-0.0495793
57	0xbe0709e3	-0.13187365
58	0x3ddf657e	0.1090803
59	0xbda34120	-0.07971406
60	0x3ad476af	0.0016209687
61	0x3dfd258c	0.12360677
62	0xbcb82344	-0.022477753
63	0x3cf07f54	0.02935759
64	0xbca1e8d1	-0.019764336
65	0xbb45edaa	-0.0030201473
66	0xbb29f91f	-0.0025935841
67	0x3e1fa12b	0.15588824
68	0xbdaba6ad	-0.083814
69	0xbe82c6be	-0.25542253
70	0xbdf67064	-0.120331556
71	0x3df74a14	0.12074676
72	0x396b9be0	0.00022469414
73	0xbc0b6b1c	-0.008509424
74	0xbcf25e62	-0.02958602
75	0x3c5c110e	0.0134318005
76	0x3d1cde05	0.03829767
77	0x3a40c8ef	0.000735416
78	0xbe392ba6	-0.18083057
79	0xbb872f3d	-0.0041255043
80	0x3def522b	0.11685594
81	0xbc8dcb94	-0.017308988
82	0xbdbcee17	-0.092250995
83	0xbdb028e3	-0.086015485
84	0x3e6dab0f	0.23209785
85	0x3d42c35c	0.04754959
86	0xbe0c2aa3	-0.1368814
87	0xbd8958f7	-0.06706422
88	0x3d237e64	0.039915457
89	0xbd64172e	-0.05568617
90	0xbdcd3cad	-0.100213386
91	0x3e4d4493	0.2004569
92	0xbd5a739e	-0.053332917
93	0xbe3d754e	-0.1850178
94	0x3ee64f37	0.4498231
95	0x3ea4baa0	0.32173634
96	0xbbb716a9	-0.005587418
97	0xbc9b476a	-0.018954951
98	0x3d86d0ed	0.06582818
99	0x3cac9e63	0.021071618
100	0xbe861cd0	-0.26193857
101	0xbe88c32b	-0.267114
102	0x3e588cb7	0.21147428
103	0xbd6a3700	-0.05718136
104	0x3d00f0c6	0.03147962
105	0xbcba4662	-0.02273864
106	0x3e4d6235	0.20056994
107	0xbc5c2a03	-0.013437751
108	0xbeb888fa	-0.36042005
109	0xbd020d8b	-0.031751197
110	0x3e38ca28	0.18045866
111	0xbdb45887	-0.08805948
112	0xbd15b104	-0.03654577
113	0x3d369174	0.04457231
114	0xbdb4a620	-0.08820748
115	0x3ede9fb5	0.43481222
116	0x3e2b1a8f	0.1670935
117	0xbe0b3175	-0.13593085
118	0xbe16131a	-0.14655724
119	0xbe12e2ae	-0.14344284
120	0xbd169014	-0.036758497
121	0xbcbfb008	-0.023399368
122	0x3da66509	0.0812474
123	0x3c680ec2	0.014163675
124	0xbd85f248	-0.06540352
125	0x3db21dbb	0.08697077
126	0xbe770b6d	-0.24125452
127	0xbdd387da	-0.10328646
128	0xbd00c6ac	-0.03143947
129	0xbe35ef8f	-0.17767166
130	0x3e57c2b6	0.2107037
131	0xbe58d8f2	-0.21176508
132	0x3e232689	0.15932669
133	0xbe6cd023	-0.23126273
134	0xbde075f5	-0.109599985
135	0xbc74b555	-0.014935811
136	0x3da205aa	0.079112366
137	0x3dac8e50	0.084255815
138	0xbc2a2b07	-0.010386235
139	0x3e2eca57	0.17069374
140	0x3dcc4b3c	0.09975287
141	0x3daab234	0.08334771
142	0xbeb38dd4	-0.35069144
143	0x3e9556de	0.29167837
144	0xbe11eb94	-0.14250022
145	0xb92c844f	-0.00016452487
146	0xbe0e6d55	-0.13908894
147	0xbea4bd6e	-0.32175773
148	0x3e2addff	0.16686247
149	0x3d8146c7	0.06312328
150	0xbdf39ea1	-0.118954904
151	0x3d7165c8	0.058934957
152	0x3c5a16c8	0.013311096
153	0x3e78ac67	0.24284516
154	0x3d5788e3	0.05262078
155	0xbda22b4a	-0.07918413
156	0x3dcb662b	0.09931596
157	0xbc53211d	-0.012886313
158	0xbe47dd82	-0.19518092
159	0x3d44db2b	0.048060577
160	0x3beb2c12	0.0071768845
161	0xbddcf923	-0.107897066
162	0x3cbb05a6	0.022829842
163	0xbee7055c	-0.45121276
164	0x3e3ad2da	0.18244496
165	0xb91c4374	-0.00014902448
166	0xbc199e49	-0.009376117
167	0xbdbd11fa	-0.092319444
168	0x3dee6c60	0.11641765
169	0xbeb108d5	-0.3457705
170	0x3db5bd06	0.08873944
171	0xbe117437	-0.14204489
172	0x3e64ca98	0.22342908
173	0x3ce33a93	0.027737891
174	0x3ca2e4ae	0.019884434
175	0x3e946af4	0.2898785
176	0x3eacef2a	0.33776218
177	0x3c2db18e	0.010601414
178	0xbca863de	-0.020555433
179	0x3dc13db9	0.09435601
180	0x3ea07863	0.31341848
181	0xbdd4dbdb	-0.103934966
182	0x3e5671a2	0.20941785
183	0x3cd14e6d	0.025550092
184	0x3e2b727f	0.16742896
185	0x3d95be5f	0.07311701
186	0x3e11d757	0.14242302
187	0x3e2807bc	0.164092
188	0xbda0b832	-0.078476325
189	0x3dc19c4c	0.094536394
190	0xbdb72a0b	-0.08943566
191	0xbdf08326	-0.117437646
192	0xbe6bed7d	-0.23039813
193	0xbd306dac	-0.04307334
194	0x3d242945	0.04007842
195	0x3e0cd045	0.13751324
196	0xbeaab191	-0.33338597
197	0x3e041532	0.1289871
198	0xbe37d954	-0.17953998
199	0xbdf87225	-0.12131146
200	0xbe086b98	-0.13322294
201	0xbe96f3f1	-0.29482988
202	0x3ec8cba7	0.39217874
203	0xbe9f26d8	-0.31084323
204	0xbdb03c46	-0.08605246
205	0x3db8727b	0.090062104
206	0xbe8ce178	-0.2751577
207	0x3db21bc6	0.086967036
208	0x3e4f93d7	0.2027124
209	0xbea7960d	-0.32731667
210	0x3dd30ca0	0.103051424
211	0xbe178c74	-0.14799672
212	0xbda752fc	-0.08170125
213	0xbe61ac59	-0.22038402
214	0xbdb61dbb	-0.088923894
215	0xbe9ba46c	-0.3039888
216	0x3ec28cde	0.37998098
217	0xbe8b41e4	-0.27198708
218	0xbd2aa9c4	-0.041665807
219	0x3d94b9ef	0.072620265
220	0xbd2a09d6	-0.041513287
221	0x3e39c3b8	0.18141067
222	0xbdc34a39	-0.09535641
223	0x3d8ccadf	0.06874632
224	0x3d8b0ae7	0.06789189
225	0x3dc58974	0.09645358
226	0x3eb0ba81	0.3451729
227	0x3e35b9e2	0.1774669
228	0x3d473f33	0.048644256
229	0xbe83431d	-0.2563714
230	0x3e98caa8	0.29842114
231	0x3e623e0b	0.2209398
232	0x3ca4926c	0.02008935
233	0xbdd7f2b1	-0.105443366
234	0xbeb9abca	-0.36263877
235	0x3eae0f64	0.33996117
236	0x3cc859cb	0.02445688
237	0x3e31ae40	0.17351627
238	0x3e46376f	0.19357084
239	0xbeb2d825	-0.3493053
240	0x3e87d27b	0.2652777
241	0x3e1c39ed	0.15256472
242	0x3ed76a21	0.42073157
243	0xbe7f7533	-0.24947052
244	0x3dbbbcd2	0.09166874
245	0x3e10dbc3	0.14146332
246	0x3e3b9a32	0.1832054
247	0xbdc5cb60	-0.09657931
248	0x3ece8d82	0.40342337
249	0x3dab2804	0.08357242
250	0xbbe00767	-0.00683682
251	0x3e5ce205	0.21570595
252	0x3e0e02b8	0.13868225
253	0xbc9ef5b7	-0.019404275
254	0xbe36f6fa	-0.17867652
255	0x3b5a7238	0.003333224

network_body._body_endoder.seq_layers.0.bias f4 [128]
0	0x3ba4bf77	0.005027707
1	0xbc5d7c0e	-0.0135183465
2	0x3bf6daa0	0.0075333863
3	0x3bc98301	0.00614965
4	0xbc8f4514	-0.017488994
5	0x3c5d6f69	0.013515332
6	0xbc177568	-0.0092443
7	0xbc88a88c	-0.016681932
8	0x3ac9be5a	0.0015391812
9	0xbc6436cd	-0.013929081
10	0x3c84b24f	0.016198305
11	0x3a38a36b	0.0007043394
12	0x3c0a4f53	0.008441764
13	0x3b49a02e	0.003076564
14	0x3be233dc	0.006903155
15	0xbca128a2	-0.019672696
16	0xbc936f1b	-0.017997315
17	0x3c2eeb43	0.010676208
18	0x3c2ed4dc	0.010670867
19	0x3ada560a	0.0016657722
20	0xbb862fe6	-0.0040950654
21	0x3cda5ab0	0.026654571
22	0xba2be266	-0.00065568683
23	0xbc5b4c2f	-0.013384863
24	0xbc7d7e9f	-0.015472083
25	0x3c27cf8b	0.010242353
26	0xbcb0fffb	-0.021606436
27	0x3c333176	0.010937085
28	0xbb945cc8	-0.004527662
29	0xbb7c0cf5	-0.0038459871
30	0x3b1c7835	0.002387536
31	0xbbcdfe54	-0.006286422
32	0xbc20bba3	-0.009810361
33	0xbbff5394	-0.0077919457
34	0x3ac3b584	0.0014931415
35	0xbb300c0d	-0.0026862652
36	0x3cd5dacb	0.026105305
37	0xbca588ee	-0.020206895
38	0xbc6b1b8c	-0.014349829
39	0xbbc12e82	-0.0058954367
40	0x3c1aa466	0.00943861
41	0xbc341964	-0.010992382
42	0x3c211467	0.009831524
43	0xbc141ea1	-0.009040506
44	0x3b04f168	0.002028549
45	0xbbabc631	-0.005242132
46	0xbc6f5298	-0.014607094
47	0xbb9b95b8	-0.0047480725
48	0x3c3dc88a	0.011583457
49	0x3c91a79c	0.017780118
50	0x3c3e6515	0.0116207795
51	0xbc5eb078	-0.013591878
52	0xbb403897	-0.0029330605
53	0x393bcaae	0.00017909214
54	0x3aad4cea	0.0013221775
55	0xbd05d3fc	-0.032672867
56	0x3be98a7c	0.0071271043
57	0xbc39b9ba	-0.011335785
58	0x3cc7e090	0.024399072
59	0x3c1efd20	0.009703904
60	0x3c0fd339	0.008778387
61	0x3bb08e56	0.0053880615
62	0x3b1d2677	0.0023979226
63	0xbc887d45	-0.016661296
64	0xbc3fa298	-0.01169648
65	0xbc3278fb	-0.010893102
66	0xbc58e95a	-0.013239229
67	0xbbdc0ed8	-0.0067156367
68	0x3c551a73	0.013006794
69	0xbbf4dc81	-0.007472575
70	0xbbf3eda5	-0.007444101
71	0x3c9c764c	0.019099377
72	0xbb575fe4	-0.0032863552
73	0xbba7ca48	-0.0051205494
74	0x3c606dc1	0.013698042
75	0x3c7bc27e	0.015366195
76	0xbb3fd3f1	-0.0029270614
77	0xbc22d909	-0.0099394405
78	0xbc1af495	-0.009457727
79	0xbc31c121	-0.010849268
80	0xbca48c6c	-0.02008649
81	0xba2d2aa6	-0.00066057814
82	0xbc563442	-0.013073983
83	0xbc89ec16	-0.016836207
84	0x3bbeb9f1	0.005820506
85	0xbc1860ff	-0.009300469
86	0xbc1cdf7e	-0.009574769
87	0xbc0de6ec	-0.008661013
88	0xbc4534b2	-0.012036489
89	0xbb8fb6bb	-0.004385797
90	0x3ce02e0c	0.027365707
91	0xbc177dca	-0.009246299
92	0x3bca7ef2	0.006179684
93	0xbc8f53dd	-0.017496044
94	0x3b9033eb	0.0044007204
95	0x3cccdb28	0.025006846
96	0xbc83406b	-0.016021928
97	0xbcadcaab	-0.021214804
98	0xbce99184	-0.02851177
99	0x3c0bd819	0.008535408
100	0xbb50a386	-0.0031835749
101	0xbbeaad8b	-0.007161801
102	0x3c3d013d	0.01153594
103	0x3c110b7f	0.008852839
104	0xbbe29f49	-0.006915961
105	0xbb854ba8	-0.004067857
106	0xbb94d357	-0.0045417952
107	0x3c9611e2	0.018319074
108	0x3b9e3f16	0.004829298
109	0xbbe8bb9a	-0.007102442
110	0x3c82acf3	0.01595161
111	0x3c82657a	0.015917528
112	0x3c16db9f	0.009207635
113	0x3c1883cb	0.009308766
114	0x3bb2c06a	0.0054550664
115	0x3bab5798	0.005228948
116	0x3c0b13c7	0.008488602
117	0x3c20e53d	0.00982028
118	0xb9fc591f	-0.00048131586
119	0xbc6d9d7f	-0.014502882
120	0xbc304faf	-0.010761186
121	0x39a483a0	0.00031378586
122	0x3b36055a	0.0027774186
123	0xbcf0dbaa	-0.029401619
124	0xbaddac9f	-0.0016912407
125	0x380c561a	3.345879e-05
126	0xb8657059	-5.4702487e-05
127	0xbc358920	-0.011080056

network_body._body_endoder.seq_layers.2.weight f4 [128, 128]
0	0x3bf49cde	0.007464989
1	0x3d2fb1f8	0.042894334
2	0xbd8cfc48	-0.06884056
3	0x3c8ffba1	0.01757604
4	0x3cc93d6c	0.024565421
5	0x3d99c150	0.075075746
6	0xbd6cbff0	-0.057800233
7	0xbdb11c55	-0.08647982
8	0xbbeec2c3	-0.007286401
9	0xbdf4fbba	-0.119620755
10	0xbd098a17	-0.03357896
11	0xbdc5b3b6	-0.09653418
12	0x3dcfaa94	0.10139957
13	0x3d0e6e7a	0.034773327
14	0x3ccb488a	0.024814863
15	0xbdb3b41d	-0.08774588
16	0x3dea2c82	0.114342704
17	0x3dbd0c4e	0.092308626
18	0x3c04c6a3	0.008103999
19	0xbe0a9164	-0.13532025
20	0xbcbe08d1	-0.023197563
21	0x3d52ada2	0.05143512
22	0x3aa0e770	0.0012276005
23	0xbca5abdc	-0.02022355
24	0xbe0cd09b	-0.13751452
25	0xbd025095	-0.03181513
26	0xbe2d9654	-0.16951877
27	0xbdc2b55c	-0.09507248
28	0xbdb8710e	-0.090059385
29	0xbc81ed39	-0.015860187
30	0x3cc8eaf5	0.024526099
31	0xbce46598	-0.027880475
32	0xbca00e97	-0.019538207
33	0x3daaa3f0	0.0833205
34	0x3ce36733	0.02775917
35	0xbd5db0fd	-0.054123867
36	0x3df755c7	0.120769076
37	0xbdd66fd5	-0.10470549
38	0xbd431c8c	-0.047634646
39	0xbd3628f1	-0.04447264
40	0x3d804107	0.06262403
41	0xbe0001c5	-0.12500675
42	0xbd67d276	-0.056597196
43	0x3c2d8198	0.01058998
44	0xbcb4e2a5	-0.022080729
45	0x3c5c86e6	0.013459897
46	0x3e07b20c	0.13251513
47	0xbdaae315	-0.08344094
48	0xbdb754c5	-0.089517154
49	0x3db11792	0.08647074
50	0x3dbca3f7	0.09210961
51	0x3d93bcd7	0.07213753
52	0xbd1105e5	-0.035406012
53	0xbce4205f	-0.027847467
54	0xbd5a464f	-0.053289708
55	0xbe0f2fdb	-0.13983099
56	0x3de6a6ae	0.112622604
57	0xbcb144bf	-0.021639226
58	0x3dcbae28	0.09945327
59	0x3d65b906	0.056084655
60	0x3db05c54	0.0861136
61	0x3d820f1e	0.063505396
62	0x3cba8f3e	0.022773381
63	0xbdc54d2f	-0.09633862
64	0xbddbefd6	-0.107391044
65	0x3e3dfce5	0.18553503
66	0xbbbf2b73	-0.005834037
67	0x3cbd0b1a	0.023076583
68	0x3e5c1e04	0.21495825
69	0x3caa1b60	0.020765007
70	0x3d109690	0.035299838
71	0xbd09c6e9	-0.03363696
72	0xbd5739d8	-0.0525454
73	0xbe125469	-0.14290012
74	0xbbfc6582	-0.0077025304
75	0xbc38cc99	-0.011279249
76	0xbe2692f9	-0.16267003
77	0x3de08c9a	0.109643176
78	0x3d3f6e64	0.046736136
79	0x3dc860c4	0.097840816
80	0xbd95ebbb	-0.07320353
81	0x3dc34389	0.09534366
82	0xbd558dcb	-0.052137177
83	0x3d9d977e	0.076949105
84	0xbd97c990	-0.07411492
85	0xbd7dc0c3	-0.06195141
86	0xbdb370e5	-0.08761767
87	0xbb0664b5	-0.0020506803
88	0x3ce87898	0.028377816
89	0xbdc60719	-0.096693225
90	0x3dccded8	0.100034416
91	0x3cc6e5f3	0.02427957
92	0x3dd510bf	0.10403585
93	0x3ba17e1f	0.004928365
94	0xbc9f8edd	-0.019477302
95	0x3d705e23	0.058683526
96	0xbd38d54d	-0.045125294
97	0xbd198716	-0.037482344
98	0x3d89bf7d	0.067259766
99	0x3d87ef20	0.06637406
100	0xbd280484	-0.04101993
101	0x3c6939b5	0.01423495
102	0x3d3b0259	0.045656536
103	0xbd33521d	-0.04377948
104	0xbe1dbb94	-0.15403587
105	0xbe085a89	-0.13315786
106	0xbdc90f46	-0.09817366
107	0x3dac8fb5	0.084258474
108	0x3dd0fe26	0.10204725
109	0xbc7b0381	-0.01532066
110	0xbd1cbc69	-0.03826562
111	0x3deb1c50	0.114800096
112	0xbd5e62b3	-0.054293346
113	0xbd419e09	-0.047269855
114	0x3cecc633	0.028903103
115	0xbbaaac69	-0.005208541
116	0x3d17d3f0	0.037067354
117	0xbd5a017d	-0.053224076
118	0x3d8b19d5	0.067920364
119	0xbce24f0b	-0.027625581
120	0xbe1a5d83	-0.15074734
121	0x3c8649cb	0.01639261
122	0xbd1772cc	-0.036974713
123	0xbc8ebf43	-0.017425185
124	0xbddfa32d	-0.10919795
125	0xbe1958de	-0.14975306
126	0xbe11ba3c	-0.14231199
127	0xbe1411fd	-0.14459987
128	0x3e1dee88	0.15423024
129	0x3da8a9fa	0.082355455
130	0x3db57fd4	0.08862272
131	0xbd7a23a5	-0.06106915
132	0x3db13050	0.08651793
133	0xbd3c8157	-0.046021786
134	0x3da47f28	0.08032066
135	0xbd34e8f3	-0.04416747
136	0x3d450666	0.048101805
137	0xbd708a72	-0.05872578
138	0xbd8b0065	-0.067871846
139	0xbe5994d6	-0.21248183
140	0x3df08e5c	0.11745903
141	0x3d045865	0.032310862
142	0xbd40c4eb	-0.047062796
143	0x3dcda6cc	0.100415796
144	0x3c5c856b	0.013459544
145	0xbd06b3a5	-0.032886166
146	0xbd641ced	-0.05569165
147	0x3cec934c	0.02887883
148	0xbc9720d4	-0.01844827
149	0x3db0b1e1	0.08627678
150	0xbc9ad7ac	-0.018901668
151	0x3d91f296	0.07126348
152	0xbd2be95f	-0.041970607
153	0x3c865c0d	0.016401315
154	0xbe1e1f87	-0.15441714
155	0x3df01876	0.117234156
156	0x3d72e698	0.059301943
157	0xbcf7e0e7	-0.030258609
158	0xbd3ac45a	-0.04559741
159	0x3cfffc76	0.031248312
160	0xbe05aff6	-0.13055405
161	0x3e9d1b2f	0.30684802
162	0xbdf39d23	-0.11895206
163	0xbe34ce69	-0.17656864
164	0x3d6e64b9	0.058201525
165	0x3dc33e01	0.09533311
166	0x3e362714	0.17788345
167	0xbdb27dba	-0.08715387
168	0x3d4d8980	0.05017996
169	0x3da6e5ea	0.081493214
170	0xbc8d1a44	-0.017224438
171	0x3df4dd71	0.11956299
172	0xbdf1f696	-0.11814611
173	0xbd88a728	-0.066725075
174	0x3e4282c7	0.189952
175	0xbd13072a	-0.035895504
176	0xbcd9d44e	-0.026590493
177	0x3c8f1be8	0.017469361
178	0xbe80c309	-0.251488
179	0xbd2596e2	-0.040427096
180	0xbc77241c	-0.015084293
181	0x3c1e4b5a	0.00966152
182	0x3e0461dc	0.12927955
183	0x3d4953b1	0.04915208
184	0xbd056b95	-0.0325733
185	0x3e5ebd9c	0.21752018
186	0xbceba4a9	-0.02876504
187	0x3dcac537	0.09900897
188	0xbd98fafc	-0.074697465
189	0xbd86c3c4	-0.06580308
190	0xbdb0a433	-0.086250685
191	0xbc5eb4f1	-0.0135929445
192	0xbd593073	-0.05302472
193	0x3be0b069	0.006856967
194	0xbd7c7ffe	-0.0616455
195	0xbe20dcdb	-0.1570925
196	0x3db5eea6	0.08883409
197	0x3d4759e9	0.04866973
198	0xbd969a9b	-0.073537074
199	0xbd064346	-0.032779
200	0x3d2d098e	0.04224544
201	0x3c43a5f5	0.011941423
202	0x3ca51758	0.020152733
203	0xbe7af746	-0.2450839
204	0xbe001976	-0.12509713
205	0xbdebb97b	-0.11509987
206	0x3d22444a	0.039615907
207	0xbdbbfd62	-0.09179188
208	0x3d2c0f58	0.04200682
209	0x3dfa429c	0.12219736
210	0x3c8c4ba7	0.017125918
211	0x3d8a962b	0.067669235
212	0x3e188ff9	0.14898671
213	0xbd66ac51	-0.056316677
214	0x3e7f3179	0.24921216
215	0xbda1f424	-0.07907894
216	0xbd87a2a3	-0.06622817
217	0x3e49d0b9	0.19708528
218	0xbe081f4d	-0.1329319
219	0x3d9d48d3	0.07679906
220	0x3e00edf9	0.1259078
221	0x3d9e4b63	0.077292226
222	0xbd7d25df	-0.061803695
223	0xbda7a9de	-0.081866965
224	0x3d484543	0.048894178
225	0x3dcc7888	0.09983927
226	0xbd1dd7ec	-0.038535997
227	0x3be05cf9	0.0068470207
228	0x3e5651f1	0.20929696
229	0x3cc05dbd	0.023482198
230	0x3dcb5794	0.099288136
231	0xbcf8eaea	-0.030385453
232	0x3de4ea96	0.11177556
233	0x3d70dc66	0.05880394
234	0x3e13a7e0	0.14419508
235	0xbc9dc3a6	-0.019258332
236	0x3cc15914	0.023602046
237	0x3cb975dd	0.02263921
238	0xbdfbd8c2	-0.12297203
239	0x3d92cb98	0.07167739
240	0x3b99910c	0.0046864804
241	0x3e378be3	0.17924456
242	0x3e38d1e3	0.18048815
243	0xbdcc9e46	-0.09991126
244	0xbc587344	-0.013211075
245	0xbab2ab48	-0.0013631368
246	0x3a157418	0.0005701198
247	0xbe11e856	-0.14248785
248	0x3dc645aa	0.09681256
249	0x3c7fcb48	0.015612431
250	0x3d07432c	0.033023044
251	0xbe02db39	-0.1277894
252	0x3dec9d41	0.11553431
253	0x3ce3991a	0.027782965
254	0x3e36ef23	0.17864661
255	0x3c865d89	0.016402023

network_body._body_endoder.seq_layers.2.bias f4 [128]
0	0x3c4e02e8	0.012573935
1	0x3ad4bc3b	0.0016230413
2	0x3bd625d8	0.006535273
3	0xbb7d9a09	-0.0038696548
4	0x3b731900	0.0037093759
5	0x3c4e8205	0.012604241
6	0xbc962830	-0.01832971
7	0xbb987db2	-0.004653656
8	0xbc5cd7f4	-0.013479222
9	0x3c1a96e4	0.009435389
10	0xbc25600d	-0.010093701
11	0xbc84f558	-0.01623027
12	0x3b9a5502	0.0047098408
13	0x3c09fc0e	0.008421911
14	0xb8ae86e2	-8.3220904e-05
15	0xbc1b994c	-0.009496998
16	0xbc508dc2	-0.01272911
17	0x3af94824	0.0019018692
18	0xbc46b1d2	-0.012127357
19	0xbcaa90b1	-0.020820947
20	0xbbe18269	-0.006882001
21	0x39f5f49a	0.00046912284
22	0xbc878c2d	-0.016546333
23	0xbc8c775d	-0.01714676
24	0xbc52670c	-0.012841951
25	0x3c7dd621	0.015492947
26	0xbbd24b41	-0.0064176624
27	0x3adae5f4	0.0016700611
28	0xbc3fee2e	-0.011714501
29	0x3c00d059	0.007862174
30	0xbc582516	-0.013192436
31	0x3c066892	0.008203642
32	0xbc053399	-0.008129978
33	0xbc4133b0	-0.011792108
34	0xbc3ebfea	-0.011642436
35	0xbbc12fb2	-0.0058955783
36	0xbc5d7346	-0.013516253
37	0x3a9249bc	0.001116089
38	0x3c0fbc7e	0.008772967
39	0x3ca25794	0.019817151
40	0x3c7750fc	0.015094992
41	0xbbaa9410	-0.0052056387
42	0xbacd6e48	-0.0015673125
43	0xbb8b7c5c	-0.004256768
44	0xba3a4b58	-0.0007106564
45	0xbc90110f	-0.01758626
46	0x3c34fc32	0.011046456
47	0xbb753791	-0.0037417153
48	0x3a7e92a3	0.00097111816
49	0xbc8b75ca	-0.01702394
50	0x3c9525ea	0.018206555
51	0x3c05127c	0.008122083
52	0x3c149213	0.00906803
53	0x3c87ff14	0.016601123
54	0xbc03dc55	-0.008048137
55	0xbc9dde80	-0.019271135
56	0x3b1f5738	0.002431346
57	0x3ba88a60	0.0051434487
58	0x392eb286	0.00016660438
59	0xbc066177	-0.008201948
60	0x3b918c36	0.0044417633
61	0x362f64d0	2.6135713e-06
62	0xbaa5af40	-0.001264073
63	0xbb23d96c	-0.002500142
64	0xbbbaf337	-0.005705263
65	0xbb81d069	-0.003961612
66	0xbc608029	-0.013702431
67	0xbb8e28fa	-0.004338381
68	0xbbb9dec0	-0.005672306
69	0xbc29043e	-0.010315953
70	0x3bb81e26	0.0056188283
71	0xbaa6020b	-0.0012665404
72	0xbc97b222	-0.018517558
73	0xbb86460b	-0.0040977052
74	0x3a0f8989	0.00054755114
75	0xbc20f93f	-0.00982505
76	0xbbc7b74d	-0.006094849
77	0x3ba18abe	0.0049298694
78	0xbba29219	-0.004961264
79	0x3b32473f	0.002720311
80	0x3c156063	0.009117219
81	0x3bb13032	0.0054073567
82	0xbc539495	-0.012913843
83	0xbc9ce3c9	-0.019151585
84	0xbbc0f884	-0.0058890004
85	0x3c3af65c	0.011411276
86	0xbbc3f45e	-0.0059800586
87	0xbca7e414	-0.020494498
88	0xbbbc1eb1	-0.0057409634
89	0x3b97fffc	0.00463867
90	0x3c50742e	0.012723012
91	0x3ba631b1	0.0050718416
92	0xbcc485d6	-0.0239896
93	0xbc84e91a	-0.016224433
94	0xbb3fe397	-0.0029279941
95	0xbc303c5c	-0.010756578
96	0xbc5df9bb	-0.01354831
97	0x3c831b3c	0.016004197
98	0xbb9a6691	-0.004711934
99	0x3a309a93	0.00067369005
100	0x3c20b1ae	0.009807987
101	0xbc39d9f9	-0.011343473
102	0xbc0a3cbb	-0.008437331
103	0xbbdbb9fa	-0.0067055197
104	0xbbbad436	-0.005701567
105	0xbc144d09	-0.00905157
106	0xbc999d56	-0.018751781
107	0xbc9ed451	-0.01938835
108	0x3b190c51	0.0023353288
109	0xbbb68b86	-0.0055708317
110	0xbbe9abee	-0.0071310913
111	0x3b9b033f	0.0047306116
112	0xbc3cc8d5	-0.011522491
113	0xb97d901d	-0.00024181647
114	0xbbaabb72	-0.0052103335
115	0xbc4581a4	-0.0120548345
116	0xbc07bf77	-0.008285395
117	0xbc121e1a	-0.00891831
118	0xbc573a11	-0.013136403
119	0xbbcbf753	-0.0062245517
120	0xbc250801	-0.010072709
121	0xbc849981	-0.016186478
122	0xbbefac73	-0.0073142587
123	0xbc36957d	-0.011144039
124	0x3c705cf4	0.014670599
125	0xbb9f3a90	-0.004859276
126	0xbcac1a70	-0.0210087
127	0xbbca0f22	-0.0061663548

action_model._continuous_distribution.log_sigma f4 [1, 4]
0	0xb9a026d5	-0.0003054651
1	0x3b354f8f	0.0027665829
2	0x3bb5fc26	0.00555374
3	0xbd037fbb	-0.032104235

action_model._continuous_distribution.mu.weight f4 [4, 128]
0	0xbcf78040	-0.030212522
1	0xbbbf923b	-0.0058462895
2	0xbd6b32f4	-0.05742164
3	0x3ccfe236	0.02537642
4	0xbb0ba67b	-0.0021308947
5	0xbc2ab1d6	-0.010418376
6	0x3c6b92fd	0.014378306
7	0xbc8d6443	-0.017259723
8	0xbb977f05	-0.004623296
9	0xbc6866e7	-0.01418469
10	0xbaf0ee86	-0.0018381632
11	0x3c4a2fcd	0.012340498
12	0xbce43405	-0.027856836
13	0xba3cbcb2	-0.00071997487
14	0xbb49d11e	-0.003079481
15	0xbb8a00b2	-0.0042115087
16	0x3bbaecf4	0.0057045165
17	0xbcc7a0af	-0.024368612
18	0x3c9984db	0.018740108
19	0x3c968b7f	0.018377064
20	0xbc5b210b	-0.013374577
21	0xbb9359f3	-0.0044968068
22	0x3c7147a5	0.014726554
23	0x3c2dc8c9	0.010606953
24	0x3c4bdc76	0.012442699
25	0xbc4a1bd6	-0.012335738
26	0x3cb69ae5	0.022290656
27	0xbd34e6b1	-0.044165317
28	0x3d3a9c02	0.045558937
29	0xbbf7b19e	-0.0075590154
30	0x3d2336ad	0.039847065
31	0x3c2e2521	0.010628969
32	0x3cb7286e	0.022358146
33	0xbbadebce	-0.005307651
34	0x3b9135fb	0.004431484
35	0xbc89102e	-0.016731348
36	0xbc49efef	-0.012325271
37	0xbc8d0439	-0.017213928
38	0xbd196f4f	-0.037459668
39	0xbd32b5a1	-0.043630246
40	0x3c1c2d34	0.009532262
41	0x3d066d1b	0.032818895
42	0x3d0df94a	0.03466157
43	0xbc68a135	-0.014198591
44	0x3d0e08c5	0.034676332
45	0x3c04eec5	0.008113568
46	0xbbaa958a	-0.0052058147
47	0x3cd9d831	0.026592346
48	0xbc20b8ba	-0.009809667
49	0x3c91c7cd	0.017795468
50	0xbc8fbf7d	-0.017547363
51	0x3c7af86d	0.015318018
52	0xbd110912	-0.03540904
53	0xb9d91b0e	-0.00041409623
54	0xba25db48	-0.0006326926
55	0x3d2f44fb	0.042790394
56	0xbad74803	-0.0016424659
57	0xbd11c921	-0.035592202
58	0x3c9f3a5e	0.019437011
59	0x3c84467e	0.016146895
60	0x3be1f04b	0.0068951
61	0xbc1dbffb	-0.009628291
62	0xbb059477	-0.0020382681
63	0x3c629bb0	0.013831064
64	0x3cf06cbf	0.02934873
65	0x3c21a017	0.009864829
66	0x3c633554	0.013867695
67	0xbc7f5139	-0.01558333
68	0xbb0d8aa5	-0.002159753
69	0xbc86db13	-0.016461885
70	0xbb6ecdba	-0.003643854
71	0x39a2a6f5	0.0003102344
72	0x3b43f8a9	0.0029902852
73	0x3cb67088	0.022270456
74	0x3d1357db	0.035972457
75	0x3cbd0a85	0.023076305
76	0xbc1432ec	-0.009045344
77	0xbaaffd60	-0.0013426952
78	0xbc46c1e4	-0.012131188
79	0x3acec7cc	0.0015776097
80	0x3bb20e7a	0.0054338546
81	0x3c824b31	0.015904995
82	0x3ca405ce	0.0200223
83	0x3d049b48	0.03237465
84	0xbcb194bd	-0.02167737
85	0xbcf45389	-0.029824989
86	0xbb0293b2	-0.001992446
87	0xbc802c45	-0.01564611
88	0xbc5a4a40	-0.013323367
89	0xbcf97171	-0.0304496
90	0xbcb37e76	-0.021910887
91	0x3c96f530	0.018427461
92	0x3ce2fa50	0.027707249
93	0x3cc07876	0.02349494
94	0x3c3f44d2	0.011674123
95	0x3c876859	0.016529249
96	0x3b6343df	0.0034677905
97	0xbcccde19	-0.025008248
98	0xbd39ef56	-0.045394264
99	0x3a1ab9f4	0.0005902343
100	0xbcdba74f	-0.026813177
101	0x3b8df766	0.0043324707
102	0xbc5ada99	-0.013357782
103	0x3c301d29	0.01074914
104	0x3bd94d86	0.006631556
105	0x3c4c4ff7	0.012470237
106	0x3bd90736	0.006623174
107	0x39d4e636	0.00040607312
108	0xbca26b54	-0.019826569
109	0x3c1df27a	0.00964033
110	0xba37e473	-0.00070149376
111	0xbca043a7	-0.01956351
112	0xbc458d2f	-0.012057587
113	0x3c770c37	0.015078596
114	0x3c218f5d	0.009860841
115	0x3beadad2	0.0071671987
116	0xbc4cbcb0	-0.0124961585
117	0x3d49a08e	0.049225383
118	0x3c2aa1c0	0.010414541
119	0xbc761d50	-0.015021637
120	0xbb04d45f	-0.0020268185
121	0xbc109d82	-0.008826615
122	0x3c2cf6a9	0.010556855
123	0xbca66e76	-0.020316344
124	0xbc3ad6af	-0.011403724
125	0xbc407f2c	-0.01174907
126	0x3c3bdaf0	0.011465773
127	0x3cca3d3c	0.024687402
128	0xbbf964c1	-0.0076108878
129	0xbb463d2a	-0.003024886
130	0xbc98c6fd	-0.018649573
131	0x3cccde67	0.025008393
132	0x3d05f79d	0.032706846
133	0x3c834091	0.016021999
134	0xbc84fcd9	-0.016233848
135	0xbc026cde	-0.007960526
136	0xbc5af020	-0.013362914
137	0x3b4cec70	0.0031268857
138	0xbc80ae0a	-0.015707988
139	0xbc6d10ff	-0.014469384
140	0xbc9c5a4c	-0.019086026
141	0x3ca9b2bf	0.020715116
142	0x3c7c8435	0.01541238
143	0x3bc9c08c	0.0061569866
144	0x3b3cac72	0.002878931
145	0xbaa15e04	-0.0012311344
146	0xbb39e115	-0.002836292
147	0xbc66ec08	-0.01409436
148	0x3ab1047e	0.0013505367
149	0xbaca4467	-0.0015431762
150	0xbcb0232b	-0.021501144
151	0xbc492367	-0.012276507
152	0xbd23cf89	-0.039992843
153	0x3c9b683a	0.018970598
154	0x3c06b376	0.008221498
155	0xbc6fe0fe	-0.014641045
156	0xbd2a23f6	-0.0415382
157	0x3ad1bfc1	0.0016002582
158	0x3c9d7307	0.019219888
159	0x3d29eb10	0.04148394
160	0xbc4a2199	-0.012337112
161	0x3b8e0bfa	0.004334924
162	0xbc55bb11	-0.013045088
163	0xbbbc55af	-0.005747519
164	0x3c56bf77	0.013107172
165	0x3cbb44d9	0.022859978
166	0x3d0adc7e	0.033901684
167	0xbbc63d9e	-0.006049826
168	0x3ccb7877	0.024837716
169	0xbbb930f7	-0.005651589
170	0x3c14b9bc	0.009077486
171	0xbc549ac0	-0.012976348
172	0x3c745e63	0.014915082
173	0xbc2845c3	-0.010270539
174	0x3c7cb95b	0.015425052
175	0x3b31b321	0.0027114826
176	0x3ae9c01e	0.0017833745
177	0xbcce5aee	-0.025189843
178	0x3c691fb7	0.014228753
179	0x3c1581e7	0.009125209
180	0xbc65adaa	-0.0140184555
181	0xbc8b34cf	-0.016992955
182	0xbd04f533	-0.032460403
183	0xbc837554	-0.016047157
184	0x3d114028	0.035461575
185	0x3b545ad3	0.0032402768
186	0x3baf3ec3	0.005348058
187	0xbb9e5bec	-0.0048327353
188	0x3c819c3c	0.015821569
189	0x3cc1fd5b	0.02368038
190	0x3c3e8ba5	0.011629974
191	0x3bcdb67b	0.006277857
192	0xbcb74863	-0.022373384
193	0x3c294719	0.010331892
194	0xbc23d562	-0.009999605
195	0x3c60af35	0.013713648
196	0xbcb2a66a	-0.021807868
197	0xbc9f3f6e	-0.019439425
198	0x3d2e4c91	0.04255349
199	0x3d0a524c	0.03376989
200	0xbcd4b529	-0.02596529
201	0x3c1adb1d	0.009451655
202	0x3c37f098	0.011226796
203	0x3cd19a22	0.025586192
204	0xbc9257f4	-0.017864205
205	0x3c421d20	0.011847764
206	0xbc05b061	-0.008159728
207	0x3bf4baf9	0.007468578
208	0x3c0c708c	0.008571755
209	0x3bf7bdab	0.007560452
210	0xbc8f1eb1	-0.01747069
211	0xbc41b98b	-0.011824022
212	0xbc39501d	-0.011310604
213	0x3c52de0e	0.012870325
214	0xbc969c83	-0.018385177
215	0xbce61897	-0.028087897
216	0x3c546af4	0.012964953
217	0x3c92f2d4	0.017938055
218	0x3d3a0938	0.045418948
219	0x3b81a0d2	0.003955939
220	0xbc82cfb7	-0.015968187
221	0xbcdcf0c8	-0.026970282
222	0x3d0c26b8	0.034216613
223	0xbc6ba5f3	-0.014382827
224	0xbb416d68	-0.0029514674
225	0x3c731ca1	0.014838369
226	0x3b20a9d7	0.0024515295
227	0x3c00532a	0.007832328
228	0x3b775829	0.0037741757
229	0x3acf52a4	0.0015817476
230	0xbccf8df4	-0.025336243
231	0x3a9087ca	0.0011026796
232	0x3be1e64d	0.006893909
233	0x3c808b17	0.015691323
234	0x39f9d130	0.00047648838
235	0xbc29beba	-0.010360414
236	0x3ca072b5	0.019585947
237	0x3c054b91	0.008135692
238	0xbc50f06a	-0.012752632
239	0x3d13e603	0.03610803
240	0xbbb40a29	-0.0054943752
241	0xbccc128c	-0.024911188
242	0x3cb95ef7	0.02262829
243	0x3b13b9e9	0.002254123
244	0xbca2d6e5	-0.01987786
245	0xbd06049c	-0.03271924
246	0xbc8f16a9	-0.01746686
247	0x3c812cc6	0.01576842
248	0x3c6f6258	0.014610849
249	0xbc199484	-0.009373788
250	0x3d01b3f7	0.03166577
251	0x3b26f1ca	0.0025473707
252	0xbbd31499	-0.0064416644
253	0x3bdae490	0.006680079
254	0xbc93f7d4	-0.01806251
255	0x3c6a4364	0.014298294

action_model._continuous_distribution.mu.bias f4 [4]
0	0xbc0e1fc7	-0.0086745685
1	0x3c408ad5	0.01175185
2	0xbc0be4b5	-0.008538415
3	0xbc480347	-0.012207813

exp_avg f4 [128, 29]
0	0x382da3d3	4.1398987e-05
1	0x37c67214	2.3656561e-05
2	0xa27bc2dd	-3.4120003e-18
3	0x37467214	1.1828281e-05
4	0x36c67214	5.9141403e-06
5	0x1f8b9eda	5.913159e-20
6	0x1f8b9eda	5.913159e-20
7	0x36c67214	5.9141403e-06
8	0x36c67214	5.9141403e-06
9	0x36c67214	5.9141403e-06
10	0x80000004	-6e-45
11	0xa1916975	-9.853496e-19
12	0x1ffff975	1.0840939e-19
13	0x36c67214	5.9141403e-06
14	0x1f8b9eda	5.913159e-20
15	0x9efd29f3	-2.6804767e-20
16	0xa17bc2dd	-8.5300007e-19
17	0xa1862f21	-9.092668e-19
18	0xa18d74c3	-9.585438e-19
19	0x9efd29f3	-2.6804767e-20
20	0x36c67214	5.9141403e-06
21	0x201c402c	1.3234947e-19
22	0xa184bada	-8.994127e-19
23	0x36c67214	5.9141403e-06
24	0x36c67214	5.9141403e-06
25	0x36c67214	5.9141403e-06
26	0x36c67214	5.9141403e-06
27	0x36c67214	5.9141403e-06
28	0x36c67214	5.9141403e-06
29	0x3ad9b162	0.001660865
30	0x3a78cab8	0.00094906567
31	0x23c07e7d	2.0870252e-17
32	0x39f8cab8	0.00047453283
33	0x3978cab8	0.00023726642
34	0xa2f682a3	-6.681675e-18
35	0xa2f682a3	-6.681675e-18
36	0x3978cab8	0.00023726642
37	0x3978cab8	0.00023726642
38	0x3978cab8	0.00023726642
39	0x00000004	6e-45
40	0x22e953ff	6.324371e-18
41	0xa3008a2c	-6.968153e-18
42	0x3978cab8	0.00023726642
43	0xa2f682a3	-6.681675e-18
44	0xa2d7e31e	-5.8516336e-18
45	0x22c07e7d	5.217563e-18
46	0x235b52ad	1.1889521e-17
47	0x23609b8f	1.2176005e-17
48	0xa2d7e31e	-5.8516336e-18
49	0x3978cab8	0.00023726642
50	0xa1a355e1	-1.1068042e-18
51	0x22cab46d	5.4943243e-18
52	0x3978cab8	0.00023726642
53	0x3978cab8	0.00023726642
54	0x3978cab8	0.00023726642
55	0x3978cab8	0.00023726642
56	0x3978cab8	0.00023726642
57	0x3978cab8	0.00023726642
58	0xbb890846	-0.0041818945
59	0xbb1c9bbe	-0.002389654
60	0xa3300999	-9.5430115e-18
61	0xba9c9bbe	-0.001194827
62	0xba1c9bbe	-0.0005974135
63	0xa0eae219	-3.979076e-19
64	0xa0eae219	-3.979076e-19
65	0xba1c9bbe	-0.0005974135
66	0xba1c9bbe	-0.0005974135
67	0xba1c9bbe	-0.0005974135
68	0x80000004	-6e-45
69	0xa2420db6	-2.6299161e-18
70	0xa00928b9	-1.1617825e-19
71	0xba1c9bbe	-0.0005974135
72	0xa0eae219	-3.979076e-19
73	0xa0d2767f	-3.5653798e-19
74	0xa2300999	-2.3857529e-18
75	0xa212f530	-1.991649e-18
76	0xa227bee8	-2.2733785e-18
77	0xa0d2767f	-3.5653798e-19
78	0xba1c9bbe	-0.0005974135
79	0x20902112	2.4416433e-19
80	0xa2451b2d	-2.6712865e-18
81	0xba1c9bbe	-0.0005974135
82	0xba1c9bbe	-0.0005974135
83	0xba1c9bbe	-0.0005974135
84	0xba1c9bbe	-0.0005974135
85	0xba1c9bbe	-0.0005974135
86	0xba1c9bbe	-0.0005974135
87	0xbae7d752	-0.0017688072
88	0xba847b09	-0.0010107468
89	0xa3bd0b20	-2.0496133e-17
90	0xba047b09	-0.0005053734
91	0xb9847b09	-0.0002526867
92	0x215690fc	7.2697906e-19
93	0x215690fc	7.2697906e-19
94	0xb9847b09	-0.0002526867
95	0xb9847b09	-0.0002526867
96	0xb9847b09	-0.0002526867
97	0x80000004	-6e-45
98	0xa2bcf352	-5.1215128e-18
99	0x21495346	6.821166e-19
100	0xb9847b09	-0.0002526867
101	0x215690fc	7.2697906e-19
102	0x214c2d17	6.9177564e-19
103	0xa2bd0b20	-5.124033e-18
104	0xa2d820a8	-5.8581493e-18
105	0xa2d678f7	-5.8132893e-18
106	0x214c2d17	6.9177564e-19
107	0xb9847b09	-0.0002526867
108	0x9d3e7514	-2.5206819e-21
109	0xa2bba6d1	-5.0863075e-18
110	0xb9847b09	-0.0002526867
111	0xb9847b09	-0.0002526867
112	0xb9847b09	-0.0002526867
113	0xb9847b09	-0.0002526867
114	0xb9847b09	-0.0002526867
115	0xb9847b09	-0.0002526867
116	0x3b461936	0.003022743
117	0x3ae265f6	0.0017272818
118	0x21796a96	8.4505547e-19
119	0x3a6265f6	0.0008636409
120	0x39e265f6	0.00043182046
121	0x1f8d540b	5.985486e-20
122	0x1f8d540b	5.985486e-20
123	0x39e265f6	0.00043182046
124	0x39e265f6	0.00043182046
125	0x39e265f6	0.00043182046
126	0x00000004	6e-45
127	0x1fd36cfe	8.954229e-20
128	0x209513d5	2.5254706e-19
129	0x39e265f6	0.00043182046
130	0x1f8d540b	5.985486e-20
131	0x201b9efd	1.3181615e-19
132	0x20796a96	2.1126387e-19
133	0x20319540	1.5041866e-19
134	0x9f47a203	-4.2273902e-20
135	0x201b9efd	1.3181615e-19
136	0x39e265f6	0.00043182046
137	0x200fb40c	1.2172144e-19
138	0x1ea60c87	1.7581115e-20
139	0x39e265f6	0.00043182046
140	0x39e265f6	0.00043182046
141	0x39e265f6	0.00043182046
142	0x39e265f6	0.00043182046
143	0x39e265f6	0.00043182046
144	0x39e265f6	0.00043182046
145	0x3a3287f7	0.00068104215
146	0x39cc091a	0.00038916693
147	0x21369d13	6.1871885e-19
148	0x394c091a	0.00019458347
149	0x38cc091a	9.729173e-05
150	0xa0b2831f	-3.0241142e-19
151	0xa0b2831f	-3.0241142e-19
152	0x38cc091a	9.729173e-05
153	0x38cc091a	9.729173e-05
154	0x38cc091a	9.729173e-05
155	0x00000004	6e-45
156	0xa045f8ef	-1.6768914e-19
157	0x1f0806a0	2.88046e-20
158	0x38cc091a	9.729173e-05
159	0xa0b2831f	-3.0241142e-19
160	0xa0acb7af	-2.9259485e-19
161	0x20369d13	1.5467971e-19
162	0x21069f9d	4.561221e-19
163	0x20137673	1.2490576e-19
164	0xa0acb7af	-2.9259485e-19
165	0x38cc091a	9.729173e-05
166	0x20be4aef	3.223684e-19
167	0xa0518fcb	-1.7750566e-19
168	0x38cc091a	9.729173e-05
169	0x38cc091a	9.729173e-05
170	0x38cc091a	9.729173e-05
171	0x38cc091a	9.729173e-05
172	0x38cc091a	9.729173e-05
173	0x38cc091a	9.729173e-05
174	0x3a9662eb	0.0011473572
175	0x3a2bdec3	0.00065563264
176	0x242ac425	3.7029015e-17
177	0x39abdec3	0.00032781632
178	0x392bdec3	0.00016390816
179	0xa20c470a	-1.9011146e-18
180	0xa20c470a	-1.9011146e-18
181	0x392bdec3	0.00016390816
182	0x392bdec3	0.00016390816
183	0x392bdec3	0.00016390816
184	0x80000004	-6e-45
185	0x22fed82d	6.9075723e-18
186	0x213a3fbe	6.3103613e-19
187	0x392bdec3	0.00016390816
188	0xa20c470a	-1.9011146e-18
189	0xa20010c4	-1.735611e-18
190	0x232ac425	9.257254e-18
191	0x234e2602	1.1175331e-17
192	0x231f7041	8.643178e-18
193	0xa20010c4	-1.735611e-18
194	0x392bdec3	0.00016390816
195	0x222d6026	2.3496773e-18
196	0x22f8bd0a	6.7420688e-18
197	0x392bdec3	0.00016390816
198	0x392bdec3	0.00016390816
199	0x392bdec3	0.00016390816
200	0x392bdec3	0.00016390816
201	0x392bdec3	0.00016390816
202	0x392bdec3	0.00016390816
203	0xba3c3e84	-0.00071809464
204	0xb9d722e0	-0.0004103398
205	0xa1b4edd0	-1.2260223e-18
206	0xb95722e0	-0.0002051699
207	0xb8d722e0	-0.00010258495
208	0x9f3005bd	-3.7274196e-20
209	0x9f3005bd	-3.7274196e-20
210	0xb8d722e0	-0.00010258495
211	0xb8d722e0	-0.00010258495
212	0xb8d722e0	-0.00010258495
213	0x80000004	-6e-45
214	0xa0484597	-1.6963684e-19
215	0xa043fef6	-1.6601502e-19
216	0xb8d722e0	-0.00010258495
217	0x9f3005bd	-3.7274196e-20
218	0x9f0bf706	-2.9638728e-20
219	0xa0b4edd0	-3.0650557e-19
220	0xa09ea2b0	-2.6873899e-19
221	0xa02547da	-1.3999817e-19
222	0x9f0bf706	-2.9638728e-20
223	0xb8d722e0	-0.00010258495
224	0xa0219605	-1.3686868e-19
225	0xa051494f	-1.7727244e-19
226	0xb8d722e0	-0.00010258495
227	0xb8d722e0	-0.00010258495
228	0xb8d722e0	-0.00010258495
229	0xb8d722e0	-0.00010258495
230	0xb8d722e0	-0.00010258495
231	0xb8d722e0	-0.00010258495
232	0xba969c9c	-0.0011490765
233	0xba2c20b5	-0.0006566153
234	0x20f2477b	4.1043696e-19
235	0xb9ac20b5	-0.00032830765
236	0xb92c20b5	-0.00016415383
237	0x9e91fa57	-1.545601e-20
238	0x9e91fa57	-1.545601e-20
239	0xb92c20b5	-0.00016415383
240	0xb92c20b5	-0.00016415383
241	0xb92c20b5	-0.00016415383
242	0x80000004	-6e-45
243	0x1fcb5be5	8.612587e-20
244	0x9ec406a1	-2.0755049e-20
245	0xb92c20b5	-0.00016415383
246	0x9e91fa57	-1.545601e-20
247	0x9f3424d6	-3.8146953e-20
248	0x1ff2477b	1.0260924e-19
249	0x200c75a0	1.189738e-19
250	0x2012b72b	1.2427286e-19
251	0x9f3424d6	-3.8146953e-20
252	0xb92c20b5	-0.00016415383
253	0x1e9bae0c	1.6483247e-20
254	0x200077e2	1.0881688e-19
255	0xb92c20b5	-0.00016415383

exp_avg_sq f4 [128, 29]
0	0x35b71f74	1.3643717e-06
1	0x36fea2bb	7.588734e-06
2	0x34f2e56d	4.5242942e-07
3	0x3647c51c	2.9768044e-06
4	0x33959a5d	6.966432e-08
5	0x337cc86f	5.8855615e-08
6	0x337c655a	5.87655e-08
7	0x328bb097	1.6262033e-08
8	0x338de3c9	6.607258e-08
9	0x33a9942f	7.89663e-08
10	0x302db51a	6.3194394e-10
11	0x334fd670	4.8390973e-08
12	0x339a019c	7.1714766e-08
13	0x33725abe	5.6427545e-08
14	0x337d3269	5.8952e-08
15	0x33291d53	3.937505e-08
16	0x341a3411	1.436131e-07
17	0x32d04f6b	2.4250502e-08
18	0x32408398	1.1205792e-08
19	0x3328fda7	3.9346244e-08
20	0x33a6694f	7.749133e-08
21	0x33c06c73	8.9604235e-08
22	0x33937174	6.865858e-08
23	0x338f84cd	6.683113e-08
24	0x3399b691	7.157826e-08
25	0x33a75a23	7.792939e-08
26	0x3352bb4f	4.906479e-08
27	0x33939e7c	6.874049e-08
28	0x338de606	6.607665e-08
29	0x3881a86d	6.182571e-05
30	0x3920bf20	0.00015329989
31	0x37abce93	2.0480982e-05
32	0x3803c005	3.1411666e-05
33	0x35e336ab	1.6928728e-06
34	0x353af3ff	6.964546e-07
35	0x353dda08	7.0725264e-07
36	0x35c7240e	1.4837149e-06
37	0x35b965d8	1.3813215e-06
38	0x35e3a8b6	1.6961919e-06
39	0x33a8ccf1	7.860388e-08
40	0x358f21b0	1.0664135e-06
41	0x35844d42	9.857251e-07
42	0x35964946	1.1197196e-06
43	0x353b2dc7	6.9729543e-07
44	0x3572adf9	9.040519e-07
45	0x361acf0a	2.30683e-06
46	0x3509ab5c	5.128584e-07
47	0x3494497a	2.762061e-07
48	0x3576f71c	9.200173e-07
49	0x362d1e3c	2.5796608e-06
50	0x3597a726	1.1299023e-06
51	0x35718716	8.997607e-07
52	0x35be61cf	1.4184569e-06
53	0x3611c495	2.172111e-06
54	0x362f5450	2.6126108e-06
55	0x35db1105	1.6321725e-06
56	0x35bff1d3	1.4300989e-06
57	0x35b70798	1.3636773e-06
58	0x3868a3dc	5.5465716e-05
59	0x383bf6de	4.4814187e-05
60	0x3678755e	3.7023196e-06
61	0x377cd765	1.5070521e-05
62	0x35b1a700	1.3236131e-06
63	0x3487b85f	2.5279857e-07
64	0x34b928fb	3.4488752e-07
65	0x35a7dd41	1.2506863e-06
66	0x35a76ca0	1.2474084e-06
67	0x35b73617	1.3650305e-06
68	0x339b947a	7.244758e-08
69	0x34dd8909	4.1264164e-07
70	0x34bb22e2	3.4856845e-07
71	0x3591cefb	1.0863581e-06
72	0x34825085	2.4272973e-07
73	0x343f0f53	1.7793836e-07
74	0x355aaf12	8.146609e-07
75	0x34c748ca	3.71196e-07
76	0x349fc385	2.9758317e-07
77	0x346de106	2.2154208e-07
78	0x35a08ea0	1.1962438e-06
79	0x34a08285	2.9897288e-07
80	0x351223cb	5.4441324e-07
81	0x35afda73	1.3102093e-06
82	0x35941a3b	1.1034493e-06
83	0x35afa3b2	1.3086158e-06
84	0x3597ccdd	1.131e-06
85	0x35a23703	1.2085951e-06
86	0x35a4f75a	1.2290941e-06
87	0x373c34c6	1.12179605e-05
88	0x3727f072	1.0009959e-05
89	0x35deac5a	1.659045e-06
90	0x35f24104	1.8049327e-06
91	0x348b88f3	2.599041e-07
92	0x330ecd99	3.324894e-08
93	0x33695826	5.432971e-08
94	0x34a33848	3.0402066e-07
95	0x34896d91	2.559796e-07
96	0x3490dae9	2.6981368e-07
97	0x331f549c	3.7097024e-08
98	0x3427f135	1.5640838e-07
99	0x334086b2	4.482599e-08
100	0x343ba698	1.7476339e-07
101	0x331c5b35	3.6404533e-08
102	0x33c8a585	9.3433336e-08
103	0x34456e4d	1.8387182e-07
104	0x339e6d54	7.377335e-08
105	0x33cda36a	9.575781e-08
106	0x33ec7171	1.1010241e-07
107	0x3495132c	2.7767362e-07
108	0x32d9275e	2.5280027e-08
109	0x33c98d44	9.385488e-08
110	0x348c3b3b	2.6120128e-07
111	0x3470eedd	2.243864e-07
112	0x34969456	2.8047606e-07
113	0x3474f95b	2.2814986e-07
114	0x34425e4c	1.8101963e-07
115	0x34823b25	2.425742e-07
116	0x37b0f3da	2.1094387e-05
117	0x3709d6c0	8.215837e-06
118	0x3478dafe	2.3176469e-07
119	0x36070b04	2.012298e-06
120	0x34e0e3f1	4.18891e-07
121	0x32a9ff6c	1.9790342e-08
122	0x338ef277	6.6564944e-08
123	0x34f63d88	4.586584e-07
124	0x34e3dd73	4.244317e-07
125	0x34f61f6b	4.584393e-07
126	0x334fbefe	4.836965e-08
127	0x33913f27	6.763576e-08
128	0x330743b3	3.149371e-08
129	0x34df569b	4.16e-07
130	0x32e283ec	2.6369854e-08
131	0x33174e75	3.5228783e-08
132	0x33c773f0	9.2877485e-08
133	0x322ab30a	9.936011e-09
134	0x32cf3eaa	2.4126468e-08
135	0x338b9105	6.499071e-08
136	0x34e9d0fd	4.355169e-07
137	0x32fbdd3f	2.9320857e-08
138	0x32c69db7	2.3121954e-08
139	0x34e8c95c	4.3359876e-07
140	0x34dd1b37	4.118426e-07
141	0x34fb5e6f	4.6821103e-07
142	0x34dbd3be	4.0945991e-07
143	0x34ec6208	4.4029753e-07
144	0x34e05699	4.178626e-07
145	0x356c54ee	8.804044e-07
146	0x35b86aea	1.3740184e-06
147	0x34184a44	1.4183121e-07
148	0x34c073b8	3.5846983e-07
149	0x329acada	1.8020206e-08
150	0x31ef15fa	6.958314e-09
151	0x3274dde7	1.4253124e-08
152	0x32c945e5	2.3431264e-08
153	0x3288a305	1.5906616e-08
154	0x32da65bd	2.5424805e-08
155	0x32072934	7.867403e-09
156	0x3294c972	1.7321074e-08
157	0x324694c6	1.1558944e-08
158	0x324e26ea	1.1999626e-08
159	0x31f1001a	7.0140347e-09
160	0x321121b4	8.447774e-09
161	0x32f573c2	2.8574394e-08
162	0x31f02c51	6.9899575e-09
163	0x31a97722	4.932091e-09
164	0x327d2bdd	1.4736512e-08
165	0x32d74697	2.5061395e-08
166	0x3243dafe	1.1400287e-08
167	0x32274b2b	9.737771e-09
168	0x328a18e2	1.607663e-08
169	0x32a53980	1.9234676e-08
170	0x3303d443	3.0693865e-08
171	0x328b9e11	1.625361e-08
172	0x32b85f3c	2.1463727e-08
173	0x32788744	1.4466256e-08
174	0x3877c464	5.9072292e-05
175	0x3948a55f	0.00019135092
176	0x37985ef0	1.816402e-05
177	0x38480a83	4.7693506e-05
178	0x35dbc3f3	1.63738e-06
179	0x353417c4	6.708981e-07
180	0x353da159	7.064278e-07
181	0x35c3dee1	1.4593498e-06
182	0x35b0e0e2	1.3178471e-06
183	0x35f3eb2b	1.8173354e-06
184	0x33e346f2	1.0583416e-07
185	0x359d6c09	1.1728854e-06
186	0x3596262f	1.1186984e-06
187	0x358eae44	1.0630542e-06
188	0x35365e23	6.793727e-07
189	0x357adfdd	9.345802e-07
190	0x36431819	2.907129e-06
191	0x35364d5b	6.791285e-07
192	0x34a877ce	3.1379608e-07
193	0x35836422	9.789403e-07
194	0x3648e352	2.993464e-06
195	0x35dbc07a	1.637279e-06
196	0x357a6144	9.32738e-07
197	0x35b62f97	1.3573907e-06
198	0x362e9cf4	2.601938e-06
199	0x364c8083	3.0473173e-06
200	0x35ecbdff	1.7638666e-06
201	0x35cc2be6	1.521196e-06
202	0x35b04bfb	1.3135135e-06
203	0x35a70875	1.2444931e-06
204	0x3606ec1f	2.0104997e-06
205	0x34a77fb7	3.11991e-07
206	0x3452afe0	1.9621757e-07
207	0x32cfaada	2.4175666e-08
208	0x31e0a1ab	6.5376375e-09
209	0x330fd886	3.349171e-08
210	0x32fe6da0	2.9619343e-08
211	0x32a1d088	1.8837696e-08
212	0x32c32185	2.271623e-08
213	0x319f5604	4.637288e-09
214	0x32439aed	1.138572e-08
215	0x3267ab88	1.3484971e-08
216	0x33570062	5.0058937e-08
217	0x32346dc2	1.0502335e-08
218	0x32487f21	1.1670438e-08
219	0x33888708	6.3575555e-08
220	0x330f12e9	3.331198e-08
221	0x3311962a	3.3897017e-08
222	0x321c1d45	9.08705e-09
223	0x3338eec8	4.305801e-08
224	0x32e34f1a	2.646225e-08
225	0x331bcf55	3.6277317e-08
226	0x336b6067	5.480288e-08
227	0x33351353	4.215992e-08
228	0x339c8c5e	7.289849e-08
229	0x33603cd9	5.2209405e-08
230	0x33513f1e	4.871901e-08
231	0x32cd02d9	2.3866436e-08
232	0x3747298e	1.18709995e-05
233	0x37c4a512	2.3441888e-05
234	0x34b76d0d	3.416575e-07
235	0x3708728e	8.1329035e-06
236	0x349bdadf	2.903025e-07
237	0x33d4cc0e	9.9091366e-08
238	0x33f5576e	1.1424605e-07
239	0x3493f6d7	2.7560483e-07
240	0x34850161	2.4774184e-07
241	0x34969b9d	2.80529e-07
242	0x32ccdf1c	2.3850184e-08
243	0x343ac94e	1.7395834e-07
244	0x340fefd0	1.3405156e-07
245	0x346e19de	2.2174888e-07
246	0x33ca67d3	9.4252435e-08
247	0x34180f00	1.416156e-07
248	0x34bda8bf	3.5326772e-07
249	0x338616df	6.2440215e-08
250	0x33184001	3.544847e-08
251	0x34278a0e	1.5603311e-07
252	0x34e84d7c	4.3269745e-07
253	0x342ef1f4	1.6293035e-07
254	0x34081c69	1.2676323e-07
255	0x34839b1b	2.4513506e-07

exp_avg f4 [128]
0	0x36c67214	5.9141403e-06
1	0x3978cab8	0.00023726642
2	0xba1c9bbe	-0.0005974135
3	0xb9847b09	-0.0002526867
4	0x39e265f6	0.00043182046
5	0x38cc091a	9.729173e-05
6	0x392bdec3	0.00016390816
7	0xb8d722e0	-0.00010258495
8	0xb92c20b5	-0.00016415383
9	0x393e8b56	0.00018171719
10	0xb78482e2	-1.5796573e-05
11	0xba538343	-0.0008068571
12	0xb6519660	-3.1230957e-06
13	0xba356704	-0.00069199526
14	0xba9ea332	-0.0012103079
15	0x37f18b9c	2.879445e-05
16	0x3a63ae08	0.00086852955
17	0xb90ba80e	-0.00013318678
18	0xba3265a5	-0.00068053073
19	0xb8e00508	-0.000106820895
20	0x3780427b	1.5289746e-05
21	0xb9d89379	-0.00041308606
22	0xb8535258	-5.038301e-05
23	0x3844232d	4.67628e-05
24	0xb8b19f82	-8.469728e-05
25	0xb8481d36	-4.771092e-05
26	0xb89ba632	-7.421932e-05
27	0xba3c9c0f	-0.00071948854
28	0x379661fd	1.7927023e-05
29	0xb76c5018	-1.4085344e-05
30	0x38133d04	3.5104356e-05
31	0xb7c04ee8	-2.2924927e-05
32	0xb8257bfa	-3.9454528e-05
33	0x393207ac	0.00016978261
34	0x398312e5	0.00025000345
35	0xba6d5f3a	-0.00090550224
36	0xba23420e	-0.00062277995
37	0x3917bba4	0.00014470384
38	0x37b63ab3	2.1723425e-05
39	0x39f13e4f	0.00046013526
40	0xba487948	-0.0007647467
41	0x37d76988	2.5679139e-05
42	0x36c71afd	5.933804e-06
43	0xb81e7ab4	-3.778441e-05
44	0xb83f257f	-4.557287e-05
45	0xb9d16683	-0.00039939964
46	0xb90741f6	-0.00012899176
47	0x39352098	0.00017273647
48	0x3a0d9066	0.000540024
49	0x38819067	6.1780964e-05
50	0xbab5f2cc	-0.0013881563
51	0xb57df8c8	-9.461187e-07
52	0xb9d5de25	-0.00040792036
53	0x37b5a2cc	2.165269e-05
54	0xba6ed2ea	-0.0009110408
55	0x3a1634fa	0.000572994
56	0xba5793de	-0.0008223633
57	0xb81addf4	-3.692317e-05
58	0x3834b20e	4.308117e-05
59	0xb8b40d9e	-8.585605e-05
60	0x377c292a	1.5029955e-05
61	0xba13e8b8	-0.0005642283
62	0xb7d8d3e4	-2.5847876e-05
63	0x3946f914	0.0001897554
64	0x391579fc	0.0001425519
65	0xb9c41266	-0.0003739774
66	0xb6e3c08a	-6.7875417e-06
67	0xba64fcea	-0.0008735197
68	0xba7bce4c	-0.0009605631
69	0xb8b7c078	-8.76197e-05
70	0x3981baa4	0.00024743855
71	0xb897c5e5	-7.237102e-05
72	0xb8a97498	-8.080265e-05
73	0xb75d8dc0	-1.320563e-05
74	0xb8404944	-4.58446e-05
75	0x376f6835	1.4269773e-05
76	0xb81228a7	-3.4846973e-05
77	0xb779d890	-1.4891979e-05
78	0x38984d52	7.262327e-05
79	0x3adf29e2	0.0017026032
80	0xb89ed372	-7.573412e-05
81	0xba34baa7	-0.00068942684
82	0x39efd3fa	0.00045743567
83	0xb82c51c4	-4.1084146e-05
84	0x37594d34	1.2952183e-05
85	0x399e4dd7	0.00030194104
86	0xb91ca77d	-0.00014939714
87	0x39df5621	0.00042598046
88	0x39d4ee50	0.00040613348
89	0x397cde5c	0.00024115428
90	0xb90788a1	-0.00012925502
91	0xb77f41ec	-1.5214533e-05
92	0x373b405a	1.1161052e-05
93	0x387869d8	5.9226382e-05
94	0xb89f50b2	-7.5967415e-05
95	0x381a5fb5	3.6805595e-05
96	0xb906d0fa	-0.00012857086
97	0xb812721c	-3.4915385e-05
98	0x390dfc94	0.000135409
99	0xb9a2fd45	-0.00031087748
100	0xb648fb33	-2.994854e-06
101	0x3a4d735f	0.0007837321
102	0xb8d15eb2	-9.983535e-05
103	0x3a2d777a	0.00066172297
104	0x3a091a0e	0.00052300177
105	0x3a419eaf	0.00073860114
106	0x3a9d933a	0.0012022026
107	0x36966ee7	4.483259e-06
108	0x3915a1fa	0.00014270088
109	0x3972e19f	0.00023162969
110	0xb91cd988	-0.00014958356
111	0x3803a8e2	3.139012e-05
112	0x38610080	5.3644646e-05
113	0x3a0a5bd7	0.00052779674
114	0xb93eadde	-0.00018184583
115	0xb93088d6	-0.00016835643
116	0xba860612	-0.0010225198
117	0xb82b98be	-4.091183e-05
118	0xb9f71b2c	-0.00047131756
119	0x3860ea4c	5.3623968e-05
120	0x388edb48	6.811932e-05
121	0xb78d885f	-1.6872013e-05
122	0x394538fe	0.00018808615
123	0xb769b0be	-1.3929033e-05
124	0xb91f34be	-0.0001518307
125	0xb8332977	-4.2715543e-05
126	0x37b63310	2.1719869e-05
127	0x399dc78f	0.00030094056

exp_avg_sq f4 [128]
0	0x341c024a	1.4529465e-07
1	0x3651f8d7	3.128827e-06
2	0x35e208a6	1.6840829e-06
3	0x34bdf035	3.5378767e-07
4	0x35025ac2	4.8560844e-07
5	0x331f6875	3.7115075e-08
6	0x3674949d	3.6445338e-06
7	0x33a8f991	7.8685055e-08
8	0x350cfee1	5.252496e-07
9	0x33f3f5f9	1.13603114e-07
10	0x354f2435	7.71662e-07
11	0x374a15b1	1.2045189e-05
12	0x362b0755	2.5485253e-06
13	0x36a2a6a0	4.847374e-06
14	0x36c3b4f8	5.8325204e-06
15	0x35b8b2ae	1.3761071e-06
16	0x36bcd4bd	5.6276026e-06
17	0x3563df1b	8.488875e-07
18	0x36947783	4.4246567e-06
19	0x33451bdb	4.589297e-08
20	0x35bec9d9	1.4214849e-06
21	0x36a3668d	4.869717e-06
22	0x34f15b4e	4.495618e-07
23	0x342d1f1c	1.6123198e-07
24	0x3323657d	3.8043698e-08
25	0x33c8e083	9.354064e-08
26	0x3639e1cf	2.7698586e-06
27	0x35c396d8	1.4572533e-06
28	0x32a0c3af	1.8715438e-08
29	0x35ec7be4	1.7619427e-06
30	0x3645f678	2.9498751e-06
31	0x366a7ed6	3.4942545e-06
32	0x32bd6a4d	2.2050836e-08
33	0x357d892a	9.4449445e-07
34	0x36b6e646	5.45083e-06
35	0x36926ec5	4.3640343e-06
36	0x359562ed	1.1130156e-06
37	0x339a7b07	7.1935624e-08
38	0x370ec325	8.509295e-06
39	0x357dad33	9.450188e-07
40	0x36aaa782	5.0858953e-06
41	0x36f473ca	7.2852463e-06
42	0x35964c2e	1.1198042e-06
43	0x3257fff8	1.2572848e-08
44	0x33ce12d6	9.596049e-08
45	0x35acfe79	1.288906e-06
46	0x3587bac0	1.0112635e-06
47	0x36586db6	3.2250368e-06
48	0x361a9499	2.3034283e-06
49	0x3696c1b4	4.4928984e-06
50	0x37101f16	8.590307e-06
51	0x32e92128	2.7139848e-08
52	0x35b51989	1.3492983e-06
53	0x32b885ab	2.1481204e-08
54	0x361cd3f6	2.336919e-06
55	0x36957d97	4.4551666e-06
56	0x36a3ad74	4.877971e-06
57	0x33f597ac	1.14362905e-07
58	0x3398b402	7.110795e-08
59	0x351afe6d	5.773971e-07
60	0x3454c449	1.9815447e-07
61	0x365013fc	3.1006048e-06
62	0x321c6c47	9.1050145e-09
63	0x35e8f74f	1.7357323e-06
64	0x34e51f91	4.2677542e-07
65	0x366ecfce	3.5585722e-06
66	0x33fc5e1b	1.1751782e-07
67	0x3686362d	3.999818e-06
68	0x37157c5d	8.910048e-06
69	0x3451a742	1.952549e-07
70	0x35a5a95a	1.2342746e-06
71	0x3307b74b	3.159884e-08
72	0x36a1ff84	4.82792e-06
73	0x3359d4e5	5.0717876e-08
74	0x36043939	1.970284e-06
75	0x3303af9b	3.0660527e-08
76	0x3399e3dc	7.166065e-08
77	0x367998df	3.7192874e-06
78	0x364950ae	2.9998296e-06
79	0x38235751	3.8943548e-05
80	0x32ab218d	1.9922277e-08
81	0x36f34120	7.249546e-06
82	0x350e042f	5.290521e-07
83	0x347484fe	2.2772653e-07
84	0x357261bc	9.029425e-07
85	0x36ceef89	6.167164e-06
86	0x35f3a1b8	1.8151977e-06
87	0x35a11bf2	1.2003568e-06
88	0x3789735f	1.6385397e-05
89	0x365206ad	3.1296324e-06
90	0x33b4c99c	8.418576e-08
91	0x34660c17	2.1424817e-07
92	0x347ce2fb	2.3551904e-07
93	0x369399a4	4.3988275e-06
94	0x35b96cd9	1.3815253e-06
95	0x35972372	1.1260693e-06
96	0x3624b5b9	2.454368e-06
97	0x336b224d	5.4746398e-08
98	0x3502426c	4.852543e-07
99	0x365d2858	3.295505e-06
100	0x33a10320	7.497715e-08
101	0x366b8248	3.5093562e-06
102	0x343694a8	1.7004152e-07
103	0x3656d379	3.2011578e-06
104	0x35d53466	1.5884987e-06
105	0x359244d6	1.0897882e-06
106	0x370994ac	8.200452e-06
107	0x3625ef13	2.4726075e-06
108	0x364fa21a	3.093976e-06
109	0x35b9044d	1.3784826e-06
110	0x34959aeb	2.786613e-07
111	0x368047bf	3.8230496e-06
112	0x3698ef06	4.557779e-06
113	0x35d06e18	1.5529249e-06
114	0x3588c46c	1.0189956e-06
115	0x35fe1bdb	1.8932582e-06
116	0x378a45a9	1.648332e-05
117	0x3549f8df	7.524049e-07
118	0x36ef39ee	7.129499e-06
119	0x3519e488	5.73295e-07
120	0x33dfc2d9	1.0419689e-07
121	0x3650233c	3.1014924e-06
122	0x3642b46c	2.9013272e-06
123	0x34b72496	3.4113026e-07
124	0x33d43c3e	9.882977e-08
125	0x33c29587	9.061028e-08
126	0x348ee5f3	2.661687e-07
127	0x37208a65	9.568966e-06
