old_ppo/PoI/PoI-14528.pt (torch, 438243 bytes, 36 tensors)

network_body._body_endoder.seq_layers.0.weight f4 [128, 4]
-0.13906097 0.18974248 -0.08969117 -0.0070037507 -0.25003606 0.5774462 -0.6454593 -0.36674902
0.20817608 -0.37915045 -0.20390633 -0.35292545 -0.04004986 -0.35881948 0.086779825 0.3480552
-0.7130167 0.07560074 0.9997594 0.3969962 -0.65394384 -0.34237862 -0.81847745 0.110140905
0.037996575 -0.14303531 -0.5833213 0.0074684694 0.22360693 -0.06977597 -0.0021885738 -0.80939853
0.10584344 -0.33387953 0.49526194 -1.6924957 0.21394527 0.3776131 0.17650026 -0.23671828
-0.042007446 -0.31871203 -0.27650896 0.7397325 1.3379141 -0.26296186 -0.8784092 -0.48065105
-0.41702893 0.6225558 0.3774542 0.3330603 0.5419393 -0.792036 0.81642437 -0.74063385
-0.42451248 -0.03786889 1.2144867 -0.48242092 0.57446283 -0.38189822 0.95163983 0.2745731
0.39725012 0.054311145 -0.5223945 -0.074831784 -0.36003715 -0.2678321 0.36758184 -0.33511186
0.004705013 -0.02232558 -0.0051707947 0.46369675 -0.8909851 -0.5294011 -0.08091011 0.055591166
0.07350632 -0.0046558776 -0.40658027 0.24378386 0.4302372 0.25021932 -0.28826678 -0.026182665
-0.009699494 -0.11374801 0.91191584 -0.6589004 -0.8563104 -0.81186885 -0.08800317 -0.57380456
0.5654315 -0.13436642 -0.9970811 -0.07806255 -0.6943942 -0.2794538 -1.0391264 0.5987484
0.0610292 0.64485365 -0.262025 -0.14064975 0.6393671 0.5498951 0.79777604 0.7832939
-0.027758485 -0.51188344 0.20802835 -0.12258072 -0.25447237 0.24566725 0.01833236 0.06888309
0.09282861 0.65224266 -0.20328085 -0.6127385 0.971936 -0.99520004 0.28659165 -0.15852767
0.5289917 0.76822895 -0.14077394 -0.15067948 0.41090754 0.04716436 0.6839778 0.5603285
-0.24634336 -0.5095981 -0.2934147 1.0038576 0.70640486 0.11453407 -1.0507464 -0.9386505
-0.7248067 0.48032477 0.6262827 0.06755001 0.29793486 -0.47138557 0.10466978 -0.5317873
-0.21772794 0.81309384 -0.48900083 -0.36191624 1.123712 -0.6883388 0.5497542 -0.029617572
0.26513863 0.25093338 0.56078273 -0.50200933 -0.07724802 -0.46608615 0.65582037 0.77661777
-0.34572354 0.56070346 -0.7064691 0.725804 0.5571962 0.49496117 0.34215736 -0.1035188
0.20133677 0.20348789 0.021608077 0.03457014 -0.03605917 0.21407697 -0.23661724 -0.1987976
-0.42105192 0.8792854 -0.2755095 -0.63164157 -0.66074574 0.18928422 -0.059521206 -0.16278572
-0.5198613 0.74530286 -0.13624258 -0.34259275 0.3562684 0.20038013 -0.35660055 0.69891524
0.25852165 0.08837797 0.47339332 -0.2938282 -0.027291093 1.5039002 0.33401075 -0.07741502
-0.13968168 -0.2112123 -0.30406666 0.561709 0.59978575 1.0642945 0.2873544 0.76578444
0.26608577 0.006303218 0.5584616 0.08721775 0.5127309 -0.52174646 0.74491084 0.6352714
0.08379198 -0.71143085 -0.045748744 0.143259 0.11686058 -0.46322033 -0.39037207 0.59287655
0.92949927 0.43921438 -0.33409476 0.6896362 0.07005325 0.4370796 -1.2533866 0.23593281
0.040819384 -1.3636774 0.18326862 0.06320691 0.18539888 -0.28635496 -0.16348322 0.041269097
-0.4883084 -0.014289823 -0.35474184 -0.56730205 0.21801074 0.033709276 -0.42605677 -0.8825849
00000000: 0066 0ebe da4b 423e 01b0 b7bd b87f e5bb
00000010: ba04 80be 84d3 133f d23c 25bf 87c6 bbbe
00000020: 1c2c 553e 0220 c2be d2cc 50be a5b2 b4be
00000030: 520b 24bd 30b7 b7be 9fb9 b13d 4b34 b23e
00000040: 4388 36bf 90d4 9a3d 3bf0 7f3f 1643 cb3e
00000050: dd68 27bf 404c afbe bd87 51bf 8e91 e13d
00000060: 4ca2 1b3d d977 12be 8b54 15bf 10ba f43b
00000070: 37f9 643e b4e6 8ebd 2d6e 0fbb be34 4fbf
00000080: 72c4 d83d 42f2 aabe f992 fd3e b3a3 d8bf
00000090: 7814 5b3e 8156 c13e 7cbc 343e 4766 72be
000000a0: 0010 2cbd 392e a3be 9592 8dbe 1c5f 3d3f
000000b0: c540 ab3f f0a2 86be 6ddf 60bf e517 f6be
000000c0: d184 d5be d15f 1f3f ad41 c13e e186 aa3e
000000d0: 89bc 0a3f dfc2 4abf 3001 513f 2e9a 3dbf
000000e0: b359 d9be 691c 1bbd 4d74 9b3f e0ff f6be
000000f0: ff0f 133f 2a88 c3be ab9e 733f d894 8c3e
00000100: 5e64 cb3e 5d75 5e3d a5bb 05bf 6841 99bd
00000110: ca56 b8be 4a21 89be b033 bc3e c893 abbe
00000120: 822c 9a3b 22e4 b6bc c56f a9bb a969 ed3e
00000130: 9917 64bf d586 07bf 33b4 a5bd 90b3 633d
00000140: 7b8a 963d 5590 98bb 4a2b d0be 7aa2 793e
00000150: 0d48 dc3e bf1c 803e b497 93be 077d d6bc
00000160: a0ea 1ebc b7f4 e8bd 5173 693f b2ad 28bf
00000170: 2937 5bbf a3d6 4fbf 023b b4bd dbe4 12bf
00000180: 1ec0 103f 5a97 09be b540 7fbf 42df 9fbd
00000190: d1c3 31bf 9214 8fbe 1802 85bf 9347 193f
000001a0: c1f9 793d 2115 253f 2428 86be 7d06 10be
000001b0: 90ad 233f edc5 0c3f 0d3b 4c3f f385 483f
000001c0: c365 e3bc cb0a 03bf 6205 553e 9a0b fbbd
000001d0: 344a 82be 3290 7b3e bf2d 963c 9412 8d3d
000001e0: ed1c be3d 60f9 263f db28 50be 6edc 1cbf
000001f0: ccd0 783f 6ec5 7ebf 24bc 923e 1455 22be
00000200: 006c 073f a7aa 443f 0b27 10be b94b 1abe
00000210: 7962 d23e 6a2f 413d 2b19 2f3f b071 0f3f
00000220: 6f41 7cbe 0575 02bf 743a 96be 687e 803f
00000230: f3d6 343f d790 ea3d dc7e 86bf 664b 70bf
00000240: ef8c 39bf 21ed f53e 1054 203f a957 8a3d
00000250: eb8a 983e 7359 f1be 1c5d d63d 3623 08bf
00000260: 13f4 5ebe eb26 503f 515e fabe 164d b9be
00000270: cbd5 8f3f f936 30bf b1bc 0c3f 8da0 f2bc
00000280: 40c0 873e 577a 803e 758f 0f3f af83 00bf
00000290: 3634 9ebd d8a2 eebe d8e3 273f 6cd0 463f
000002a0: ad02 b1be 438a 0f3f 29db 34bf 4ace 393f
000002b0: 69a4 0e3f 8d6b fd3e 402f af3e aa01 d4bd
000002c0: 3a2b 4e3e 215f 503e 6c03 b13c 6b99 0d3d
000002d0: c8b2 13bd fe36 5b3e ca4b 72be 9991 4bbe
000002e0: 1e94 d7be d918 613f 950f 8dbe 43b3 21bf
000002f0: a226 29bf b9d3 413e 82cc 73bd 4db1 26be
00000300: a115 05bf 2bcc 3e3f 2d83 0bbe 5168 afbe
00000310: d068 b63e 7330 4d3e 5994 b6be 1cec 323f
00000320: f35c 843e 82ff b43d 9c60 f23e a670 96be
00000330: 9291 dfbc cd7f c03f 7503 ab3e c48b 9ebd
00000340: b708 0fbe 0a48 58be a0ae 9bbe 29cc 0f3f
00000350: 8f8b 193f cd3a 883f 1e20 933e 730a 443f
00000360: 653c 883e 3a8b ce3b 57f7 0e3f 389f b23d
00000370: 5542 033f 2d91 05bf 7ab2 3e3f 25a1 223f
00000380: 219b ab3d 5520 36bf 0963 3bbd 7db2 123e
00000390: 9a54 ef3d 372b edbe d9de c7be c2c6 173f
000003a0: aaf3 6d3f b5e0 e03e 780e abbe ff8b 303f
000003b0: 1478 8f3d e6c8 df3e f96e a0bf 5f98 713e
000003c0: 3a32 273d fb8c aebf c5aa 3b3e a072 813d
000003d0: 34d9 3d3e 1e9d 92be 2568 27be c909 293d
000003e0: 8f03 fabe dd1f 6abc b9a0 b5be b53a 11bf
000003f0: 353e 5f3e bd12 0a3d 1d24 dabe 16f1 61bf

network_body._body_endoder.seq_layers.0.bias f4 [128]
-0.005483073 -0.018288733 0.013737477 -0.037793133 0.0072222566 -0.0027072392 0.009865521 -0.012163806
-0.028557396 0.014798804 -0.008708143 0.0007788789 0.0178248 -0.02831831 -0.007941209 -0.019076273
-0.028607942 0.0014749008 -0.019016147 0.0060647833 -0.038266335 0.004580947 0.01399198 -0.009773494
-0.012420422 -0.021488214 -0.02315366 -0.009100958 -0.0037476667 0.0076390915 -0.0054012365 -0.012896543
-0.006882476 0.012052555 -0.04492028 0.0070013367 -0.030485364 -0.005236383 0.0023363994 0.00305342
-0.0313433 0.024908923 -0.0016150742 -0.010288782 -0.030133763 -0.002756522 -0.019918123 -0.032897856
-0.012257528 -0.024115764 0.00039634714 0.018151095 -0.011169748 -0.007532491 0.0044798953 0.02161887
0.013846465 0.003414747 -0.012283996 -0.042017028 0.0014676944 0.017539352 -0.005375067 -0.0126145445
0.015635915 -0.010954567 0.0006295016 -0.014878054 -0.021464933 -0.0012164608 -0.008223516 -0.009946881
-0.004419419 -0.0036212893 0.013796016 -0.0066243443 0.011172626 -0.016784478 -0.0066334005 -0.022230653
0.045557033 -0.011438634 -0.024088763 0.009990781 -0.019850472 -0.001503077 -0.019177599 -0.026371121
-0.0071841395 -0.042814896 0.0075624553 -0.00015817353 -0.008685457 0.03144939 0.0036250034 -0.0010272913
0.0012711202 -0.035284325 0.016150115 -0.022757629 -0.04918163 -0.01934354 -0.02905112 -0.004501085
0.024589378 -0.020081254 0.008906048 0.012704978 0.0051345113 0.01993494 -0.022477027 -0.013405572
0.003228119 -0.00053158536 0.011292619 -0.016201496 -0.015878048 -0.018545544 -0.0063192523 -0.0024450652
-0.0055974354 -0.0102743665 -0.012134057 0.010281882 0.008820107 -0.016385313 -0.020043503 -0.024943177
00000000: 5aab b3bb 41d2 95bc 2813 613c f9cc 1abd
00000010: aea8 ec3b f06b 31bb ffa2 213c b34a 47bc
00000020: 33f1 e9bc af76 723c 99ac 0ebc ae2d 4c3a
00000030: 5105 923c cdfb e7bc d81b 02bc d845 9cbc
00000040: 345b eabc 7551 c13a c0c7 9bbc 17bb c63b
00000050: 29bd 1cbd c51b 963b 9e3e 653c 0121 20bc
00000060: 077f 4bbc 0d08 b0bc bfac bdbc 2f1c 15bc
00000070: 6a9b 75bb 5851 fa3b dbfc b0bb 064c 53bc
00000080: 6586 e1bb 1478 453c 54fe 37bd 786b e53b
00000090: 71bc f9bc f795 abbb 471e 193b e31b 483b
000000a0: d561 00bd cc0d cc3c e6b0 d3ba 4892 28bc
000000b0: 15db f6bc c4a6 34bb 552b a3bc e7bf 06bd
000000c0: ccd3 48bc 6c8e c5bc d0cc cf39 9bb1 943c
000000d0: 5201 37bc 1dd3 f6bb 16cc 923b 0e1a b13c
000000e0: 49dc 623c f3c9 5f3b d042 49bc 0c1a 2cbd
000000f0: a75f c03a b0ae 8f3c 5421 b0bb 3cad 4ebc
00000100: e416 803c c97a 33bc 2305 253a 15c3 73bc
00000110: 3ad7 afbc a771 9fba edbb 06bc 3ef8 22bc
00000120: c6d0 90bb 2753 6dbb af08 623c 0711 d9bb
00000130: 640d 373c 9a7f 89bc ff5c d9bb 0f1d b6bc
00000140: 039a 3a3d 1c69 3bbc cc55 c5bc 5fb0 233c
00000150: 759d a2bc e502 c5ba 571a 9dbc 4008 d8bc
00000160: ee68 ebbb ac5e 2fbd 79ce f73b 62db 25b9
00000170: 724d 0ebc 13d1 003d 7791 6d3b 2da6 86ba
00000180: b79b a63a 4c86 10bd 3f4d 843c 356e babc
00000190: ad72 49bd 5876 9ebc 9dfc edbc d67d 93bb
000001a0: aa6f c93c 7181 a4bc acea 113c 8a28 503c
000001b0: 673f a83b 994e a33c be21 b8bc 0ba3 5bbc
000001c0: da8e 533b 175a 0bba ad04 393c 00b9 84bc
000001d0: ae12 82bc d3ec 97bc bb11 cfbb 633d 20bb
000001e0: b16a b7bb d155 28bc eccd 46bc 5775 283c
000001f0: 3682 103c 7e3a 86bc 4632 a4bc a255 ccbc

network_body._body_endoder.seq_layers.2.weight f4 [128, 128]
-0.007643215 -0.045050908 0.06711246 -0.08142056 -0.113334194 0.109100424 -0.2559349 -0.043285374
-0.013346107 0.0017862406 0.009629307 0.14797662 -0.072254315 0.008723275 -0.04572132 -0.055008397
-0.08112613 0.08780663 0.097576424 0.2382052 0.14587562 0.08539424 0.08786225 -0.06727112
0.057934448 0.0002629971 -0.07273545 -0.026789838 0.092557415 -0.012123777 0.053977765 -0.13723134
-0.012536927 -0.0112646995 0.10429153 0.073817655 -0.018637752 -0.043842312 0.028548567 -0.13828161
-0.03942796 -0.13454114 -0.06565679 -0.031241246 -0.034632538 -0.079480655 -0.030557824 0.05836245
-0.14531109 -0.04261523 0.03312186 -0.07057939 0.16995907 -0.046230424 -0.035277374 0.08137719
0.03042394 -0.01826995 -0.026315046 0.042298824 0.09741979 -0.0065284725 -0.06059813 0.12457706
-0.003711767 0.044841155 -0.03724662 0.0891874 -0.04355172 -0.095154315 0.005029284 -0.0017039209
-0.0041750437 -0.11315145 -0.0374849 0.10101011 -0.054644104 -0.10421368 -0.072214104 0.09568375
0.11929777 -0.02609074 0.030664666 0.035440695 -0.046838194 0.101482004 0.026131533 0.027832465
0.06055828 -0.06558056 -0.24249762 -0.023664812 -0.0261162 -0.14969075 -0.100029275 0.017261188
0.2269477 0.0807323 0.1262584 0.03257054 0.018185323 -0.016576607 -0.00885291 0.04337874
0.011321467 -0.034154497 -0.12639917 0.051785734 -0.05403844 -0.10366854 0.024459342 -0.040496685
0.031794716 -0.019055141 -0.0004136359 0.05145214 0.064236045 -0.081466965 0.062107757 -0.02171066
0.07919019 -0.0446937 0.096989214 0.06306579 0.053319283 -0.03111648 -0.06940017 0.06543824
0.046483092 0.06131309 -0.15111646 -0.12186684 -0.12610376 -0.106590696 0.06674993 -0.07550917
0.04965845 -0.052336913 0.14876395 -0.06304957 -0.25657555 -0.052769054 0.01870865 0.0016294848
-0.051011156 0.014126039 0.032791805 0.08544823 -0.09810507 0.019648822 -0.075085826 -0.009443968
-0.08062219 -0.2480485 0.078373834 -0.16657212 -0.16870731 -0.19419187 -0.000671091 -0.07499088
0.12390856 0.07742623 0.06221818 -0.06269713 0.08973452 -0.08740227 -0.093139045 0.03739806
-0.042829268 -0.19307867 0.004367656 -0.012290027 0.066899985 -0.023416085 -0.18248008 -0.11872587
0.08560332 0.055412177 0.11100656 0.073509805 0.020450301 -0.07593674 0.022519292 -0.09806407
-0.15883312 -0.11713687 0.08028926 -0.045218885 -0.034737445 -0.19656727 0.099294394 -0.0921234
0.09783083 -0.0880641 0.07081895 -0.23451596 0.0065925554 -0.08169619 -0.03855049 -0.10217617
0.1092268 -0.09800965 0.07205674 -0.18616195 0.023810789 -0.044527862 -0.10223228 -0.20066355
-0.12404076 -0.09042727 -0.09030568 -0.046149984 -0.17208558 -0.041219126 -0.098050445 0.16120066
0.051874325 -0.06308325 0.079352 -0.08050635 -0.09334695 -0.009082163 0.029771976 -0.045326594
-0.09097931 0.06860205 -0.009237631 -0.10263489 -0.009713391 -0.052954286 0.05443452 0.008661101
0.06708127 -0.149481 -0.1076063 0.06775809 -0.06496898 -0.05306106 0.046192914 -0.09181661
-0.12200164 -0.009612197 0.008489766 -0.040129036 0.12430883 -0.033006456 0.0609513 -0.08554693
0.08646664 0.028092148 0.0841342 0.03315487 0.13720097 -0.09691231 -0.0793724 0.06428465
00000000: ef73 fabb 4d87 38bd 4272 893d d3bf a6bd
00000010: c21b e8bd 0b70 df3d e609 83be 014c 31bd
00000020: a1a9 5abc 4a20 ea3a 3ec4 1d3c 2f87 173e
00000030: 12fa 93bd 11ec 0e3c 4746 3bbd 7c50 61bd
00000040: 7525 a6bd f6d3 b33d 26d6 c73d 10ec 733e
00000050: 6b60 153e 2de3 ae3d 20f1 b33d 71c5 89bd
00000060: ac4c 6d3d e0e2 8939 53f6 94bd 5d76 dbbc
00000070: be8e bd3d cea2 46bc ca17 5d3d 5f86 0cbe
00000080: af67 4dbc 938f 38bc cc96 d53d b62d 973d
00000090: 33ae 98bc ff93 33bd afde e93c b299 0dbe
000000a0: 367f 21bd 27c5 09be 1177 86bd a4ed ffbc
000000b0: d9da 0dbd c1c6 a2bd 6754 fabc 770d 6f3d
000000c0: 6ecc 14be 4f8d 2ebd caaa 073d ed8b 90bd
000000d0: c009 2e3e 1d5c 3dbd 027f 10bd 16a9 a63d
000000e0: a03b f93c ddaa 95bc a792 d7bc 8841 2d3d
000000f0: 0784 c73d ccec d5bb bf35 78bd 4222 ff3d
00000100: 1e41 73bb 5cab 373d e98f 18bd e2a7 b63d
00000110: 4a63 32bd 44e0 c2bd b1cc a43b 1956 dfba
00000120: cece 88bb f3bb e7bd c489 19bd 63de ce3d
00000130: 7fd2 5fbd fb6d d5bd fde4 93bd d8f5 c33d
00000140: 6452 f43d 3fbc d5bc 7734 fb3c 432a 113d
00000150: 68d9 3fbd ccd5 cf3d cc11 d63c e900 e43c
00000160: f60b 783d 1a4f 86bd 4c51 78be b5dc c1bc
00000170: a4f1 d5bc 8848 19be 26dc ccbd 5667 8d3c
00000180: fa64 683e fa56 a53d e249 013e b068 053d
00000190: 63f9 943c aacb 87bc cc0b 11bc e8ad 313d
000001a0: ad7d 393c 96e5 0bbd c96e 01be 471d 543d
000001b0: 6957 5dbd 2c50 d4bd f55e c83c dadf 25bd
000001c0: 2d3b 023d 8719 9cbc 45dd d8b9 7bbf 523d
000001d0: 308e 833d 27d8 a6bd b464 7e3d 8eda b1bc
000001e0: 772e a23d be10 37bd 48a2 c63d a328 813d
000001f0: 5265 5a3d fde7 febc ad21 8ebd 7c04 863d
00000200: 0e65 3e3d 6f23 7b3d 46be 1abe 5295 f9bd
00000210: 5821 01be 394c dabd 30b4 883d 8da4 9abd
00000220: a966 4b3d 3b5f 56bd 9455 183e 2220 81bd
00000230: df5d 83be 5d24 58bd e242 993c 7094 d53a
00000240: 13f1 50bd e770 673c b350 063d 7bff ae3d
00000250: 50eb c8bd 91f6 a03c 99c6 99bd dfba 1abc
00000260: 3f1d a5bd 6d00 7ebe 7682 a03d e291 2abe
00000270: 9cc1 2cbe 3cda 46be 28ec 2fba d294 99bd
00000280: c5c3 fd3d a591 9e3d 7ed8 7e3d 5a67 80bd
00000290: bbc6 b73d f6ff b2bd afbf bebd b52e 193d
000002a0: be6d 2fbd 6ab6 45be 8e1e 8f3b 1c5c 49bc
000002b0: dc02 893d 17d3 bfbc 0fdc 3abe 8d26 f3bd
000002c0: cb50 af3d e1f7 623d 6857 e33d 4f8c 963d
000002d0: 6487 a73c b984 9bbd 617a b83c d1d5 c8bd
000002e0: 26a5 22be 75e5 efbd b26e a43d 7037 39bd
000002f0: da48 0ebd ee48 49be dc5a cb3d 31ab bcbd
00000300: 885b c83d f35a b4bd 8709 913d f424 70be
00000310: 5d06 d83b 5550 a7bd 1ee7 1dbd bd41 d1bd
00000320: 4db2 df3d 49b9 c8bd 7c92 933d 3da1 3ebe
00000330: d80e c33c d962 36bd 285f d1bd bf7a 4dbe
00000340: 1509 febd ef31 b9bd 2ff2 b8bd c407 3dbd
00000350: 3437 30be 63d5 28bd acce c8bd c911 253e
00000360: 2c7a 543d ca31 81bd 4d83 a23d 83e0 a4bd
00000370: b02c bfbd 5acd 14bc 5ce4 f33c 61a8 39bd
00000380: 5c53 babd 3b7f 8c3d 6f59 17bc 3e32 d2bd
00000390: ea24 1fbc 98e6 58bd bbf6 5e3d 4ae7 0d3c
000003a0: e861 893d 8c11 19be b160 dcbd c1c4 8a3d
000003b0: 750e 85bd 8e56 59bd c834 3d3d 590a bcbd
000003c0: ffdb f9bd 7a7c 1dbc a918 0b3c 585e 24bd
000003d0: a195 fe3d c731 07bd 12a8 793d 3b33 afbd
000003e0: 6c15 b13d 8121 e63c 8d4e ac3d 67cd 073d
000003f0: 697e 0c3e f679 c6bd ff8d a2bd aca7 833d

network_body._body_endoder.seq_layers.2.bias f4 [128]
-0.007200155 -0.034171112 0.009358037 -0.015585292 0.008515069 -0.0017414404 -0.017896358 0.0060313987
-0.0042679315 -0.0021873005 0.006751908 -0.013458188 -0.01771064 -0.022341907 -0.020164832 -0.02091103
0.0019754916 -0.026000282 -0.008633345 -0.0003631031 -0.0018204156 0.0019327393 0.041596264 -0.0018137075
-0.003313933 -0.006052612 -0.010205244 -0.028906329 -0.00451732 -0.0053795055 -0.01947871 0.0044877534
0.015906364 -0.016397573 -0.012899304 0.016767431 0.0034400462 -0.017530756 -0.0009432854 0.007649837
0.0014482648 -0.0062321336 0.0034941216 -0.012857707 -0.018268803 -0.014364422 0.0021910358 -0.005126854
-0.0054432065 0.013553821 -0.0032416913 0.015336075 -0.0030004168 -0.0028906455 -0.0063968296 -0.027298875
-0.027103243 -0.01960136 -0.0080623375 -0.0028876343 -0.018362006 -0.021115163 -0.009818801 -0.0017530776
-0.012643499 -0.016376397 -0.019556677 0.00096017576 -0.002294928 0.009433832 0.020646537 -0.006407242
0.001037169 -0.012769081 0.015140887 -0.008169598 -0.003888887 -0.017109532 0.0067894515 0.009176936
-0.024154402 -0.01372397 -0.008871964 -0.016869871 -0.030508852 -0.01735982 0.002374109 -0.019775622
-0.013215633 0.004201521 0.0030004145 0.016463649 -0.00876249 -0.0034587954 0.009870046 -0.023172006
0.0032648873 -0.0030750735 0.0010806705 0.0035671652 0.017594066 -0.006353554 0.014346372 -0.015578618
-0.011840478 -0.0043721935 0.019123856 -0.001363945 -0.0068631787 -0.00822329 -0.01790104 0.024746975
-0.003401737 0.013187795 0.00573131 -0.0010763664 -0.0063112173 0.0022366235 -0.004873822 0.0038233057
-0.0066490136 -0.0042567905 -0.005552161 -0.0073860493 3.6645783e-05 0.009961475 -0.009518775 -0.029485064
00000000: 47ef ebbb 02f7 0bbd 7452 193c 7459 7fbc
00000010: ca82 0b3c 0b41 e4ba 629b 92bc 0aa3 c53b
00000020: 01da 8bbb d058 0fbb 1c3f dd3b bb7f 5cbc
00000030: e715 91bc 6006 b7bc b830 a5bc 9c4d abbc
00000040: 4077 013b 8bfe d4bc e072 0dbc e05e beb9
00000050: 039b eeba f853 fd3a d860 2a3d edb9 edba
00000060: 922e 59bb fd54 c6bb e533 27bc f7cc ecbc
00000070: 0706 94bb 9046 b0bb d191 9fbc 010e 933b
00000080: 104e 823c 3454 86bc 9a57 53bc da5b 893c
00000090: 6672 613b a99c 8fbc d046 77ba 7cab fa3b
000000a0: b4d3 bd3a ed36 ccbb a2fd 643b 22a9 52bc
000000b0: 75a8 95bc c158 6bbc 7b97 0f3b 2bff a7bb
000000c0: ed5c b2bb d810 5e3c 8e72 54bb 2944 7b3c
000000d0: a4a2 44bb fc70 3dbb 7f9c d1bb e4a1 dfbc
000000e0: 9f07 debc 0893 a0bc e517 04bc 773e 3dbb
000000f0: eb6b 96bc b5f9 acbc 09df 20bc 86c7 e5ba
00000100: ae26 4fbc cb27 86bc 5335 a0bc 4eb4 7b3a
00000110: 8166 16bb 5c90 1a3c ed22 a93c d7f3 d1bb
00000120: 9ef1 873a 6835 51bc 7c11 783c c7d9 05bc
00000130: b2dc 7ebb 4a29 8cbc 0c7a de3b dc5a 163c
00000140: 74df c5bc 81da 60bc b75b 11bc af32 8abc
00000150: b3ed f9bc 2e36 8ebc f196 1b3b 7c00 a2bc
00000160: 6286 58bc eaac 893b 9aa2 443b c6de 863c
00000170: 8c90 0fbc f5ac 62bb f9b5 213c 38d3 bdbc
00000180: b8f7 553b 2c87 49bb 49a5 8d3a 1ac7 693b
00000190: 6e21 903c 7931 d0bb 0c0d 6b3c 763d 7fbc
000001a0: 90fe 41bc 9e44 8fbb a2a9 9c3c 66c6 b2ba
000001b0: 84e4 e0bb faba 06bc 34a5 92bc 2bba ca3c
000001c0: adef 5ebb 9f11 583c b7cd bb3b dd14 8dba
000001d0: 54ce cebb 5194 123b 95b4 9fbb 6d90 7a3b
000001e0: f8df d9bb 8c7c 8bbb e7ee b5bb ac06 f2bb
000001f0: 1cb4 1938 7435 233c a3f4 1bbc a98a f1bc

action_model._continuous_distribution.log_sigma f4 [1, 4]
-0.042271838 -0.06758997 -0.004961555 -0.015909037
00000000: 3c25 2dbd 9c6c 8abd 8a94 a2bb ab53 82bc

action_model._continuous_distribution.mu.weight f4 [4, 128]
-0.005210298 -0.0028281945 0.025749179 -0.0135490615 -0.026448073 -0.012080977 -0.010443731 0.023274977
0.0046096584 -0.0015913297 -0.0054133623 -0.00864276 -0.04224198 0.0077790297 -0.01118889 -0.00685468
-0.0018338349 -0.008300132 0.013067756 0.0046565705 -0.0041694716 0.02121974 0.07426605 0.011837028
-0.028267357 0.02280698 -0.003766858 0.015163338 -0.022553824 0.015785953 0.025398914 0.030174967
-0.03750974 0.005807766 0.011175094 0.019784534 0.017525462 -0.0027578233 -0.013893083 0.0066606505
0.00202103 -6.410081e-05 -0.012582222 0.002657246 -0.0013618108 -0.006779846 0.0070867315 0.01213512
0.0026229182 0.027516127 -0.03526295 0.013324795 0.010349239 -0.007647686 0.0019957016 -0.0042142062
0.0019485882 -0.005379725 -0.0076636616 -0.00870048 -0.027940365 -0.008596108 -0.0009134567 0.013320991
-0.008826019 -0.005239594 0.0020616814 0.022237554 -0.0064428216 0.012394587 -0.000100768695 -0.0046099764
-0.0062879585 -0.00602458 0.016935924 -0.016307332 0.0032249058 0.009989517 -0.0065656966 0.043668352
-0.023875592 -0.05170824 0.0074848365 -0.0046550473 0.0015376064 0.0014494229 0.024422836 -0.0032601138
-0.011321072 -0.013678617 -0.025603624 -0.058921397 -0.00320634 -0.010295807 -0.010817405 -0.025635436
0.017768797 0.000925386 0.008937418 -0.023697931 0.0119780945 0.015284193 0.021066995 0.005024117
0.003516445 -0.00034060984 0.01662922 0.016981492 -0.0029893846 -0.041063044 0.007266597 0.029293997
-0.00551952 0.00089649594 0.030327039 0.017520845 0.016910506 0.014401137 0.008167442 -0.0070996056
-0.011427342 -0.0017427624 -0.024250852 -0.008680889 -0.010898669 -0.010307542 0.01084451 -0.004396532
0.033487454 0.0027889176 0.011354316 0.02234929 0.00031181276 -0.01761028 -0.038288087 0.01594924
-0.04292245 -0.032841984 -0.01358482 -0.013907633 0.022464069 -0.020710465 -0.012060218 -0.011152641
-0.021709546 0.004522476 -0.012457388 0.014451939 0.025959747 -0.0059199943 -0.057812266 0.020006794
0.009136127 -0.0026920787 -0.0022871352 -0.010044334 0.032700818 -0.0010794393 -0.012455656 0.016848113
0.04007882 0.004733063 -0.012035638 -0.036657587 0.0025636323 -0.0024214578 0.062435918 -0.020493465
0.020756548 0.023711056 -0.031171767 0.002692407 -0.033288557 -0.0028857947 0.005280736 -0.025006076
0.020988824 -0.014222894 0.016186327 -0.021638194 0.022372304 0.028674368 0.013423322 -0.02002981
0.011940647 -0.004127365 -0.037537448 -0.026035825 0.026565768 0.0030930445 -0.014457369 -0.019366676
0.03760182 0.0041122837 -0.0012229523 0.013277155 0.0075039715 0.0025022838 0.031831425 0.025722496
-0.027292924 -0.011506735 -0.050531276 0.050654333 -0.02472516 -0.010885994 -0.0064516226 -0.017775813
-0.031868987 0.011134408 0.03215092 0.009305334 0.0065782694 0.017283574 -0.02516676 0.0062348614
0.0050315466 0.036987253 0.018281069 -0.019041646 0.0048334324 0.005681298 0.01893102 -0.0068910792
0.010905182 -0.018810464 0.010883729 0.016843067 0.009746958 -0.009651008 -0.032690026 -0.015593698
-0.027236795 -0.0010591543 0.014345157 -0.03387605 -0.027227227 -0.013252102 -0.009419956 0.012105229
0.0094800275 -0.020610087 0.017579729 0.030879423 -0.016046634 0.024620516 -0.022376053 -0.061489023
0.013004575 -0.0107503645 -0.04199942 -0.030973574 0.028278468 -0.06488801 0.019381974 0.017059423
00000000: 26bb aabb 3b59 39bb f1ef d23c e2fc 5dbc
00000010: a1a9 d8bc 4aef 45bc 2f1c 2bbc 2aab be3c
00000020: 9e0c 973b 2a94 d0ba 9362 b1bb 5d9a 0dbc
00000030: ed05 2dbd 3be7 fe3b 9b51 37bc 399d e0bb
00000040: 4a5d f0ba 47fd 07bc 241a 563c 2596 983b
00000050: 10a0 88bb 05d5 ad3c cc18 983d 18f0 413c
00000060: f290 e7bc b4d5 ba3c 64dd 76bb a66f 783c
00000070: ccc2 b8bc 8b51 813c 6211 d03c 7e31 f73c
00000080: d0a3 19bd 134f be3b be17 373c 2d13 a23c
00000090: 8f91 8f3c 99bc 34bb d09f 63bc 9641 da3b
000000a0: 4273 043b dc6d 86b8 aa25 4ebc 3125 2e3b
000000b0: ca7e b2ba 7829 debb d037 e83b 62d2 463c
000000c0: 44e5 2b3b 8069 e13c e26f 10bd 3e50 5a3c
000000d0: db8f 293c 7199 fabb 51ca 023b 5317 8abb
000000e0: c567 ff3a 6748 b0bb 741f fbbb 758c 0ebc
000000f0: 31e3 e4bc b1d6 0cbc 0b75 6fba 4940 5a3c
00000100: 029b 10bc e6b0 abbb 461d 073b 882b b63c
00000110: 4e1e d3bb aa12 4b3c c853 d3b8 490f 97bb
00000120: 380b cebb d769 c5bb 35bd 8a3c f496 85bc
00000130: f158 533b 12ab 233c 0e25 d7bb 96dd 323d
00000140: bf96 c3bc 05cc 53bd 5c43 f53b 5e89 98bb
00000150: 8289 c93a 90fa bd3a 6612 c83c a2a7 55bb
00000160: 047c 39bc 471c 60bc b1be d1bc 9057 71bd
00000170: 7521 52bb bfaf 28bc 7c3b 31bc 6801 d2bc
00000180: de8f 913c 9a95 723a 406e 123c 2a22 c2bc
00000190: c53f 443c 8d6a 7a3c b194 ac3c 59a1 a43b
000001a0: 2874 663b e193 b2b9 013a 883c c51c 8b3c
000001b0: 8de9 43bb b931 28bd a21c ee3b f7f9 ef3c
000001c0: 17dd b4bb d302 6b3a 6970 f83c e087 8f3c
000001d0: e787 8a3c bff2 6b3c bcd0 053c cfa3 e8bb
000001e0: bf39 3bbc 676d e4ba b9a9 c6bc 4a3a 0ebc
000001f0: 5590 32bc f7e0 28bc 2cad 313c c910 90bb
00000200: 242a 093d 46c6 363b 7407 3a3c dc15 b73c
00000210: cd7a a339 6f43 90bc f8d3 1cbd fba7 823c
00000220: 73cf 2fbd 5185 06bd dd92 5ebc d7dc 63bc
00000230: 9106 b83c fea8 a9bc 3898 45bc 91b9 36bc
00000240: 38d8 b1bc 4731 943b 131a 4cbc d3c7 6c3c
00000250: 89a9 d43c 83fc c1bb 8ecc 6cbd 4ae5 a33c
00000260: b2af 153c 966d 30bb c3e3 15bb fe90 24bc
00000270: 4bf1 053d f97b 8dba cf12 4cbc 0e05 8a3c
00000280: b029 243d cf17 9b3b 2031 45bc 4426 16bd
00000290: 9d02 283b 52b1 1ebb cebc 7f3d e9e1 a7bc
000002a0: a309 aa3c b03d c23c ef5b ffbc 1873 303b
000002b0: 9559 08bd 9a1f 3dbb 060a ad3b 8bd9 ccbc
000002c0: c1f0 ab3c 2407 69bc 3099 843c 9542 b1bc
000002d0: 1f46 b73c 82e6 ea3c 7eed 5b3c 8e15 a4bc
000002e0: b4a2 433c d93e 87bb dec0 19bd 1549 d5bc
000002f0: 74a0 d93c adb4 4a3b 9ade 6cbc dda6 9ebc
00000300: 5e04 1a3d 56c0 863b 784b a0ba 6d88 593c
00000310: e0e3 f53b 5bfd 233b ab61 023d fcb7 d23c
00000320: 6995 dfbc bf86 3cbc e2f9 4ebd eb7a 4f3d
00000330: 6b8c cabc 2b5b 32bc 2268 d3bb 959e 91bc
00000340: 0e89 02bd 186d 363c afb0 033d 6675 183c
00000350: 868e d73b 4896 8d3c 852a cebc cf4d cc3b
00000360: acdf a43b f27f 173d 2ec2 953c 3afd 9bbc
00000370: c561 9e3b 2f2a ba3b 3a15 9b3c 90ce e1bb
00000380: a6ab 323c 6718 9abc ab51 323c 79fa 893c
00000390: b4b1 1f3c 431f 1ebc fae5 05bd b67c 7fbc
000003a0: b31f dfbc 52d3 8aba f307 6b3c 9dc1 0abd
000003b0: a20b dfbc 581f 59bc 2956 1abc 0355 463c
000003c0: 1e52 1b3c 7cd6 a8bc 5d03 903c d8f6 fc3c
000003d0: 3b74 83bc f7b0 c93c fc4d b7bc eadb 7bbd
000003e0: 2411 553c 4c22 30bc 9507 2cbd 4bbc fdbc
000003f0: 3fa8 e73c 01e4 84bd f2c6 9e3c 34c0 8b3c

action_model._continuous_distribution.mu.bias f4 [4]
0.010221655 -0.00031066377 0.004698667 0.00808952
00000000: ba78 273c 96e0 a2b9 47f7 993b e889 043c

exp_avg f4 [128, 4]
0.0003890341 -0.00042205348 1.1760712e-06 0.0007473899 0.002099195 0.00050841994 -0.00026007276 0.005354497
-0.0010458536 -0.00084651785 -0.00036001613 -0.0017617487 0.0006889351 -0.00048758957 -0.0005334301 0.0002415225
0.003345977 -0.0018835326 0.0015317239 0.00066749513 -0.0025188283 0.0014968896 -8.2566636e-05 -0.0030366485
-0.00046859868 0.0025971422 0.00024316472 0.000369195 -0.00117484 0.0005831552 -0.0005163133 -0.00024073326
-0.00021663588 0.0003178086 0.0001527522 0.00047250718 0.0009319995 -0.0009395146 0.00092105515 0.00027684716
-0.0011191668 0.0012924066 -0.0004402228 -0.00035746186 0.00018241385 7.778902e-05 -0.0003179268 0.0011614528
0.003113191 -0.0037966915 0.0011234755 0.0008479952 -0.00053158496 4.6999154e-05 -0.00028529426 0.0012329262
9.23546e-05 -0.0003897846 0.00011292215 0.0001252031 -3.2654152e-05 0.00014901056 -0.00011876582 5.3262895e-05
-0.0002744847 0.00017429935 -0.0017905395 0.0038739762 -0.0032640588 -0.0020539297 -0.0030541557 -0.0028857412
-0.00062431605 -0.00079795707 -0.001067156 -4.3675464e-05 -0.0013333256 0.0009240364 0.0016228608 -0.0052604135
-0.0019047852 -4.9634546e-06 -0.0008955753 0.0003977394 0.00038396654 -0.00022294479 0.0010705707 -0.00038902974
0.00095883943 0.001729922 0.0013539286 0.0014339502 -0.0010593655 0.00035307487 0.001617649 -0.004192859
-0.00096519775 0.0006882188 -0.000808705 0.00054837146 -0.0039074933 0.002310049 -0.0011714639 -0.0024894222
0.0004954702 -0.0015150295 0.00027232495 3.7342252e-06 0.0004498639 -0.0005536722 0.00087334507 -0.0007110749
-0.0011587505 -0.0015900863 -0.0013925773 -0.001287415 0.002312093 -0.0032855223 0.00022295682 0.0009551828
0.0035962183 -0.00047316175 0.0032723388 0.0039821216 -0.0003611041 6.410247e-05 -0.00029565213 0.0007984985
0.00087484566 -0.0009455766 0.00051130424 -0.0006977755 -1.451053e-05 -0.00037189704 0.00046468718 -0.00068488426
0.00063076895 0.00016773609 -0.00060477055 0.00040324568 -0.00091737835 0.00060957007 -0.00095432845 -0.00077178737
0.0037367623 -0.0018006642 0.0020312439 0.0009845314 -0.001036585 -0.001380573 -0.0016994333 -0.00019238667
0.002412656 -0.0026384736 0.0010303061 0.0017210911 -0.00019484657 2.07415e-05 -1.4011559e-05 -0.00054786575
-0.00038111623 -0.00050275784 -0.00011446772 3.615421e-05 0.00026865726 -6.814691e-05 0.00017171368 -7.06078e-05
-0.0009920809 -0.0013259 -0.00021999731 -0.00019840685 8.713151e-05 0.0010094848 -6.328366e-05 -0.00059293944
-0.0007010375 -0.00014552666 0.000109794215 5.230875e-06 0.0029548283 -0.0026974978 0.0019819706 -0.0018038325
0.0027701007 0.0009284879 0.002111632 0.0026449747 -0.0011351225 -0.0004023065 0.00013906579 -0.0013898185
0.0025022803 -0.0015100681 0.00061935757 0.0019555804 -0.001012191 -0.0013581389 -0.0019462229 -0.00012643816
-3.821416e-05 0.00016558397 6.725022e-05 -3.4719687e-05 0.001531746 -0.0016619973 0.001014659 0.0004895822
0.002147308 0.0017838123 0.0025568947 -0.00020191653 0.0010128929 -0.0007373163 0.00090025656 -0.000794558
6.08337e-05 -6.82832e-05 9.210364e-05 -0.0002701593 0.00027808594 5.9203565e-05 0.00017678403 -0.000114080445
0.00072367734 0.00017545465 0.001404997 -0.0021110517 0.0008827918 0.000578037 0.00030807423 0.00090365205
-5.8621314e-05 -0.00046641842 -0.0004079879 0.00015200466 -0.00048892904 0.001997385 0.00070652505 0.0014438508
0.00015497037 0.0008892135 0.00010732986 0.001306191 0.0007238169 0.0004538388 -9.9214376e-05 -0.0003668368
-0.00011022293 0.00045883865 -0.00047397718 -0.00023567412 0.002643755 -0.00023355288 0.0013968484 -0.00067389896
00000000: 46f7 cb39 0f47 ddb9 80d9 9d35 7dec 433a
00000010: a692 093b 7c47 053a 605a 88b9 c774 af3b
00000020: 0615 89ba dae8 5dba 8cc0 bcb9 7aea e6ba
00000030: a799 343a 2aa3 ffb9 e3d5 0bba 3441 7d39
00000040: 2e48 5b3b dee0 f6ba 20c4 c83a d7fa 2e3a
00000050: ed12 25bb 4833 c43a a027 adb8 8202 47bb
00000060: 40ae f5b9 d134 2a3b 08fa 7e39 8490 c139
00000070: 17fd 99ba e2de 183a 3359 07ba 586d 7cb9
00000080: c028 63b9 8c9f a639 1b2c 2039 d7ba f739
00000090: 6d51 743a c249 76ba f772 713a cc25 9139
000000a0: 02b1 92ba f865 a93a b4cd e6b9 b869 bbb9
000000b0: 5846 3f39 aa22 a338 6aaf a6b9 e43b 983a
000000c0: ae06 4c3b ead1 78bb 9541 933a ff4b 5e3a
000000d0: 105a 0bba f520 4538 8c93 95b9 239a a13a
000000e0: 80ae c138 015c ccb9 9ed0 ec38 f448 0339
000000f0: 21f6 08b8 b83f 1c39 ea11 f9b8 9966 5f38
00000100: b6e8 8fb9 20c4 3639 89b0 eaba 89e2 7d3b
00000110: d2e9 55bb 399b 06bb 3b28 48bb b41e 3dbb
00000120: 24a9 23ba fe2d 51ba d0df 8bba 2c30 37b8
00000130: fcc2 aeba 083b 723a 2cb6 d43a 8c5f acbb
00000140: fca9 f9ba c08b a6b6 0ac5 6aba ae87 d039
00000150: 1e4f c939 49c6 69b9 6452 8c3a b0f6 cbb9
00000160: a05a 7b3a 8dbe e23a 4e76 b13a 62f3 bb3a
00000170: 68da 8aba e81c b939 4b07 d43a 4064 89bb
00000180: 5305 7dba 9569 343a 46ff 53ba 96c0 0f3a
00000190: 6e0a 80bb 3164 173b ce8b 99ba 9325 23bb
000001a0: 71e2 013a f493 c6ba d6c6 8e39 8099 7a36
000001b0: b6db eb39 5024 11ba 32f1 643a 6e67 3aba
000001c0: 37e1 97ba 716a d0ba 2487 b6ba 7bbe a8ba
000001d0: 7c86 173b eb51 57bb 84c9 6939 3c65 7a3a
000001e0: 88ae 6b3b b212 f8b9 bc74 563b 757c 823b
000001f0: 9252 bdb9 c06e 8638 c201 9bb9 5452 513a
00000200: e655 653a 92e0 77ba 0c09 063a ecea 36ba
00000210: 4072 73b7 2dfb c2b9 42a1 f339 ce89 33ba
00000220: 305a 253a 50e2 2f39 7789 1eba b86a d339
00000230: 387c 70ba 8ecb 1f3a e62b 7aba c651 4aba
00000240: 78e4 743b 4404 ecba 9e1e 053b 640b 813a
00000250: 05de 87ba 58f4 b4ba 85bf deba 67bb 49b9
00000260: a71d 1e3b 3eea 2cbb 560b 873a 3c96 e13a
00000270: ba4f 4cb9 08fe ad37 3013 6bb7 a69e 0fba
00000280: 8ed0 c7b9 82cb 03ba 640e f0b8 4aa4 1738
00000290: 91da 8c39 18ea 8eb8 0a0e 3439 4613 94b8
000002a0: b608 82ba d2c9 adba 14af 66b9 6f0b 50b9
000002b0: 60ba b638 b050 843a 28b7 84b8 7e6f 1bba
000002c0: d5c5 37ba 8498 18b9 5241 e638 e084 af36
000002d0: cba5 413b 81c8 30bb f3e3 013b 936e ecba
000002e0: 948a 353b c565 733a 4e63 0a3b 5057 2d3b
000002f0: 64c8 94ba aaec d2b9 30d2 1139 922a b6ba
00000300: 4cfd 233b 7aed c5ba 625c 223a 3229 003b
00000310: 7eab 84ba 9403 b2ba 6718 ffba 7c94 04b9
00000320: 2448 20b8 9ca0 2d39 b008 8d38 fb9f 11b8
00000330: dec4 c83a 60d7 d9ba 4efe 843a 4e57 003a
00000340: dab9 0c3b cfce e93a 9391 273b 8eb9 53b9
00000350: 0cc3 843a 7648 41ba 32ff 6b3a e249 50ba
00000360: b027 7f38 4433 8fb8 c427 c138 2ba4 8db9
00000370: 10cc 9139 5851 7838 1a5f 3939 793e efb8
00000380: 2ab5 3d3a 40fa 3739 e027 b83a 9259 0abb
00000390: 286b 673a 6887 173a 0685 a139 10e3 6c3a
000003a0: 28e0 75b8 9f89 f4b9 36e7 d5b9 7163 1f39
000003b0: 792b 00ba 8fe6 023b 1836 393a 983f bd3a
000003c0: 8b7f 2239 1c1a 693a 4816 e138 7f34 ab3a
000003d0: 88be 3d3a 36f1 ed39 5011 d0b8 0054 c0b9
000003e0: 7c27 e7b8 4890 f039 2480 f8b9 4a1f 77b9
000003f0: d942 2d3b e0e5 74b9 7416 b73a 98a8 30ba

exp_avg_sq f4 [128, 4]
0.00021099058 4.8151793e-05 5.9338145e-05 0.0001597754 0.0009248829 0.00020142482 0.00030378372 0.00055914605
0.00016215294 4.758683e-05 5.169975e-05 0.00013442316 3.5047837e-05 2.0191379e-05 2.0739753e-05 1.4892043e-05
0.00034071424 8.083059e-05 0.00012877333 0.00023797873 0.000476171 0.00014451265 0.00013265938 0.0003106683
0.00058261404 0.00013649765 0.00018543674 0.00036548363 0.00021051473 7.7724886e-05 0.000120219425 0.00020600943
0.00013093172 4.22571e-05 4.6046924e-05 0.00011692966 7.4962016e-05 2.8490856e-05 4.1814415e-05 8.492942e-05
5.510685e-05 1.8071012e-05 4.595571e-05 2.4689569e-05 1.4443633e-05 1.5162575e-05 1.4268689e-05 1.272089e-05
0.00076350995 0.0001850823 0.00027867642 0.0005306143 9.6271855e-05 7.30392e-05 7.258775e-05 0.00010314495
4.2787586e-05 1.4519581e-05 1.39409485e-05 3.5160396e-05 3.858141e-05 3.3964654e-05 3.7658403e-05 5.2762774e-05
4.2370495e-05 2.9690553e-05 5.008632e-05 2.7770457e-05 0.00038430703 0.000101006735 0.00011477038 0.00031843048
3.8013262e-05 1.36100925e-05 2.1254764e-05 2.2117587e-05 0.00066708826 0.00016453036 0.0002719017 0.00049291557
4.7530495e-05 1.6329572e-05 2.8594923e-05 1.9114914e-05 1.8422972e-05 1.7324557e-05 1.755814e-05 1.5430476e-05
0.00023827281 6.3798565e-05 9.9560915e-05 0.00023843496 0.0006153731 0.00012612662 0.00023034637 0.00042488272
7.122979e-05 3.4517616e-05 5.094965e-05 2.9862185e-05 0.00038821207 0.00010254978 0.00011750517 0.00024550298
0.00013910882 4.6253434e-05 5.0029692e-05 9.815339e-05 2.3163337e-05 1.9303397e-05 2.0588484e-05 2.7830962e-05
6.904301e-05 2.2181575e-05 2.7782655e-05 5.7168552e-05 0.000792321 0.0001465885 0.000258915 0.0004836194
0.00082467723 0.00016659142 0.0002170013 0.00058090425 2.2910255e-05 2.8412698e-05 2.775287e-05 3.600691e-05
5.9558995e-05 3.6727575e-05 2.2066724e-05 4.7510628e-05 9.124727e-06 1.0152304e-05 1.137723e-05 7.396387e-06
4.1835057e-05 2.0834304e-05 2.7807426e-05 1.6664544e-05 0.00061309675 0.000152375 0.00019341966 0.00044653728
0.00072102336 0.00015863415 0.000255125 0.00050251314 0.00013127852 3.078142e-05 5.5019187e-05 0.00013145094
0.00083443546 0.00017114852 0.00025692373 0.00058477314 1.5671307e-05 2.3064033e-05 2.4582665e-05 3.4585588e-05
6.769554e-05 2.3575843e-05 4.2987554e-05 7.229279e-05 7.120009e-05 3.8032613e-05 4.4063156e-05 5.084566e-05
7.2629424e-05 2.2650156e-05 3.161513e-05 3.6789712e-05 2.255661e-05 1.3543733e-05 1.8807817e-05 3.143072e-05
3.6183164e-06 2.9379505e-06 2.2265035e-06 2.5726056e-06 0.0006183469 0.00014755497 0.00020289009 0.0004311003
0.0005915905 0.00010820909 0.00015757444 0.00047018498 7.894846e-05 3.334372e-05 3.7333728e-05 5.388851e-05
0.0007924239 0.00015095927 0.00026662863 0.00049808744 7.4233634e-05 1.8120627e-05 3.9084352e-05 3.3278848e-05
2.3650611e-05 1.5852112e-05 2.0539148e-05 2.8456816e-05 0.00071734085 0.00017339268 0.0002248107 0.0005531645
9.730761e-05 2.7425102e-05 5.8188885e-05 2.7837974e-05 2.803032e-05 1.5892001e-05 1.4414513e-05 1.9734622e-05
3.3593315e-05 1.695733e-05 2.9545366e-05 4.2581356e-05 6.315232e-06 1.0279686e-05 9.58877e-06 8.41561e-06
0.0004239664 0.00017612094 0.0001930901 0.00026504727 0.00010455707 2.8986673e-05 5.770619e-05 5.2514544e-05
9.049898e-06 7.938596e-06 8.691685e-06 8.0524205e-06 0.00013514186 3.722526e-05 4.15876e-05 7.7811404e-05
0.0005420336 0.00013195649 0.0002310697 0.00038066154 3.2074324e-05 3.0932046e-05 3.2129956e-05 2.5018187e-05
0.00010347238 5.5657467e-05 5.4590015e-05 7.784041e-05 0.0004184091 9.7880766e-05 0.00017193996 0.00031881273
00000000: 5a3d 5d39 98f6 4938 d9e1 7838 6289 2739
00000010: d773 723a 9035 5339 2945 9f39 a893 123a
00000020: 9907 2a39 f897 4738 2fd8 5838 f1f3 0c39
00000030: 5400 1338 a860 a937 48fa ad37 d6d8 7937
00000040: e4a1 b239 9883 a938 5407 0739 ee89 7939
00000050: 97a6 f939 5288 1739 7b1a 0b39 32e1 a239
00000060: 91ba 183a cf20 0f39 cc71 4239 629e bf39
00000070: 9ebd 5c39 3b00 a338 501e fc38 3c04 5839
00000080: b74a 0939 373d 3138 8222 4138 2238 f538
00000090: ed34 9d38 a6ff ee37 e361 2f38 231c b238
000000a0: 8822 6738 3497 9737 91c0 4038 721c cf37
000000b0: ee52 7237 c462 7e37 8d63 6f37 ce6b 5537
000000c0: 4926 483a a712 4239 511b 9239 ec18 0b3a
000000d0: 8fe5 c938 9f2c 9938 403a 9838 864f d838
000000e0: d276 3338 2099 7337 ebe3 6937 3079 1338
000000f0: 79d2 2138 4575 0e38 67f3 1d38 994d 5d38
00000100: f9b6 3138 fa0f f937 c713 5238 9af4 e837
00000110: d17c c939 94d3 d338 e1b0 f038 04f3 a639
00000120: 6e70 1f38 e756 6437 424c b237 2889 b937
00000130: 89df 2e3a c885 2c39 078e 8e39 0137 013a
00000140: 7b5b 4738 7dfb 8837 21df ef37 f758 a037
00000150: 088b 9a37 3454 9137 d249 9337 b270 8137
00000160: dfd8 7939 98cb 8538 5ccb d038 6604 7a39
00000170: fd50 213a db40 0439 2289 7139 cbc2 de39
00000180: 3461 9538 02c7 1038 c5b2 5538 8e80 fa37
00000190: f188 cb39 fe0f d738 1c6d f638 dab6 8039
000001a0: bddd 1139 3f00 4238 f9d6 5138 b3d7 cd38
000001b0: e34e c237 bbed a137 6fb5 ac37 8976 e937
000001c0: 2fcb 9038 9212 ba37 cc0e e937 44c8 6f38
000001d0: c3b3 4f3a 8db5 1939 fcbe 8739 4c8e fd39
000001e0: 272f 583a 0baf 2e39 d88a 6339 d347 183a
000001f0: 662f c037 ce57 ee37 d6ce e837 2006 1738
00000200: fcce 7938 ef0b 1a38 ee1b b937 2646 4738
00000210: 6716 1937 d053 2a37 d5e0 3e37 7b2e f836
00000220: 0d78 2f38 54c5 ae37 fe43 e937 d6ca 8b37
00000230: 3ab8 203a dac6 1f39 b2d0 4a39 381d ea39
00000240: 0f03 3d3a 0857 2639 4cc2 8539 16bb 033a
00000250: cfa7 0939 4c1b 0138 67c4 6638 18d6 0939
00000260: 04be 5a3a 5576 3339 b8b3 8639 764b 193a
00000270: e075 8337 a279 c137 df36 ce37 fe0f 1138
00000280: c4f7 8d38 bdc4 c537 894d 3438 e59b 9738
00000290: 4251 9538 3585 1f38 74d0 3838 1d43 5538
000002a0: a050 9838 d700 be37 7d9a 0438 a74e 1a38
000002b0: f337 bd37 e439 6337 7bc5 9d37 7bd4 0338
000002c0: 34d2 7236 9b29 4536 0a6b 1536 07a5 2c36
000002d0: 8f18 223a fcb8 1a39 e5be 5439 4e05 e239
000002e0: f714 1b3a 50ee e238 913a 2539 2983 f639
000002f0: 2291 a538 8cda 0b38 c996 1c38 5906 6238
00000300: abba 4f3a d24a 1e39 4aca 8b39 1592 023a
00000310: e1ad 9b38 c001 9837 81ee 2338 e494 0b38
00000320: 4d65 c637 27fa 8437 7c4b ac37 8cb6 ee37
00000330: ee0b 3c3a bed0 3539 2abb 6b39 3e02 113a
00000340: a011 cc38 f50e e637 d70f 7438 9885 e937
00000350: a722 eb37 d04f 8537 ddd5 7137 c78b a537
00000360: 8ce6 0c38 973f 8e37 31d8 f737 6299 3238
00000370: 6ee7 d336 ea76 2c37 74df 2037 c530 0d37
00000380: cf47 de39 1bad 3839 3b78 4a39 0bf6 8a39
00000390: a645 db38 6828 f337 8d09 7238 1043 5c38
000003a0: 04d5 1737 0330 0537 81d2 1137 e218 0737
000003b0: deb4 0d39 5222 1c38 586e 2e38 ae2e a338
000003c0: 4217 0e3a cd5d 0a39 4d4b 7239 8793 c739
000003d0: 8b87 0638 08bd 0138 47c3 0638 26de d137
000003e0: 50ff d838 c071 6938 95f7 6438 403e a338
000003f0: eb5d db39 5645 cd38 c84a 3439 5226 a739

exp_avg f4 [128]
-9.514629e-05 -0.00027983007 0.00012858718 9.2267466e-05 -0.0004054584 0.0004686154 0.00016912325 -5.3007472e-05
-0.0001089948 -0.0001524573 0.00017176698 5.9383136e-05 -0.0007385965 -9.401388e-05 -2.7553591e-05 -1.779764e-06
0.00022183015 0.00071323005 0.00013390809 0.00021367677 1.3155266e-05 -0.00029740296 -0.00021135266 0.00010082498
6.115281e-05 0.0006593934 -0.0002518198 -5.810421e-05 0.00026524713 -0.00044729718 -0.0010205281 -4.6466186e-05
-5.9705686e-05 -6.128049e-05 0.00010589951 0.0003866523 -0.00046709523 0.0001098117 -0.0007336962 -1.5967122e-05
-9.535163e-05 1.9122524e-05 -0.00016541316 0.00015849156 -8.931625e-05 -0.0004145715 -0.0006044331 9.929246e-05
-0.00045260118 0.00029571526 -4.717904e-05 -0.00029640296 -0.00048458 -0.00014503516 -1.3017245e-05 8.5845095e-06
-0.00021409612 0.00011138684 -5.395612e-06 -0.00019252577 -0.00024789822 1.4068344e-05 0.00021432573 -0.00013077504
-0.0001475377 -7.494369e-05 -0.00025671674 0.00026666673 -0.00011002721 -5.5155895e-05 0.00017456542 -6.503149e-06
-1.904717e-05 9.075047e-05 0.0005953752 -9.7250944e-05 -4.487308e-05 -1.0873421e-05 0.00017839574 -5.349307e-05
0.00019725756 -0.00017309596 1.709571e-05 9.607934e-05 -2.5975616e-05 -0.00016560718 -7.7486766e-05 -0.00020744525
0.00011197985 0.00018405757 -8.95198e-05 -0.00082470896 -0.00023516206 -9.162002e-05 0.00013904671 0.00017267608
1.0090276e-05 9.340918e-05 -4.7569578e-05 0.00027097223 -3.0792216e-07 9.5746625e-05 -0.00019125387 -0.00018702293
-0.00041912252 -0.00032520696 -0.000104679944 -0.0003476192 -0.0001179999 -0.00014673284 -0.00013736064 -1.7401442e-05
5.3269265e-05 8.364633e-05 -0.00013976081 -0.0001812863 0.00031818842 3.2144286e-05 -5.9239563e-05 -0.00022723032
-5.6923454e-05 -0.0004500286 -6.367869e-05 -0.000102519174 -0.00053302664 -0.00018923315 -0.0006148184 0.00025943393
00000000: 4789 c7b8 28b6 92b9 5cd5 0639 b87f c138
00000010: b593 d4b9 7fb0 f539 ad56 3139 5754 5eb8
00000020: 2394 e4b8 f2dc 1fb9 591c 3439 2812 7938
00000030: 5f9e 41ba 5129 c5b8 e322 e7b7 3ae0 eeb5
00000040: 149b 6839 0ff8 3a3a ae69 0c39 6c0e 6039
00000050: 70b5 5c37 c0ec 9bb9 8c9e 5db9 0072 d338
00000060: 2a3f 8038 24db 2c3a ae06 84b9 ecb4 73b8
00000070: de10 8b39 3683 eab9 3ec3 85ba b0e4 42b8
00000080: 7e6c 7ab8 b683 80b8 5e16 de38 98b7 ca39
00000090: 76e4 f4b9 b54a e638 8555 40ba 22f1 85b7
000000a0: 84f7 c7b8 4f69 a037 c272 2db9 c130 2639
000000b0: 4c4f bbb8 d85a d9b9 d272 1eba 3c3b d038
000000c0: 1a4b edb9 3b0a 9b39 1ce2 45b8 8866 9bb9
000000d0: 3a0f feb9 9414 18b9 a464 5ab7 3006 1037
000000e0: fd7e 60b9 5b98 e938 f40b b5b6 bee0 49b9
000000f0: 56f8 81b9 1407 6c37 a0bc 6039 a820 09b9
00000100: 5ab4 1ab9 162b 9db8 f097 86b9 67cf 8b39
00000110: 69be e6b8 3157 67b8 8c0b 3739 a035 dab6
00000120: 7cc7 9fb7 4a51 be38 f412 1c3a 34f3 cbb8
00000130: 1a36 3cb8 fd6c 36b7 be0f 3b39 bf5d 60b8
00000140: ecd6 4e39 1881 35b9 c268 8f37 347e c938
00000150: 36e6 d9b7 d7a6 2db9 6480 a2b8 a985 59b9
00000160: b9d6 ea38 94ff 4039 94bc bbb8 4831 58ba
00000170: d695 76b9 2024 c0b8 11cd 1139 6210 3539
00000180: 6849 2937 ace4 c338 7285 47b8 4711 8e39
00000190: 8050 a5b4 94cb c838 528b 48b9 961b 44b9
000001a0: acbd dbb9 8a80 aab9 9e87 dbb8 a940 b6b9
000001b0: b776 f7b8 4cdc 19b9 7708 10b9 50f9 91b7
000001c0: 706d 5f38 486b af38 c28c 12b9 ac17 3eb9
000001d0: 87d2 a639 aad2 0638 ff77 78b8 ad44 6eb9
000001e0: 18c1 6eb8 d1f1 ebb9 3d8b 85b8 90ff d6b8
000001f0: d0ba 0bba e36c 46b9 c42b 21ba a204 8839

exp_avg_sq f4 [128]
3.4694087e-06 1.4770544e-05 2.9053647e-06 6.946776e-07 5.4238635e-06 7.820361e-06 9.946804e-06 4.003465e-06
2.4603892e-06 1.5158652e-06 1.1478993e-06 5.937537e-07 1.1752871e-05 2.3939772e-06 8.5980935e-07 1.0503096e-06
1.3259837e-06 6.653776e-06 6.8637036e-07 1.1022147e-05 8.169326e-07 6.530361e-07 4.371609e-06 9.958878e-06
1.4790901e-06 6.5864797e-06 2.5022327e-06 8.926588e-07 1.3026565e-06 1.1802052e-05 1.316747e-05 9.008651e-07
1.1663216e-06 3.3975553e-07 8.702962e-07 1.12850485e-05 1.1175177e-05 2.5252732e-06 1.3875874e-05 6.734893e-07
1.2020873e-06 1.3897153e-06 1.3201603e-06 7.1531366e-07 1.2466789e-07 1.0477917e-05 9.771597e-06 1.495808e-06
1.19219285e-05 1.1557778e-06 5.6654636e-07 1.1394095e-05 1.6170225e-06 6.650449e-07 7.5204395e-07 2.988589e-07
7.913824e-06 1.825205e-06 3.0906043e-07 2.1627593e-06 9.326474e-06 1.0077371e-06 2.092931e-06 6.798218e-06
1.4480385e-06 3.8435533e-07 2.0833268e-06 1.9715876e-06 1.611961e-06 5.669117e-07 5.4572433e-06 8.611429e-06
1.291005e-06 1.0577062e-05 6.817546e-06 8.214656e-07 1.9203997e-06 3.1123918e-06 5.0386557e-06 3.3720441e-06
1.6961269e-06 3.064852e-06 2.9687556e-06 9.338316e-07 5.2200653e-07 6.9026655e-06 2.8788077e-06 1.2642904e-06
9.678377e-07 9.377102e-06 3.6996482e-07 4.1085364e-06 5.800481e-06 1.218809e-06 1.1720313e-05 2.972084e-06
4.3245313e-07 2.709894e-06 1.8833756e-06 5.500139e-07 1.2763331e-07 1.6535583e-06 3.4106782e-07 4.815886e-06
8.39006e-06 5.6751446e-06 1.404058e-06 4.2558668e-06 4.0609078e-07 5.83384e-07 2.4373437e-06 1.4127343e-06
1.032199e-06 6.249499e-06 5.439235e-06 3.0679046e-06 1.6713157e-06 5.2482633e-06 2.641986e-07 3.1090067e-06
3.5406406e-06 1.1191553e-06 1.2391588e-06 3.0144e-06 1.5632566e-05 1.2313081e-06 4.6097593e-06 2.3606879e-06
00000000: fdd3 6836 01cf 7737 c9f9 4236 e279 3a35
00000010: a2fe b536 3234 0337 33e1 2637 8155 8636
00000020: 2a1d 2536 bb74 cb35 8511 9a35 7262 1f35
00000030: 322e 4537 37a8 2036 a6cd 6635 5df8 8c35
00000040: 74f8 b135 8043 df36 033f 3835 c3eb 3837
00000050: 2e4b 5b35 4d4c 2f35 d6af 9236 0e15 2737
00000060: 2685 c635 6e01 dd36 08ec 2736 0c9f 6f35
00000070: f0d6 ae35 6d01 4637 dae9 5c37 fad2 7135
00000080: 818a 9c35 a567 b634 4d9e 6935 ea54 3d37
00000090: 057d 3b37 dd77 2936 6dcc 6837 d5c9 3435
000000a0: 6857 a135 4186 ba35 5d30 b135 fb03 4035
000000b0: 73dc 0534 50ca 2f37 b1f0 2337 92c3 c835
000000c0: 4b04 4837 3920 9b35 c514 1835 4429 3f37
000000d0: 7808 d935 8a85 3235 11e0 4935 db72 a034
000000e0: 9ec5 0437 91f9 f435 f1ec a534 ec23 1136
000000f0: e778 1c37 9541 8735 4874 0c36 3f1c e436
00000100: 395a c235 6559 ce34 48cf 0b36 9e4f 0436
00000110: 8f5a d835 e02d 1835 5d1d b736 ce79 1037
00000120: 9846 ad35 2374 3137 46c2 e436 b082 5c35
00000130: 37e0 0036 7cde 5036 b911 a936 474b 6236
00000140: 7aa6 e335 c2ad 4d36 d53a 4736 6bac 7a35
00000150: 0420 0c35 729d e736 8a31 4136 b0b0 a935
00000160: a6e6 8135 5952 1d37 949f c634 0fdc 8936
00000170: c1a1 c236 f595 a335 5ca2 4437 0474 4736
00000180: e82b e834 a0db 3536 4bc8 fc35 aba4 1335
00000190: 940b 0934 d5ef dd35 011c b734 2598 a136
000001a0: 09c3 0c37 1f6d be36 1173 bc35 9ecd 8e36
000001b0: b104 da34 d899 1c35 3f91 2336 2e9d bd35
000001c0: 168a 8a35 cab2 d136 ac82 b636 33e2 4d36
000001d0: f851 e035 3d1a b036 2ed7 8d34 54a4 5036
000001e0: be9b 6d36 e235 9635 2c51 a635 ff4a 4a36
000001f0: ae22 8337 6d43 a535 88ad 9a36 4f6c 1e36
