old_ppo/PoI/PoI-1152.pt (torch, 424356 bytes, 30 tensors)

network_body._body_endoder.seq_layers.0.weight f4 [128, 1]
000000 75 33 c6 3d cd 93 e1 bf 06 1c 0b c0 22 5c 1f c0
       0.096777834 -1.762323 -2.1735854 -2.4899983
000010 f7 f9 05 3f 18 cd 82 bf 4b 33 ea b9 00 d9 06 3e
       0.5233454 -1.021884 -0.00044670174 0.13168716
000020 d9 00 21 bf e4 df 3d 3e 1e 9b c7 bf c1 59 a1 3f
       -0.6289192 0.18542439 -1.5594213 1.2605516
000030 8e 3c bc 3e 42 af 85 3e 33 5a 1a bf b2 84 ba 3e
       0.3676495 0.26110274 -0.60293883 0.36429363
000040 1d 2d 3f bc b5 13 03 3f b7 05 9e bf 91 f9 da 3f
       -0.011668471 0.51201946 -1.2345494 1.7107412
000050 56 5e c5 3f 91 a0 0f 3f bd 7a ce bf 00 b4 42 c0
       1.5419414 0.5610438 -1.6131207 -3.0422363
000060 2d 4a 38 3f 15 8e e2 3f db 43 68 bf 8d 57 81 be
       0.71988183 1.769961 -0.9072854 -0.25262108
000070 3c 31 d4 3f ff 8f 04 3e a6 ca 12 3f b2 5d fb be
       1.6577525 0.12945555 0.57340467 -0.4909492
000080 38 57 0e bf 71 29 a1 bf 6f d0 15 bf f9 01 89 be
       -0.55601835 -1.2590772 -0.5852117 -0.26759318
000090 f2 4a 7d 3e f5 ac fd be ca 9a cb be 13 72 b0 3f
       0.2473562 -0.49546018 -0.39766532 1.3784813
0000a0 bf 3c ee bf d5 bc 13 c0 80 45 d2 3f de f4 64 bf
       -1.8612288 -2.3084004 1.642746 -0.8943614
0000b0 c2 51 af bd 41 c3 b7 3e b3 29 26 bf fa 26 2d 3f
       -0.08560516 0.35891154 -0.6490738 0.676376
0000c0 47 09 88 bf 9e 02 06 3f 70 1d a8 3e 48 73 a2 3f
       -1.0627831 0.52347744 0.3283496 1.2691431
0000d0 ad 8f 45 bf 37 1a 57 3f 5d 0e 39 3e 72 d5 df bf
       -0.77172357 0.84024376 0.18071885 -1.7487013
0000e0 87 8a c5 3d f8 56 de bf 1f 06 8d bf 14 e6 0c 40
       0.096455626 -1.7370291 -1.1017493 2.2015429
0000f0 0c 89 b9 3e 4c 55 6c 3f 74 d3 03 bd 55 0c d6 3f
       0.3623737 0.9231765 -0.03218408 1.6722513
000100 87 82 c4 bf 24 61 30 be fd 6c bb bf 26 bb 95 3f
       -1.5352334 -0.17224556 -1.4642636 1.1697738
000110 74 25 de bd 3a c7 87 be c4 76 dc 3e c4 78 08 40
       -0.10846987 -0.26519185 0.4305936 2.132371
000120 6d 7b 9a bf 75 52 97 bf 4a b6 85 bf 4a a2 63 be
       -1.2068917 -1.1822039 -1.0446255 -0.22229877
000130 b9 50 1b bf a5 33 56 bf 4d b7 8d bf 8a 82 f9 3f
       -0.6067005 -0.83672553 -1.1071564 1.9492962
000140 67 fb 39 3e 68 68 05 bf a5 2e 74 bf 17 62 d6 bf
       0.18162309 -0.52112436 -0.95383674 -1.6748685
000150 3a a9 bb 3f 23 bc ab 3e ce 2b e2 bf 6d b2 13 3f
       1.4661019 0.33541974 -1.7669618 0.5769413
000160 73 70 a0 bd 3c 5e 8c bf 59 8a 95 3f f5 7e d5 be
       -0.07833948 -1.0966258 1.1682845 -0.41698423
000170 f6 62 cd bf dd e5 dd be 9c 52 aa 3f 37 be 96 bf
       -1.6045825 -0.43339434 1.330646 -1.1776799
000180 a7 ba fd bf 33 ec 9c bf b4 fc 89 3f 6c 55 39 3f
       -1.9822587 -1.2259582 1.0780244 0.7239597
000190 3e 28 76 bf 77 2f 94 3f 94 4e e9 3e b4 58 03 c0
       -0.96155155 1.1576985 0.45567763 -2.052289
0001a0 4a 30 f4 bf 92 53 fe 3f 9f 71 8f 3f b7 c3 2e 3f
       -1.9077237 1.9869254 1.120655 0.6826739
0001b0 f9 0c ad 3e bf 72 0d bf 7d fb ba 3f d8 f0 5e bf
       0.3379896 -0.55253214 1.4607998 -0.8708625
0001c0 bd a2 e9 3f 87 03 62 bf f9 dc 91 3e 97 ea 4a 3f
       1.8252789 -0.8828663 0.284889 0.79264206
0001d0 1a 87 1f bd c3 f3 50 be 44 62 fa 3e 82 98 ad be
       -0.038947202 -0.20405488 0.48903096 -0.33905417
0001e0 08 7c 06 bf ad 91 a8 be 94 40 86 3f 3b 65 bf bf
       -0.52533007 -0.32923642 1.0488458 -1.4952768
0001f0 fe 9c b9 3f 64 c0 07 3f 2c 14 a8 bf 6f c2 7d 3e
       1.4501035 0.5302794 -1.3131156 0.24781202

network_body._body_endoder.seq_layers.0.bias f4 [128]
000000 73 4b 97 b8 9b 00 ea ba 6c d0 3e bb 91 ad 85 ba
       -7.2142946e-05 -0.0017852964 -0.0029115928 -0.0010198822
000010 4e 99 e2 3a f3 5f 1b bb aa b9 e8 3b 19 ad 99 3a
       0.001728812 -0.0023708313 0.007102211 0.0011724561
000020 52 13 55 3a 2f 28 60 3a 6c ec 5d b8 5d ec d2 b9
       0.0008128184 0.00085509097 -5.291069e-05 -0.00040230426
000030 cf 58 d7 ba f5 7a 5a ba 73 af 9a 38 d9 8a 71 39
       -0.0016429665 -0.0008334362 7.375972e-05 0.00023035276
000040 18 1e 2a b9 ef cc 87 ba ca 9b 2c ba 19 be bc 3a
       -0.00016223674 -0.0010360758 -0.00065844937 0.0014399915
000050 e5 56 ad b8 55 fe 60 bb af e4 8e b9 48 e6 ef ba
       -8.265468e-05 -0.0034331281 -0.00027254733 -0.0018302882
000060 e7 4f a5 37 49 d0 b2 ba 96 53 3e bb 0d 7a 8c ba
       1.970674e-05 -0.0013642396 -0.002904152 -0.0010717526
000070 18 b9 14 ba 2e 25 ac 3a 84 b9 12 ba 76 03 e2 b9
       -0.0005673333 0.0013133639 -0.0005597102 -0.00043108658
000080 ce 6b cb b9 97 4b 6c 39 18 ed 69 b9 dc 4a 59 ba
       -0.00038799498 0.00022534873 -0.00022308936 -0.0008289048
000090 fd ab 33 3a d7 b7 93 ba e3 be 06 bb 39 bf bd ba
       0.00068539364 -0.0011269999 -0.0020560555 -0.0014476544
0000a0 84 0a 0a bb a4 7a 8b bb 1a 57 86 bb be 9f 44 3a
       -0.0021063397 -0.0042565633 -0.004099739 0.000750061
0000b0 7d 7e 8d ba f9 d8 77 ba ff 23 50 bb f7 c7 ba b9
       -0.0010795143 -0.00094546337 -0.0031759737 -0.0003562567
0000c0 7f 07 55 bb bc ec 78 ba 44 45 03 ba c8 97 b9 38
       -0.0032505689 -0.00094957254 -0.0005007575 8.849759e-05
0000d0 7b e9 00 bb e7 59 64 ba 81 e7 c4 3a d4 ad 2a bc
       -0.0019670415 -0.0008710906 0.0015022607 -0.01041742
0000e0 0c 1b b7 38 e7 2a 91 ba 7a ee 4a 39 4a 69 38 ba
       8.731158e-05 -0.0011075408 0.0001935306 -0.0007034732
0000f0 c9 62 3a ba cf e6 8d bb b8 a7 87 ba 64 db 05 bb
       -0.0007110057 -0.004330493 -0.0010349667 -0.0020424956
000100 8c 9a 40 bb 5e 35 a7 ba 6b 8d c3 ba 00 a2 7f bc
       -0.0029388992 -0.0012756994 -0.0014919465 -0.015602589
000110 c5 06 21 bb 49 5c 34 bb fc 25 9b ba ea 49 f9 ba
       -0.0024570685 -0.0027520827 -0.0011836882 -0.001901922
000120 a2 e2 dc ba d8 c5 92 ba 6a 0a af 38 c2 20 bd ba
       -0.001685221 -0.0011197878 8.34659e-05 -0.0014429318
000130 7e 4c df b9 69 27 27 b9 3f cb 42 bb 5c 79 2e bc
       -0.00042590866 -0.00015941043 -0.0029723195 -0.0106490515
000140 37 b1 96 3a 4d d0 0b ba 44 85 88 b8 d0 4d 26 ba
       0.0011496906 -0.00053334684 -6.509808e-05 -0.00063439924
000150 ba 65 9d b9 db a8 d1 ba 9e 1e b0 ba 53 c1 92 bb
       -0.00030021166 -0.0015995757 -0.0013436859 -0.0044786124
000160 09 58 d5 ba d7 49 2d bb f0 90 ca b9 be 96 12 ba
       -0.0016276847 -0.0026441717 -0.0003863643 -0.00055919203
000170 0e 00 30 ba ed 60 1f ba c0 2a c3 b9 85 99 00 bc
       -0.00067138753 -0.0006079812 -0.0003722515 -0.007849102
000180 97 21 e5 ba 0a 98 94 b9 df 75 c7 b9 ba 8b e9 b9
       -0.0017481324 -0.00028342038 -0.0003804406 -0.00044545328
000190 30 8e 48 ba 73 77 b5 ba 2e ae 8f b9 ef 99 62 bc
       -0.0007650582 -0.0013844803 -0.0002740486 -0.013830646
0001a0 0b bc 9a ba b3 e1 f9 b8 3c 8d 9a 3a c6 1e 77 ba
       -0.0011805309 -0.00011915285 0.0011791359 -0.0009426888
0001b0 70 70 81 3a 4a 25 d7 bb 82 97 2e ba 88 45 9f b9
       0.0009875428 -0.0065657245 -0.00066601497 -0.00030378648
0001c0 d5 f6 ec b9 0b 0c f5 b9 d5 28 81 3a 84 8f 42 bc
       -0.00045197332 -0.00046739014 0.0009854088 -0.011875037
0001d0 a5 ee 66 b9 29 c6 3e bb 58 c4 9f bb 66 03 02 bb
       -0.00022023411 -0.0029109812 -0.004875701 -0.0019838451
0001e0 fc b2 c4 bb ea 49 d5 ba fd 13 8d 37 b3 99 9b ba
       -0.006002782 -0.0016272638 1.6817818e-05 -0.0011871367
0001f0 42 af 5b ba ef 34 c3 37 1f 8e da ba d7 50 52 b9
       -0.00083803025 2.327046e-05 -0.0016674435 -0.00020057276

network_body._body_endoder.seq_layers.2.weight f4 [128, 128]
000000 0f ca 90 3d 93 cd a8 bd 2f bf 86 3d e0 13 95 3c
       0.070697896 -0.08242335 0.06579434 0.018197954
000010 fb 62 dc bd 20 f4 59 bd 0d df 59 3d 92 ed 71 3d
       -0.107610665 -0.05321133 0.053191233 0.059064455
000020 88 57 9d bc 82 99 d0 3b 4c a1 c3 3a 14 8a 0b 3d
       -0.019206777 0.006365956 0.001492539 0.03406723
000030 a6 89 21 3e 4f c3 96 bd 71 60 a7 bd 2c ce 37 b7
       0.15775165 -0.07361471 -0.081726916 -1.0955653e-05
000040 a8 41 a1 bc 75 b6 ab 3d 0e 72 85 bc 9b 6b 8f bd
       -0.019684628 0.0838441 -0.016289737 -0.07002946
000050 c2 92 9f be 9e bd 0a 3e 43 38 1a 3c 5e 1c 22 3e
       -0.31166655 0.13548896 0.009412828 0.15831134
000060 ee 00 06 bd 1b 9a 5e 3c e4 87 b7 bd 76 f8 69 bd
       -0.03271573 0.013586546 -0.08961466 -0.057121716
000070 de 44 02 3e 37 7d e5 bd 81 ff 76 3d c4 d7 1b 3e
       0.12721583 -0.112055235 0.06030226 0.15219027
000080 68 c4 80 3d e6 0f 3c be 94 dd 5a bd fc 0a 1c 3b
       0.062874615 -0.1836544 -0.05343397 0.0023810258
000090 3f 8e c3 bd 01 d5 4a bd b1 db 1e bc f6 e6 20 bd
       -0.09548616 -0.049519543 -0.009695933 -0.03928276
0000a0 c2 40 d0 3b 35 bc 56 3e 71 68 fc 3c 37 72 2c bc
       0.006355376 0.20970233 0.03081152 -0.010525278
0000b0 e8 7e 94 bd b7 e0 b2 3d 10 5a 67 be 21 eb 12 bd
       -0.07250768 0.08734267 -0.2259295 -0.035868768
0000c0 43 ff 4d 3d d6 58 29 3d e2 fb 46 bd b8 45 32 3d
       0.050292265 0.041344486 -0.048580058 0.04352352
0000d0 08 00 03 3c 7d e4 10 be d6 37 ff bd 74 e2 15 bc
       0.007995613 -0.14149661 -0.12461822 -0.009148229
0000e0 10 23 d5 bd b3 07 ea 3c 72 04 0a bd b9 20 4e 3d
       -0.10407078 0.028568124 -0.033695646 0.050324176
0000f0 77 c6 72 bb 10 11 e3 3b bd df c9 3d f4 1a 27 3d
       -0.0037044564 0.0069295242 0.09857128 0.04079719
000100 d5 55 2e be 14 5b 8e 3d 36 20 22 be c4 b0 0a bc
       -0.1702493 0.069509655 -0.158326 -0.008464996
000110 ce 73 62 bd d5 e7 c3 3d 7a f7 74 3d 36 44 1c be
       -0.05528622 0.09565703 0.059806325 -0.15260395
000120 d7 9e 79 3b 8a 11 a8 bd a7 1d 49 bd a5 f4 28 3d
       0.003808906 -0.0820647 -0.049100544 0.041248936
000130 8c d4 63 3d d4 37 e8 3d a1 6c 81 3c 08 c4 0a bd
       0.055622622 0.11338773 0.015798869 -0.033878356
000140 e0 dc a9 3d 94 6c 7b 3d 5d 97 02 be 0b ff 43 be
       0.08294082 0.061382845 -0.12753053 -0.1914026
000150 b3 12 74 3d 8a 90 63 bc f2 d8 8c bd 69 fa dd bc
       0.059588145 -0.013889441 -0.068773165 -0.027096944
000160 db f6 1a bd 22 9f 62 bc 17 1c e0 bd ba 20 02 3d
       -0.037833076 -0.0138318855 -0.10942858 0.03176949
000170 f3 1a 26 bc ab eb cd 3c 63 ac a2 bd 18 d1 e1 bd
       -0.010138261 0.02513679 -0.079430364 -0.110262096
000180 fa 43 08 bd 38 6e 1f 3e d6 2f a0 bc 30 ff 69 3d
       -0.033267953 0.15569389 -0.01955406 0.05712813
000190 5c 90 1a 3d 79 4c 9c 3d 82 2a 2f bd 65 7b 8e 3d
       0.037735328 0.076317735 -0.042765148 0.069571294
0001a0 8a cb c7 bd cf 2c 59 3e f1 56 c4 bd 1b 14 5f bc
       -0.09755619 0.212085 -0.09586895 -0.013615633
0001b0 ae 6a 47 3d 06 1a e3 bc c0 8f 88 3d 8c 46 88 bd
       0.048685722 -0.02772237 0.06668043 -0.06654081
0001c0 27 78 46 be e2 75 8d 3c 4c cb 3e be b8 7e 7a bc
       -0.19381772 0.017268125 -0.18632239 -0.015289001
0001d0 20 ed 45 bd 59 bb 8b ba 06 35 1f be e5 c9 fb bd
       -0.048321843 -0.0010660692 -0.1554757 -0.12294368
0001e0 64 c6 65 3d 61 c4 f1 bd 63 0c 37 bd 2f a8 f4 bd
       0.056097403 -0.118050344 -0.044689547 -0.11946141
0001f0 10 94 4e 3d d5 92 05 3e 0a 52 2b 3e 38 af 35 3b
       0.050434172 0.13044293 0.16730514 0.0027722847
000200 56 06 6d 3e 92 30 38 3c f6 30 e1 bd 30 b1 4e 3d
       0.23146948 0.011242049 -0.10995667 0.050461948
000210 56 58 94 bd 96 a5 8b 3d c5 02 d8 3d 4d 2a 83 bc
       -0.07243411 0.068186924 0.10547403 -0.016011382
000220 5c 8e 5e 3d 97 cc ba 3d 00 2d c9 3a b7 5b 9c bb
       0.054334983 0.09121054 0.0015348494 -0.0047716754
000230 16 3c 9d bc ab 42 c7 3a f7 99 50 3c 14 e2 38 3e
       -0.01919369 0.0015202364 0.012732021 0.18054992
000240 e4 94 8a 3d c2 7d 62 bd d8 ed a0 3d 4f f9 b9 bb
       0.0676668 -0.055295713 0.07857865 -0.005675472
000250 4b 51 57 3e 99 89 d3 bc b5 69 5d be 6f bc a5 3d
       0.21027105 -0.025822448 -0.21622355 0.080925815
000260 2f 16 35 3e 54 fa 37 3e 71 98 ac 3d 50 6f f7 bc
       0.17684244 0.17966586 0.084275134 -0.030204445
000270 97 48 cd 3d 1c d0 de bb 65 99 9c bc b2 54 25 bd
       0.10023611 -0.006799711 -0.019116113 -0.040363975
000280 3d a7 49 3d ea 20 87 3d 5e 92 ab bc 69 db 4a 3d
       0.049231756 0.06598075 -0.020943817 0.049525652
000290 c9 01 bc bd b6 1b 47 bd 9c 98 21 bd b7 1e cb 3d
       -0.09180028 -0.04861041 -0.03945218 0.09917968
0002a0 9a c5 03 3e fc 2d 35 bd 1f 2b 6b 3d a4 b2 29 bb
       0.12868348 -0.044233307 0.05741417 -0.0025893832
0002b0 b6 38 b8 bd 71 1e d3 3d ad 55 bf bd e6 9c 19 be
       -0.08995192 0.103085406 -0.09342513 -0.15001258
0002c0 49 d3 dd 3d 46 8f 91 3d 20 93 df 3d c1 d2 10 be
       0.10831315 0.07107405 0.10916734 -0.14142896
0002d0 37 c0 a0 bc 66 96 20 be 89 fb 3b bd bc fe 55 3d
       -0.019622905 -0.15682372 -0.04589418 0.052244887
0002e0 b2 54 3f bc 6f ed c3 3d 0b 65 22 bc 11 5f b9 3a
       -0.011677908 0.09566771 -0.009911786 0.0014142712
0002f0 bf 16 3c 3d 13 14 3e 3d b1 54 f3 bc 06 f3 37 3d
       0.04592013 0.046405863 -0.02970347 0.0449095
000300 04 3e fb 3d 71 88 2a be d9 91 28 3e 06 ee 04 bd
       0.12267688 -0.16653611 0.16461886 -0.03245356
000310 be c8 b8 bd ce 2d 2a 3e 14 4f 4f 3c 2b 5e a4 bd
       -0.090226635 0.16619036 0.012653131 -0.080257736
000320 8b 50 b5 3d 70 d9 91 3d 54 2b b3 bd af cd 61 3d
       0.08853253 0.07121551 -0.087484986 0.055127796
000330 77 23 e9 3a 50 6c 5f bd 74 cd 82 3e c7 e5 89 bd
       0.0017787059 -0.054546654 0.25547373 -0.0673328
000340 ca d5 2d bd 86 36 c1 bd a8 e1 65 3b 59 a0 cd 3c
       -0.042440213 -0.09434228 0.0035077129 0.025100874
000350 f0 ea e5 bb 93 be c4 3a 7b 80 b7 3d f9 2c a7 3d
       -0.007016532 0.0015010409 0.089600526 0.08162875
000360 47 29 89 3d 97 4f 85 bd 19 a1 bb bd a2 3a b4 bd
       0.06697326 -0.06509321 -0.09161586 -0.08800246
000370 be 23 f8 3b 2e 84 c9 3d d3 c9 d5 3c 11 2c c7 bd
       0.00757262 0.098396644 0.026097214 -0.09725202
000380 e9 ef 21 bc 35 c8 16 3d 97 13 07 be 15 e1 a8 3d
       -0.009883859 0.036812026 -0.13191067 0.08246056
000390 10 ba 3d 3e 7c e2 83 bd 9c a5 74 3d a1 37 c0 bd
       0.18528008 -0.06439683 0.05972825 -0.0938561
0003a0 af f2 50 3e 7a 8b 8f bc ea 3e 26 3e 9e 3f d3 3d
       0.20405076 -0.017522562 0.16234937 0.103148684
0003b0 85 3b 42 bd 83 ba 10 3e 9c ba b3 3d 3e 24 04 3c
       -0.047420043 0.14133649 0.08775827 0.008065281
0003c0 23 5d 3b ba 03 41 0c 3e 4a 48 9b 3d 91 7f 1c 3d
       -0.00071473623 0.13696675 0.075821474 0.038207594
0003d0 98 a5 2d 3e 46 0d b1 bd 62 53 7f 3c a4 e7 68 bd
       0.169577 -0.0864511 0.015583845 -0.056861535
0003e0 96 1e a5 bd c4 89 be bd e1 93 0b be fd d8 fe 3c
       -0.080624744 -0.093036205 -0.1363063 0.031109327
0003f0 f4 43 06 bc fb 94 c4 bd 9c 95 74 bd 64 c5 3e 3c
       -0.008194912 -0.09598728 -0.05971299 0.011643741

network_body._body_endoder.seq_layers.2.bias f4 [128]
000000 d8 b6 8b ba 44 b4 16 ba b5 d5 33 bb 67 83 fc 39
       -0.001065935 -0.00057489076 -0.0027440612 0.00048163088
000010 ab 4b 0a bc 5a 8a a4 b9 bf 0b 28 b9 41 af 89 ba
       -0.008440892 -0.00031383598 -0.00016026104 -0.00105045
000020 e2 e5 15 b8 49 f1 4a bb 1b 3d cd b9 b3 d8 46 ba
       -3.5738463e-05 -0.003096657 -0.00039146174 -0.0007585391
000030 84 8f 05 bb a5 a2 35 ba d1 46 d9 b9 f8 ed cb b9
       -0.0020379731 -0.0006928838 -0.00041442228 -0.00038896478
000040 0c ee fc b9 63 6b 0a bb 0c b0 0e bb f0 d0 25 bb
       -0.00048242544 -0.0021121136 -0.0021772413 -0.0025301538
000050 39 c1 77 ba 56 3c 1a bb e1 30 59 3a fe 3c 96 bb
       -0.00094510947 -0.0023534498 0.00082851766 -0.0045849076
000060 4d 04 0c bb 46 59 aa b9 f8 e2 16 b9 d6 83 30 ba
       -0.0021364868 -0.0003249144 -0.00014389667 -0.0006733512
000070 de 12 e8 ba 84 2b 1a ba 0a 7d 54 ba 85 b7 ed ba
       -0.0017705818 -0.0005881118 -0.00081057905 -0.0018136358
000080 54 37 cd ba 8e e9 0e ba 9c 99 99 bb 8d 7a 7e bb
       -0.0015656748 -0.00054516725 -0.004687501 -0.003883037
000090 70 24 a2 b9 88 ab f0 ba 1d 6c 0b ba ed 83 c1 ba
       -0.00030926196 -0.0018361667 -0.00053185393 -0.0014764048
0000a0 4c 46 4b ba c1 46 f1 ba 50 3e 22 ba 65 68 d9 ba
       -0.00077543105 -0.0018407927 -0.0006189095 -0.0016586898
0000b0 f8 9a ad b9 89 b2 89 bb ce b2 08 ba 68 8d 4d b9
       -0.00033112592 -0.0042021913 -0.0005214632 -0.00019603001
0000c0 95 a3 34 bc c0 3f b8 b9 2f fb 2d ba 03 fe 0f bb
       -0.011025329 -0.00035142712 -0.00066368555 -0.002197147
0000d0 48 8f 1b b9 a0 9c 85 3a 7d e4 91 bb 14 27 da ba
       -0.00014835328 0.0010193773 -0.0044522868 -0.0016643726
0000e0 22 73 0d 39 5f c8 d5 3a ad 54 ef ba 3b 78 d8 ba
       0.00013489698 0.0016310326 -0.0018259488 -0.0016515324
0000f0 f6 77 b2 b9 d3 6c 34 ba 96 a5 17 bb 4b 5c a9 ba
       -0.00034040184 -0.0006882671 -0.0023139468 -0.0012921182
000100 d9 89 de ba 0c cf ee 39 8f 05 45 ba 60 66 0e bb
       -0.0016978338 0.0004554916 -0.0007515782 -0.00217285
000110 b3 fc 0e ba cc 41 bb b9 a5 07 eb ba 84 46 bd b9
       -0.0005454525 -0.00035716442 -0.0017931355 -0.00036101427
000120 53 d2 19 bb d7 99 08 bb 82 1e 27 b9 d7 17 69 ba
       -0.002347131 -0.0020843649 -0.00015937726 -0.0008891797
000130 1e ec 51 ba 31 db 0e bb a0 0b b0 b9 54 2e 6b b9
       -0.00080079015 -0.0021798129 -0.00033577997 -0.00022428605
000140 14 4d 93 ba 02 0f 39 bb 73 90 06 bb 09 c1 f0 3a
       -0.0011238181 -0.0028237705 -0.0020532876 0.0018368076
000150 5d 9d a3 ba b0 a4 ff ba 57 24 89 ba f4 d7 ea ba
       -0.0012482811 -0.0019504037 -0.0010463101 -0.0017917142
000160 ad db 3c bb c3 05 07 ba d3 c0 f7 ba dd 75 12 ba
       -0.002881746 -0.00051507 -0.0018902071 -0.0005587021
000170 6a b0 0e bb 2a e6 03 bb e5 38 ef b9 2c 84 01 bb
       -0.0021772631 -0.0020126202 -0.00045628022 -0.0019762618
000180 6f ad 28 b9 ea bc 51 ba 66 dd e0 ba 89 0c 62 ba
       -0.00016086338 -0.00080008677 -0.0017155826 -0.00086230837
000190 71 f7 ab ba d9 2c 8c bb c8 26 de ba 75 3f 87 b9
       -0.0013120008 -0.004277807 -0.0016948814 -0.00025796486
0001a0 73 a0 de b9 d5 69 9d ba 5a 6b 15 bb 25 04 25 bb
       -0.00042462684 -0.001200969 -0.0022799582 -0.0025179472
0001b0 a6 ca dc ba 79 8c e9 b9 a2 da b1 b9 19 70 1e bb
       -0.0016845062 -0.00044545883 -0.00033922965 -0.0024175702
0001c0 90 e5 dd ba d1 49 2e ba a7 36 ce b9 bd ab 1f bb
       -0.0016929377 -0.0006648573 -0.000393321 -0.0024363839
0001d0 d6 4e 71 b9 21 d4 0c bb fa 95 c6 bb 4d 92 a4 ba
       -0.0002301292 -0.0021488743 -0.006060359 -0.0012555808
0001e0 8a 5b c9 b9 5e 61 0c ba f9 62 cd ba a5 20 d9 b9
       -0.0003840591 -0.0005355085 -0.0015669755 -0.00041413787
0001f0 c5 66 d5 ba bd 93 06 bb 62 41 0d bb ba 2b 89 ba
       -0.0016281238 -0.0020534836 -0.0021553864 -0.0010465302

action_model._continuous_distribution.mu.weight f4 [1, 128]
000000 b2 50 27 bc ae df 40 bc 16 a8 a1 b6 bc e4 f2 3c
       -0.01021211 -0.011772079 -4.8177417e-06 0.029650085
000010 ae 53 52 38 f9 9e a9 bc 85 ae 13 3d e4 33 9c bc
       5.0145834e-05 -0.020705687 0.036055107 -0.019067712
000020 13 54 4c bd 98 49 c3 ba 00 3f 76 3c fe 77 18 bc
       -0.049884867 -0.0014899252 0.015029669 -0.009305952
000030 21 d1 70 3c f1 3a d4 b7 1b 45 81 bc e4 33 7d 3c
       0.014698298 -2.5299816e-05 -0.015780022 0.015454266
000040 e2 63 4a 3c 88 67 80 bc f3 f5 a5 bb 04 09 81 3a
       0.0123529155 -0.015674368 -0.00506472 0.0009844606
000050 69 0d f6 3b 68 8d 6a 3b cb d6 97 bc c9 79 40 3a
       0.007508923 0.003578985 -0.018535038 0.0007342366
000060 5e c4 45 3b f5 9e a3 bc d1 1f 0e bd e4 14 1e bc
       0.0030176858 -0.019973258 -0.03469831 -0.009648535
000070 b0 14 c8 bb f5 34 4a 3c 9a d7 3b bc a2 10 4d bb
       -0.006105982 0.0123417275 -0.011464978 -0.0031290432
000080 9a 29 35 bc 64 12 7c bc 19 1d 49 3a 9d 0f 36 ba
       -0.011057282 -0.015385244 0.00076718774 -0.00069450756
000090 fb 2e 9e ba 4d e0 48 3c 8f fb 64 3c e3 a5 de 3b
       -0.0012068445 0.012260509 0.013975992 0.0067946776
0000a0 80 4e 11 3c 97 5d 6b 3c 06 b1 32 3c d1 e8 2b bc
       0.0088688135 0.014365575 0.0109064635 -0.0104925195
0000b0 e7 46 ae 3c 24 04 15 ba 81 e1 47 3c 98 61 ef 3c
       0.021274043 -0.0005684516 0.01219976 0.029221341
0000c0 23 f0 ba b8 fb 00 93 3c 33 2b be b7 f1 e4 aa 3c
       -8.9139e-05 0.017944803 -2.2669881e-05 0.02086112
0000d0 21 77 2b 3d 11 e5 df 3b 63 69 96 3a 89 da 73 bb
       0.041861657 0.0068327268 0.00114755 -0.0037209115
0000e0 5f de 7d bc 67 c8 13 3c 55 f5 54 3b 5a 76 81 3b
       -0.015494912 0.009019948 0.0032494862 0.003950876
0000f0 21 7d 88 bc 72 97 19 bc ed 70 c7 3b 72 43 4e 36
       -0.016661229 -0.009374486 0.00608646 3.073565e-06
000100 da 46 1e bc 6a de 11 3c 98 ce 1a 3c 95 8f 1c bc
       -0.009660447 0.008903125 0.00944867 -0.009555717
000110 43 70 a4 3c 59 15 91 3c 50 03 12 bc f6 a6 ee 3c
       0.020073062 0.017710375 -0.008911923 0.029132348
000120 01 16 cb bb 55 d2 8e 3c ed 58 e7 bc 1f e8 02 3d
       -0.0061976914 0.017434279 -0.028240645 0.03195965
000130 f9 2e d2 36 b3 27 b1 bb c5 81 83 bc 79 87 cf b6
       6.263956e-06 -0.005406344 -0.01605309 -6.184852e-06
000140 80 64 ac 3b 5f a9 1e bb ff 43 8b 3c cf 0c 38 3c
       0.005261004 -0.002420984 0.017000197 0.011233523
000150 aa 28 7a bb df 68 04 3c d9 c7 fa 3b 59 2a ae bc
       -0.003817121 0.008081644 0.007653218 -0.021260427
000160 ba ca c7 ba a7 bb 57 bc e8 6b 57 3b 9c 2f 59 3c
       -0.0015242912 -0.013167298 0.0032870714 0.01325598
000170 41 40 86 bc f1 18 a7 bc 48 f1 7a 3c a0 dc 90 bc
       -0.01638806 -0.020397635 0.015316315 -0.017683327
000180 6a 4c f9 bc b0 73 50 3c ab 56 97 3c da 7d f8 3b
       -0.030431945 0.012722895 0.018473944 0.007583362
000190 96 f7 a7 bb 69 04 2c 3a bd 10 9b bc 4f 56 9b bc
       -0.00512595 0.00065619365 -0.01892888 -0.018962054
0001a0 89 36 2a 3c af 30 60 bc 46 64 c7 bb d5 ed 73 bb
       0.010388979 -0.013683482 -0.0060849516 -0.0037220616
0001b0 18 b4 ec 3c 42 55 8b 3c 94 13 b1 3c ce a1 3b 3b
       0.02889447 0.017008428 0.02161578 0.0028630379
0001c0 85 79 02 3d c5 20 03 3d 62 21 7e 3c 47 b6 2d 3b
       0.03185417 0.032013673 0.015510889 0.002650635
0001d0 7d 05 11 3d 44 83 2c bb 63 f1 59 3a a1 64 b2 3b
       0.035405625 -0.0026323358 0.00083138625 0.005444125
0001e0 16 67 88 bc 27 e3 3f bc f5 0f 9f bb e1 5f 26 bc
       -0.016650718 -0.011711872 -0.004854197 -0.010154695
0001f0 cf b7 00 3c 43 9a 08 bc 81 0c 36 bc 41 6f 38 bc
       0.007856323 -0.00833756 -0.01111138 -0.011256994

exp_avg f4 [128, 1]
000000 0f 0d cf b9 e6 b3 c6 39 3d f0 38 ba d0 be 0d 3b
       -0.00039491846 0.00037899538 -0.0007054841 0.0021628626
000010 ba 06 ab b6 e8 1e d4 39 e4 52 a8 b6 58 f1 c2 b7
       -5.09698e-06 0.00040458818 -5.01644e-06 -2.3238987e-05
000020 b4 47 42 3a e6 1b bc b8 2a 82 cc ba a9 1d 2b 37
       0.00074111973 -8.969735e-05 -0.0015602757 1.01993e-05
000030 64 ae 11 38 f7 af 69 37 b6 ea e4 3a e5 e7 04 b9
       3.4733108e-05 1.3928852e-05 0.0017464969 -0.00012674888
000040 a4 1f 1a 3a e1 4c 90 b8 d1 40 71 3a 40 7e 51 b3
       0.00058793486 -6.880775e-05 0.0009203079 -4.877643e-08
000050 c9 d5 c6 b4 e2 09 85 b7 d8 27 aa 3a 62 52 7c ba
       -3.7035923e-07 -1.5859438e-05 0.0012981845 -0.0009625313
000060 93 42 c6 b8 82 37 9b b4 f0 1c 29 ba dd ff 46 ba
       -9.453776e-05 -2.8911387e-07 -0.00064511504 -0.0007591227
000070 05 6c a0 35 79 47 21 39 12 3b fe b8 77 4c a1 3a
       1.1952367e-06 0.00015380782 -0.000121226665 0.0012306113
000080 34 6c 12 bb 4d 38 0d 3a cc 1f b3 3a e8 d4 4e 3a
       -0.0022342326 0.00053871126 0.0013666092 0.0007890002
000090 6d c9 19 38 81 28 a3 ba 7d a4 0a 3a 2e fc 5a b6
       3.6665635e-05 -0.0012447984 0.0005288793 -3.263132e-06
0000a0 60 58 1a 3a fb 32 38 b9 16 99 fd b4 24 f6 0b 3a
       0.00058878027 -0.00017566599 -4.7236307e-07 0.0005339107
0000b0 9a 42 56 b9 bb 7a 87 38 00 2c 9d 38 b7 fa c9 b8
       -0.00020433441 6.460162e-05 7.494539e-05 -9.631126e-05
0000c0 b4 e4 d2 39 d9 84 6b b8 3c 7b b5 38 37 b4 4b b5
       0.00040224718 -5.615209e-05 8.653707e-05 -7.588564e-07
0000d0 10 eb 6d 3a 42 70 31 b8 50 4d ca b6 aa 01 03 ba
       0.00090758596 -4.2304637e-05 -6.0290695e-06 -0.00049975014
0000e0 12 ad 5e b9 7f a2 b1 ba b7 0f 64 ba 42 00 14 b3
       -0.00021236044 -0.0013552456 -0.00086998515 -3.445917e-08
0000f0 55 73 ee b8 f2 ed 61 36 cb 70 1f 3a 02 57 84 b4
       -0.000113702066 3.3666115e-06 0.0006082176 -2.4650222e-07
000100 3f 2c 93 39 97 3d 83 ba e4 34 fb 39 ea ba 22 b6
       0.0002807099 -0.0010012862 0.00047913857 -2.424868e-06
000110 84 a5 27 b9 91 22 24 ba 55 14 13 38 3c d4 b9 b3
       -0.0001598802 -0.00062612543 3.5066467e-05 -8.653339e-08
000120 6e d2 0a ba bd 83 3a 3a 4b ea fd 39 ff 09 03 3a
       -0.00052956387 0.00071149674 0.00048430482 0.0004998743
000130 34 0d f9 3a 2c e9 2e 3a a9 d2 dc b9 1e 7c 1c 32
       0.0019001127 0.00066723186 -0.00042118624 9.108616e-09
000140 00 86 05 38 7c cd d1 ba d9 3a 51 ba 96 89 c4 3a
       3.183447e-05 -0.0016006674 -0.0007981486 0.0014994617
000150 21 fe 49 b6 2b a3 cd 37 2a 67 55 3a e5 84 af b6
       -3.0099256e-06 2.4513885e-05 0.0008140678 -5.2308774e-06
000160 bc bc 01 38 99 89 a2 39 04 d0 90 b6 97 ed c6 3a
       3.093177e-05 0.00031001566 -4.3157506e-06 0.0015177008
000170 f9 6e 0f 3b 92 0f e7 ba 02 53 0f b7 20 56 f5 37
       0.0021886213 -0.0017628542 -8.542791e-06 2.9246381e-05
000180 9f 74 b5 ba 11 22 d4 ba a7 63 b2 b7 e1 22 e9 38
       -0.001384396 -0.0016184469 -2.1265658e-05 0.000111168025
000190 95 23 e7 ba 5c aa 4e 37 99 92 1e b9 bc 6c 4e b9
       -0.0017634506 1.2318222e-05 -0.00015122666 -0.00019686198
0001a0 e0 4a 8c ba a9 dc fc 33 cf a0 ab b5 b9 52 9b b8
       -0.0010703467 1.1774802e-07 -1.2787294e-06 -7.406384e-05
0001b0 3d fc fc 37 e4 65 3e 38 d2 20 49 36 0c 5c c4 ba
       3.0158199e-05 4.5394423e-05 2.9970438e-06 -0.0014981045
0001c0 18 8b dc b4 de 6e 9d ba 87 09 da 37 b9 4d 50 b7
       -4.1079397e-07 -0.001201119 2.5992062e-05 -1.2415862e-05
0001d0 4b 66 d5 b9 44 2a 08 39 be ba ba b7 d6 4d a4 b8
       -0.0004070274 0.00012985716 -2.2259886e-05 -7.8346275e-05
0001e0 3c 62 2f ba 78 ea b4 b9 d4 fa cb b7 4c 3d 5f 3a
       -0.0006690358 -0.00034506968 -2.4316287e-05 0.0008515909
0001f0 eb 45 3c 36 98 45 1a 39 c7 53 5a 3a 51 a5 b5 b7
       2.805488e-06 0.0001471251 0.0008328524 -2.1653863e-05

exp_avg_sq f4 [128, 1]
000000 a7 8f a5 37 21 bc 1a 38 a9 1e 0e 38 fc b1 36 3a
       1.9736426e-05 3.689167e-05 3.3883993e-05 0.0006969271
000010 5d 6c a9 32 6a b2 d4 37 df df 60 33 9e 67 82 34
       1.9723467e-08 2.535545e-05 5.2357674e-08 2.4289778e-07
000020 66 20 52 38 a7 37 98 35 81 9e a5 39 0e ca 4d 32
       5.0098075e-05 1.134108e-06 0.00031589347 1.1978512e-08
000030 57 98 c2 34 64 42 26 33 2a 8e bf 39 f2 b7 14 36
       3.6246158e-07 3.871027e-08 0.0003653628 2.2160789e-06
000040 da c7 36 38 e6 62 2b 35 05 c3 2a 39 f0 c3 5f 2b
       4.3578308e-05 6.384638e-07 0.00016285114 7.9497433e-13
000050 d7 b7 82 2d 0c 68 0a 33 9c 25 4d 39 da 46 9a 38
       1.486093e-11 3.222526e-08 0.00019564334 7.3564894e-05
000060 49 df a2 35 66 34 27 2d af d5 c4 37 4a 0b 39 38
       1.2134925e-06 9.504486e-12 2.3464525e-05 4.411795e-05
000070 e2 25 5d 2f 60 c1 03 36 3f 10 c8 35 54 ae 61 39
       2.0113292e-10 1.963308e-06 1.4905889e-06 0.00021522614
000080 25 d7 18 3a 9c 01 c5 37 8b a5 8b 39 dc 2f be 38
       0.0005830399 2.348498e-05 0.00026635485 9.0688205e-05
000090 5b 4a 11 34 ce 3c 27 39 9c e2 26 38 c0 9f 72 30
       1.3531228e-07 0.00015949013 3.978853e-05 8.8266106e-10
0000a0 ef 67 a7 38 61 e4 ba 35 a5 fb 3b 2d e8 e6 02 38
       7.98254e-05 1.3924547e-06 1.0685596e-11 3.1209463e-05
0000b0 e6 9b 85 36 47 50 59 35 1a 14 96 36 7c 65 81 35
       3.981858e-06 8.095562e-07 4.4726885e-06 9.640785e-07
0000c0 2d 9b 1e 38 34 55 98 34 08 f3 8c 35 14 2f 1e 2f
       3.7814654e-05 2.83742e-07 1.0501544e-06 1.4386742e-10
0000d0 9f da fd 38 be b7 46 34 ec 0c 46 33 6e 24 ef 36
       0.000121047015 1.8507032e-07 4.611222e-08 7.126996e-06
0000e0 88 a9 d6 36 26 d5 36 39 65 ef ff 38 15 bc de 29
       6.397433e-06 0.00017436277 0.00012203938 9.8914075e-14
0000f0 f6 d0 af 35 7a 7f da 31 d9 3f 89 38 9b b5 21 2d
       1.3099332e-06 6.3591274e-09 6.5445616e-05 9.192115e-12
000100 0d b2 a1 37 78 55 c4 38 0b 75 67 38 8c 2e 2e 2f
       1.9275607e-05 9.361928e-05 5.5183697e-05 1.5841745e-10
000110 56 ed 9e 35 1d 34 d2 37 e0 0a 6d 34 75 ea 2a 2b
       1.1840991e-06 2.5058218e-05 2.2076301e-07 6.0721507e-13
000120 f4 fa d3 37 24 35 cb 38 67 e0 a5 37 36 e2 6d 38
       2.527002e-05 9.6896925e-05 1.9774028e-05 5.671588e-05
000130 0f ec 0a 3a 3e a1 71 38 72 0b 28 37 fe 60 a5 29
       0.00052994577 5.7609046e-05 1.0016245e-05 7.3442974e-14
000140 f5 65 e4 33 8b c4 84 39 a4 19 c1 38 54 64 a9 39
       1.0635623e-07 0.00025323438 9.207733e-05 0.00032308942
000150 e6 6c 8d 30 c5 72 46 34 ca 6b 00 39 fe f9 6a 31
       1.0290051e-09 1.848194e-07 0.00012247186 3.4193586e-09
000160 00 06 d4 34 4c c0 c6 37 66 83 55 31 97 55 a5 39
       3.9492443e-07 2.3692985e-05 3.107027e-09 0.00031535022
000170 30 95 33 3a d3 ee b1 39 fc 6e 02 32 0a f4 4c 36
       0.0006850539 0.0003393801 7.592231e-09 3.0540418e-06
000180 fd 40 1d 39 81 e5 a4 39 54 8f 53 33 86 97 ec 35
       0.00014996897 0.0003145151 4.9257622e-08 1.7627469e-06
000190 8e 4a b5 39 1f 82 fe 32 75 66 20 36 49 94 84 35
       0.00034578558 2.9628664e-08 2.3901496e-06 9.877923e-07
0001a0 94 67 c9 38 00 74 20 2c e1 6a 27 30 9d d8 1f 35
       9.60372e-05 2.280176e-12 6.090613e-10 5.954733e-07
0001b0 84 4a c3 33 a7 14 77 36 3e 34 bb 30 92 70 8b 39
       9.0939494e-08 3.681789e-06 1.3620889e-09 0.00026596017
0001c0 d7 67 87 2d 92 e4 1f 39 83 c8 82 33 26 dc a5 31
       1.5393837e-11 0.0001524857 6.0900696e-08 4.82716e-09
0001d0 3e 78 9c 37 b5 e3 bd 36 53 f8 c6 32 0d 03 87 35
       1.8652641e-05 5.6591475e-06 2.3163159e-08 1.0059172e-06
0001e0 af 6e 94 37 64 c0 86 37 11 95 9a 33 61 d4 ef 38
       1.7694516e-05 1.6063634e-05 7.198299e-08 0.00011435967
0001f0 82 89 95 30 6f b6 27 36 a5 ca 00 39 e5 3d 4d 33
       1.0880259e-09 2.499113e-06 0.00012282522 4.7786575e-08

exp_avg f4 [128]
000000 f0 1f 98 38 be fd 91 b8 d6 e0 07 39 5f 49 d0 b9
       7.2538736e-05 -6.961402e-05 0.00012958361 -0.00039727517
000010 34 50 7b 35 7e d9 9b b8 9a 57 77 35 8a 3a 8f 36
       9.36215e-07 -7.431487e-05 9.214215e-07 4.268547e-06
000020 d9 bd 0e b9 2f 35 8a 37 b9 41 96 39 e9 71 fb b5
       -0.00013612899 1.6475647e-05 0.00028659197 -1.873411e-06
000030 05 12 d6 b6 f0 b1 2b b6 a3 30 a8 b9 23 4c c3 37
       -6.3797947e-06 -2.558456e-06 -0.00032079694 2.3281265e-05
000040 c6 79 e2 b8 74 0a 54 37 fd 40 31 b9 4c eb 19 32
       -0.00010799202 1.26386185e-05 -0.00016904245 8.959272e-09
000050 a6 16 92 33 1e 7e 43 36 b0 08 7a b9 db 62 39 39
       6.8027745e-08 2.9130674e-06 -0.00023845094 0.00017679801
000060 7b aa 91 37 05 15 64 33 7c 80 f8 38 8a 35 12 39
       1.7364733e-05 5.3104504e-08 0.000118494936 0.0001394359
000070 0b bb 6b b4 8f fd ec b7 ee c9 ba 37 ec 04 6d b9
       -2.1954126e-07 -2.8251465e-05 2.2266959e-05 -0.00022603915
000080 f0 28 d7 39 bc 83 cf b8 42 9b 83 b9 b5 f6 17 b9
       0.00041038496 -9.8950666e-05 -0.00025101943 -0.00014492388
000090 19 fb e1 b6 6d c0 6f 39 2a ba cb b8 97 e4 20 35
       -6.734754e-06 0.000228645 -9.71447e-05 5.9937287e-07
0000a0 31 cd e2 b8 c5 55 07 38 eb 52 ba 33 51 aa cd b8
       -0.0001081474 3.2266387e-05 8.6763826e-08 -9.806886e-05
0000b0 ec 6b 1d 38 4f 14 47 b7 7c f4 66 b7 0a 66 94 37
       3.7532227e-05 -1.1866053e-05 -1.3765992e-05 1.769049e-05
0000c0 b5 f2 9a b8 74 0a 2d 37 98 56 85 b7 63 aa 15 34
       -7.3885e-05 1.0314037e-05 -1.5895159e-05 1.3938693e-07
0000d0 b7 cd 2e b9 2e 5e 02 37 b5 a2 94 35 b1 81 c0 38
       -0.00016670568 7.770532e-06 1.1074213e-06 9.17943e-05
0000e0 d4 9a 23 38 15 83 82 39 c1 8f 27 39 ab 7a d9 31
       3.9006423e-05 0.00024893196 0.00015979914 6.329477e-09
0000f0 d9 31 af 37 b7 fe 25 b5 f3 49 ea b8 3d 77 42 33
       2.0884838e-05 -6.183795e-07 -0.000111717636 4.527759e-08
000100 18 43 58 b8 c2 d9 40 39 1f 91 b8 b8 6f 1f ef 34
       -5.15609e-05 0.00018391668 -8.8008346e-05 4.454009e-07
000110 d3 58 f6 37 df 2f f1 38 fa 1f d8 b6 56 88 88 32
       2.9366847e-05 0.00011500692 -6.441024e-06 1.5894482e-08
000120 b9 fd cb 38 4d 09 09 b9 93 8e ba b8 ea 8d c0 b8
       9.727054e-05 -0.00013068803 -8.895728e-05 -9.181707e-05
000130 c5 fb b6 b9 c4 82 00 b9 46 3e a2 38 0c f2 e5 b0
       -0.00034901328 -0.00012255745 7.736361e-05 -1.6730737e-09
000140 7f 34 c4 b6 82 25 9a 39 c6 b9 19 39 77 66 90 b9
       -5.8473665e-06 0.00029401114 0.00014660423 -0.00027542163
000150 89 68 14 35 1a 16 97 b6 ab ca 1c b9 2a f5 80 35
       5.5286415e-07 -4.5027236e-06 -0.00014952819 9.608095e-07
000160 36 a4 be b6 f6 d6 6e b8 2d cb 54 35 21 28 92 b9
       -5.681558e-06 -5.694382e-05 7.9271814e-07 -0.00027877188
000170 75 c4 d2 b9 f5 c3 a9 39 52 9b d2 35 1c 41 b4 b6
       -0.00040200693 0.0003238019 1.5691423e-06 -5.3719978e-06
000180 bc 51 85 39 d3 db 9b 39 05 11 83 36 4d 4a ab b7
       0.00025428634 0.00029727686 3.9060856e-06 -2.0419388e-05
000190 a4 d2 a9 39 6d d7 17 b6 6f 03 e9 37 27 aa 17 38
       0.0003239113 -2.2626148e-06 2.7777363e-05 3.6159672e-05
0001a0 d9 26 4e 39 7a c8 b9 b2 96 32 7c 34 09 3d 64 37
       0.00019660163 -2.1628e-08 2.3487732e-07 1.360407e-05
0001b0 ab df b9 b6 c2 e3 0b b7 f4 c5 13 b5 fe 44 90 39
       -5.539468e-06 -8.338075e-06 -5.5049827e-07 0.00027517223
0001c0 b6 09 a2 33 c5 56 67 39 47 32 a0 b6 8e 0b 19 36
       7.545479e-08 0.00022062201 -4.7742246e-06 2.2805502e-06
0001d0 0a ca 9c 38 40 16 c8 b7 b2 31 89 36 71 6f 71 37
       7.4762924e-05 -2.3852219e-05 4.0887035e-06 1.4390666e-05
0001e0 b0 db 00 39 3a ec 84 38 47 de 95 36 d6 04 24 b9
       0.00012288871 6.338251e-05 4.4664225e-06 -0.0001564206
0001f0 0b 54 0a b5 90 b1 e2 b7 e5 68 20 b9 86 75 85 36
       -5.1531305e-07 -2.7023983e-05 -0.00015297865 3.9773904e-06

exp_avg_sq f4 [128]
000000 a4 be 32 35 7c 0e a7 35 e6 6f 99 35 54 3e c5 37
       6.6587586e-07 1.2446685e-06 1.1431955e-06 2.3513254e-05
000010 2c ea 36 30 67 a2 65 35 13 c8 f2 30 f7 c9 0c 32
       6.654399e-10 8.5545474e-07 1.7664682e-09 8.194994e-09
000020 e2 db e2 35 b8 56 24 33 c3 ce 32 37 2d 2d de 2f
       1.6902306e-06 3.8263096e-08 1.0657767e-05 4.0413664e-10
000030 44 17 52 32 b7 7f b3 30 11 cf 4e 37 a6 8f a0 33
       1.2228899e-08 1.3060263e-09 1.2326768e-05 7.47671e-08
000040 f4 55 c5 35 ae 08 b9 32 0e 5c b8 36 84 95 f1 28
       1.4702659e-06 2.1540782e-08 5.494344e-06 2.6821217e-14
000050 9e 20 0d 2b 8f 6d 95 30 a0 7b dd 36 de 8f 26 36
       5.013853e-13 1.0872315e-09 6.600705e-06 2.481967e-06
000060 80 d7 2f 33 f7 84 b4 2a 3f 82 54 35 83 c7 c7 35
       4.094136e-08 3.2066686e-13 7.916569e-07 1.4884721e-06
000070 27 c2 ee 2c 4a 3f 8e 33 a5 fe 57 33 f2 a6 f3 36
       6.785922e-12 6.6239025e-08 5.0290186e-08 7.2613993e-06
000080 da 02 a5 37 b3 b1 54 35 4c c4 16 37 f0 54 4d 36
       1.967086e-05 7.923474e-07 8.986401e-06 3.059682e-06
000090 39 dc 9c 31 08 8e b4 36 a3 2c b4 35 de f8 02 2e
       4.565234e-09 5.3809526e-06 1.3424036e-06 2.9779616e-11
0000a0 94 bc 34 36 48 c6 49 33 bb f3 ca 2a 63 53 8d 35
       2.6931857e-06 4.6979295e-08 3.605153e-13 1.0529587e-06
0000b0 8f 3f 10 34 60 9e ea 32 84 07 22 34 47 b3 0b 33
       1.3434168e-07 2.7313206e-08 1.509016e-07 3.252651e-08
0000c0 71 3c ab 35 9a 76 24 32 5f 2c 18 33 c5 c7 aa 2c
       1.2758084e-06 9.573023e-09 3.5430613e-08 4.8538695e-12
0000d0 cd 08 89 36 b8 8a d6 31 3e d2 d5 30 bd 17 81 34
       4.0839427e-06 6.24399e-09 1.5557544e-09 2.4045394e-07
0000e0 86 c1 67 34 41 64 c5 36 62 28 8a 36 a5 78 70 27
       2.1583955e-07 5.8827286e-06 4.1174217e-06 3.3372092e-15
0000f0 17 d1 3d 33 ab e5 6b 2f c7 2d 14 36 1e 96 ae 2a
       4.4195158e-08 2.145472e-10 2.2080364e-06 3.1012774e-13
000100 55 92 2e 35 d2 f7 53 36 77 e3 f9 35 5f 0d bc 2c
       6.503299e-07 3.15857e-06 1.8618147e-06 5.344766e-12
000110 1d 95 2b 33 3e f1 62 35 2a eb ff 31 aa 86 b8 28
       3.9949658e-08 8.4542614e-07 7.448212e-09 2.0486505e-14
000120 4b dc 64 35 9f 63 5b 36 de 15 33 35 d0 69 00 36
       8.525719e-07 3.269153e-06 6.671452e-07 1.9135077e-06
000130 12 fc 95 37 81 6f 02 36 1e 6d b5 34 59 8c 32 27
       1.7879564e-05 1.9436413e-06 3.379327e-07 2.4778545e-15
000140 08 96 76 31 0f 57 0f 37 17 7a 50 36 7a e1 36 37
       3.5882994e-09 8.543734e-06 3.106548e-06 1.0900543e-05
000150 ea af 18 2e 43 40 d6 31 b6 a5 8a 36 15 b0 fd 2e
       3.4717042e-11 6.2355254e-09 4.132012e-06 1.15363864e-10
000160 40 e8 64 32 f0 93 56 35 01 84 e6 2e fc 7f 32 37
       1.3324154e-08 7.993649e-07 1.0482638e-10 1.0639425e-05
000170 1b e2 c1 37 1a 1a 40 37 f7 d1 8c 2f 25 46 dd 33
       2.3112681e-05 1.1450169e-05 2.561504e-10 1.0303874e-07
000180 ad c6 a9 36 11 07 32 37 10 68 e4 30 8e 6e 7f 33
       5.0597214e-06 1.0611272e-05 1.661876e-09 5.9472363e-08
000190 46 ba 43 37 2f 63 89 30 4f 2c ad 33 ed 22 0f 33
       1.1666276e-05 9.996252e-10 8.064e-08 3.3326547e-08
0001a0 48 71 59 36 ea 3a ad 29 d1 bf b4 2d 26 93 ac 32
       3.2401458e-06 7.692963e-14 2.0548814e-11 2.009035e-08
0001b0 a2 d7 52 31 ca 60 05 34 79 1c 4a 2e 16 8b 16 37
       3.0681595e-09 1.2421802e-07 4.595477e-11 8.97308e-06
0001c0 29 30 12 2b 14 a0 ac 36 99 32 0d 31 45 11 33 2f
       5.1936455e-13 5.144635e-06 2.0546962e-09 1.628609e-10
0001d0 00 ee 28 35 ae 02 4d 34 7a d0 56 30 55 c3 11 33
       6.293121e-07 1.9093088e-07 7.814901e-10 3.3938097e-08
0001e0 91 40 20 35 66 7b 11 35 48 e4 26 31 ba 76 81 36
       5.96986e-07 5.419628e-07 2.4285942e-09 3.858321e-06
0001f0 e6 71 21 2e 5c 11 b5 33 1f 0c 8b 36 d3 95 dd 30
       3.6708324e-11 8.431627e-08 4.143934e-06 1.6122449e-09

exp_avg f4 [128, 128]
000000 2e 27 19 36 95 24 ec b8 b9 c4 11 b9 0d de 26 b9
       2.2821582e-06 -0.00011260171 -0.00013901562 -0.00015913714
000010 77 5c f6 35 8c 4e 88 b8 0e 63 83 b3 97 b4 38 36
       1.8355339e-06 -6.499616e-05 -6.118181e-08 2.7523254e-06
000020 f3 0e 23 b8 11 29 54 36 d1 30 d1 b8 f6 ec b3 33
       -3.887615e-05 3.1614366e-06 -9.9749894e-05 8.37844e-08
000030 85 5e 3b 36 2c b5 59 36 9b 8f 1b b8 e3 78 3d 36
       2.792019e-06 3.2440976e-06 -3.7088623e-05 2.823356e-06
000040 19 21 bc b4 8c 6a ff 35 d7 36 a5 b8 db 25 2a 32
       -3.504181e-07 1.902999e-06 -7.878028e-05 9.90391e-09
000050 94 64 c0 32 50 c1 d8 35 56 20 d8 b8 38 05 4c b9
       2.239748e-08 1.6149515e-06 -0.00010305706 -0.000194569
000060 2e 78 71 35 78 d4 fe 31 43 ca 71 b8 66 62 59 b7
       8.995438e-07 7.416528e-09 -5.764725e-05 -1.2957118e-05
000070 2b fa 59 32 cc 63 38 36 1d 73 d0 35 e3 b5 f5 b7
       1.2687944e-08 2.7476226e-06 1.553071e-06 -2.9290974e-05
000080 77 7c 0e b8 77 7e a8 b8 f2 6d 16 b8 1d 93 67 b7
       -3.3971355e-05 -8.03442e-05 -3.586518e-05 -1.3802925e-05
000090 7c 08 5b 36 f0 70 f9 b7 8a 83 be b7 95 17 51 33
       3.2638482e-06 -2.9735704e-05 -2.2711018e-05 4.8683052e-08
0000a0 c4 65 f9 b8 8d cb 1a b9 ad 4c 6c 32 e0 c5 6d b8
       -0.000118922006 -0.00014762413 1.3754442e-08 -5.668949e-05
0000b0 6d 29 64 b6 44 c0 3e 36 9c c0 28 b8 3e 00 8f 35
       -3.399876e-06 2.842412e-06 -4.0233703e-05 1.0654401e-06
0000c0 12 dd 8d b8 e4 64 f6 35 12 a5 49 36 0a 50 ae 33
       -6.7645815e-05 1.8357791e-06 3.0047418e-06 8.1170654e-08
0000d0 8e 87 4b b8 5f b9 13 35 39 c6 52 36 f8 6d ea b8
       -4.8525217e-05 5.503152e-07 3.140782e-06 -0.00011178473
0000e0 e3 d1 18 36 09 04 e9 b8 6d 7e 93 b8 db 63 72 30
       2.2771935e-06 -0.000111110574 -7.033055e-05 8.818099e-10
0000f0 f7 2c 3e 36 72 56 cd 34 83 b2 90 b5 dd 84 4c 32
       2.833838e-06 3.8247123e-07 -1.078079e-06 1.1904572e-08
000100 33 9f cd b8 41 95 05 b7 8e 21 c4 b8 dd aa 08 34
       -9.804815e-05 -7.962169e-06 -9.352258e-05 1.2728147e-07
000110 b2 6c 97 b6 d7 fd 66 b7 eb 34 21 36 43 d5 aa 30
       -4.5128045e-06 -1.376817e-05 2.4021672e-06 1.2429741e-09
000120 59 b6 a1 b8 c6 1f 9e b8 8f 73 8b b8 1c 8b 36 b7
       -7.711043e-05 -7.539945e-05 -6.649561e-05 -1.0880434e-05
000130 64 a5 1c b8 60 ca 5d b8 33 34 94 b8 d9 ba 4f 31
       -3.734733e-05 -5.2878982e-05 -7.066913e-05 3.0228675e-09
000140 c8 8e 53 36 10 4d 04 b8 a4 9f 7e b8 43 6b e0 b8
       3.152456e-06 -3.1543022e-05 -6.0706996e-05 -0.000107011314
000150 53 1b 0a 33 01 45 47 36 7c c3 ec b8 83 5e cd 35
       3.215548e-08 2.9693476e-06 -0.00011289769 1.5301197e-06
000160 df 6e 47 b6 37 7d 92 b8 fa dc 0a 34 45 13 ca b7
       -2.9717846e-06 -6.9851456e-05 1.2932642e-07 -2.408925e-05
000170 4c fb d6 b8 d5 ec d4 b7 c2 fe 82 33 39 5d 9d b8
       -0.00010251123 -2.5382653e-05 6.099937e-08 -7.5037075e-05
000180 d6 f3 04 b9 9d 4f a4 b8 f1 6f 51 34 b8 c0 6b 35
       -0.00012679337 -7.8349585e-05 1.9505366e-07 8.7824765e-07
000190 90 5e 80 b8 2d 88 10 34 6c 65 17 36 60 7a 09 b9
       -6.121129e-05 1.3460586e-07 2.2559789e-06 -0.00013110926
0001a0 ca eb ff b8 85 4b 2e 31 12 af 2c 34 fc 80 8b 35
       -0.00012203267 2.536326e-09 1.6082438e-07 1.0393846e-06
0001b0 b5 71 46 36 bd a3 0c b8 a7 4e 0c 33 c7 c9 67 b8
       2.9570485e-06 -3.3531094e-05 3.2667824e-08 -5.526261e-05
0001c0 6d c8 c2 31 9a 1c 6b b8 c7 a9 55 36 c8 0e 33 35
       5.668929e-09 -5.6055003e-05 3.1838297e-06 6.6704206e-07
0001d0 75 c7 bd b5 0f 4b 23 b7 17 05 09 36 4d 2c 9d b7
       -1.4139647e-06 -9.733033e-06 2.0417554e-06 -1.8736488e-05
0001e0 95 5a 05 b8 8f a4 97 b7 cd c6 6e 34 4c 4a c8 b8
       -3.1794032e-05 -1.8077231e-05 2.22378e-07 -9.550582e-05
0001f0 95 93 13 33 e1 7e ef 35 69 c6 af b8 24 20 5b 36
       3.436033e-08 1.7843814e-06 -8.381607e-05 3.2652251e-06
000200 88 5e 16 b8 63 a3 e7 3a 9d f7 0e 3b 99 ae 23 3b
       -3.5850826e-05 0.0017672594 0.002181507 0.0024975894
000210 3d 98 f1 b7 a8 b7 85 3a 93 29 7f 35 c0 3f 35 b8
       -2.880033e-05 0.0010201829 9.50554e-07 -4.3213135e-05
000220 eb fb 1f 3a 34 24 50 b8 b2 2a cd 3a e1 9b b0 b5
       0.00061029074 -4.962478e-05 0.0015652983 -1.3158389e-06
000230 ed d3 37 b8 09 8e 55 b8 f5 9f 18 3a a5 ca 39 b8
       -4.382797e-05 -5.0915438e-05 0.00058221753 -4.4296165e-05
000240 0e 23 bb 36 ca 6c fa b7 5e 11 a2 3a 3c d2 26 b4
       5.577115e-06 -2.9852981e-05 0.0012364795 -1.5536438e-07
000250 37 90 bc b4 9f 8d d4 b7 41 02 d4 3a 9d 1a 48 3b
       -3.512266e-07 -2.5338317e-05 0.0016174988 0.003053344
000260 69 b7 6c b7 02 cb f9 b3 cd 1c 6d 3a 4b 0a 55 39
       -1.41094e-05 -1.1631893e-07 0.0009045124 0.00020317097
000270 27 f4 55 b4 5b bd 34 b8 05 59 cc b7 a3 16 f1 39
       -1.9925993e-07 -4.3091695e-05 -2.4360148e-05 0.00045983968
000280 b6 b7 0b 3a ca 4a a5 3a d2 96 13 3a 9a 4c 63 39
       0.0005329804 0.001261079 0.0005630079 0.00021676943
000290 28 d9 56 b8 e5 94 f4 39 b9 f4 ba 39 1b ef 4c b5
       -5.122382e-05 0.00046650242 0.00035659017 -7.6343866e-07
0002a0 e7 a3 f4 3a 2b d2 17 3b 91 8f 67 b4 43 43 69 3a
       0.0018664569 0.0023166041 -2.156578e-07 0.00088982674
0002b0 0c 5d 5f 38 04 26 3b b8 6b 8e 25 3a f7 2e 8c b7
       5.3254e-05 -4.461968e-05 0.00063154724 -1.671117e-05
0002c0 e6 2a 8b 3a 97 8d f1 b7 9a d4 45 b8 14 e7 aa b5
       0.0010617643 -2.8795372e-05 -4.716646e-05 -1.273324e-06
0002d0 a3 ac 47 3a 4e ce 10 b7 49 c3 4e b8 84 e9 e5 3a
       0.00076169724 -8.631103e-06 -4.92961e-05 0.0017540907
0002e0 6b 09 16 b8 d5 88 e4 3a 0e a7 90 3a 81 8c 6d b2
       -3.5771558e-05 0.0017435799 0.0011036114 -1.38271625e-08
0002f0 5e 7a 3a b8 27 82 c9 b6 5a 98 8e 37 30 85 48 b4
       -4.445982e-05 -6.0054185e-06 1.6998663e-05 -1.8674905e-07
000300 0c b4 c9 3a 4b e1 02 39 7b 64 c0 3a ae eb 05 b6
       0.0015388741 0.00012481694 0.0014678383 -1.9955728e-06
000310 02 2f 94 38 1c 5f 62 39 bb 2e 1e b8 50 6e a7 b2
       7.065946e-05 0.0002158847 -3.7713657e-05 -1.9491523e-08
000320 6d 98 9e 3a 44 1d 9b 3a a6 cd 88 3a 1e 2e 33 39
       0.001209987 0.0011834283 0.0010437265 0.0001708795
000330 a0 af 19 3a 03 95 59 3a 94 57 91 3a bd ec 4b b3
       0.0005862657 0.00083000975 0.0011088722 -4.7479933e-08
000340 aa 76 4f b8 50 b9 01 3a f8 b6 79 3a 0f 24 dc 3a
       -4.946316e-05 0.0004948573 0.00095258607 0.0016795414
000350 b0 5e 07 b5 71 7e 43 b8 b9 3f e8 3a 1d 54 c9 b7
       -5.042921e-07 -4.660938e-05 0.0017719186 -2.4000235e-05
000360 f9 1b 44 38 e2 b3 8f 3a 62 22 08 b6 b2 4a c6 39
       4.6756093e-05 0.0010963643 -2.0285593e-06 0.00037821155
000370 6d e2 d2 3a 51 c3 d0 39 28 65 80 b5 51 5e 9a 3a
       0.0016089209 0.00039818374 -9.566184e-07 0.0011777376
000380 84 65 02 3b 4d 25 a1 3a ec 49 4d b6 ad 5e 67 b7
       0.0019896934 0.0012294442 -3.0590409e-06 -1.3790716e-05
000390 d4 c8 7b 3a dc d9 0d b6 12 6f 14 b8 84 d7 06 3b
       0.0009604816 -2.1137448e-06 -3.5389392e-05 0.0020575235
0003a0 13 00 fb 3a 01 10 2b b3 32 4c 29 b6 44 c2 88 b7
       0.0019149802 -3.9828596e-08 -2.5227314e-06 -1.6302925e-05
0003b0 81 b2 42 b8 bc fb 09 3a 3f b6 09 b5 a5 4f 63 3a
       -4.641945e-05 0.00052636466 -5.130168e-07 0.0008671231
0003c0 42 e8 be b3 c2 91 66 3a f4 9a 51 b8 ba 73 2f b7
       -8.889812e-08 0.00087955233 -4.9973794e-05 -1.04577575e-05
0003d0 27 65 b9 37 c1 4b 20 39 ce 53 06 b8 6c 1f 9a 39
       2.2100821e-05 0.0001528701 -3.202614e-05 0.0002939658
0003e0 25 be 02 3a 24 ae 94 39 13 0d 6a b6 57 79 c4 3a
       0.000498744 0.00028358505 -3.4876327e-06 0.0014989775
0003f0 da d9 10 b5 8d 06 eb b7 96 6d ac 3a a0 eb 56 b8
       -5.3961196e-07 -2.8017233e-05 0.0013155218 -5.124102e-05
