old_ppo/PoI/PoI-20464.pt (torch, 438243 bytes, 36 tensors)

network_body._body_endoder.seq_layers.0.weight f4 [128, 4]
0.14546606 0.53324306 -0.030744059 0.9293554 -0.6994719 -0.2813654 0.23470353 -0.07451251
0.4340608 0.23661631 -0.33124793 0.29874286 -1.0427085 -0.20204397 0.2552467 0.5059915
-0.25518882 -0.056924973 0.08255148 -0.6391645 0.03177901 -0.1494609 -0.35512912 -0.16942461
0.26764312 0.28830108 -0.18706031 0.00012975409 -0.5388638 0.048924547 -0.21661434 -0.83372486
-0.7070565 -0.16620204 1.3520807 0.12256228 0.35466588 -0.682757 0.16693443 -0.13834585
-1.3790928 -0.7244309 0.0560227 -0.0021739972 0.34969607 -0.63829917 -0.41808423 0.15538232
0.037920482 -0.37299892 0.43955928 -0.036239594 -0.5149749 0.39814037 -0.31904203 0.63360494
0.35852763 0.036989465 -0.7251041 0.28530738 0.11859665 -0.13277411 0.66897833 -0.69353604
-0.851108 -1.0828363 -0.36759767 -0.10449405 -0.22398001 -0.2616986 -0.077817455 0.14620316
-0.46689624 0.47028732 0.6985975 0.0037179694 -0.37886453 -0.00883458 -0.07678687 -1.2466841
0.5571194 0.84268254 0.32266277 0.13898648 -0.3998654 -0.4411093 0.097034715 0.51426154
-0.8064006 -0.31516385 0.019510353 -0.2977478 -0.29671028 -0.10094963 0.6023673 0.121081576
-0.3202716 -0.12261437 0.2876558 -0.4050714 -0.6234422 0.8421419 -0.098885424 0.03479436
-0.13126594 0.5188617 0.5107738 -0.64777064 -0.04757332 -1.16956 0.155326 -0.20776315
0.28512365 -0.3711693 -0.37988698 -0.7147095 -0.5601429 0.116131 0.5394323 0.9316383
0.21488409 0.5847065 0.3137494 -1.2825401 -0.23289903 -0.5185223 -0.07571744 0.22487193
-0.90898436 0.9084351 -0.66280365 -0.11323231 -0.39515993 -0.63953036 0.18623708 0.4648455
-0.62810695 0.27623323 0.6447398 -0.097548045 0.42088678 1.1792872 -0.21557227 -0.14866725
0.8784313 0.3386192 0.13178477 -0.9844825 0.4234455 0.56309575 -0.29092982 0.39640462
-0.7902041 0.0413616 0.030709956 0.09133624 -0.4487081 0.36747247 -0.2588611 -0.9352725
-0.5275452 0.3743383 -0.048134077 0.9521646 -0.012059238 -1.118368 -0.09724267 -0.38492623
-0.113624655 0.028673634 -0.44373918 -0.36469418 0.6530931 -0.15139866 -0.25861728 0.21749265
-0.6168555 0.40817222 0.005870879 0.6670534 0.814278 -0.1853881 0.27152458 0.24837095
0.6299517 -0.0642354 0.14236301 -0.18146509 0.23201242 -0.0017947024 -0.39727008 0.36962616
0.0829003 0.5763266 -0.46299398 -0.5822174 0.3428737 -0.23922208 0.76435757 -0.5021121
0.098400965 0.8078352 0.27839717 0.103908055 0.2364893 -0.93737584 -0.27546275 -0.6838158
0.46306854 -0.2846541 -0.061224636 0.9651343 -0.62767124 -0.11361294 -0.16993546 -0.48556516
-0.34398532 1.115065 0.23366827 -0.20802322 0.46091908 0.48469672 0.02565771 0.092473544
0.6610379 0.043829735 0.17218132 -0.38285726 0.20370194 -0.9572567 0.14724383 -0.09151218
0.19108841 -0.70419073 0.0757267 0.45895752 0.11196378 1.1601846 -0.653903 -0.37900198
0.5465293 0.19197851 0.37100086 0.016670257 -0.48676187 0.38564363 -0.24975187 -0.53388417
-0.1052115 -0.3143119 -0.480882 0.07202075 -0.6855116 -0.32282183 -0.022980314 0.27929384
00000000: 0ef5 143e 9e82 083f f7da fbbc 3cea 6d3f
00000010: 9710 33bf 200f 90be 1f56 703e 049a 98bd
00000020: 383d de3e 8c4b 723e 5499 a9be d3f4 983e
00000030: 7977 85bf 9de4 4ebe b2af 823e a988 013f
00000040: 1ca8 82be 292a 69bd c010 a93d 49a0 23bf
00000050: b52a 023d 470c 19be 7cd3 b5be a57d 2dbe
00000060: 8508 893e 339c 933e bd8c 3fbe 990e 0839
00000070: faf2 09bf 1b65 483d 26d0 5dbe fe6e 55bf
00000080: a801 35bf de30 2abe fb10 ad3f ef01 fb3d
00000090: c496 b53e 2ac9 2ebf dcf0 2a3e 89aa 0dbe
000000a0: 1d86 b0bf 4e74 39bf 0f78 653d 9f79 0ebb
000000b0: 5d0b b33e 9367 23bf 230f d6be 8b1c 1f3e
000000c0: 8252 1b3d b7f9 bebe ea0d e13e f86f 14bd
000000d0: 65d5 03bf 0ed9 cb3e 7a59 a3be ef33 223f
000000e0: ef90 b73e 4482 173d 6ca0 39bf cf13 923e
000000f0: cde2 f23d f0f5 07be 2a42 2b3f 948b 31bf
00000100: 37e2 59bf 619a 8abf c335 bcbe fa00 d6bd
00000110: 045b 65be 5cfd 85be c25e 9fbd 48b6 153e
00000120: 060d efbe 80c9 f03e 49d7 323f 2da9 733b
00000130: 88fa c1be eabe 10bc 6f42 9dbd 5893 9fbf
00000140: 619f 0e3f 0bba 573f 0e34 a53e 7952 0e3e
00000150: 28bb ccbe 14d9 e1be 23ba c63d a5a6 033f
00000160: 4570 4ebf 285d a1be 2dd4 9f3c 6672 98be
00000170: 69ea 97be aebe cebd be34 1a3f 9ef9 f73d
00000180: a4fa a3be 3e1d fbbd 9f47 933e 8565 cfbe
00000190: e899 1fbf 9d96 573f 7184 cabd 8884 0e3d
000001a0: 946a 06be 1fd4 043f 12c2 023f 4cd4 25bf
000001b0: 3edc 42bd 24b4 95bf c70d 1f3e ddbf 54be
000001c0: bafb 913e e709 bebe 8c80 c2be 34f7 36bf
000001d0: 8665 0fbf 17d6 ed3d 3c18 0a3f d97f 6e3f
000001e0: 930a 5c3e 53af 153f c3a3 a03e 462a a4bf
000001f0: 157d 6ebe e1bd 04bf bf11 9bbd d444 663e
00000200: 33b3 68bf 348f 683f 80ad 29bf 57e6 e7bd
00000210: 6752 cabe 43b8 23bf efb4 3e3e 3b00 ee3e
00000220: 9ecb 20bf 716e 8d3e ab0d 253f 45c7 c7bd
00000230: 797e d73e e2f2 963f fabe 5cbe 3a3c 18be
00000240: e0e0 603f 7f5f ad3e 96f2 063e 0c07 7cbf
00000250: d9cd d83e 0b27 103f c1f4 94be 8cf5 ca3e
00000260: d14a 4abf c86a 293d 7293 fb3c 7f0e bb3d
00000270: 11bd e5be 5a25 bc3e 7189 84be 056e 6fbf
00000280: 340d 07bf 45a9 bf3e 3d28 45bd 0fc1 733f
00000290: 1c94 45bc af26 8fbf 2a27 c7bd 0d15 c5be
000002a0: 0bb4 e8bd f8e4 ea3c c831 e3be 32b9 babe
000002b0: 1c31 273f 4008 1bbe 7c69 84be 65b6 5e3e
000002c0: 3eea 1dbf f3fb d03e 8160 c03b 03c4 2a3f
000002d0: 8674 503f 61d6 3dbe 4505 8b3e f454 7e3e
000002e0: 8444 213f d98d 83bd 9cc7 113e fcd1 39be
000002f0: aa94 6d3e 383c ebba fc66 cbbe a43f bd3e
00000300: a2c7 a93d 248a 133f 8c0d edbe 330c 15bf
00000310: 248d af3e a2f6 74be f0ac 433f 6b8a 00bf
00000320: 7286 c93d 4ace 4e3f 138a 8e3e bfcd d43d
00000330: 402a 723e ddf7 6fbf 7409 8dbe 8d0e 2fbf
00000340: 5217 ed3e 2fbe 91be afc6 7abd 0b13 773f
00000350: 10af 20bf e7ad e8bd 9003 2ebe ff9b f8be
00000360: d81e b0be 73ba 8e3f bc46 6f3e 0a04 55be
00000370: 96fd eb3e 2b2a f83e 1e30 d23c c562 bd3d
00000380: c839 293f cf86 333d 4d50 303e de05 c4be
00000390: 3e97 503e c60e 75bf 16c7 163e bd6a bbbd
000003a0: aeac 433e d845 34bf 9a16 9b3d 7bfc ea3e
000003b0: 444d e53d ee80 943f 3066 27bf 8c0c c2be
000003c0: 58e9 0b3f 0496 443e d3f3 bd3e 1090 883c
000003d0: da38 f9be 1573 c53e f4be 7fbe a2ac 08bf
000003e0: 2079 d7bd 7ded a0be 2a36 f6be 9d7f 933d
000003f0: b07d 2fbf e748 a5be 3641 bcbc 9aff 8e3e

network_body._body_endoder.seq_layers.0.bias f4 [128]
-0.011405735 -0.05477668 -0.00233354 -0.016362492 -0.036887698 0.010442746 -0.013171602 -0.02620864
0.0029166897 -0.017368503 -0.04423699 0.010634729 -0.032892052 -0.04332208 -0.0055430103 -0.012701109
-0.041762397 -0.034410726 0.013081123 -0.0070440867 0.0014276713 -0.033333484 -0.022753209 -0.03314331
-0.043243002 0.0059186593 0.05093021 -0.0014851451 -0.019440785 -0.011063869 -0.005153096 -0.05327753
-0.0052959444 -0.019366028 0.0073168864 -0.003219408 -0.007757481 0.013472951 -0.006715525 0.00249013
-0.052819166 -0.026759392 -0.042780697 -0.018000564 -0.0038418937 -0.028274486 -0.009306797 0.003362408
0.017026408 -0.02259973 -0.00041828607 -0.051424243 -0.0032327627 -0.029498734 0.015889574 -0.012716977
0.017244661 -0.022442896 -0.012612212 0.0053579346 -0.006342386 -0.050517283 -0.0055932645 0.0009920242
-0.0052338685 -0.03763872 -0.015871637 -0.0077187466 -0.0035360248 -0.027937217 0.013417614 -0.01170668
0.007850065 -0.03569794 -0.0030619462 -0.018066756 0.035401575 -0.033473723 -0.0039613075 0.045505356
0.0013533962 0.0065438137 -0.013879787 -0.018092003 -0.03541608 0.004876858 0.016148243 -0.042152025
-0.021445705 -0.038682587 -0.029664699 -0.033062633 -0.01345144 -0.03930106 -0.011362325 -0.0059555783
0.0005706839 -0.022580652 0.003730222 -0.04292573 -0.024167074 0.00059242814 -0.012204737 -0.034835916
0.009223213 -0.0040343297 -0.056208484 -0.01646274 -0.018208 -0.027820075 0.025786748 -0.018114252
-0.030762143 0.053796962 -0.04538474 -0.02188292 -0.0004439808 -0.010095031 -0.04529954 -0.021705583
0.0038389075 -0.0011653135 -0.017756173 -0.010676759 0.010364478 -0.040809885 -0.03271641 -0.011065699
00000000: 1fdf 3abc 835d 60bd 4eee 18bb a20a 86bc
00000010: 8e17 17bd 0d18 2b3c b4cd 57bc 80b3 d6bc
00000020: ef25 3f3b 6448 8ebc d931 35bd 493d 2e3c
00000030: d1b9 06bd 7e72 31bd 24a2 b5bb 5018 50bc
00000040: 0c0f 2bbd 43f2 0cbd 3552 563c 15d2 e6bb
00000050: b320 bb3a b188 08bd f064 babc 48c1 07bd
00000060: 931f 31bd 50f1 c13b 329c 503d 33a9 c2ba
00000070: 4842 9fbc 3b45 35bc 4ddb a8bb 8a39 5abd
00000080: 9a89 adbb 81a5 9ebc 7ec2 ef3b b4fc 52bb
00000090: 7832 febb a7bd 5c3c e80d dcbb 7331 233b
000000a0: e958 58bd 8336 dbbc d03a 2fbd eb75 93bc
000000b0: 48c8 7bbb e59f e7bc 897b 18bc d85b 5c3b
000000c0: f77a 8b3c 1223 b9bc 684d dbb9 3aa2 52bd
000000d0: c2dc 53bb 54a7 f1bc da2a 823c de5a 50bc
000000e0: ad44 8d3c 2ada b7bc 74a3 4ebc 9d91 af3b
000000f0: cad3 cfbb 36eb 4ebd b447 b7bb cf06 823a
00000100: df80 abbb 0f2b 1abd 3c05 82bc 8aed fcbb
00000110: a7bc 67bb 97dc e4bc 8dd5 5b3c 60cd 3fbc
00000120: 8f9d 003c 0138 12bd efaa 48bb bc00 94bc
00000130: 3e01 113d be1b 09bd dbcd 81bb d363 3a3d
00000140: 7164 b13a 7d6d d63b 0c68 63bc ae35 94bc
00000150: 7410 11bd 0dce 9f3b 5249 843c 9aa7 2cbd
00000160: e7ae afbc a271 1ebd 6203 f3bc af6c 07bd
00000170: 6e63 5cbc 26fa 20bd 0c29 3abc 0327 c3bb
00000180: f399 153a 0ffb b8bc bd76 743b e4d2 2fbd
00000190: 07fa c5bc 2e4d 1b3a 61f6 47bc 1bb0 0ebd
000001a0: f61c 173c 6932 84bb de3a 66bd dedc 86bc
000001b0: f228 95bc ede6 e3bc bb3e d33c 5764 94bc
000001c0: e400 fcbc 345a 5c3d 59e5 39bd cf43 b3bc
000001d0: 18c6 e8b9 a165 25bc 038c 39bd e8cf b1bc
000001e0: 2e96 7b3b 6fbd 98ba 6575 91bc 93ed 2ebc
000001f0: c6cf 293c 4428 27bd a401 06bd e84c 35bc

network_body._body_endoder.seq_layers.2.weight f4 [128, 128]
0.026018558 0.013652327 -0.0136587145 -0.06683154 0.071451426 0.053649623 -0.065539494 0.0007285945
-0.066726826 -0.19765602 -0.1338313 -0.012441449 0.067747444 -0.03401759 0.065643735 0.16774501
0.039152384 -0.050807673 0.23044479 -0.06495656 -0.053821 -0.007345134 -0.06606184 -0.0026843795
-0.23842049 -0.13830195 -0.088572055 0.021761464 -0.12171572 0.05536895 -0.061550926 -0.009255428
0.06451439 0.15975165 -0.13067691 -0.07897457 0.14661121 0.033752862 0.0018193749 -0.00032079633
-0.015472615 0.08630228 -0.086924545 0.12799713 -0.17994797 -0.019573225 0.012405693 0.12602943
0.07466904 -0.044371974 0.08531655 -0.0011813006 -0.075135544 -0.044983122 0.055093378 0.114999235
0.08058511 0.15253384 -0.014834152 -0.007895049 -0.025009967 -0.06627791 0.0009095797 -0.095318794
0.075652584 -0.04736351 -0.07890828 0.061514057 0.0007946898 -0.09825666 0.016385932 0.011991455
0.06930199 -0.09187481 -0.10821396 0.066054724 -0.006164656 0.032938432 0.10512722 0.092922896
0.16261493 0.29823565 -0.045519277 0.05819398 0.11564471 -0.05346279 0.058392465 0.023385875
-0.09590562 -0.18091738 0.06668688 -0.08157827 0.26547948 -0.14892922 -0.027919205 0.16396475
-0.03667066 0.08058831 0.18085177 0.063041754 0.13879773 0.0684392 -0.059700307 -0.03412152
-0.011274318 0.19362709 -0.03572937 0.0063141766 -0.10778393 -0.07452526 -0.026969025 0.15085074
-0.06358051 0.029637583 -0.025600472 0.05000661 0.08903163 -0.2323677 0.056384765 -0.0010127091
0.0039935834 0.045476183 -0.07241281 0.012068945 -0.06812174 -0.16603445 -0.054063793 0.10099585
-0.060929697 -0.043868437 -0.05283381 -0.28251967 0.028872883 -0.063063905 0.14368708 0.01310744
-0.045699753 -0.14613895 0.11482318 0.12802783 0.15411545 0.076184265 -0.21280672 -0.009371689
-0.058909424 0.022123167 -0.07890018 0.1585547 0.012625134 -0.015753228 -0.051901076 -0.036184918
0.24930984 -0.06806729 -0.1616975 0.053801388 -0.010333651 0.0819133 -0.05534963 0.031102894
-0.034924384 -0.11554456 0.040545605 0.019415075 -0.035615638 -0.12064929 0.043391418 -0.026275832
-0.0728067 0.0065668705 -0.041432906 0.09405526 -0.028770031 -0.05723349 0.03510033 -0.040945664
-0.024591599 0.0713282 -0.08229906 0.12842824 -0.0032934728 0.03078684 -0.042091157 0.011079964
-0.013358291 0.15293594 -0.09342544 -0.07919927 -0.021438686 -0.02564734 0.013216719 0.03408705
-0.02249058 0.038008854 0.08274946 -0.157682 0.06587368 -0.025142612 -0.026973743 -0.15015094
-0.09948815 0.13508612 -0.03406725 0.002156406 0.03665334 0.07042363 0.0051662396 0.030091334
0.061957065 0.049387865 -0.12414045 -0.00783986 0.1111076 -0.16151167 0.030578053 -0.15803096
-0.1285167 -0.009449459 -0.0042461227 0.05571027 -0.0487504 -0.04139186 0.016344486 -0.007492717
-0.016950747 -0.116050385 -0.14398617 -0.06738121 0.07533158 -0.030676574 0.07320139 0.028254045
-0.01992904 0.08236388 -0.020311536 -0.11391399 0.017824283 0.026637703 0.048024096 -0.16089414
-0.025895257 -0.054641124 0.0751769 -0.02356748 -0.086211964 0.06537017 -0.12153761 0.09787012
0.145613 -0.11504595 -0.087338835 0.1507947 0.10229712 -0.04130725 0.06265359 0.010284034
00000000: df24 d53c 02ae 5f3c cdc8 5fbc f9de 88bd
00000010: 2055 923d b5bf 5b3d 9239 86bd 26ff 3e3a
00000020: 13a8 88bd 5766 4abe 130b 09be 38d7 4bbc
00000030: 2cbf 8a3d 0756 0bbd 3970 863d 59c5 2b3e
00000040: 405e 203d b51b 50bd b8f9 6b3e f207 85bd
00000050: 6973 5cbd 73af f0bb 6e4b 87bd 6aec 2fbb
00000060: 8024 74be 079f 0dbe 4465 b5bd 1945 b23c
00000070: 1746 f9bd 8dca 623d d31c 7cbd 14a4 17bc
00000080: 1f20 843d f095 233e 2bd0 05be 6bbd a1bd
00000090: 4021 163e 7140 0a3d 1778 ee3a 8e30 a8b9
000000a0: da80 7dbc 40bf b03d 7f05 b2bd ae11 033e
000000b0: 4844 38be 0758 a0bc 3f41 4b3c dc0d 013e
000000c0: 15ec 983d 63bf 35bd 72ba ae3d dfd5 9aba
000000d0: aae0 99bd 3940 38bd 98a9 613d b884 eb3d
000000e0: ce09 a53d d531 1c3e f10a 73bc 3c5a 01bc
000000f0: b4e1 ccbc b6bc 87bd dc70 6e3a 8036 c3bd
00000100: beef 9a3d 3d00 42bd aa9a a1bd 2af6 7b3d
00000110: bb52 503a ca3a c9bd ca3b 863c cf77 443c
00000120: 34ee 8d3d dc28 bcbd 489f ddbd b347 873d
00000130: e200 cabb 73ea 063d f14c d73d 5c4e be3d
00000140: 8784 263e 58b2 983e 6c72 3abd d05c 6e3d
00000150: 22d7 ec3d ccfb 5abd f02c 6f3d bc93 bf3c
00000160: 2a6a c4bd 6842 39be 2293 883d 8212 a7bd
00000170: edec 873e e780 18be d1b6 e4bc 60e6 273e
00000180: f933 16bd 7c0b a53d 3531 393e 091c 813d
00000190: fe20 0e3e da29 8c3d 4f88 74bd 02c3 0bbd
000001a0: ebb7 38bc 2e46 463e f658 12bd 27e7 ce3b
000001b0: d2bd dcbd b3a0 98bd 25ee dcbc 9e78 1a3e
000001c0: 8036 82bd 84ca f23c 15b8 d1bc bbd3 4c3d
000001d0: 3756 b63d ccf1 6dbe b6f3 663d e1bc 84ba
000001e0: 9bdc 823b 3c45 3a3d 2b4d 94bd d3bc 453c
000001f0: 6983 8bbd ef04 2abe ff71 5dbd ead6 ce3d
00000200: 6b91 79bd 64af 33bd 4468 58bd 6ba6 90be
00000210: d386 ec3c a627 81bd b522 133e 97c0 563c
00000220: aa2f 3bbd 73a5 15be 6a28 eb3d ba19 033e
00000230: 71d0 1d3e 7f06 9c3d 01ea 59be b68b 19bc
00000240: 024b 71bd a53b b53c 6b96 a1bd 2a5c 223e
00000250: a6d9 4e3c ea0c 81bc 3996 54bd a336 14bd
00000260: 144b 7f3e dd66 8bbd 0894 25be d85e 5c3d
00000270: 794e 29bc 29c2 a73d 4bb6 62bd 7fcb fe3c
00000280: df0c 0fbd a0a2 ecbd 2613 263d 5d0c 9f3c
00000290: b4e1 11bd fa16 f7bd 33bb 313d 6a40 d7bc
000002a0: ae1b 95bd e72e d73b 8db5 29bd 0ba0 c03d
000002b0: 21af ebbc aa6d 6abd 5dc5 0f3d a4b6 27bd
000002c0: 5274 c9bc 8514 923d 698c a8bd b182 033e
000002d0: 4ed7 57bb af34 fc3c c767 2cbd bd88 353c
000002e0: bcdc 5abc 3d9b 1c3e d655 bfbd 3a33 a2bd
000002f0: 2fa0 afbc 5f1a d2bc f08a 583c dd9e 0b3d
00000300: 2a3e b8bc 2caf 1b3d 8d78 a93d 6477 21be
00000310: c8e8 863d e1f7 cdbc 0af8 dcbc 2bc1 19be
00000320: 71c0 cbbd 0454 0a3e 1a8a 0bbd 7d52 0d3b
00000330: d021 163d 443a 903d 8f49 a93b 1a82 f63c
00000340: b1c6 7d3d ee4a 4a3d 593d febd c272 00bc
00000350: 628c e33d 5163 25be d37e fa3c ded2 21be
00000360: e299 03be e7d1 1abc 0f23 8bbb 7430 643d
00000370: 80ae 47bd 838a 29bd dfe4 853c 7785 f5bb
00000380: 4bdc 8abc d3ab edbd 1c71 13be 29ff 89bd
00000390: 7247 9a3d 704d fbbc 9cea 953d 0775 e73c
000003a0: 3a42 a3bc 65ae a83d 6164 a6bc bd4b e9bd
000003b0: 3b04 923c 5037 da3c eab4 443d 6fc1 24be
000003c0: 4a22 d4bc 5fcf 5fbd 59f6 993d 9610 c1bc
000003d0: e68f b0bd cce0 853d b6e8 f8bd 2170 c83d
000003e0: 931b 153e 369d ebbd b4de b2bd ed69 1a3e
000003f0: 2781 d13d ca31 29bd 8750 803d 5d7e 283c

network_body._body_endoder.seq_layers.2.bias f4 [128]
0.014655799 -0.007853648 0.012793868 -0.033764713 0.014375297 -0.0006715052 -0.026480496 0.010919575
-0.036855787 -0.004689299 0.00040645176 -0.008991309 -0.0023250917 -0.014641036 0.0072692195 -0.021921553
-0.0051661893 0.00033114137 0.0027822098 -0.027095921 -0.0023053703 -0.0055904295 0.0070953895 -0.010998146
-0.0068276585 0.017906182 -0.04308362 -0.004404916 -0.013673717 -0.02310119 -0.031328104 -0.025280833
-0.009465395 -0.0056902305 0.00517962 -0.007270784 0.005126758 -0.013061343 0.005459038 0.004532486
0.0007898823 -0.028775407 0.009199001 0.0020352437 -0.041299 -0.016536156 0.0069738673 -0.0016733225
-0.015063861 -0.0022644876 0.00043244407 -0.015466182 -0.004219738 -0.0069392123 -0.016907956 -0.027555706
-0.002162234 -0.004347145 -0.01924982 -0.007005647 -0.024946645 0.0034234861 -0.004264242 -0.01546273
-0.007634058 0.016329031 -0.029735312 0.005430145 -0.004192434 0.017060356 -0.014460756 -0.016802654
-0.0026651893 -0.025883133 0.025517162 -0.017516207 -0.019298857 -0.024588853 -0.031702444 0.02639957
-0.00486554 -0.036466263 -0.020830553 -0.013649185 -0.003275651 -0.034657028 0.017585991 0.02247175
0.01911607 0.008136244 -0.03357137 -0.033669814 -0.020351347 -0.017683016 0.0035368039 -0.014332141
0.032901406 -0.007541268 0.009690296 0.001365718 -0.0017277023 -0.0068923593 0.005158757 0.00064265117
0.0068538897 -0.026741205 0.025482617 -0.013004237 -0.015512294 -0.029072808 0.0021357823 0.0029272197
-0.012267542 0.0023279763 -0.0073803067 0.006477822 -0.027728867 -0.0019438952 -0.008377593 -5.815991e-05
-0.010456755 -0.019666066 0.0143838525 0.005891473 -0.034798127 -0.007385362 -0.032599885 -0.032868925
00000000: e01e 703c 96ac 00bc 5f9d 513c de4c 0abd
00000010: 5e86 6b3c f307 30ba a0ed d8bc 04e8 323c
00000020: 18f6 16bd b1a8 99bb 0819 d539 4950 13bc
00000030: 9160 18bb f5e0 6fbc a232 ee3b d494 b3bc
00000040: 2349 a9bb 0b9d ad39 bc55 363b 44f8 ddbc
00000050: b215 17bb ec2f b7bb 7180 e83b 9131 34bc
00000060: 8dba dfbb fcaf 923c 7378 30bd 1d57 90bb
00000070: ba07 60bc b53e bdbc e651 00bd c019 cfbc
00000080: be14 1bbc 1d75 babb cdb9 a93b c23f eebb
00000090: 5dfe a73b 3eff 55bc bbe1 b23b 4085 943b
000000a0: 1b10 4f3a 67ba ebbc 68b7 163c b961 053b
000000b0: 2429 29bd d576 87bc 0a85 e43b 6353 dbba
000000c0: 6ace 76bc cc67 14bb a9b9 e239 de65 7dbc
000000d0: ba45 8abb 5562 e3bb 8e82 8abc 81bc e1bc
000000e0: 44b4 0dbb 7f72 8ebb ccb1 9dbc a08f e5bb
000000f0: e85c ccbc 915c 603b 0ebb 8bbb 6457 7dbc
00000100: 1f27 fabb 76c4 853c 7897 f3bc 5cef b13b
00000110: af60 89bb 29c2 8b3c cfec 6cbc b8a5 89bc
00000120: 75aa 2ebb dd08 d4bc 5e09 d13c 267e 8fbc
00000130: a318 9ebc 906e c9bc 6cda 01bd e943 d83c
00000140: 1c6f 9fbb a65d 15bd d6a4 aabc d5a0 5fbc
00000150: 4eac 56bb 87f4 0dbd 7f10 903c ad16 b83c
00000160: 4e99 9c3c e14d 053c 2282 09bd 5ce9 09bd
00000170: deb7 a6bc f9db 90bc b9c9 673b 5bd1 6abc
00000180: a0c3 063d be1c f7bb 0cc4 1e3c e401 b33a
00000190: 1274 e2ba 4dd9 e1bb ca0a a93b 9777 283a
000001a0: 9896 e03b 5f10 dbbc ecc0 d03c b90f 55bc
000001b0: 4727 7ebc 192a eebc 7bf8 0b3b 99d6 3f3b
000001c0: cdfd 48bc f690 183b 80d6 f1bb e943 d43b
000001d0: a627 e3bc 4dca feba 2c42 09bc baf0 73b8
000001e0: cf52 2bbc bb1a a1bc 40aa 6b3c 420d c13b
000001f0: 7b88 0ebd e800 f2bb 7587 05bd 91a1 06bd

action_model._continuous_distribution.log_sigma f4 [1, 4]
0.032508947 0.050898153 0.012578292 0.064681605
00000000: 1a28 053d 957a 503d 2e15 4e3c ca77 843d

action_model._continuous_distribution.mu.weight f4 [4, 128]
0.0017247556 -0.01878205 -0.05693479 0.013739909 0.012665708 0.024072299 0.022692865 0.038332272
-0.01810667 0.021446714 0.023590846 0.01809796 0.0025728173 -0.032418206 -0.0038717503 0.0028435076
0.0560718 0.039638102 0.028432122 0.010269506 0.030508405 0.0154013615 0.030018775 0.018732486
-0.025363535 0.032255366 -0.021741116 0.029186793 0.028940031 0.0010831738 -0.023411019 -0.0018051566
0.029435946 0.010676491 0.015346993 -0.026333027 0.027087932 -0.0020903272 -0.056931734 0.020749513
0.004583769 0.0080852015 -0.00061049964 0.0072276345 0.013507555 -0.01121616 0.039217502 -0.008693282
0.0034381014 0.00609061 0.014428844 0.0089995125 0.010956286 0.012197988 0.031339824 -0.013388618
0.021980327 0.049848318 -0.0039023797 0.016749758 -0.0047801877 -0.027437754 0.042289805 -0.016052445
0.007859865 0.018746825 0.006049404 -0.00014335725 0.028157784 0.0073774573 0.020462124 0.0017855691
-0.017227255 -0.006066362 0.010377656 0.011337675 -0.0058510727 0.02605934 0.008656964 0.057547715
0.047845636 0.014631555 -0.034290306 -0.011527043 0.04179569 0.016439041 -0.01518642 0.04206373
-0.022800088 0.03753079 0.0020252527 0.034808934 0.0036694757 0.025675463 0.043247554 -0.012302255
0.001123349 0.0008104207 0.026278773 0.012275646 0.024705203 0.007092944 0.0006449654 0.021854186
0.020838952 0.007831641 0.01171293 0.027765714 0.017353835 0.005917096 0.0019483225 0.015219352
0.014030627 0.024786018 0.038014356 0.0045347176 -0.011741473 0.01610687 0.027749402 -0.057090763
0.020580059 -0.024677336 -0.0049886615 -0.035540294 0.02777126 0.01726079 -0.03960269 0.025406219
0.02804602 0.0038682846 0.047879472 0.026286917 -0.043792855 0.0028830103 0.02556077 0.011923103
-0.04350828 0.0014145351 -0.010527237 0.039402865 0.015538421 -0.055858225 0.04219265 -0.03145354
0.043689776 0.0024824634 0.023099642 -0.00041544222 -0.025738541 0.00438013 0.042432033 0.0013573819
-0.044352993 0.03757095 0.009058543 -0.0022382836 0.009303908 0.017209837 0.0016773585 -0.015592225
-0.03681501 -0.0019972122 0.022481777 0.036532894 0.044009592 0.0010493768 0.02175423 0.035199568
0.048687026 0.018501036 0.0142668225 -0.005021862 0.0019966823 0.069301456 0.030666387 -0.0035658772
-0.04001195 0.024316136 0.026916236 0.03847992 0.04735931 -0.048305463 0.036908116 0.003461696
0.012909485 0.03555945 0.0014217534 0.03157686 -0.005663798 -0.010739771 0.00781374 -0.014485668
-0.013499083 0.055511683 0.041688297 0.013478329 0.04527089 -0.011097896 -0.0018467566 -0.00072746375
-0.0030956883 0.04417372 -0.016848003 0.0022758795 0.0023892699 0.008206408 -0.01664233 0.035317328
-0.0003274682 0.015741063 -0.00091037486 0.03469524 -0.013199574 0.029390441 -0.0062151756 -0.0636779
-0.01916755 0.012748564 -0.0018839407 0.014671661 0.0037236242 -0.014877538 -0.013995737 0.0037852107
0.0020225258 0.0031410737 -0.018367415 -0.026538603 0.039609574 0.02039924 0.034232568 -0.010744887
0.026666155 0.034629747 -0.03899689 0.03259061 0.06091555 0.04384582 0.044445753 -0.012841071
0.0065465686 0.035074636 -0.020846838 0.023467766 0.017217845 0.0007626896 0.041009683 0.02649934
0.060948316 0.011522355 0.048055895 -0.020131333 0.016582206 0.030530669 -0.0056244927 0.030167917
00000000: 3211 e23a d0dc 99bc 7434 69bd 5b1d 613c
00000010: d483 4f3c 4533 c53c 63e6 b93c 4d02 1d3d
00000020: 7054 94bc 05b1 af3c 9741 c13c 2c42 943c
00000030: b69c 283b f4c8 04bd 31bd 7dbb 245a 3a3b
00000040: 8bab 653d 905b 223d 7bea e83c 6e41 283c
00000050: c3ec f93c fe55 7c3c efe9 f53c df74 993c
00000060: 30c7 cfbc 341e 043d 6d1a b2bc 2419 ef3c
00000070: a513 ed3c 48f9 8d3a 77c8 bfbc 019b ecba
00000080: a723 f13c 73ec 2e3c f471 7b3c 5cb8 d7bc
00000090: 83e7 dd3c dffd 08bb 4031 69bd e2fa a93c
000000a0: 7133 963b cb77 043c f009 20ba cbd5 ec3b
000000b0: cb4e 5d3c fcc3 37bc 88a2 203d 446e 0ebc
000000c0: c551 613b bd93 c73b f566 6c3c b172 133c
000000d0: ff81 333c 12da 473c 305e 003d ef5b 5bbc
000000e0: 1610 b43c c02d 4c3d 11bf 7fbb ca36 893c
000000f0: 1fa3 9cbb 24c5 e0bc 1338 2d3d 6b80 83bc
00000100: aac6 003c f192 993c 143a c63b 2b52 16b9
00000110: 27ab e63c 99be f13b 2fa0 a73c c209 ea3a
00000120: 2c20 8dbc 55c8 c6bb 0b07 2a3c a8c1 393c
00000130: 5bba bfbb 667a d53c f0d5 0d3c 27b7 6b3d
00000140: c9f9 433d 31b9 6f3c fe73 0cbd ecdb 3cbc
00000150: f531 2b3d 2bab 863c 76d0 78bc 054b 2c3d
00000160: 40c7 babc e3b9 193d 1aba 043b d093 0e3d
00000170: 967b 703b 5955 d23c 5924 313d 668f 49bc
00000180: 563d 933a 6a72 543a 9546 d73c cb1f 493c
00000190: 9162 ca3c ed6b e83b e512 293a 8d07 b33c
000001a0: 73b6 aa3c 4850 003c 97e7 3f3c ec74 e33c
000001b0: a129 8e3c 33e4 c13b db5e ff3a 975a 793c
000001c0: b7e0 653c 0c0c cb3c f1b4 1b3d f897 943b
000001d0: 4f5f 40bc 8ef2 833c b752 e33c 01d8 69bd
000001e0: 8397 a83c 2028 cabc ed77 a3bb b392 11bd
000001f0: 8e80 e33c 8066 8d3c 6e36 22bd b420 d03c
00000200: c4c0 e53c 0c83 7d3b 441d 443d a957 d73c
00000210: 2360 33bd e3f0 3c3b d264 d13c 1e59 433c
00000220: bd35 32bd ec67 b93a 6f7a 2cbc e664 213d
00000230: dd94 7e3c 98cb 64bd 33d2 2c3d 6dd5 00bd
00000240: 0df4 323d d3b0 223b 763b bd3c b6cf d9b9
00000250: a2d9 d2bc 3287 8f3b 36cd 2d3d 2eea b13a
00000260: 7cab 35bd ffe3 193d 486a 143c 2bb0 12bb
00000270: 6b6f 183c a5fb 8c3c d0da db3a 8876 7fbc
00000280: 56cb 16bd a9e3 02bb b42b b83c 84a3 153d
00000290: 6743 343d 3e8b 893a ed35 b23c 6c2d 103d
000002a0: 0c6c 473d 7c8f 973c 64bf 693c 6f8e a4bb
000002b0: c5da 023b eced 8d3d 1338 fb3c 7eb1 69bb
000002c0: 92e3 23bd a232 c73c 707f dc3c 1f9d 1d3d
000002d0: d6fb 413d f3db 45bd f72c 173d 9fdd 623b
000002e0: 4e82 533c c9a6 113d 215a ba3a bd56 013d
000002f0: 6297 b9bb ddf5 2fbc 3305 003c 4c55 6dbc
00000300: 422b 5dbc 3860 633d 59c1 2a3d 36d4 5c3c
00000310: f86d 393d f3d3 35bc de0e f2ba 44b3 3eba
00000320: 08e1 4abb 81ef 343d d304 8abc ec26 153b
00000330: 4c95 1c3b 2b74 063c 7f55 88bc e7a8 103d
00000340: 0ab0 abb9 67f3 803c 39a6 6eba 991c 0e3d
00000350: 0743 58bc 39c4 f03c aca8 cbbb 8f69 82bd
00000360: 4405 9dbc 5adf 503c 8fee f6ba 6861 703c
00000370: 0c08 743b ebc0 73bc 604e 65bc 4c11 783b
00000380: 5a8c 043b 79da 4d3b 4377 96bc 7c67 d9bc
00000390: a63d 223d 4f1c a73c 7337 0c3d 530b 30bc
000003a0: fb72 da3c ecd7 0d3d 34bb 1fbd bb7d 053d
000003b0: 9582 793d ad97 333d c00c 363d 5b63 52bc
000003c0: 9984 d63b 6caa 0f3d fdc6 aabc 793f c03c
000003d0: 700c 8d3c 3cef 473a c5f9 273d 2515 d93c
000003e0: f1a4 793d 42c8 3c3c 42d6 443d 77ea a4bc
000003f0: 68d7 873c 741b fa3c aa4d b8bb b522 f73c

action_model._continuous_distribution.mu.bias f4 [4]
0.01512748 0.00056270865 -0.018068952 -0.011835807
00000000: 40d9 773c bd82 133a 5705 94bc f9ea 41bc

exp_avg f4 [128, 4]
-0.015004145 -2.852256e-05 -0.0001313598 -0.00014794667 3.1407157e-07 -1.5198977e-05 -3.4098233e-05 -3.836053e-05
0.039183557 5.6065357e-05 0.00040459365 0.0004554941 -3.5935387e-05 -4.0596293e-05 3.121648e-05 3.511857e-05
1.2527412e-06 -3.882543e-08 -1.9635895e-06 -2.209029e-06 -0.015338443 -3.145376e-05 -0.00025085348 -0.0002823284
-0.0028071918 1.6727558e-05 0.00013182369 0.00014844305 3.8001787e-08 -9.25121e-08 -6.005804e-08 -6.749045e-08
-5.534875e-05 2.2916458e-06 -8.426383e-06 -9.4796815e-06 0.029715514 6.27982e-05 0.00050170574 0.00056457974
8.850505e-06 -4.5107868e-06 -2.586014e-05 -2.9092644e-05 -0.021641362 -3.0482388e-06 -2.4913583e-05 -2.7631491e-05
-0.06380958 -9.31371e-05 -0.00074203534 -0.00083444756 -2.523491e-05 -9.435927e-06 3.509696e-05 3.948434e-05
0.008659824 1.8854671e-05 0.00015916198 0.00017907703 -0.012737975 -3.073272e-05 -0.00022406886 -0.0002520217
1.667318e-06 -1.4651876e-07 -1.2508228e-06 -1.4072302e-06 9.438435e-06 -1.6862957e-06 -1.2901641e-05 -1.451436e-05
-4.7137517e-05 -8.274514e-06 -3.206368e-06 -3.6071006e-06 2.436088e-09 -1.8176155e-09 -4.4331583e-09 -4.983369e-09
0.026464995 4.111601e-05 0.0004407861 0.00049578137 -1.7438404e-05 -1.5765807e-05 6.3565193e-07 7.152471e-07
-1.3065117e-05 2.2192044e-06 2.4525762e-05 2.7591486e-05 -9.408669e-05 -2.252463e-05 -2.8172386e-05 -3.169392e-05
-6.9281195e-06 1.1465341e-06 1.2791353e-05 1.4390267e-05 1.74271e-06 -1.7505268e-05 -7.1553745e-06 -8.049568e-06
2.7207238e-06 -4.0143754e-05 -2.9034025e-05 -3.266325e-05 3.516745e-05 9.842e-07 7.849021e-06 8.830153e-06
0.026251853 3.682671e-05 0.0002915573 0.00032877037 -5.1087725e-05 -2.204651e-05 -5.76394e-05 -6.48444e-05
0.00035550207 4.896781e-06 3.9307768e-05 4.404999e-05 1.5000181e-05 -5.3760723e-06 -3.7206308e-05 -4.1857176e-05
-6.8778735e-07 -9.0225757e-07 -4.4145142e-07 -4.9655733e-07 4.840902e-05 -1.0162607e-06 -7.9792415e-05 -8.9766545e-05
-1.2521941e-05 -4.5406578e-06 1.5539421e-05 1.7481932e-05 -0.014001746 -4.1429077e-05 -0.00022069823 -0.00024783745
-0.032927852 -2.5548265e-05 -0.00020540686 -0.00023032857 -0.003944979 6.3433986e-06 -4.6123107e-05 -5.1569186e-05
-7.975417e-06 -4.7327136e-05 -8.317756e-05 -9.357461e-05 2.4502969e-08 1.7448547e-08 -3.9631438e-08 -4.4538954e-08
-6.400569e-05 -2.368103e-05 2.3546349e-05 2.6489799e-05 -2.1529257e-05 -3.7891766e-07 -3.0353197e-06 -3.4147345e-06
1.9778172e-07 -2.9456476e-08 -3.9308216e-07 -4.4291292e-07 -0.04534659 -1.919609e-05 -0.00015104796 -0.00016944142
-3.4956887e-05 -9.573243e-06 7.381307e-06 8.3039e-06 0.013604828 1.4931607e-05 0.00030265245 0.00034091462
0.014096041 4.8004236e-05 0.00037666308 0.00042389025 -0.036722973 -7.1846457e-06 -0.00016041794 -0.00018064863
-0.047848716 -6.769657e-05 -0.0005420289 -0.00060978334 -0.017123412 6.605339e-06 -2.8362962e-05 -3.1689644e-05
0.004928838 4.182352e-05 0.00021511586 0.00024190424 0.00011013834 -3.770688e-07 -3.446849e-06 -3.770029e-06
0.0074696504 -1.4936253e-05 -0.00014803678 -0.00016577954 7.393973e-07 6.3470753e-07 -4.76893e-07 -5.365023e-07
-3.9257724e-05 -1.45883405e-05 3.8551123e-05 4.3369728e-05 -0.014039446 8.156533e-06 2.1900678e-05 2.4764277e-05
0.02458175 4.2965683e-05 0.00034501182 0.0003881007 -0.01582254 -1.378492e-05 -0.000111437876 -0.00012480681
-0.001268819 2.5000878e-05 0.00012632224 0.00014208675 -0.018706428 -1.9568513e-05 -0.00016310846 -0.00018404913
-0.021818617 -1.3638234e-05 -0.00021245267 -0.00023878913 1.5170562e-07 -2.90251e-09 2.5637235e-07 2.8776748e-07
1.6721901e-07 4.716321e-07 3.6061763e-06 4.056832e-06 -3.0371466e-05 -3.714877e-06 5.3766104e-05 6.048689e-05
00000000: f2d3 75bc bb43 efb7 a1bd 09b9 2222 1bb9
00000010: ab9d a834 1cff 7eb7 b304 0fb8 4ee5 20b8
00000020: f07e 203d b827 6b38 a41f d439 62cf ee39
00000030: 54b9 16b8 f045 2ab8 71ee 0238 474c 1338
00000040: dc23 a835 03c1 26b3 36c6 03b6 d43e 14b6
00000050: 184e 7bbc 38ed 03b8 fc84 83b9 7a05 94b9
00000060: ddf8 37bb 2852 8c37 273a 0a39 61a7 1b39
00000070: 6837 2333 11ab c6b3 42f9 80b3 44ef 90b3
00000080: 4526 68b8 2dca 1936 0a5f 0db7 ec0a 1fb7
00000090: f36d f33c 87b2 8338 e784 033a 4e00 143a
000000a0: a17c 1437 5d5b 97b6 3aee d8b7 fa0b f4b7
000000b0: 3a49 b1bc 5890 4cb6 83fd d0b7 2dca e7b7
000000c0: 99ae 82bd 9a52 c3b8 2685 42ba d4be 5aba
000000d0: 8eaf d3b7 ff4e 1eb7 1335 1338 fd9b 2538
000000e0: efe1 0d3c 192a 9e37 b8e4 2639 a0c6 3b39
000000f0: f1b2 50bc 02e7 00b8 07f4 6ab9 c821 84b9
00000100: 9cc8 df35 c552 1db4 f2e1 a7b5 10e0 bcb5
00000110: c559 1e37 ae54 e2b5 2074 58b7 b482 73b7
00000120: 86b5 45b8 c4d2 0ab7 fc2c 57b6 8411 72b6
00000130: 1d68 2731 a9cf f9b0 7952 98b1 2d3a abb1
00000140: 1ecd d83c fb73 2c38 4f19 e739 53f7 013a
00000150: b048 92b7 d040 84b7 aba1 2a35 68ff 3f35
00000160: 4032 5bb7 a4ed 1436 acbc cd37 4474 e737
00000170: 6850 c5b8 46f3 bcb7 bd53 ecb7 16ef 04b8
00000180: 1878 e8b6 9de2 9935 719a 5637 ba6d 7137
00000190: 0fe7 e935 47d8 92b7 3318 f0b6 a20c 07b7
000001a0: ae95 3636 0760 28b8 188e f3b7 e6ff 08b8
000001b0: c380 1338 db18 8435 4aaf 0337 3825 1437
000001c0: 200e d73c 6176 1a38 29dc 9839 d05e ac39
000001d0: 0747 56b8 85f0 b8b7 d6c1 71b8 12fd 87b8
000001e0: ae62 ba39 074f a436 65de 2438 51c2 3838
000001f0: 49a9 7b37 1c64 b4b6 f80d 1cb8 cd8f 2fb8
00000200: 63a0 38b5 ab32 72b5 9f00 edb4 294b 05b5
00000210: ca0a 4b38 7466 88b5 3a56 a7b8 0c41 bcb8
00000220: 5415 52b7 f45b 98b6 a75a 8237 2aa6 9237
00000230: 9467 65bc 22c4 2db8 3b6b 67b9 2ef0 81b9
00000240: 5bdf 06bd 7b50 d6b7 7c62 57b9 5b84 71b9
00000250: e244 81bb 61d9 d436 4f74 41b8 fe4b 58b8
00000260: 28ce 05b7 2081 46b8 9d6f aeb8 7c3d c4b8
00000270: 997a d232 c3e1 9532 3a37 2ab3 194b 3fb3
00000280: cb3a 86b8 a0a6 c6b7 6685 c537 6936 de37
00000290: ba99 b4b7 0c6e cbb4 65b2 4bb6 b128 65b6
000002a0: d35d 5434 7a07 fdb2 cd08 d3b4 7dc9 edb4
000002b0: 59bd 39bd 4a07 a1b7 a162 1eb9 16ac 31b9
000002c0: ac9e 12b8 c49c 20b7 f2ac f736 fb50 0b37
000002d0: c9e6 5e3c c482 7a37 53ad 9e39 c9bc b239
000002e0: 15f3 663c 2858 4938 dd7a c539 963d de39
000002f0: d46a 16bd a313 f1b6 dd35 28b9 7f6c 3db9
00000300: 04fd 43bd 52f8 8db8 f216 0eba ded9 1fba
00000310: 6646 8cbc 6ea3 dd36 ffec edb7 7fea 04b8
00000320: 1782 a13b aa6b 2f38 b990 6139 ada7 7d39
00000330: 12fa e638 f16f cab4 6a50 67b6 9b00 7db6
00000340: f8c3 f43b b896 7ab7 523a 1bb9 1bd5 2db9
00000350: ff7a 4635 c560 2a35 d603 00b5 2804 10b5
00000360: a9a8 24b8 72c0 74b7 f4b1 2138 e4e7 3538
00000370: b405 66bc 0bd8 0837 59b7 b737 e1bc cf37
00000380: ab5f c93c 0d36 3438 b4e2 b439 ff79 cb39
00000390: 459e 81bc c845 67b7 c1b3 e9b8 93de 02b9
000003a0: 804e a6ba fab8 d137 5e75 0439 1ffd 1439
000003b0: 393e 99bc 1027 a4b7 1808 2bb9 50fd 40b9
000003c0: f5bc b2bc c5cf 64b7 d4c5 5eb9 7863 7ab9
000003d0: 86e4 2234 7f75 47b1 8ca3 8934 767e 9a34
000003e0: d08c 3334 9f34 fd34 a301 7236 ec1f 8836
000003f0: 3ac6 feb7 1a4d 79b6 ea82 6138 4eb3 7d38

exp_avg_sq f4 [128, 4]
0.09067136 7.385394e-05 9.52593e-06 8.340852e-06 0.00057234307 0.000538709 6.187181e-05 2.7959659e-05
0.7977492 0.00057359814 0.00010222053 0.00012302614 0.0007272786 0.00055034994 5.6441982e-05 3.5508936e-05
0.00015305352 0.00012457484 1.7372275e-05 1.165689e-05 2.4863994 0.0018844007 0.000316438 0.0004461483
0.6294329 0.00022829887 6.696787e-05 9.827612e-05 0.0010792381 0.0006360723 6.41583e-05 3.9101764e-05
0.0004332066 0.00048733733 0.000102370694 7.0413604e-05 1.8975279 0.0020791183 0.00032466286 0.00036022672
0.00025510576 0.00034623686 3.8497066e-05 2.467126e-05 3.8880992 0.003247976 0.00055695436 0.00072857004
0.7244217 0.00084710534 0.000110435016 0.00012410151 0.0004522703 0.00023996041 2.9917195e-05 8.924045e-06
0.70970577 0.00039852702 7.100164e-05 7.638117e-05 0.07448992 0.00044890557 2.800809e-05 3.7587044e-05
0.00030509074 0.000864775 9.162344e-05 7.123141e-05 0.00048189698 0.00059877476 4.4444223e-05 2.8265773e-05
0.0016206565 0.0007833347 0.000105890096 5.558445e-05 0.0017243758 0.00086799863 0.000104254534 6.9833666e-05
0.42288294 0.0003283689 5.204511e-05 4.6086774e-05 0.00077637023 0.00076262775 7.082331e-05 3.1388663e-05
0.0001346429 0.00016819632 2.2674685e-05 1.586592e-05 0.00028453505 0.0003903346 4.7082107e-05 3.1100983e-05
0.00022689722 0.00023254921 3.2095748e-05 2.98714e-05 0.0007127623 0.00034741696 2.7935865e-05 1.2275296e-05
0.0005933008 0.00022683208 7.343602e-05 0.00012327971 0.0085755065 0.0005166514 5.2847536e-05 5.4466847e-05
1.0607477 0.000857461 0.00017828358 0.0001829626 5.158468e-05 5.3296862e-05 9.823543e-06 7.5818916e-06
0.54817677 0.00021443985 6.9922535e-05 9.9214914e-05 0.0004990316 0.0004077984 4.6712623e-05 3.0041145e-05
0.0008036729 0.0003775618 4.8233233e-05 2.6937898e-05 0.0030022457 0.002351051 0.00019266274 9.140899e-05
0.00047517274 0.00031997895 5.0895364e-05 3.06547e-05 0.85688967 0.0004464529 0.00011200315 0.00014957493
4.8093348 0.0021829924 0.0006353348 0.00082850823 0.28202188 0.00018815136 3.258816e-05 5.7164125e-05
0.0006480319 0.00040982675 4.3347984e-05 2.3615581e-05 0.00032599963 0.00017810236 3.157343e-05 3.7289978e-05
0.00039618366 0.00022275843 2.6415837e-05 1.0366764e-05 0.6404846 0.0012691144 0.00018558133 0.0001308245
0.00011140595 0.00021681495 2.4326822e-05 3.3386325e-05 5.916299 0.0023464286 0.00064157136 0.0007563348
0.0022330992 0.0010702086 9.851561e-05 3.199991e-05 3.3603354 0.001396422 0.00038172517 0.00044465787
3.1804972 0.0016005702 0.00043076137 0.00053695706 1.6415113 0.001669959 0.00019092613 0.0002158354
1.6126591 0.00039288506 0.00015505916 0.0002605358 1.061969 0.00042868758 0.0001172465 0.00016328931
0.8595953 0.00023359728 8.0633145e-05 0.000101286234 0.10778796 0.00014909709 2.9357308e-05 2.8680373e-05
0.39351228 0.001072247 0.000101770296 5.954952e-05 0.00071176677 0.0006584127 6.6697816e-05 3.4631714e-05
0.0004968196 0.00017927233 1.1653691e-05 1.0974091e-05 1.4674269 0.0004872676 0.000151669 0.00019142647
0.7424585 0.00051376043 0.00011658913 0.00016077748 1.634219 0.0012980286 0.00023358189 0.0002890763
1.4186693 0.002008692 0.00026018915 0.00023617152 1.4121891 0.0002556067 0.00013123368 0.00012333057
1.1044948 0.00054991647 0.000121723344 0.00017801282 0.0016451051 0.00076241017 8.52522e-05 4.2949254e-05
0.0016002014 0.0011707126 8.786969e-05 3.7450794e-05 0.0009168427 0.0005991193 5.522546e-05 2.848627e-05
00000000: e8b1 b93d 08e2 9a38 8fd1 1f37 b0ef 0b37
00000010: 4b09 163a 2638 0d3a 2dc1 8138 e98a ea37
00000020: 4b39 4c3f 855d 163a 3b5f d638 9400 0139
00000030: d7a6 3e3a 5c45 103a 1ebc 6c38 6eef 1438
00000040: fe7c 2039 4ea0 0239 adba 9137 f691 4337
00000050: 2b21 1f40 fffd f63a 97e7 a539 03e9 e939
00000060: 8422 213f 8363 6f39 1a71 8c38 9719 ce38
00000070: 3975 8d3a 17be 263a ba8c 8638 3301 2438
00000080: 0120 e339 4f81 ff39 d9af d638 04ab 9338
00000090: 32e2 f23f d141 083b 8337 aa39 d0dc bc39
000000a0: b7bf 8539 2087 b539 e977 2138 21f5 ce37
000000b0: 9ed6 7840 ffdb 543b 9300 123a 82fd 3e3a
000000c0: b373 393f 4710 5e3a 5999 e738 3f21 0239
000000d0: b11e ed39 e29d 7b39 b0f6 fa37 7bb8 1537
000000e0: 47af 353f 64f1 d039 b7e6 9438 d42e a038
000000f0: 2c8e 983d 165b eb39 eaf2 ea37 c8a6 1d38
00000100: 96f4 9f39 11b2 623a f625 c038 1262 9538
00000110: 1ea7 fc39 18f7 1c3a 9f69 3a38 491c ed37
00000120: 356c d43a b458 4d3a 5011 de38 5923 6938
00000130: 7304 e23a 678a 633a 3aa3 da38 aa73 9238
00000140: 1d84 d83e ed28 ac39 034b 5a38 4c4d 4138
00000150: 5385 4b3a 15eb 473a fa86 9438 52a7 0338
00000160: ee2e 0d39 db5d 3039 8435 be37 ce17 8537
00000170: a62d 9539 d3a5 cc39 077a 4538 6d72 0238
00000180: 42eb 6d39 74d8 7339 8c9e 0638 5894 fa37
00000190: abd8 3a3a 8425 b639 d057 ea37 fff1 4d37
000001a0: be87 1b3a c6d9 6d39 aa01 9a38 a544 0139
000001b0: 4880 0c3c e36f 073a 9ca8 5d38 5573 6438
000001c0: 95c6 873f 3cc7 603a a2f1 3a39 a6d9 3f39
000001d0: a15c 5838 128b 5f38 cccf 2437 f467 fe36
000001e0: 5055 0c3f 42db 6039 60a3 9238 9a11 d038
000001f0: 72d1 023a c6cd d539 4ced 4338 de00 fc37
00000200: 93ad 523a 7df3 c539 0a4e 4a38 b2f8 e137
00000210: 53c1 443b 1714 1a3b 8305 4a39 d4b2 bf38
00000220: 9b20 f939 d9c2 a739 7b78 5538 3c93 0038
00000230: 1f5d 5b3f e511 ea39 3ce3 ea38 37d7 1c39
00000240: 12e6 9940 8910 0f3b 998c 263a 3f30 593a
00000250: 2c65 903e 7f4a 4539 45af 0838 83c3 6f38
00000260: afe0 293a 04de d639 8bd0 3538 131a c637
00000270: eeea aa39 fdc0 3a39 b66d 0438 cf67 1c38
00000280: dfb6 cf39 4394 6939 9497 dd37 eaec 2d37
00000290: ccf6 233f 6a58 a63a 9c98 4239 ef2d 0939
000002a0: 9da2 e938 d258 6339 7411 cc37 4b08 0c38
000002b0: 5252 bd40 8ac6 193b 202f 283a c544 463a
000002c0: 3059 123b 3e46 8c3a 2a9a ce38 a437 0638
000002d0: bc0f 5740 2608 b73a 4922 c839 f820 e939
000002e0: 448d 4b40 39ca d13a d0d7 e139 94c2 0c3a
000002f0: 0b1d d23f 87e2 da3a 5833 4839 e051 6239
00000300: 9d6b ce3f 24fc cd39 6097 2239 8698 8839
00000310: 9aee 873f 79c1 e039 3ce2 f538 a438 2b39
00000320: 700e 5c3f cbf1 7439 9719 a938 a269 d438
00000330: efbf dc3d f256 1c39 5744 f637 a296 f037
00000340: 717a c93e a48a 8c3a 836d d538 cfc4 7938
00000350: dc95 3a3a 5499 2c3a 1ee0 8b38 8541 1138
00000360: 003d 023a 0dfb 3b39 3984 4337 5d1d 3837
00000370: a5d4 bb3f f377 ff39 5609 1f39 a7b9 4839
00000380: c311 3e3f e1ad 063a 5081 f438 6096 2839
00000390: 172e d13f 9d22 aa3a a9ed 7439 2a8f 9739
000003a0: f596 b53f 42a4 033b ff69 8839 cfa4 7739
000003b0: 9dc2 b43f f302 8639 c69b 0939 4c52 0139
000003c0: 1660 8d3f 4528 103a b945 ff38 f4a8 3a39
000003d0: 91a0 d73a 7bdc 473a 6dc9 b238 6924 3438
000003e0: d9bd d13a 9972 993a ae46 b838 7c14 1d38
000003f0: 4658 703a 370e 1d3a e3a1 6738 cdf5 ee37

exp_avg f4 [128]
-1.6443828e-05 -4.262281e-06 5.0620823e-05 3.9020647e-06 -2.4544735e-07 -3.1373555e-05 1.6498165e-05 -7.4965625e-09
-1.0532979e-06 6.273618e-05 -3.2325156e-06 -3.0575713e-06 -9.2705515e-05 4.3871587e-06 1.989808e-05 -2.8000635e-05
-1.5636061e-07 -1.6127066e-06 -4.0078766e-07 -5.5358274e-10 5.5083543e-05 7.9476486e-08 3.0657202e-06 -3.521547e-06
1.5989181e-06 -8.9438936e-07 -3.6292495e-06 9.811276e-07 3.6554426e-05 -7.204935e-06 4.8890015e-06 -4.6508003e-06
-5.517073e-08 -9.974063e-06 1.9424392e-06 -2.7523263e-05 -2.5568115e-05 -5.719772e-06 -1.03971715e-05 -4.9472986e-09
2.9433145e-06 -3.7941484e-07 -4.923463e-08 -1.8811323e-05 9.226542e-07 3.7893067e-05 4.7103487e-05 -2.0077743e-05
-6.7753725e-05 -3.5141288e-06 2.6875037e-05 -4.1546997e-07 -1.8395764e-05 -5.961129e-08 4.818848e-06 2.7555834e-06
4.312111e-05 -1.3849618e-05 1.5786592e-05 -2.046743e-05 -2.6525147e-05 3.195348e-08 4.507554e-07 6.720765e-06
-2.933797e-05 6.5375176e-09 -1.4589648e-06 -4.5232224e-05 -3.2903437e-05 -1.9112105e-05 5.3233594e-05 3.555025e-07
5.3819505e-05 4.0312225e-06 7.928012e-06 3.1162647e-06 -1.5850727e-06 -3.8251113e-05 2.7679165e-05 1.1966333e-05
-5.478763e-05 -1.0586349e-05 1.05786385e-05 -8.991211e-06 1.6831021e-06 -3.5551247e-07 8.346173e-10 -2.750498e-07
-9.770178e-06 8.586501e-07 1.8065829e-07 -6.807482e-05 -3.175109e-05 1.6000537e-05 1.2585574e-06 2.1245617e-06
6.500605e-05 9.289467e-09 3.7583315e-05 -5.4022053e-06 -1.1614702e-05 -9.596417e-08 1.5994358e-09 -1.0178149e-07
-8.432867e-05 -4.8503713e-05 -4.218011e-06 2.1769174e-05 -3.3307777e-05 -3.50053e-05 3.6817664e-07 -7.758065e-06
7.167403e-07 6.232671e-05 5.8500386e-06 1.6291268e-06 4.858171e-05 1.7671819e-06 2.3457665e-06 -8.580125e-06
-3.9644674e-05 2.4914732e-05 -1.2740234e-05 -9.189479e-06 4.3596854e-05 8.542033e-06 2.8562592e-06 2.054686e-05
00000000: daf0 89b7 b704 8fb6 b251 5438 7bee 8236
00000010: 07c6 83b4 1997 03b8 8a65 8a37 3bca 00b2
00000020: 0a5f 8db5 3b91 8338 32ee 58b6 ad30 4db6
00000030: e56a c2b8 6835 9336 cdea a637 e8e2 eab7
00000040: 14e4 27b4 2d74 d8b5 d62b d7b4 ec2a 18b0
00000050: 8109 6738 a9ac aa33 acbc 4d36 b753 6cb6
00000060: 689a d635 f815 70b5 088e 73b6 4aaf 8335
00000070: 0452 1938 ecc1 f1b6 340c a436 120e 9cb6
00000080: dcf4 6cb3 4656 27b7 da5a 0236 c2e1 e6b7
00000090: 1c7b d6b7 78ec bfb6 836f 2eb7 e6fc a9b1
000000a0: c285 4536 61b2 cbb4 0c76 53b3 02cd 9db7
000000b0: 50ac 7735 5fef 1e38 fc90 4538 a06c a8b7
000000c0: 0117 8eb8 46d4 6bb6 b471 e137 c20d dfb4
000000d0: 9a50 9ab7 a703 80b3 97b1 a136 90ec 3836
000000e0: f0dc 3438 a85b 68b7 736d 8437 79b1 abb7
000000f0: 5282 deb7 393d 0933 5aff f134 ef82 e136
00000100: d01a f6b7 9da0 e031 a6d1 c3b5 bbb7 3db8
00000110: cc01 0ab8 ef52 a0b7 2347 5f38 e4db be34
00000120: 41bc 6138 f043 8736 8d02 0537 0521 5136
00000130: afbe d4b5 d26f 20b8 8e30 e837 02c3 4837
00000140: c5cb 65b8 069c 31b7 e87a 3137 f5d8 16b7
00000150: f3e6 e135 43dd beb4 f96a 6530 8faa 93b4
00000160: 98ea 23b7 fc7d 6635 f9fa 4134 64c3 8eb8
00000170: 792c 05b8 e438 8637 b4eb a835 b193 0e36
00000180: db53 8838 8297 1f32 c7a2 1d38 9744 b5b6
00000190: c4dc 42b7 dc14 ceb3 25d3 db30 f792 dab3
000001a0: 9cd9 b0b8 7770 4bb8 7088 8db6 f29c b637
000001b0: f4b3 0bb8 a8d2 12b8 d0a9 c534 a328 02b7
000001c0: 0566 4035 66b5 8238 734b c436 5fa8 da35
000001d0: 37c4 4b38 e82f ed35 f66b 1d36 5bf3 0fb7
000001e0: 2548 26b8 fbff d037 e3be 55b7 832c 1ab7
000001f0: c4db 3638 c14f 0f37 29ae 3f36 0c5c ac37

exp_avg_sq f4 [128]
2.2134974e-07 1.4876182e-06 4.655029e-06 1.5165515e-06 4.321271e-07 1.2482389e-05 2.6209214e-06 1.6874035e-06
2.3287678e-06 1.2190305e-05 1.1166804e-06 1.9579385e-05 3.652909e-06 6.029181e-07 2.7979213e-06 1.0675573e-06
2.8873096e-06 1.3207919e-06 2.0050884e-06 2.3503549e-06 2.2880513e-06 1.7003634e-06 6.535862e-07 1.2250288e-06
1.0273892e-06 5.0142546e-07 2.415638e-06 2.0808495e-06 6.3306925e-06 2.2179171e-07 2.756998e-06 1.2049389e-06
1.1203986e-06 4.623019e-06 1.1564077e-06 4.57794e-06 2.180297e-05 1.5966622e-06 1.0126313e-06 8.7311207e-07
6.233005e-07 5.235811e-06 1.0356749e-06 1.9819317e-05 1.9086947e-06 1.3861026e-05 1.4825852e-05 6.484832e-06
5.396022e-06 4.537881e-06 2.491948e-06 9.1845413e-07 2.906284e-06 1.7765119e-06 2.4249513e-07 5.099917e-06
4.1436147e-06 8.535893e-06 8.540703e-06 3.221353e-06 4.290889e-06 1.7516703e-06 1.8104088e-06 1.5186346e-06
2.137056e-06 1.1149228e-06 1.1552497e-06 6.2035946e-07 7.0244027e-06 9.237739e-06 1.0514073e-06 2.7214155e-06
2.7077183e-05 2.7471165e-06 6.0601747e-07 1.1748554e-06 4.6732794e-07 1.8740611e-05 4.9503496e-06 3.3655547e-06
7.721318e-06 1.1695035e-06 3.949043e-07 4.8203765e-06 2.1935125e-06 4.4131884e-06 1.0971937e-06 1.983977e-07
1.4548057e-05 6.265322e-07 1.2213014e-06 1.7481236e-05 6.7396163e-06 8.302772e-06 1.9156098e-06 2.0356636e-07
9.929443e-06 1.7594829e-06 2.9637151e-06 1.8903237e-06 1.8137385e-06 6.1252126e-07 1.4070371e-06 1.8392602e-06
2.6462001e-05 5.8413657e-06 1.9029156e-07 1.49222005e-05 9.544996e-06 1.0428396e-05 1.8070542e-06 9.21871e-07
1.6663043e-05 7.093478e-07 5.063966e-07 4.7585206e-07 3.1626594e-05 1.4868424e-06 8.177321e-07 6.211209e-06
5.735187e-07 1.5135993e-06 2.0845157e-05 1.1628292e-05 1.0213596e-05 2.0482216e-06 4.933104e-07 5.0693666e-06
00000000: 27ac 6d34 2caa c735 6532 9c36 508c cb35
00000010: 19ff e734 746b 5137 16e3 2f36 be7a e235
00000020: ed47 1c36 f684 4c37 d9e0 9535 693e a437
00000030: 8024 7536 37d8 2135 ecc3 3b36 fd48 8f35
00000040: 9ac3 4136 1046 b135 288f 0636 caba 1d36
00000050: 6c8c 1936 0b38 e435 1a72 2f35 ab6b a435
00000060: d3e4 8935 b299 0635 581c 2236 b9a4 0b36
00000070: 3c6c d436 a425 6e34 dd04 3936 63b9 a135
00000080: 9a60 9635 6e1f 9b36 de35 9b35 359c 9936
00000090: 86e5 b637 e54c d635 bfe9 8735 ce5f 6a35
000000a0: e250 2735 46af af36 8501 8b35 a941 a637
000000b0: 2017 0036 a78c 6837 8dbc 7837 4898 d936
000000c0: 7a0f b536 1a44 9836 573b 2736 b08b 7635
000000d0: 9409 4336 7c70 ee35 4730 8234 f41f ab36
000000e0: 6109 8b36 6235 0f37 0a4a 0f37 6c2e 5836
000000f0: 75fa 8f36 ef1a eb35 2cfd f235 e3d3 cb35
00000100: 586a 0f36 75a4 9535 140e 9b35 c786 2635
00000110: 29b3 eb36 c9fb 1a37 141e 8d35 90a1 3636
00000120: cf23 e337 1a5b 3836 34ad 2235 b9af 9d35
00000130: 10e5 fa34 2835 9d37 2e1b a636 cadb 6136
00000140: cf8a 0137 d6f7 9c35 3c03 d434 b8be a136
00000150: 4234 1336 0015 9436 4a43 9335 2507 5534
00000160: 6e13 7437 f72e 2835 99eb a335 aba4 9237
00000170: dd24 e236 224c 0b37 ed8d 0036 e593 5a34
00000180: a296 2637 5f27 ec35 3de4 4636 07b7 fd35
00000190: 956f f335 246c 2435 6dd9 bc35 80dc f635
000001a0: b7fa dd37 f300 c436 f252 4c34 5d5a 7a37
000001b0: 7223 2037 9ff5 2e37 e989 f235 7e76 7735
000001c0: 9dc7 8b37 026a 3e35 4fef 0735 9c78 ff34
000001d0: cca6 0438 848f c735 1f82 5b35 e169 d036
000001e0: e8f3 1935 e026 cb35 a2dc ae37 2217 4337
000001f0: 105b 2b37 2e74 0936 086c 0435 8719 aa36
