old_ppo/PoI/PoI-640.pt (torch, 514533 bytes, 36 tensors)

network_body._body_endoder.seq_layers.0.weight f4 [128, 29]
0	0xbcacc522	-0.021090094
1	0xbdd29d39	-0.10283894
2	0xbe5e1cb2	-0.21690634
3	0xbd97d905	-0.0741444
4	0x3e1e7262	0.15473321
5	0x3df7b0e8	0.12094289
6	0x3e640d00	0.22270584
7	0x3e427a04	0.18991858
8	0x3eb7a35f	0.3586683
9	0x3dffb2c0	0.12485266
10	0xbc645a1f	-0.013937502
11	0xbf117b6d	-0.5682896
12	0x3da9caa3	0.08290603
13	0xbc8d9502	-0.017282967
14	0x3eb5da1e	0.35517973
15	0x3dc81460	0.09769511
16	0xbe49a1eb	-0.19690673
17	0x3e48b5bd	0.19600578
18	0x3cf5e320	0.030015528
19	0x3e943d67	0.28953096
20	0x3eabc9ed	0.33552495
21	0xbdfa07a3	-0.12208488
22	0xbcc58283	-0.024110084
23	0xbdc51329	-0.09622795
24	0x3e2191f8	0.15778339
25	0xbe1ec437	-0.15504538
26	0xbe0cdb0a	-0.13755432
27	0x3e020348	0.12696564
28	0xbe815959	-0.2526348
29	0x3d46051a	0.04834471
30	0x3d981ff1	0.07427967
31	0x3e02aedc	0.12762016
32	0xbe2758c6	-0.16342458
33	0xbe9f26e1	-0.3108435
34	0xbde5c281	-0.11218739
35	0xbde0415b	-0.109499656
36	0xbd36d1cc	-0.04463367
37	0x3e7dac66	0.24772796
38	0x3e18cb98	0.14921415
39	0x3d466f45	0.04844596
40	0xbe550a10	-0.2080462
41	0xbcbee61c	-0.023303084
42	0x3d0a8b7d	0.033824433
43	0x3e4367bc	0.1908254
44	0xbe4d2add	-0.20035882
45	0xbcd8cfc4	-0.026466258
46	0xbd8cca3b	-0.0687451
47	0x3d0622ea	0.03274814
48	0xbe3a32a2	-0.18183377
49	0x3d8803fa	0.066413835
50	0xbe6a43d7	-0.22877441
51	0xbe4c722f	-0.19965433
52	0x3ddda72e	0.108229026
53	0x3dc3107a	0.09524627
54	0x3cb5c44f	0.022188334
55	0xbd8840d7	-0.06652992
56	0x3dc4f75e	0.09617494
57	0xbab8e7e2	-0.0014107192
58	0xbe2c649e	-0.16835257
59	0x3ca59fc0	0.020217776
60	0x3e4d743e	0.20063874
61	0xbd58882a	-0.05286423
62	0x3da10031	0.07861365
63	0x3e16579e	0.14681861
64	0xbd5b08d3	-0.053475212
65	0x3da1e534	0.07905045
66	0xbe0f9ccc	-0.14024657
67	0x3e0b9569	0.13631214
68	0x3dd40ee5	0.103544034
69	0x3d0af56a	0.03392545
70	0x3ca82d4f	0.020529417
71	0x3c4fba41	0.012678684
72	0x3e5efb34	0.21775514
73	0xbe893241	-0.26796153
74	0x3e21f63d	0.15816589
75	0xbd789caa	-0.06069628
76	0x3d7238d6	0.059136234
77	0x3d90b0d6	0.07064979
78	0x3e80d4c2	0.2516232
79	0xbe0dbf0e	-0.13842413
80	0xbd9f7a96	-0.07787053
81	0xbe1a9739	-0.1509675
82	0x3e396903	0.18106465
83	0x3d713abc	0.058893904
84	0x3e8b12a9	0.27162674
85	0x3e672794	0.22573692
86	0xbe921869	-0.28534248
87	0xbe5fc06c	-0.21850747
88	0x3da5d20f	0.08096706
89	0xbe8c618e	-0.27418178
90	0x3e7eee3e	0.2489557
91	0xbec12dd5	-0.3773028
92	0x3e6313ea	0.22175565
93	0xbdda8a30	-0.106708884
94	0x3eaa5a1e	0.3327188
95	0xbe576bca	-0.21037212
96	0xbcc43b31	-0.023954006
97	0xbda6d273	-0.08145609
98	0x3d829e26	0.06377821
99	0xbcd598ff	-0.02607393
100	0xbd5c9ee0	-0.053862453
101	0x3e5773bc	0.21040243
102	0x3d88c0fc	0.06677434
103	0xbdd53bc9	-0.10411794
104	0xbdfa3d27	-0.12218695
105	0x3ea1af32	0.31578976
106	0x3c209da8	0.009803213
107	0xbe0a01b3	-0.1347721
108	0xbe2b9f79	-0.16760053
109	0x3c7f06e9	0.015565612
110	0xbe280302	-0.16407397
111	0xbe5f35a2	-0.21797803
112	0xbdecea40	-0.11568117
113	0x3e65e3de	0.22450206
114	0xbb8b9033	-0.0042591332
115	0x3ee26694	0.44218886
116	0x3e7317f9	0.23739614
117	0x3e9c3fa9	0.3051732
118	0xbef556dc	-0.4791783
119	0xbe06da96	-0.13169321
120	0x3cb3819d	0.02191239
121	0xbd19f75b	-0.037589412
122	0x3e916061	0.28393844
123	0xbda22051	-0.0791632
124	0x3d9654bb	0.0734038
125	0x3df35f23	0.1188338
126	0x3a152b89	0.0005690386
127	0xbe1d75fa	-0.15377036
128	0x3dd70d88	0.10500628
129	0x3c8aba6a	0.016934592
130	0x3ca7d6ae	0.02048811
131	0xbe70d522	-0.23518804
132	0xbe1decb9	-0.15422334
133	0x3d025076	0.031815015
134	0x3e86ad86	0.26304263
135	0x3df5280b	0.11970528
136	0x3e71a49e	0.23597953
137	0xbd7ad0fe	-0.061234467
138	0x3d6059a8	0.054773003
139	0xbe245acb	-0.1605026
140	0x3d32cd05	0.043652553
141	0x3d954685	0.07288841
142	0x3de82146	0.113344714
143	0x3c78678c	0.015161406
144	0xbe0449b2	-0.12918738
145	0x3e312703	0.17300038
146	0xbda89ce5	-0.0823305
147	0x3caa6a78	0.020802721
148	0x3e492a4d	0.19645043
149	0xbc068a63	-0.008211705
150	0x3d38936b	0.045062464
151	0x3cb922ca	0.022599597
152	0xbec52077	-0.3850133
153	0x3ee53a62	0.44771105
154	0xbe4e9c14	-0.20176727
155	0x3e45bb78	0.19309795
156	0xbe3166e4	-0.17324406
157	0x3e001f82	0.1251202
158	0xbd640446	-0.055668138
159	0xbdaa7465	-0.08322982
160	0xbe3c5ec9	-0.18395533
161	0x3c84cfc0	0.016212344
162	0x3e1d8d7e	0.15386006
163	0xbeb277c6	-0.34857005
164	0x3d971953	0.07377877
165	0xbdb6673e	-0.08906411
166	0x3df7d27a	0.12100692
167	0x3d622a5c	0.05521618
168	0xbe5465f2	-0.20742014
169	0x3d2ec3c6	0.042667173
170	0x3e4e1ac2	0.20127395
171	0xbec38f91	-0.3819547
172	0xbcdf4beb	-0.02725788
173	0x3e1b4ddb	0.15166418
174	0x3e89424a	0.26808387
175	0xbe20e11c	-0.15710872
176	0x3ceec0bc	0.029144637
177	0xbe934160	-0.28760815
178	0x3ea0a3fb	0.31375107
179	0x3e99f9f7	0.3007352
180	0x3cd42d69	0.02590056
181	0x3d3ab97a	0.04558704
182	0x3ddeeb36	0.10884707
183	0xbe7af8af	-0.24508928
184	0xbd9f37c5	-0.07774309
185	0xbd9e6c1f	-0.07735466
186	0x3eb88976	0.36042374
187	0xbe2f3e10	-0.17113519
188	0x3eafe63d	0.34355345
189	0xbda5ddef	-0.08098971
190	0xbd981a94	-0.074269444
191	0x3eaf330b	0.3421863
192	0xbd8b0319	-0.067877
193	0x3b84f31e	0.004057302
194	0xbe9dcc28	-0.3081982
195	0xbeec438c	-0.46145284
196	0x3e3fc5e7	0.18727838
197	0xbd8e691a	-0.0695364
198	0xbde6a2f8	-0.112615526
199	0xbd83749c	-0.06418726
200	0xbddcdcf3	-0.1078433
201	0x3da7ca1f	0.081928484
202	0x3da55de6	0.0807455
203	0xbe2b6f02	-0.16741565
204	0x3df72ed0	0.12069476
205	0xbddf4433	-0.1090168
206	0xbe4a1ef8	-0.19738376
207	0xbdf7d5b2	-0.12101306
208	0x3e50bd22	0.20384648
209	0x3e6cdc86	0.23130998
210	0x3d563932	0.05230064
211	0x3aceda5a	0.0015781627
212	0xbe41f662	-0.18941644
213	0xbdfedb43	-0.124441646
214	0x3e40edce	0.18840715
215	0x3d6f80e9	0.058472548
216	0xbe8b1373	-0.27163276
217	0xbc940825	-0.01807029
218	0x3e3963d9	0.18104495
219	0xbd7f0959	-0.062264774
220	0x3e6cac4c	0.23112601
221	0x3d8c4cbc	0.068505734
222	0xbe657f5a	-0.22411862
223	0x3e4374dd	0.19087549
224	0x3d410101	0.047120098
225	0xbe43e4c7	-0.1913024
226	0x3d5c2fd3	0.053756546
227	0x3d4ac25b	0.049501758
228	0xbdded7ac	-0.1088098
229	0xbc1d8322	-0.009613784
230	0x3e4b3358	0.19843805
231	0x3b83a092	0.004016944
232	0x3dd8e01c	0.105896205
233	0x3bc05809	0.0058698696
234	0x3dba6ad5	0.09102408
235	0xbe7281ae	-0.23682281
236	0x3e86e74f	0.2634835
237	0xbdc0c237	-0.094120435
238	0x3ed1519c	0.40882576
239	0x3d38c875	0.045113046
240	0x3cee5115	0.029091397
241	0x3e243546	0.16035947
242	0xba6e671f	-0.0009094346
243	0x3e75fbdc	0.24021858
244	0xbb4bf20e	-0.0031119618
245	0x3e800329	0.2500241
246	0x3ea01b6f	0.3127093
247	0xbda48f84	-0.08035186
248	0xbd897779	-0.06712241
249	0x3d835cad	0.06414161
250	0xbd51a977	-0.051187005
251	0x3e2f5927	0.17123853
252	0x3dc7711d	0.097383715
253	0xbf1b8801	-0.607544
254	0x3e361517	0.17781483
255	0xbe361a14	-0.17783386

network_body._body_endoder.seq_layers.0.bias f4 [128]
0	0x39c49c5c	0.0003750053
1	0xbb8ca0e9	-0.004291643
2	0xba6994bf	-0.00089104095
3	0xbb6737db	-0.0035281095
4	0xbb1af8ce	-0.0023646834
5	0xbb81956b	-0.0039545796
6	0x3b8dedbb	0.004331318
7	0x39ee58eb	0.00045461147
8	0xbb53f21e	-0.0032340358
9	0x399e0c7a	0.00030145404
10	0x3a5bd28f	0.00083855627
11	0x3ac72ef1	0.0015196485
12	0xb9b41d85	-0.0003435427
13	0xbab46fba	-0.0013766207
14	0x3a20a9ed	0.00061288365
15	0xbae12780	-0.001717791
16	0xbb13c16f	-0.0022545715
17	0x3a7a3540	0.0009544678
18	0x3af94fec	0.0019021011
19	0x3bbc938e	0.0057548946
20	0xbb2efd71	-0.0026701356
21	0x3b14834d	0.002266127
22	0x39d63027	0.00040853137
23	0x3b5d51c6	0.0033770665
24	0xba393a6e	-0.00070658966
25	0x3a7963f1	0.00095134886
26	0x3b3bdc45	0.0028665226
27	0xbbb2c7b5	-0.005455936
28	0x3964f7f1	0.0002183614
29	0x3b9a3a2f	0.004706643
30	0xb922b074	-0.00015515258
31	0x3b4930cd	0.0030699254
32	0xb9849e5a	-0.00025294983
33	0xbb880f4b	-0.0041522137
34	0xbb330452	-0.0027315808
35	0x3b109120	0.0022059157
36	0x3b62f1f5	0.003462908
37	0x3a1ea5fc	0.0006051955
38	0xbb0beb89	-0.0021350107
39	0x3a9c3908	0.0011918852
40	0xba0206ac	-0.00049601006
41	0xbba26635	-0.0049560317
42	0xb9c3b96f	-0.00037331457
43	0xba633cb0	-0.0008668406
44	0x3b441daa	0.0029924908
45	0xbbc98c0e	-0.006150729
46	0xbb7ae34c	-0.0038282452
47	0x3a29948e	0.0006468975
48	0xbb3e209e	-0.002901114
49	0x3bba4dda	0.00568555
50	0x3bb4a829	0.0055132103
51	0x3a5b50dc	0.0008366236
52	0xbb8c303d	-0.0042782114
53	0xba9f618c	-0.0012159809
54	0x39aa1393	0.0003243951
55	0xbb29714d	-0.0025854886
56	0xba9da0e4	-0.0012026099
57	0xbb4c19b7	-0.0031143257
58	0xbb78604c	-0.0037899194
59	0xbb921c4a	-0.0044589387
60	0xb9ac0242	-0.0003280808
61	0xb88af97f	-6.626825e-05
62	0xba1c200e	-0.0005955704
63	0xbb621210	-0.003449563
64	0xbb0839aa	-0.0020786324
65	0x394d6e9b	0.00019591527
66	0xba4deb4a	-0.000785519
67	0x3b869850	0.0041075125
68	0xbb2b3fe4	-0.002613061
69	0x3bdac173	0.006675893
70	0x39e160aa	0.00042987365
71	0xbb7a7fa6	-0.0038223057
72	0xbac327f8	-0.0014889231
73	0xb9ab8666	-0.00032715796
74	0x3b8af082	0.0042400965
75	0xbace5a4e	-0.0015743466
76	0xbbae19eb	-0.0053131483
77	0xbb1c6d25	-0.0023868766
78	0xba3d0fd6	-0.00072121376
79	0x398d2910	0.0002692421
80	0x3b3ef0c9	0.0029135218
81	0x39b6aa90	0.00034840824
82	0x3886e499	6.4321976e-05
83	0x39e2be67	0.0004324794
84	0x3a3cfa2f	0.0007208911
85	0xbacde43f	-0.0015708281
86	0xbb11d620	-0.0022252873
87	0xbad4e8cc	-0.0016243695
88	0x3b8b43d1	0.0042500277
89	0x3aa796ae	0.0012785995
90	0x3b4e0ac9	0.0031439534
91	0xbbbfb6bb	-0.0058506406
92	0x3b33caa2	0.002743401
93	0xbae360f6	-0.0017347622
94	0x3b01476b	0.0019726406
95	0x3b74a2f6	0.0037328578
96	0xbbe49122	-0.006975309
97	0xbb457172	-0.0030127433
98	0xbab0cba0	-0.0013488419
99	0x3b89b272	0.0042021805
100	0x38752776	5.8449303e-05
101	0xbbf80a2e	-0.007569573
102	0xbaa69b11	-0.0012711008
103	0xb960a1bc	-0.00021422555
104	0xba230bc5	-0.00062197103
105	0x3b0894e8	0.0020840708
106	0xbacc1419	-0.0015569954
107	0xbafad0a9	-0.0019135672
108	0xbbe2204b	-0.0069008223
109	0x3b44092f	0.00299127
110	0x3a7ba891	0.00096000085
111	0x3abe5421	0.0014520922
112	0x39cd01f1	0.00039102093
113	0xbb834485	-0.004005971
114	0xba238d97	-0.0006239055
115	0xbb2dab65	-0.0026499864
116	0xbba339d0	-0.004981257
117	0x3b7b16df	0.0038313193
118	0x39a7637f	0.00031926853
119	0x39994c0e	0.000292391
120	0x3a48598b	0.00076427375
121	0x3b87dd43	0.0041462495
122	0x3ada9d1a	0.00166789
123	0x3bb36e6d	0.0054758103
124	0x3a970325	0.0011521323
125	0xba7e902d	-0.0009710815
126	0xba8856f3	-0.001040189
127	0xb9eba867	-0.00044948162

network_body._body_endoder.seq_layers.2.weight f4 [128, 128]
0	0xb8943185	-7.066414e-05
1	0xbd5411b2	-0.051774688
2	0xbdfcf362	-0.12351109
3	0xbd0f4644	-0.03497912
4	0xbdb48a3d	-0.08815429
5	0xbc49074b	-0.012269805
6	0x3d2611d0	0.04054433
7	0x3d661d76	0.05618044
8	0xbc8a0548	-0.016848221
9	0x3dd741ed	0.10510621
10	0xbcf97b2d	-0.030454243
11	0x3d53dbbe	0.051723234
12	0xbd42506a	-0.04743997
13	0xbded3c13	-0.11583724
14	0x3d65d522	0.056111462
15	0x3d26632c	0.04062192
16	0x3e26d56a	0.16292349
17	0xbe1861c1	-0.1488104
18	0xbda9d28f	-0.08292114
19	0xbd8f015b	-0.069826804
20	0x3d746127	0.059662964
21	0x3bc6bdd9	0.006065112
22	0xbd88c588	-0.06678301
23	0xbcc9a3a7	-0.024614168
24	0xbd9f295c	-0.077715605
25	0xbdab95e8	-0.08378202
26	0xbc4718a4	-0.012151871
27	0x3c6771a7	0.014126218
28	0x3d2f0ed7	0.04273876
29	0x3e0d2a4b	0.13785665
30	0xbbeb7255	-0.0071852603
31	0x3d84ae7f	0.06478595
32	0xbe49ae81	-0.19695474
33	0x3dacdd4d	0.08440647
34	0x3e0833f9	0.13301076
35	0xbbe5ebf8	-0.007016655
36	0xbdd2a361	-0.10285068
37	0xbc355cc2	-0.0110694785
38	0x3dc0108e	0.093781576
39	0x3ca1899d	0.01971894
40	0x3dba0a5b	0.090840064
41	0xbdd98250	-0.10620558
42	0xbba7315c	-0.0051023196
43	0x3d11ccfb	0.035595875
44	0x3d4b6571	0.04965729
45	0x3ddcc81b	0.107803546
46	0xbdc4a8db	-0.09602519
47	0x3d808068	0.062744915
48	0xbdc627e2	-0.09675576
49	0xbd78a369	-0.060702715
50	0x3dd7da79	0.10539717
51	0xbbe134bc	-0.0068727415
52	0xbd0d486d	-0.0344929
53	0xbe8bb7c4	-0.2728864
54	0x3da1f23a	0.07907529
55	0x3e2b4010	0.16723657
56	0x3d47a5f5	0.048742253
57	0xbde1379c	-0.10996935
58	0x3db99c01	0.090629585
59	0x3d10f65c	0.035391197
60	0xbe5bdcea	-0.21470991
61	0xbd65489c	-0.05597745
62	0x3cdbb90a	0.026821632
63	0xbcce1f37	-0.025161369
64	0x3da15d35	0.07879106
65	0xbe3c1a69	-0.1836945
66	0xbd2a950e	-0.041646056
67	0xbc075321	-0.008259566
68	0xbc9fc3e1	-0.019502582
69	0xbb9979ba	-0.0046837004
70	0xbd0ded07	-0.034649875
71	0xbe50e135	-0.2039841
72	0xbd20b3f1	-0.039234105
73	0xba6ba049	-0.0008988423
74	0xbd75b4fa	-0.059987046
75	0x3dbe2a33	0.092853926
76	0xbc79ba80	-0.015242219
77	0xbda22ad7	-0.07918327
78	0xbcf919be	-0.030407783
79	0xbdb16e53	-0.08663621
80	0x3e28fd08	0.16502774
81	0xbdcc1de9	-0.099666424
82	0x3dd51f2f	0.104063384
83	0x3ca46227	0.020066334
84	0x3e911ddc	0.28343093
85	0x3e05c1f2	0.13062266
86	0xbb3b0d5f	-0.0028541905
87	0x3c8e864b	0.01739802
88	0xbe0029a3	-0.12515883
89	0x3d37886d	0.04480784
90	0x3e094dcc	0.13408583
91	0xbd52b283	-0.051439773
92	0x3d390bd9	0.045177314
93	0xbde51fd0	-0.111877084
94	0xba55ccc1	-0.0008155816
95	0x3de78d7a	0.113062814
96	0xbdbed43c	-0.09317824
97	0xbcfa7087	-0.030571235
98	0x3ce8d833	0.028423404
99	0xbd92619f	-0.07147526
100	0x3e00671d	0.12539335
101	0x3e0a0bbf	0.13481043
102	0x3d910838	0.07081646
103	0xbd0cbb05	-0.034358043
104	0xbd42f276	-0.04759451
105	0xbe0a3d52	-0.13499954
106	0x3d1063e6	0.03525152
107	0x3d167c10	0.03673941
108	0x3dbacba1	0.091208704
109	0xbd8bca3e	-0.06825684
110	0xbd6ee539	-0.058324073
111	0xbcae10dd	-0.021248275
112	0x3e11d035	0.14239581
113	0xbc10cc9e	-0.008837847
114	0xbcc1cd99	-0.023657607
115	0x3d074287	0.03302243
116	0x3e08c079	0.13354672
117	0xbde4c45b	-0.11170264
118	0x3dc5418b	0.09631642
119	0x3dbf534f	0.09342062
120	0x3e0d7a77	0.13816248
121	0xbb58d2f6	-0.0033084727
122	0x3dbff46e	0.09372793
123	0x3d812e77	0.063076906
124	0x3d2e4126	0.0425426
125	0xbd4233e4	-0.047412768
126	0x3e6d8c0b	0.23197953
127	0xbe212105	-0.15735252
128	0x3d7fb2f6	0.06242653
129	0x3e1e41f0	0.1545484
130	0x3cda0484	0.026613481
131	0xbdb4139a	-0.08792801
132	0x3d4b0406	0.049564384
133	0x3e0753d5	0.13215573
134	0x3e473895	0.19455178
135	0xbd50ddad	-0.050992656
136	0x3da0f101	0.07858468
137	0xbc82efd2	-0.015983496
138	0x3b938a7b	0.004502592
139	0xbcef18a1	-0.029186549
140	0x3d47572e	0.048667125
141	0x3d1eb83f	0.03874993
142	0xbcb4c8d2	-0.022068415
143	0xbe25cea6	-0.16192111
144	0xbcdbfa81	-0.026852848
145	0x3db3c526	0.087778375
146	0xbe06507d	-0.13116641
147	0xbd3e1736	-0.046408854
148	0x3e36bb1d	0.17844816
149	0x3e0a2a48	0.13492692
150	0xbd8216ad	-0.06351981
151	0xbd8244dc	-0.0636079
152	0x3d9aa051	0.07550109
153	0xbc915966	-0.017742824
154	0xbdfb8023	-0.122802995
155	0x3e136250	0.14392972
156	0x3d1395c1	0.03603149
157	0x3d012e40	0.031538248
158	0x3ca02e87	0.019553436
159	0xbd1b2891	-0.037880484
160	0x3c08bc0f	0.008345618
161	0x3d8b3663	0.06797483
162	0xbda048ac	-0.07826361
163	0x3d94720a	0.07248314
164	0xbd9832e5	-0.07431582
165	0xbe2789b7	-0.16361128
166	0x3e1d13ee	0.15339634
167	0x3dc4d0cd	0.09610138
168	0xbcf89308	-0.030343547
169	0xbd974fc7	-0.07388263
170	0x3cabe83a	0.020984758
171	0xbdc2d948	-0.09514099
172	0x3cd4454b	0.025911948
173	0xbdbde21a	-0.09271641
174	0x3d9937f6	0.07481377
175	0xbd1e5003	-0.038650524
176	0xbdcf7533	-0.10129776
177	0xbd8f513f	-0.06997918
178	0x3e7246ef	0.23659872
179	0xbd6e5eba	-0.058195807
180	0x3c904991	0.017613204
181	0xbd6211d2	-0.055192776
182	0x3e17f265	0.1483856
183	0xbd8ad949	-0.06779725
184	0xbe137846	-0.1440135
185	0xbe047f90	-0.12939286
186	0x3d4fc61b	0.050726037
187	0xbd282278	-0.041048497
188	0x3dba1346	0.09085707
189	0x3e0b3281	0.13593484
190	0xbc66cb5b	-0.01408657
191	0x3dacc9de	0.084369406
192	0x3cf8ce48	0.0303718
193	0x3c962ac9	0.018330948
194	0x3d3685be	0.04456114
195	0xbc8c0548	-0.017092362
196	0xbde0a305	-0.109685935
197	0xbd6f1b77	-0.058375802
198	0xbdadcd9f	-0.08486485
199	0xbe00c8e5	-0.12576635
200	0x3db7d1c1	0.08975554
201	0x3c3fc0d5	0.01170369
202	0x3d063b4d	0.032771397
203	0xbd41bd35	-0.047299583
204	0x3e006aec	0.12540787
205	0xbe49b0ef	-0.19696401
206	0x3d53ed36	0.051739894
207	0x3de52957	0.111895256
208	0xbb3d2ac1	-0.0028864595
209	0xbdb3c6ba	-0.087781385
210	0x3c8e3343	0.017358428
211	0x3c7e78a8	0.015531696
212	0xbd01411b	-0.03155623
213	0x3c1193cf	0.008885338
214	0x3c1dac7c	0.009623643
215	0x3e1586de	0.14602229
216	0x3e3ef6a8	0.1864878
217	0xbda39fb2	-0.07989444
218	0x3bb3d0a4	0.0054875184
219	0xbd73c738	-0.05951616
220	0x3e140a32	0.14457014
221	0x3d6ab03e	0.057296984
222	0x3d171478	0.036884755
223	0xbd9d24c1	-0.07673026
224	0x3e5f3f32	0.21801451
225	0xbd85c9f6	-0.065326616
226	0xbd8dfb73	-0.06932726
227	0x3debc555	0.115122475
228	0x3d7676f4	0.060172036
229	0x3da85895	0.08220021
230	0x3dbf02e2	0.09326722
231	0x3d9407f7	0.07228082
232	0x3d3aadfc	0.04557608
233	0xbc44d03e	-0.012012539
234	0xbe0dd4c5	-0.13850696
235	0xbbf604bd	-0.007507889
236	0x3d63c390	0.055606425
237	0x3d21fb46	0.039546274
238	0xbdbb25f9	-0.09138102
239	0x3d19884a	0.03748349
240	0x3d9b3790	0.07578957
241	0xbd5db4b5	-0.054127414
242	0xbcc263de	-0.023729261
243	0x3d795f67	0.060882
244	0x3df61220	0.12015176
245	0x3df4a44b	0.11945399
246	0xbddf68d3	-0.109086655
247	0xbd4ac19c	-0.049501047
248	0x3d8e6d34	0.069544226
249	0xbd36ff65	-0.044677157
250	0xbd99b473	-0.07505121
251	0x3e37c07e	0.17944524
252	0xbacf5835	-0.0015819134
253	0x3d34d6e4	0.04415025
254	0xbd947e2c	-0.07250628
255	0xbdb5fd93	-0.08886256

network_body._body_endoder.seq_layers.2.bias f4 [128]
0	0x3b4e06e1	0.0031437206
1	0xba396d90	-0.0007073516
2	0xb9b691a1	-0.00034822247
3	0xba71c5e8	-0.0009222911
4	0xbb8c049d	-0.004273011
5	0xba351e89	-0.0006909152
6	0xbb86c092	-0.0041123116
7	0xb9785b16	-0.00023685055
8	0xbab1f6f3	-0.0013577625
9	0x3b1b661f	0.0023711992
10	0x3a9a0c9f	0.0011753029
11	0x3ad3b646	0.0016152344
12	0x3afb016c	0.0019150204
13	0x3b819891	0.003954955
14	0x3a34ceea	0.00068972877
15	0xbaad835d	-0.0013238002
16	0x37c2d2e9	2.3224815e-05
17	0x3b5e6974	0.0033937367
18	0xbaa04b1a	-0.0012229413
19	0x3b3f7851	0.0029216001
20	0x3b8cca8f	0.004296608
21	0x3b1d8493	0.002403532
22	0x3ab93801	0.001413107
23	0x3a6265b6	0.0008636372
24	0xbaf5f050	-0.0018763635
25	0x39c43a29	0.00037427366
26	0x3b867989	0.0041038436
27	0xba9755f6	-0.0011546004
28	0xb89c42fe	-7.451138e-05
29	0xbb9081d7	-0.0044100094
30	0x3b6b771e	0.0035929154
31	0xbb78fd8c	-0.0037992923
32	0x3a7c304b	0.00096202333
33	0x3a8d8f2d	0.0010800116
34	0xba7e985f	-0.0009712036
35	0xba226e20	-0.00061962195
36	0xb9c70968	-0.00037963246
37	0x3a47f49d	0.0007627698
38	0xbab044fd	-0.0013448294
39	0xbbbc6d0a	-0.005750303
40	0x3b104b65	0.0022017595
41	0x389c52ed	7.454106e-05
42	0xbb19d6b0	-0.002347391
43	0x3b10b9f3	0.002208349
44	0xba8ba3ff	-0.0010653733
45	0xb80ea07c	-3.40049e-05
46	0x3bab7419	0.005232346
47	0xbb14f725	-0.0022730317
48	0x3bca381a	0.0061712386
49	0xbb3d2c8a	-0.0028865659
50	0xb9ba276d	-0.0003550606
51	0x3abdc683	0.0014478717
52	0xba6249fa	-0.0008632239
53	0x3b10ead4	0.0022112625
54	0xbb069705	-0.0020536792
55	0x3b0ddfdb	0.002164832
56	0xbb77acbe	-0.0037792171
57	0xbb08b474	-0.0020859512
58	0x3a997579	0.0011707983
59	0x3accb0e6	0.0015616685
60	0x398e1f28	0.00027107564
61	0x3b36c567	0.0027888657
62	0xbb70381a	-0.0036654533
63	0x3b833b4d	0.004004872
64	0x3aba9862	0.0014236087
65	0xb870b161	-5.7385656e-05
66	0xbb7a491c	-0.003819055
67	0x3a0eeb19	0.00054519024
68	0x3a4ac5d5	0.0007735168
69	0x3b25d8db	0.0025306258
70	0xbaa1826f	-0.0012322197
71	0xbba3b237	-0.00499561
72	0x3b33ded7	0.0027446055
73	0x3b87146b	0.004122307
74	0xbad760f1	-0.0016432089
75	0xbb0d044f	-0.002151746
76	0xb97116c1	-0.00022992028
77	0xbb757178	-0.0037451666
78	0xb9a5c861	-0.00031620546
79	0x398c3629	0.00026743233
80	0xba9667bf	-0.001147501
81	0x37e4156b	2.7189692e-05
82	0xba847769	-0.0010106388
83	0x3a2d3c66	0.00066084263
84	0x3b4adc8c	0.003095421
85	0xbb715d0c	-0.0036829142
86	0x3a02ccd6	0.00049896294
87	0xbc0f19f5	-0.008734216
88	0xbb350509	-0.002762141
89	0x3b1784aa	0.0023119845
90	0xba84e897	-0.0010140118
91	0x3b7f0ce8	0.0038917605
92	0x3a816e39	0.0009874768
93	0x3a25c2cf	0.0006323279
94	0xbb5fb25e	-0.0034133415
95	0xbb588faa	-0.0033044615
96	0xba3f3ec9	-0.00072954275
97	0x3b565c87	0.003270896
98	0x3a804e0f	0.0009788888
99	0xbb0f5ec2	-0.0021876548
100	0x3b525fc3	0.0032100535
101	0xba36a8b5	-0.00069678883
102	0xbaef030b	-0.001823516
103	0xb9eb5dd0	-0.0004489259
104	0x3addb5a1	0.0016915092
105	0x39e251ee	0.00043167121
106	0xbaeb246d	-0.0017939933
107	0x3a61b206	0.00086095964
108	0xbb00636d	-0.0019590512
109	0xbb9a73b8	-0.004713502
110	0xba945f7c	-0.001131996
111	0xbb6c8d7f	-0.003609508
112	0x3a1e26ab	0.00060329837
113	0x387beb95	6.0062466e-05
114	0x3b57182d	0.0032820806
115	0xbb21c97e	-0.002468675
116	0xbace55b6	-0.0015742097
117	0xbb81513f	-0.003946453
118	0x3ad761c6	0.0016432337
119	0xba1090f7	-0.00055147655
120	0xbb3829d1	-0.0028101096
121	0x3bd5de57	0.006526749
122	0xba6fea7a	-0.0009152066
123	0x3b97a97c	0.0046283584
124	0xbb13b4d2	-0.0022538197
125	0xbb3fe4e7	-0.0029280724
126	0x3b734798	0.003712153
127	0x39f52ec0	0.00046764873

action_model._continuous_distribution.log_sigma f4 [1, 4]
0	0xbb2004c4	-0.0024416903
1	0x3abb1043	0.0014271814
2	0x3bae53dd	0.005320056
3	0xb9b6ce6e	-0.00034867547

action_model._continuous_distribution.mu.weight f4 [4, 128]
0	0x3c1d4d5b	0.0096009625
1	0xbb203456	-0.0024445257
2	0x3bbb616a	0.0057184
3	0x3b0f954c	0.0021909056
4	0xbc23c246	-0.009995049
5	0xbc86d224	-0.016457625
6	0xbcbf5d13	-0.023359811
7	0xbc907cb4	-0.017637588
8	0xbc014631	-0.00789027
9	0xbd21be53	-0.039488148
10	0xbc882c2c	-0.016622625
11	0x3a9a1a6e	0.0011757144
12	0xbd391df8	-0.045194596
13	0xbb1c0501	-0.0023806693
14	0xbcb37c3d	-0.021909827
15	0xbc3d2ab5	-0.011545827
16	0x3d0ff5f7	0.03514668
17	0x3cfd6885	0.030933628
18	0xbc4bed39	-0.012446695
19	0x3ca27c12	0.019834552
20	0x3a93dfcc	0.0011281907
21	0x3d2faa59	0.042887066
22	0x3cbdff61	0.023193063
23	0xbc0334de	-0.00800821
24	0xbce2c976	-0.027683955
25	0x3ca3cec6	0.019996058
26	0x3c48d1fa	0.012257094
27	0x3c89963f	0.016795276
28	0x3cb865c3	0.022509461
29	0xbcedc713	-0.02902559
30	0x3c63cc88	0.0139037445
31	0x3bee49cb	0.0072719804
32	0xbc83051d	-0.01599365
33	0x3c3de281	0.011589647
34	0xbc7c1775	-0.015386452
35	0x3c3991dc	0.0113262795
36	0xbce3b604	-0.027796753
37	0x3d25a02b	0.04043595
38	0xbb9b2294	-0.0047343466
39	0xbc58330c	-0.013195764
40	0x3bdb0475	0.006683881
41	0x3c931594	0.017954625
42	0xbbb07a54	-0.0053856764
43	0xbcdf3196	-0.027245324
44	0x3c77d388	0.015126117
45	0x3bcbf33d	0.0062240646
46	0x3c266ad4	0.010157306
47	0x3a52379c	0.00080191507
48	0xbc0685f3	-0.008210647
49	0xbbd35cf1	-0.0064502885
50	0xbc23dab0	-0.01000087
51	0x3b3bce91	0.0028657059
52	0x3cd8e64a	0.026476998
53	0x3c285156	0.010273298
54	0xbc6d3d18	-0.014479898
55	0xbc52567b	-0.012838001
56	0xbcab4446	-0.020906579
57	0x3c075e1a	0.008262182
58	0x3c44958d	0.011998546
59	0xbcd10629	-0.025515633
60	0xbc1ddcb4	-0.009635139
61	0x3c21d9a9	0.009878554
62	0xbc7a3cc8	-0.01527328
63	0xbc5a06e2	-0.013307305
64	0x3c475b0f	0.012167706
65	0x3d16bc46	0.036800645
66	0xbc2dd082	-0.010608794
67	0x3c3148cb	0.010820578
68	0xbbef9e99	-0.0073126075
69	0x3c9ae5d0	0.018908411
70	0x3bf96067	0.007610369
71	0x3c531724	0.012883935
72	0x3be5f20a	0.0070173787
73	0x3b90b49c	0.0044160616
74	0xbb13c6c4	-0.0022548893
75	0x3be66a1f	0.0070316936
76	0x3cc74723	0.024325913
77	0xbc0339dc	-0.0080094
78	0xbb288dc8	-0.0025719274
79	0x3c7ef827	0.015562094
80	0xbc233a24	-0.009962592
81	0x3c30cddf	0.010791271
82	0x3be0c4fc	0.00685942
83	0xbc93f91a	-0.018063117
84	0x3d171d75	0.036893327
85	0xbc88cf65	-0.016700456
86	0x3c47fdd4	0.012206513
87	0xbb8d8c23	-0.004319684
88	0x3c296ce0	0.010340899
89	0x3c17d93a	0.009268099
90	0x3c0fd3f6	0.008778563
91	0x3c145f40	0.0090559125
92	0x3c1c9e35	0.009559204
93	0xbcff3bb5	-0.0311564
94	0xbb9753c0	-0.004618138
95	0xbbe54c8f	-0.006997652
96	0xbabcd6fc	-0.0014407332
97	0x3c48e638	0.01226192
98	0x3d18284d	0.03714781
99	0x3c1268e8	0.008936144
100	0x3d037aa8	0.032099396
101	0x3cd7acbd	0.026327485
102	0x3cae5182	0.0212791
103	0xbb573d47	-0.003284292
104	0xbc7aec18	-0.015315078
105	0xbd11c8f7	-0.035592046
106	0xbc38d7a7	-0.011281884
107	0x3c61404b	0.013748239
108	0xbc93d317	-0.018044991
109	0xbccc817a	-0.024964083
110	0xbd216c04	-0.039409652
111	0x3c263137	0.01014357
112	0xbcb05d38	-0.021528825
113	0xbcb7029a	-0.022340108
114	0x3c23481c	0.009965923
115	0xbcbf2bb8	-0.023336276
116	0xbb1d5d5d	-0.0024011948
117	0xba8e6308	-0.0010863254
118	0x3b01dcb6	0.0019815392
119	0x3c0f1e9b	0.008735324
120	0xbc932306	-0.017961036
121	0x3bece4f3	0.0072294413
122	0x39d8d5d2	0.0004135804
123	0x3c871c89	0.016493099
124	0xbbc99361	-0.006151602
125	0xbd227a2e	-0.0396673
126	0x3a18e205	0.00058320194
127	0xbbb54047	-0.005531344
128	0xb93b7059	-0.00017875562
129	0x3b68cd9e	0.0035522948
130	0xbb902e72	-0.004400068
131	0xbd126a91	-0.03574616
132	0x3c5cf0be	0.013485132
133	0xbc2a77aa	-0.010404507
134	0xb981048b	-0.00024608182
135	0x3c9e4b87	0.019323124
136	0xbbda7184	-0.006666364
137	0xbc92ee16	-0.017935794
138	0x3b1560b5	0.0022793238
139	0x3c4e3382	0.012585523
140	0x3cacb76d	0.021083558
141	0xbc8ca17e	-0.01716685
142	0xbc97a4f7	-0.018511279
143	0x3c99118e	0.018685129
144	0xbbafbde1	-0.0053632115
145	0xbccab328	-0.024743631
146	0x3b97e918	0.0046359412
147	0x3c7b9794	0.015355963
148	0xbc871613	-0.016490018
149	0xbcd2a70d	-0.025714422
150	0xbc223d5a	-0.009902323
151	0x3ced6fcf	0.028983979
152	0xbc0155ca	-0.007893989
153	0x3cab97c4	0.02094639
154	0x3c595619	0.013265156
155	0xbc011213	-0.007877844
156	0xbc63a45d	-0.013894168
157	0x3c9e57fb	0.019329062
158	0xb9abec54	-0.0003279174
159	0xbcf01c27	-0.0293103
160	0x3c511a85	0.01276267
161	0xbb6a15aa	-0.003571848
162	0xbbee9c61	-0.0072818254
163	0xbcad2d1a	-0.02113967
164	0xbbc8c427	-0.006126899
165	0x3b6ea803	0.003641606
166	0x3d4cca78	0.049997777
167	0x3c9e13d8	0.019296572
168	0xbcaee945	-0.021351466
169	0xbc735c8a	-0.014853606
170	0xbc85eee1	-0.016349258
171	0x3a8df2ad	0.0010829769
172	0x3c5b6549	0.0133908475
173	0x3c6ce38e	0.01445855
174	0xba9f26af	-0.0012142266
175	0xbb116360	-0.0022184476
176	0xbb483480	-0.003054887
177	0xbbe133a2	-0.00687261
178	0x3c783545	0.015149419
179	0x3c5efa81	0.0136095295
180	0x3b75d3b7	0.0037510225
181	0x3be6f51b	0.007048262
182	0xbc3766a6	-0.011193907
183	0xbc1f9e5b	-0.009742345
184	0xbae4d61b	-0.0017458828
185	0xbbffe573	-0.007809335
186	0xbcdca26d	-0.02693292
187	0xbcff41c8	-0.031159297
188	0x3a836d11	0.0010027011
189	0x3ca7317b	0.020409336
190	0x3c0f02a7	0.00872866
191	0xbcc451b3	-0.023964738
192	0x3c906d00	0.0176301
193	0xbc428983	-0.011873606
194	0x3bf784ee	0.0075536883
195	0xbbfa5eaf	-0.0076406817
196	0x3b3b1825	0.0028548327
197	0x3cf72f94	0.030174054
198	0xbcc4a3ea	-0.024003942
199	0x3c293302	0.010327103
200	0x3c98c1bc	0.018647067
201	0xbce24547	-0.027620925
202	0x3c6884ab	0.014191787
203	0x3c3a525b	0.011372174
204	0x3cbaedd3	0.022818482
205	0xba6da35a	-0.0009065174
206	0x3ce1cc59	0.02756326
207	0xbce8109b	-0.02832823
208	0x3c88887b	0.016666641
209	0x3aeace5b	0.0017914282
210	0x3caea2fe	0.021317955
211	0x3cff2e73	0.031150078
212	0xbb7dd65c	-0.0038732504
213	0xbbbfe45f	-0.0058560814
214	0xbc77b154	-0.015117962
215	0x3c98a0d0	0.018631369
216	0xbc5a261a	-0.013314748
217	0xbcaf7124	-0.021416254
218	0x3ca326aa	0.019915897
219	0xbcacbd5b	-0.021086385
220	0x3b80d52e	0.003931663
221	0x3c7f8cc5	0.015597527
222	0xbc316446	-0.01082713
223	0xbc75a1c8	-0.014992185
224	0x3b470d62	0.0030372967
225	0xbcf9facb	-0.030515095
226	0xbc8d57c0	-0.017253757
227	0x3cd57f82	0.026061777
228	0x3cd9fdeb	0.026610335
229	0xbc027bc2	-0.0079640765
230	0x3cbee0bc	0.023300521
231	0x3cf3233a	0.029679883
232	0x3cdc0128	0.02685602
233	0x3a943698	0.0011307774
234	0x3cac7f90	0.02105692
235	0x3c161583	0.009160402
236	0x3a83307a	0.0010008954
237	0xbc1a42e2	-0.00941536
238	0xbc0cfaea	-0.008604744
239	0xba4b2e4c	-0.0007750734
240	0xbce1143c	-0.027475469
241	0x3cc495b1	0.02399716
242	0xbd19779c	-0.037467584
243	0x3c29e0a8	0.010368504
244	0xba33170a	-0.0006831741
245	0xbc33fc34	-0.010985423
246	0xbcb17f08	-0.021667019
247	0xbc941fc2	-0.01808155
248	0xbcae5505	-0.021280775
249	0xbcc3c454	-0.023897327
250	0x3b8129a9	0.003941734
251	0xbae83c52	-0.0017718172
252	0xbce5c0d4	-0.02804605
253	0x3cf360de	0.029709276
254	0xbc63075f	-0.013856738
255	0xbbc10e1a	-0.0058915736

action_model._continuous_distribution.mu.bias f4 [4]
0	0x3b0d6f47	0.002158122
1	0xba6c9f3d	-0.0009026414
2	0x3b2004fa	0.0024417029
3	0x3ae513de	0.0017477234

exp_avg f4 [128, 29]
0	0xb3bad793	-8.700513e-08
1	0xb2910515	-1.6882533e-08
2	0x31648a79	3.325708e-09
3	0x31648a79	3.325708e-09
4	0x00000000	0.0
5	0x00000000	0.0
6	0x00000000	0.0
7	0x00000000	0.0
8	0x00000000	0.0
9	0x00000000	0.0
10	0x00000000	0.0
11	0x00000000	0.0
12	0x00000000	0.0
13	0x00000000	0.0
14	0x00000000	0.0
15	0x00000000	0.0
16	0x00000000	0.0
17	0x00000000	0.0
18	0x00000000	0.0
19	0x00000000	0.0
20	0x00000000	0.0
21	0x00000000	0.0
22	0x00000000	0.0
23	0x00000000	0.0
24	0x00000000	0.0
25	0x00000000	0.0
26	0x00000000	0.0
27	0x00000000	0.0
28	0x00000000	0.0
29	0x3af8723e	0.0018954945
30	0x3b7190be	0.0036859955
31	0x3773f557	1.4541051e-05
32	0x3773f557	1.4541051e-05
33	0x00000000	0.0
34	0x00000000	0.0
35	0x00000000	0.0
36	0x00000000	0.0
37	0x00000000	0.0
38	0x00000000	0.0
39	0x00000000	0.0
40	0x00000000	0.0
41	0x00000000	0.0
42	0x00000000	0.0
43	0x00000000	0.0
44	0x00000000	0.0
45	0x00000000	0.0
46	0x00000000	0.0
47	0x00000000	0.0
48	0x00000000	0.0
49	0x00000000	0.0
50	0x00000000	0.0
51	0x00000000	0.0
52	0x00000000	0.0
53	0x00000000	0.0
54	0x00000000	0.0
55	0x00000000	0.0
56	0x00000000	0.0
57	0x00000000	0.0
58	0x31222d07	2.3599698e-09
59	0xb21d84bc	-9.168783e-09
60	0x310cc8b6	2.0486772e-09
61	0x310cc8b6	2.0486772e-09
62	0x00000000	0.0
63	0x00000000	0.0
64	0x00000000	0.0
65	0x00000000	0.0
66	0x00000000	0.0
67	0x00000000	0.0
68	0x00000000	0.0
69	0x00000000	0.0
70	0x00000000	0.0
71	0x00000000	0.0
72	0x00000000	0.0
73	0x00000000	0.0
74	0x00000000	0.0
75	0x00000000	0.0
76	0x00000000	0.0
77	0x00000000	0.0
78	0x00000000	0.0
79	0x00000000	0.0
80	0x00000000	0.0
81	0x00000000	0.0
82	0x00000000	0.0
83	0x00000000	0.0
84	0x00000000	0.0
85	0x00000000	0.0
86	0x00000000	0.0
87	0xb327373c	-3.8932953e-08
88	0xb37f2965	-5.9409462e-08
89	0x32047897	7.71083e-09
90	0x32047897	7.71083e-09
91	0x00000000	0.0
92	0x00000000	0.0
93	0x00000000	0.0
94	0x00000000	0.0
95	0x00000000	0.0
96	0x00000000	0.0
97	0x00000000	0.0
98	0x00000000	0.0
99	0x00000000	0.0
100	0x00000000	0.0
101	0x00000000	0.0
102	0x00000000	0.0
103	0x00000000	0.0
104	0x00000000	0.0
105	0x00000000	0.0
106	0x00000000	0.0
107	0x00000000	0.0
108	0x00000000	0.0
109	0x00000000	0.0
110	0x00000000	0.0
111	0x00000000	0.0
112	0x00000000	0.0
113	0x00000000	0.0
114	0x00000000	0.0
115	0x00000000	0.0
116	0x3be22683	0.0069015636
117	0x3c672296	0.014107367
118	0x385ed165	5.312394e-05
119	0x385ed165	5.312394e-05
120	0x00000000	0.0
121	0x00000000	0.0
122	0x00000000	0.0
123	0x00000000	0.0
124	0x00000000	0.0
125	0x00000000	0.0
126	0x00000000	0.0
127	0x00000000	0.0
128	0x00000000	0.0
129	0x00000000	0.0
130	0x00000000	0.0
131	0x00000000	0.0
132	0x00000000	0.0
133	0x00000000	0.0
134	0x00000000	0.0
135	0x00000000	0.0
136	0x00000000	0.0
137	0x00000000	0.0
138	0x00000000	0.0
139	0x00000000	0.0
140	0x00000000	0.0
141	0x00000000	0.0
142	0x00000000	0.0
143	0x00000000	0.0
144	0x00000000	0.0
145	0x39d5c493	0.00040772985
146	0x3a37e8a9	0.0007015565
147	0x3685ee66	3.991462e-06
148	0x3685ee66	3.991462e-06
149	0x00000000	0.0
150	0x00000000	0.0
151	0x00000000	0.0
152	0x00000000	0.0
153	0x00000000	0.0
154	0x00000000	0.0
155	0x00000000	0.0
156	0x00000000	0.0
157	0x00000000	0.0
158	0x00000000	0.0
159	0x00000000	0.0
160	0x00000000	0.0
161	0x00000000	0.0
162	0x00000000	0.0
163	0x00000000	0.0
164	0x00000000	0.0
165	0x00000000	0.0
166	0x00000000	0.0
167	0x00000000	0.0
168	0x00000000	0.0
169	0x00000000	0.0
170	0x00000000	0.0
171	0x00000000	0.0
172	0x00000000	0.0
173	0x00000000	0.0
174	0xb98f5611	-0.0002733921
175	0x395a1c4b	0.0002080064
176	0xb690e161	-4.317772e-06
177	0xb690e161	-4.317772e-06
178	0x00000000	0.0
179	0x00000000	0.0
180	0x00000000	0.0
181	0x00000000	0.0
182	0x00000000	0.0
183	0x00000000	0.0
184	0x00000000	0.0
185	0x00000000	0.0
186	0x00000000	0.0
187	0x00000000	0.0
188	0x00000000	0.0
189	0x00000000	0.0
190	0x00000000	0.0
191	0x00000000	0.0
192	0x00000000	0.0
193	0x00000000	0.0
194	0x00000000	0.0
195	0x00000000	0.0
196	0x00000000	0.0
197	0x00000000	0.0
198	0x00000000	0.0
199	0x00000000	0.0
200	0x00000000	0.0
201	0x00000000	0.0
202	0x00000000	0.0
203	0x3af08177	0.001834913
204	0x3b89621f	0.004192605
205	0x37693caa	1.3902007e-05
206	0x37693caa	1.3902007e-05
207	0x00000000	0.0
208	0x00000000	0.0
209	0x00000000	0.0
210	0x00000000	0.0
211	0x00000000	0.0
212	0x00000000	0.0
213	0x00000000	0.0
214	0x00000000	0.0
215	0x00000000	0.0
216	0x00000000	0.0
217	0x00000000	0.0
218	0x00000000	0.0
219	0x00000000	0.0
220	0x00000000	0.0
221	0x00000000	0.0
222	0x00000000	0.0
223	0x00000000	0.0
224	0x00000000	0.0
225	0x00000000	0.0
226	0x00000000	0.0
227	0x00000000	0.0
228	0x00000000	0.0
229	0x00000000	0.0
230	0x00000000	0.0
231	0x00000000	0.0
232	0x3b02537d	0.0019886189
233	0x3b59cc74	0.0033233436
234	0x377c7b74	1.5049114e-05
235	0x377c7b74	1.5049114e-05
236	0x00000000	0.0
237	0x00000000	0.0
238	0x00000000	0.0
239	0x00000000	0.0
240	0x00000000	0.0
241	0x00000000	0.0
242	0x00000000	0.0
243	0x00000000	0.0
244	0x00000000	0.0
245	0x00000000	0.0
246	0x00000000	0.0
247	0x00000000	0.0
248	0x00000000	0.0
249	0x00000000	0.0
250	0x00000000	0.0
251	0x00000000	0.0
252	0x00000000	0.0
253	0x00000000	0.0
254	0x00000000	0.0
255	0x00000000	0.0

exp_avg_sq f4 [128, 29]
0	0x38cb895e	9.705381e-05
1	0x39212dc9	0.00015371213
2	0x3653cb5f	3.1559828e-06
3	0x3653cb5f	3.1559828e-06
4	0x00000000	0.0
5	0x00000000	0.0
6	0x00000000	0.0
7	0x00000000	0.0
8	0x00000000	0.0
9	0x00000000	0.0
10	0x00000000	0.0
11	0x00000000	0.0
12	0x00000000	0.0
13	0x00000000	0.0
14	0x00000000	0.0
15	0x00000000	0.0
16	0x00000000	0.0
17	0x00000000	0.0
18	0x00000000	0.0
19	0x00000000	0.0
20	0x00000000	0.0
21	0x00000000	0.0
22	0x00000000	0.0
23	0x00000000	0.0
24	0x00000000	0.0
25	0x00000000	0.0
26	0x00000000	0.0
27	0x00000000	0.0
28	0x00000000	0.0
29	0x3b8caa7f	0.0042927857
30	0x3b66bf6f	0.0035209318
31	0x3538a66b	6.878751e-07
32	0x3538a66b	6.878751e-07
33	0x00000000	0.0
34	0x00000000	0.0
35	0x00000000	0.0
36	0x00000000	0.0
37	0x00000000	0.0
38	0x00000000	0.0
39	0x00000000	0.0
40	0x00000000	0.0
41	0x00000000	0.0
42	0x00000000	0.0
43	0x00000000	0.0
44	0x00000000	0.0
45	0x00000000	0.0
46	0x00000000	0.0
47	0x00000000	0.0
48	0x00000000	0.0
49	0x00000000	0.0
50	0x00000000	0.0
51	0x00000000	0.0
52	0x00000000	0.0
53	0x00000000	0.0
54	0x00000000	0.0
55	0x00000000	0.0
56	0x00000000	0.0
57	0x00000000	0.0
58	0x37392880	1.1036289e-05
59	0x377a9a92	1.493715e-05
60	0x354e4651	7.6843304e-07
61	0x354e4651	7.6843304e-07
62	0x00000000	0.0
63	0x00000000	0.0
64	0x00000000	0.0
65	0x00000000	0.0
66	0x00000000	0.0
67	0x00000000	0.0
68	0x00000000	0.0
69	0x00000000	0.0
70	0x00000000	0.0
71	0x00000000	0.0
72	0x00000000	0.0
73	0x00000000	0.0
74	0x00000000	0.0
75	0x00000000	0.0
76	0x00000000	0.0
77	0x00000000	0.0
78	0x00000000	0.0
79	0x00000000	0.0
80	0x00000000	0.0
81	0x00000000	0.0
82	0x00000000	0.0
83	0x00000000	0.0
84	0x00000000	0.0
85	0x00000000	0.0
86	0x00000000	0.0
87	0x3845f73b	4.719871e-05
88	0x38846eb0	6.314868e-05
89	0x361187d1	2.168574e-06
90	0x361187d1	2.168574e-06
91	0x00000000	0.0
92	0x00000000	0.0
93	0x00000000	0.0
94	0x00000000	0.0
95	0x00000000	0.0
96	0x00000000	0.0
97	0x00000000	0.0
98	0x00000000	0.0
99	0x00000000	0.0
100	0x00000000	0.0
101	0x00000000	0.0
102	0x00000000	0.0
103	0x00000000	0.0
104	0x00000000	0.0
105	0x00000000	0.0
106	0x00000000	0.0
107	0x00000000	0.0
108	0x00000000	0.0
109	0x00000000	0.0
110	0x00000000	0.0
111	0x00000000	0.0
112	0x00000000	0.0
113	0x00000000	0.0
114	0x00000000	0.0
115	0x00000000	0.0
116	0x3d85ebf5	0.06539146
117	0x3d01991b	0.031640153
118	0x375a6f7b	1.3019769e-05
119	0x375a6f7b	1.3019769e-05
120	0x00000000	0.0
121	0x00000000	0.0
122	0x00000000	0.0
123	0x00000000	0.0
124	0x00000000	0.0
125	0x00000000	0.0
126	0x00000000	0.0
127	0x00000000	0.0
128	0x00000000	0.0
129	0x00000000	0.0
130	0x00000000	0.0
131	0x00000000	0.0
132	0x00000000	0.0
133	0x00000000	0.0
134	0x00000000	0.0
135	0x00000000	0.0
136	0x00000000	0.0
137	0x00000000	0.0
138	0x00000000	0.0
139	0x00000000	0.0
140	0x00000000	0.0
141	0x00000000	0.0
142	0x00000000	0.0
143	0x00000000	0.0
144	0x00000000	0.0
145	0x3d9f5c60	0.07781291
146	0x3cbad8c4	0.02280844
147	0x37ac6349	2.0550231e-05
148	0x37ac6349	2.0550231e-05
149	0x00000000	0.0
150	0x00000000	0.0
151	0x00000000	0.0
152	0x00000000	0.0
153	0x00000000	0.0
154	0x00000000	0.0
155	0x00000000	0.0
156	0x00000000	0.0
157	0x00000000	0.0
158	0x00000000	0.0
159	0x00000000	0.0
160	0x00000000	0.0
161	0x00000000	0.0
162	0x00000000	0.0
163	0x00000000	0.0
164	0x00000000	0.0
165	0x00000000	0.0
166	0x00000000	0.0
167	0x00000000	0.0
168	0x00000000	0.0
169	0x00000000	0.0
170	0x00000000	0.0
171	0x00000000	0.0
172	0x00000000	0.0
173	0x00000000	0.0
174	0x3ec20dac	0.37901056
175	0x3dbd2797	0.09236067
176	0x3899ad28	7.3278614e-05
177	0x3899ad28	7.3278614e-05
178	0x00000000	0.0
179	0x00000000	0.0
180	0x00000000	0.0
181	0x00000000	0.0
182	0x00000000	0.0
183	0x00000000	0.0
184	0x00000000	0.0
185	0x00000000	0.0
186	0x00000000	0.0
187	0x00000000	0.0
188	0x00000000	0.0
189	0x00000000	0.0
190	0x00000000	0.0
191	0x00000000	0.0
192	0x00000000	0.0
193	0x00000000	0.0
194	0x00000000	0.0
195	0x00000000	0.0
196	0x00000000	0.0
197	0x00000000	0.0
198	0x00000000	0.0
199	0x00000000	0.0
200	0x00000000	0.0
201	0x00000000	0.0
202	0x00000000	0.0
203	0x3b33b1fa	0.0027419315
204	0x3c3fabc4	0.011698667
205	0x35409695	7.17447e-07
206	0x35409695	7.17447e-07
207	0x00000000	0.0
208	0x00000000	0.0
209	0x00000000	0.0
210	0x00000000	0.0
211	0x00000000	0.0
212	0x00000000	0.0
213	0x00000000	0.0
214	0x00000000	0.0
215	0x00000000	0.0
216	0x00000000	0.0
217	0x00000000	0.0
218	0x00000000	0.0
219	0x00000000	0.0
220	0x00000000	0.0
221	0x00000000	0.0
222	0x00000000	0.0
223	0x00000000	0.0
224	0x00000000	0.0
225	0x00000000	0.0
226	0x00000000	0.0
227	0x00000000	0.0
228	0x00000000	0.0
229	0x00000000	0.0
230	0x00000000	0.0
231	0x00000000	0.0
232	0x3c94beab	0.018157324
233	0x3c1af0dc	0.009456839
234	0x36082bc5	2.0291056e-06
235	0x36082bc5	2.0291056e-06
236	0x00000000	0.0
237	0x00000000	0.0
238	0x00000000	0.0
239	0x00000000	0.0
240	0x00000000	0.0
241	0x00000000	0.0
242	0x00000000	0.0
243	0x00000000	0.0
244	0x00000000	0.0
245	0x00000000	0.0
246	0x00000000	0.0
247	0x00000000	0.0
248	0x00000000	0.0
249	0x00000000	0.0
250	0x00000000	0.0
251	0x00000000	0.0
252	0x00000000	0.0
253	0x00000000	0.0
254	0x00000000	0.0
255	0x00000000	0.0

exp_avg f4 [128]
0	0x3036d521	6.651409e-10
1	0x36432aac	2.9082103e-06
2	0x2fe1412a	4.0973563e-10
3	0x30d3f425	1.5421661e-09
4	0x3732411b	1.0624785e-05
5	0x35564a3f	7.9829255e-07
6	0xb567cefe	-8.635542e-07
7	0x363a96ee	2.7804012e-06
8	0x3649fc64	3.0098245e-06
9	0xaee4c5a7	-1.040335e-10
10	0xb509e2a6	-5.1366294e-07
11	0x361bb8af	2.32043e-06
12	0x30067ad0	4.8923443e-10
13	0xb49675d1	-2.80254e-07
14	0xb6a86416	-5.0184417e-06
15	0x3686c357	4.0162518e-06
16	0xb6eda611	-7.082483e-06
17	0x3672db90	3.6188612e-06
18	0xb0843cde	-9.621564e-10
19	0xb555e3d9	-7.9680245e-07
20	0x3590ed26	1.0797855e-06
21	0xb065891c	-8.350456e-10
22	0xb72b6a1c	-1.02171e-05
23	0xb5f32e05	-1.8118304e-06
24	0x314c9c03	2.977459e-09
25	0xb715befc	-8.925559e-06
26	0xb73ab66c	-1.1128937e-05
27	0x37185b32	9.081139e-06
28	0xb10636ec	-1.9530786e-09
29	0x35144a20	5.524216e-07
30	0xae304ad6	-4.0084235e-11
31	0xb1d07772	-6.067176e-09
32	0xb165ca8c	-3.343902e-09
33	0x37075bef	8.068032e-06
34	0x3735931f	1.0822695e-05
35	0xb6383ed6	-2.7454712e-06
36	0xb70cb0ee	-8.385845e-06
37	0x30f0eda0	1.7529835e-09
38	0xafcbb058	-3.7050785e-10
39	0xb109d34c	-2.0056232e-09
40	0xb03a1ce8	-6.7707484e-10
41	0x36f9d2ad	7.445304e-06
42	0x3698b2f6	4.550787e-06
43	0x319d05c8	4.5699586e-09
44	0xb514b2ec	-5.539466e-07
45	0x370a5027	8.244103e-06
46	0xb690423a	-4.299244e-06
47	0xb0ddbfcb	-1.6134377e-09
48	0x3104d7f7	1.933129e-09
49	0x358d4cb5	1.0527643e-06
50	0xb13118f9	-2.5771085e-09
51	0xb0cf0326	-1.5062127e-09
52	0xb6da6a08	-6.50925e-06
53	0x36b68c31	5.440343e-06
54	0xb5d42447	-1.5805789e-06
55	0xb66d6f74	-3.5380626e-06
56	0xb739f6e2	-1.1084341e-05
57	0x35dd5295	1.6489818e-06
58	0x37087d84	8.135456e-06
59	0x36953ee3	4.447867e-06
60	0x3641a726	2.8856534e-06
61	0x30c5350d	1.4348714e-09
62	0x3238a4d4	1.0747687e-08
63	0xb6df8896	-6.6618186e-06
64	0xb01c999a	-5.697075e-10
65	0xb6ec041f	-7.033828e-06
66	0xb0e355b9	-1.6540788e-09
67	0xb4bc16a9	-3.5034216e-07
68	0x324dc3d6	1.1977098e-08
69	0xb76be891	-1.406124e-05
70	0x327f1511	1.48477435e-08
71	0x3550d249	7.7792043e-07
72	0x370e04dc	8.464991e-06
73	0x338b4374	6.4849615e-08
74	0xb0af408e	-1.2751273e-09
75	0x311e7553	2.3058717e-09
76	0x312d7d88	2.524617e-09
77	0x3133a15c	2.613965e-09
78	0x2f343b01	1.6391867e-10
79	0xb4186dc9	-1.4196043e-07
80	0x3630ba21	2.6334385e-06
81	0x312fd0cd	2.5584541e-09
82	0xb6ee2dd0	-7.098286e-06
83	0xb1d12f0a	-6.0880483e-09
84	0xb18c028b	-4.0748254e-09
85	0x36120efa	2.1764413e-06
86	0xb63df9d8	-2.8308623e-06
87	0x3680ba47	3.836383e-06
88	0xb53a41a2	-6.938591e-07
89	0xaff4dfc5	-4.454234e-10
90	0xb6c387b5	-5.8272512e-06
91	0xb6edeab1	-7.090472e-06
92	0xb545494a	-7.349487e-07
93	0xb63dae68	-2.8264712e-06
94	0xb7222ac4	-9.66591e-06
95	0xaf808046	-2.3374208e-10
96	0x373abe5e	1.1130787e-05
97	0x366373e1	3.3893086e-06
98	0x30ee961d	1.7359444e-09
99	0xb716e307	-8.993556e-06
100	0xb6bc76d6	-5.616671e-06
101	0x35571fd4	8.014006e-07
102	0xb734684a	-1.0753118e-05
103	0xb6900f61	-4.2933248e-06
104	0x2fc814ee	3.639466e-10
105	0xb518aa71	-5.687244e-07
106	0x30aba25d	1.2488034e-09
107	0xb41de5e6	-1.4705401e-07
108	0x36d1f0d1	6.25672e-06
109	0xb628666d	-2.509357e-06
110	0xb1245c9a	-2.3917779e-09
111	0xb71d4642	-9.374287e-06
112	0xb179ae7c	-3.6333452e-09
113	0x36b89f35	5.5021615e-06
114	0x30e0a354	1.6344566e-09
115	0x33c87dc6	9.336104e-08
116	0x307d9225	9.224855e-10
117	0xb70e7842	-8.491859e-06
118	0xb1cdf665	-5.994297e-09
119	0xb14cf61a	-2.98258e-09
120	0x36f083ed	7.1679156e-06
121	0xb3e53453	-1.0673161e-07
122	0xb6b33376	-5.3406065e-06
123	0xb7931a33	-1.7535966e-05
124	0xb4c1648a	-3.6022203e-07
125	0xb195b59f	-4.3571187e-09
126	0xb6d766a2	-6.4194473e-06
127	0x3520360d	5.96833e-07

exp_avg_sq f4 [128]
0	0x34078c67	1.2623933e-07
1	0x32ec5a23	2.7515005e-08
2	0x3304040e	3.0737333e-08
3	0x33ba4779	8.674301e-08
4	0x350bcc75	5.207906e-07
5	0x355ca80a	8.2200916e-07
6	0x3644b4a9	2.9311434e-06
7	0x32f6835a	2.8697901e-08
8	0x33ae4c83	8.116424e-08
9	0x340a6926	1.2890504e-07
10	0x337f2d8c	5.941324e-08
11	0x35510246	7.7861876e-07
12	0x34504c13	1.9399185e-07
13	0x348343d7	2.4450011e-07
14	0x3477569f	2.303518e-07
15	0x32929aaf	1.7066979e-08
16	0x33e42b41	1.0624945e-07
17	0x33d47d8e	9.8948576e-08
18	0x349173c3	2.7092582e-07
19	0x3599876c	1.1438801e-06
20	0x351dc9f9	5.8780967e-07
21	0x32bbf48b	2.188087e-08
22	0x35b8739e	1.3742717e-06
23	0x345a0494	2.0304498e-07
24	0x34a8a2d9	3.1410926e-07
25	0x3413a0b6	1.3748908e-07
26	0x35a099f4	1.1965735e-06
27	0x35aacccd	1.2725592e-06
28	0x34338262	1.6718107e-07
29	0x351004b9	5.365105e-07
30	0x340ce7d2	1.3122852e-07
31	0x33d2da7a	9.818628e-08
32	0x34d47a3f	3.9577023e-07
33	0x3335fd5d	4.237278e-08
34	0x33e613d3	1.07138156e-07
35	0x341c6973	1.4566994e-07
36	0x3414018a	1.3784134e-07
37	0x34046e36	1.2333552e-07
38	0x33393d3e	4.312937e-08
39	0x341d4cd2	1.4649711e-07
40	0x33ff25b0	1.1881218e-07
41	0x33f1a137	1.1251762e-07
42	0x354aca26	7.554503e-07
43	0x346a2649	2.1806876e-07
44	0x34b21efd	3.317763e-07
45	0x33ae3d4e	8.113658e-08
46	0x353ab9e6	6.956092e-07
47	0x33c376ac	9.1019814e-08
48	0x344c4744	1.9024907e-07
49	0x3485ca35	2.4920305e-07
50	0x334e42e4	4.802395e-08
51	0x3498265d	2.834012e-07
52	0x33b33b0f	8.34608e-08
53	0x33f31d98	1.1320952e-07
54	0x33e4945a	1.0644062e-07
55	0x345c1886	2.0498018e-07
56	0x34bdd343	3.5357706e-07
57	0x347f3396	2.3767493e-07
58	0x354b842a	7.5815717e-07
59	0x3567e3be	8.6385614e-07
60	0x33f833bb	1.15578096e-07
61	0x34700a08	2.2355391e-07
62	0x358a5a15	1.0308019e-06
63	0x34ca6b3a	3.770345e-07
64	0x3322a688	3.7870024e-08
65	0x349642cf	2.7988287e-07
66	0x345bd6f1	2.047416e-07
67	0x349cca6a	2.920454e-07
68	0x3419728f	1.4290912e-07
69	0x347c504d	2.3498542e-07
70	0x34c4f4ed	3.6686052e-07
71	0x36052636	1.9840786e-06
72	0x35517099	7.802242e-07
73	0x34ea09ec	4.3593116e-07
74	0x32ed3625	2.7615053e-08
75	0x34357935	1.6901033e-07
76	0x33a06314	7.468603e-08
77	0x3446c987	1.8513502e-07
78	0x343c09c8	1.7512423e-07
79	0x3513900f	5.49714e-07
80	0x34a97e8b	3.1570775e-07
81	0x341c8f95	1.4580867e-07
82	0x33d889a9	1.0083324e-07
83	0x3505d8af	4.9861677e-07
84	0x346adda9	2.1873588e-07
85	0x33b5f513	8.473048e-08
86	0x3432fbf9	1.6669209e-07
87	0x337274d3	5.6451267e-08
88	0x360ee047	2.1290195e-06
89	0x340fba7b	1.3385754e-07
90	0x32d5d554	2.4893474e-08
91	0x3550ab89	7.7735655e-07
92	0x340bb594	1.3011442e-07
93	0x347d7b5b	2.3607338e-07
94	0x33d48fdc	9.898187e-08
95	0x3243cf3a	1.1397612e-08
96	0x359114f6	1.0809442e-06
97	0x358148df	9.632457e-07
98	0x3402eb5a	1.2192814e-07
99	0x3633e69b	2.6807309e-06
100	0x34c26610	3.6209576e-07
101	0x35c2f22e	1.452461e-06
102	0x3406ad78	1.254283e-07
103	0x35829a09	9.730585e-07
104	0x33cbe488	9.494494e-08
105	0x347f3754	2.3768854e-07
106	0x33e07b5f	1.0453254e-07
107	0x351e90fc	5.9070567e-07
108	0x3504757f	4.934481e-07
109	0x3450b499	1.943721e-07
110	0x3432c57f	1.664939e-07
111	0x3379ab5b	5.8130677e-08
112	0x341a965b	1.4397067e-07
113	0x34ddb2bb	4.12945e-07
114	0x34acbeca	3.2176314e-07
115	0x331fa2a8	3.7168007e-08
116	0x3304ff22	3.0965687e-08
117	0x35a749b3	1.2463919e-06
118	0x34982e7c	2.8346028e-07
119	0x3434f834	1.6854102e-07
120	0x33c02e2c	8.949095e-08
121	0x3417a55c	1.4123128e-07
122	0x352711ee	6.223844e-07
123	0x35f932be	1.8566714e-06
124	0x3583b895	9.813981e-07
125	0x3325df48	3.862013e-08
126	0x343d20b3	1.7613893e-07
127	0x325812cf	1.2577131e-08
