old_ppo/PoI/PoI-0.pt (torch, 147626 bytes, 12 tensors)

network_body._body_endoder.seq_layers.0.weight f4 [128, 4]
-0.26527348 -0.5767791 -0.056381475 0.24394348 0.53294104 -0.49018422 -0.5351405 0.22771192
0.7364064 -0.5840154 0.29571563 -0.36699444 0.3613489 -0.5312346 -0.6203417 0.31302613
0.011306487 0.2249793 -0.65196514 0.31564426 -0.086524196 -0.06714174 0.17730899 0.15983286
-0.20618972 -0.2977538 0.14130788 0.036440395 0.2899247 -0.23685263 0.2781878 -0.06911474
0.14461154 -0.07753474 0.75701845 -0.74632275 -0.22570205 -0.54469347 -0.041642524 -0.81911093
-0.09001498 -0.18758012 0.8172506 0.27716523 0.5997607 -0.31061783 1.3290963 -0.23773631
-0.5438421 0.17941688 0.29971448 1.793201 -0.40542516 0.5597504 -0.69732904 0.7487432
0.15503223 0.10561449 -0.26057878 -0.5535087 0.3127795 -1.2019986 0.5236778 0.8858833
0.109374605 -0.5718584 0.06337461 0.4029613 -0.74948776 0.6166739 -0.24110219 -0.31228402
0.43934304 -0.09821122 -0.11153873 0.005805377 -0.65489453 -0.29184973 0.5363755 0.16232319
0.6721789 -0.5350152 -0.82983446 -0.8877852 0.35251904 0.6466123 0.19010474 -0.79475826
0.76595306 -0.875387 -0.3945476 -0.6656034 -0.0372794 -0.50216377 -0.82082236 0.20748895
0.19286568 -0.548543 -0.7100098 -0.6402456 0.5455652 0.22091006 0.68069315 0.3038386
0.33317876 -0.09745994 0.40205795 -0.8454121 0.5291401 1.173165 -0.45870256 0.2746118
-0.29067948 -0.30317622 0.8021442 -0.90639704 -0.06356117 -0.24805701 -0.6143176 -1.0505494
-1.05943 -0.044462793 -0.76388353 0.014426804 0.31083536 -0.2550201 -0.48722932 -0.6689096
0.025577344 -0.41224575 -0.6105354 0.28436795 0.5142993 -0.18524769 -0.15820485 -0.6773936
-0.48819 0.46794388 -0.78801847 0.75855154 0.20134547 0.2003148 0.08507795 -0.28355408
-0.099359356 -0.6129347 -0.5082582 0.24262716 -0.13223475 -0.074801855 -0.3942865 1.119698
0.16258866 1.0043125 0.80722266 -0.4593502 0.57481194 0.8848696 -0.6576707 -0.053211197
0.25689834 0.53961235 -0.20459796 0.831602 0.21107076 0.13327584 -0.07159588 0.49440643
0.4997085 0.45704672 -0.33096796 -0.05952451 -0.9590658 0.074452564 0.02328052 0.6997358
-0.61821014 -0.17644723 -0.39845052 0.32368186 -0.3301722 0.42782047 -0.5548221 0.61497253
-0.23919967 0.31133413 0.8416755 0.7614934 0.19140264 -0.047522727 -0.17948629 0.57640344
-0.24902195 -0.41425306 -0.39158216 -0.6076663 -0.3116283 -0.27513736 -0.14976022 -0.32827696
-0.07105287 -0.35453302 0.29754347 0.29831168 -0.6808408 0.12430056 -0.20126504 0.8537777
-0.64128226 -0.23070604 -0.07498825 0.023326246 -0.74323785 0.56782395 0.9096869 0.10311326
-0.534921 0.667776 0.16025673 -0.033928912 0.007174346 -0.4624634 -0.037923098 -0.1700784
-0.60660326 0.7080335 -0.9977164 -0.18488549 0.11811178 0.47883964 -0.3486659 0.06569784
0.07357482 -0.22307321 -0.15777029 0.24171174 -0.5468869 0.1399497 0.27396703 0.35929012
0.497265 0.15920539 -0.3084235 0.5386726 0.13582015 0.5494263 0.29426396 -0.6052053
-1.3965756 -0.9967006 -0.39918128 0.51655614 0.29842 0.3299929 0.22517003 0.021512145
00000000: edd1 87be cca7 13bf 43f0 66bd 52cc 793e
00000010: d36e 083f 6df9 fabe f8fe 08bf 502d 693e
00000020: 2185 3c3f 0982 15bf 0a68 973e b2e6 bbbe
00000030: b902 b93e fefe 07bf b7ce 1ebf f644 a03e
00000040: d83e 393c f960 663e 30e7 26bf 209c a13e
00000050: 9933 b1bd 9c81 89bd 7d90 353e 3aab 233e
00000060: 6623 53be 3073 98be 03b3 103e 8642 153d
00000070: 0371 943e 7f89 72be a26e 8e3e 078c 8dbd
00000080: 0c15 143e 89ca 9ebd f6cb 413f 020f 3fbf
00000090: 701e 67be 0871 0bbf 5a91 2abd 41b1 51bf
000000a0: c659 b8bd 0115 40be 5637 513f 9ae8 8d3e
000000b0: eb89 193f 4d09 9fbe d41f aa3f 2671 73be
000000c0: 3c39 0bbf 0fb9 373e 2d74 993e 9c87 e53f
000000d0: e393 cfbe cd4b 0f3f 2884 32bf a2ad 3f3f
000000e0: c5c0 1e3e 694c d83d 956a 85be bfb2 0dbf
000000f0: a224 a03e 17db 99bf c00f 063f 3fc9 623f
00000100: cbff df3d 5065 12bf 8cca 813d f250 ce3e
00000110: 6ede 3fbf 57de 1d3f 7ee3 76be b1e3 9fbe
00000120: 92f1 e03e f722 c9bd 6b6e e4bd 083b be3b
00000130: 2ba7 27bf 546d 95be e84f 093f 0d38 263e
00000140: eb13 2c3f c2f6 08bf 0870 54bf e445 63bf
00000150: 607d b43e 6288 253f d1aa 423e 4775 4bbf
00000160: 8015 443f 5d19 60bf 2502 cabe fc64 2abf
00000170: 49b2 18bd ce8d 00bf 6a21 52bf fc77 543e
00000180: 957e 453e 506d 0cbf 34c3 35bf 23e7 23bf
00000190: 29aa 0b3f 3f36 623e e841 2e3f bc90 9b3e
000001a0: 6896 aa3e 1499 c7bd 8ada cd3e ed6c 58bf
000001b0: ba75 073f 452a 963f 10db eabe eb99 8c3e
000001c0: f1d3 94be ea39 9bbe 5359 4d3f a309 68bf
000001d0: 5c2c 82bd a802 7ebe eb43 1dbf 6778 86bf
000001e0: 679b 87bf 9e1e 36bd df8d 43bf 675e 6c3c
000001f0: d025 9f3e ff91 82be 1f76 f9be a93d 2bbf
00000200: 9487 d13c e011 d3be 0c4c 1cbf ad98 913e
00000210: 1ea9 033f 92b1 3dbe 7400 22be ab69 2dbf
00000220: 0af4 f9be 5796 ef3e 94bb 49bf 6f30 423f
00000230: 822d 4e3e 531f 4d3e 593d ae3d 002e 91be
00000240: eb7c cbbd 4ae9 1cbf 361d 02bf 4173 783e
00000250: 8c68 07be b731 99bd ecdf c9be 4452 8f3f
00000260: a47d 263e 508d 803f 25a6 4e3f f32f ebbe
00000270: e026 133f d086 623f 1b5d 28bf fcf3 59bd
00000280: 2e88 833e 0924 0a3f 2182 51be dee3 543f
00000290: ef22 583e 7679 083e dca0 92bd d722 fd3e
000002a0: cbd9 ff3e 0702 ea3e a274 a9be f9cf 73bd
000002b0: 5685 75bf 967a 983d cab6 be3c e321 333f
000002c0: 0543 1ebf 95ae 34be b501 ccbe a1b9 a53e
000002d0: 550c a9be 490b db3e d208 0ebf d76e 1d3f
000002e0: c2f0 74be 3067 9f3e 0c78 573f 3bf1 423f
000002f0: 0eff 433e 31a7 42bd 41cb 37be 2d8f 133f
00000300: 9cff 7ebe fa18 d4be 757d c8be 0590 1bbf
00000310: bf8d 9fbe cede 8cbe be5a 19be eb13 a8be
00000320: 2b84 91bd 5a85 b5be 9e57 983e 4fbc 983e
00000330: 954b 2ebf 4b91 fe3d 6c18 4ebe 2d91 5a3f
00000340: 132b 24bf 343e 6cbe 7193 99bd af16 bf3c
00000350: d644 3ebf e95c 113f 3ee1 683f 0b2d d33d
00000360: 95f0 08bf 5ef3 2a3f 571a 243e 0bf9 0abd
00000370: c716 eb3b 01c8 ecbe 4055 1bbd 0829 2ebe
00000380: 5a4a 1bbf af41 353f 586a 7fbf 9f52 3dbe
00000390: 97e4 f13d 782a f53e 5684 b2be 978c 863d
000003a0: 65ae 963d 4e6d 64be 898e 21be 4883 773e
000003b0: c800 0cbf f94e 0f3e 6845 8c3e e0f4 b73e
000003c0: 8599 fe3e bd06 233e afe9 9dbe 73e6 093f
000003d0: 7014 0b3e 34a7 0c3f c4a9 963e bcee 1abf
000003e0: fdc2 b2bf c527 7fbf 7d61 ccbe 063d 043f
000003f0: 82ca 983e d4f4 a83e f992 663e 3d3a b03c

network_body._body_endoder.seq_layers.0.bias f4 [128]
0.0 0.0 0.0 0.0 0.0 0.0 0.0 0.0
0.0 0.0 0.0 0.0 0.0 0.0 0.0 0.0
0.0 0.0 0.0 0.0 0.0 0.0 0.0 0.0
0.0 0.0 0.0 0.0 0.0 0.0 0.0 0.0
0.0 0.0 0.0 0.0 0.0 0.0 0.0 0.0
0.0 0.0 0.0 0.0 0.0 0.0 0.0 0.0
0.0 0.0 0.0 0.0 0.0 0.0 0.0 0.0
0.0 0.0 0.0 0.0 0.0 0.0 0.0 0.0
0.0 0.0 0.0 0.0 0.0 0.0 0.0 0.0
0.0 0.0 0.0 0.0 0.0 0.0 0.0 0.0
0.0 0.0 0.0 0.0 0.0 0.0 0.0 0.0
0.0 0.0 0.0 0.0 0.0 0.0 0.0 0.0
0.0 0.0 0.0 0.0 0.0 0.0 0.0 0.0
0.0 0.0 0.0 0.0 0.0 0.0 0.0 0.0
0.0 0.0 0.0 0.0 0.0 0.0 0.0 0.0
0.0 0.0 0.0 0.0 0.0 0.0 0.0 0.0
00000000: 0000 0000 0000 0000 0000 0000 0000 0000
00000010: 0000 0000 0000 0000 0000 0000 0000 0000
00000020: 0000 0000 0000 0000 0000 0000 0000 0000
00000030: 0000 0000 0000 0000 0000 0000 0000 0000
00000040: 0000 0000 0000 0000 0000 0000 0000 0000
00000050: 0000 0000 0000 0000 0000 0000 0000 0000
00000060: 0000 0000 0000 0000 0000 0000 0000 0000
00000070: 0000 0000 0000 0000 0000 0000 0000 0000
00000080: 0000 0000 0000 0000 0000 0000 0000 0000
00000090: 0000 0000 0000 0000 0000 0000 0000 0000
000000a0: 0000 0000 0000 0000 0000 0000 0000 0000
000000b0: 0000 0000 0000 0000 0000 0000 0000 0000
000000c0: 0000 0000 0000 0000 0000 0000 0000 0000
000000d0: 0000 0000 0000 0000 0000 0000 0000 0000
000000e0: 0000 0000 0000 0000 0000 0000 0000 0000
000000f0: 0000 0000 0000 0000 0000 0000 0000 0000
00000100: 0000 0000 0000 0000 0000 0000 0000 0000
00000110: 0000 0000 0000 0000 0000 0000 0000 0000
00000120: 0000 0000 0000 0000 0000 0000 0000 0000
00000130: 0000 0000 0000 0000 0000 0000 0000 0000
00000140: 0000 0000 0000 0000 0000 0000 0000 0000
00000150: 0000 0000 0000 0000 0000 0000 0000 0000
00000160: 0000 0000 0000 0000 0000 0000 0000 0000
00000170: 0000 0000 0000 0000 0000 0000 0000 0000
00000180: 0000 0000 0000 0000 0000 0000 0000 0000
00000190: 0000 0000 0000 0000 0000 0000 0000 0000
000001a0: 0000 0000 0000 0000 0000 0000 0000 0000
000001b0: 0000 0000 0000 0000 0000 0000 0000 0000
000001c0: 0000 0000 0000 0000 0000 0000 0000 0000
000001d0: 0000 0000 0000 0000 0000 0000 0000 0000
000001e0: 0000 0000 0000 0000 0000 0000 0000 0000
000001f0: 0000 0000 0000 0000 0000 0000 0000 0000

network_body._body_endoder.seq_layers.2.weight f4 [128, 128]
0.051042408 -0.022543324 0.091441356 0.03278918 -0.053877227 0.04589199 -0.10047307 0.038843367
-0.045873407 -0.07324898 0.048771158 0.080140494 0.06406195 0.05762841 -0.10198065 -0.0025536926
0.07337486 0.012257036 0.028109785 -0.11056584 -0.10039805 -0.110690884 -0.06562294 -0.12580687
0.026938386 0.17410642 -0.22796288 0.07227131 0.011662651 0.15156336 0.18385798 0.0061857337
-0.042301547 0.12262033 0.018789284 0.08127734 -0.101703346 -0.0836702 -0.02810183 0.12821172
-0.04209077 -0.1467083 0.14301528 -0.10172731 0.044265874 0.08916564 0.0017060931 -0.026097083
-0.07380115 0.092090644 0.09939697 -0.065395616 0.17224541 0.1540833 0.036806397 -0.01692823
-0.033371188 -0.015772808 -0.0047627664 0.0012441926 0.06564728 -0.0073716636 0.049051918 0.100862265
0.0190154 -0.15955351 -0.042995412 -0.16013557 -0.053344764 -0.15745302 -0.14771229 -0.09919932
-0.016299395 -0.06806265 -0.010759064 0.011186105 -0.061963752 0.019452108 -0.0030360706 -0.08155204
-0.026319772 -0.04530231 0.0026967253 0.015290912 -0.07008357 0.0321307 -0.019076837 0.03427801
-0.028309563 -0.055350475 0.15976381 0.029417858 0.121128775 -0.103943124 -0.095668465 0.044195544
0.16727446 -0.0112884585 -0.023595942 0.079994544 0.021717202 -0.029580858 0.029232863 0.004930952
0.068771586 0.10240193 0.096357755 -0.14891274 -0.10997841 -0.07474038 0.09274085 -0.0140546225
0.030323023 0.19399421 -0.061875403 0.05220849 -0.0658321 -0.023445327 0.08869038 0.13363671
-0.1260185 -0.030738726 0.017598744 0.012086258 -0.043037068 0.015913675 -0.028852552 -0.08010195
0.099925436 -0.09587055 -0.2129547 -0.065088585 -0.104310185 0.07040733 -0.03331514 -0.14739832
0.013257618 0.15078202 0.08690548 -0.008369527 0.028513664 0.010899639 0.12263371 0.06079579
-0.050419077 0.056235608 0.1282804 -0.036643434 -0.011204715 -0.10886156 0.13772294 -0.05243419
-0.09443837 0.020651344 0.009836141 -0.027629208 -0.031785473 -0.0475128 -0.047235873 -0.0075444644
-0.110436246 -0.120852955 0.040848967 0.065131016 -0.10396549 0.11500719 0.040357295 -0.020896124
-0.16494161 -0.05122645 -0.023120709 0.051068146 0.10246118 -0.09217984 0.020481119 0.12167073
-0.09827109 0.10566573 -0.02136775 -0.07645162 -0.064354435 -0.051737737 -0.037506178 0.05584675
-0.024445962 0.11958909 0.016167363 0.15932155 -0.060986422 -0.053933684 -0.07108219 0.19445239
0.003933015 -0.15543492 -0.053116918 -0.01957031 0.025240866 -0.1480028 -0.103394434 -0.082508564
0.23526645 0.13331081 -0.024460692 0.041660048 0.04393066 0.054605298 0.025365703 -0.0021987865
0.00066651695 -0.030485563 0.016188402 -0.11702007 -0.07515211 -0.04413157 -0.12281322 0.015407141
-0.025644984 -0.04459206 -0.09029729 0.12353102 0.08548832 0.05622592 0.08253556 0.058674783
-0.0765184 0.044257734 -0.033744298 0.0142857535 0.019247506 -0.108739 0.087457016 0.09240966
-0.018920593 0.09775157 -0.08336398 0.25882515 -0.024178943 -0.015184836 0.039917044 0.0499905
-0.051571473 0.0015237498 -0.055349436 0.061769255 -0.023771325 -0.17828728 0.105324075 -0.065659106
0.06631 0.08043754 -0.021678878 0.13986665 0.05040572 -0.025773 -0.11683062 -0.04609008
00000000: d811 513d c7ac b8bc 9b45 bb3d f24d 063d
00000010: 5eae 5cbd 3df9 3b3d d3c4 cdbd 391a 1f3d
00000020: c1e5 3bbd 9003 96bd 44c4 473d b320 a43d
00000030: e932 833d c50b 6c3d 3bdb d0bd da5b 27bb
00000040: 8f45 963d bcd1 483c 7e46 e63c 5870 e2bd
00000050: 7e9d cdbd e7b1 e2bd 5265 86bd 84d3 00be
00000060: e4ad dc3c f448 323e 1a6f 69be fb02 943d
00000070: b414 3f3c 6d33 1b3e 4445 3c3e b2b1 ca3b
00000080: 6344 2dbd 5e20 fb3d fceb 993c bc74 a63d
00000090: d849 d0bd 485b abbd cf35 e6bc ef49 033e
000000a0: 5f67 2cbd b33a 16be 9972 123e 6856 d0bd
000000b0: 2250 353d 7a9c b63d fc9e df3a 8dc9 d5bc
000000c0: 0f25 97bd 059a bc3d a390 cb3d 23ee 85bd
000000d0: 1a61 303e 03c8 1d3e 4ec2 163d 12ad 8abc
000000e0: 3ab0 08bd fa35 81bc fb10 9cbb 2d14 a33a
000000f0: 1572 863d ff8d f1bb aaea 483d e090 ce3d
00000100: 2fc6 9b3c ff61 23be f51b 30bd 94fa 23be
00000110: 0a80 5abd 5d3b 21be e441 17be 0329 cbbd
00000120: 4f86 85bc 6e64 8bbd c946 30bc ed45 373c
00000130: b4cd 7dbd 075a 9f3c d0f8 46bb c204 a7bd
00000140: 909c d7bc ea8e 39bd 8bbb 303b bc86 7a3c
00000150: fa87 8fbd 7b9b 033d 0747 9cbc 1967 0c3d
00000160: 75e9 e7bc 2eb7 62bd 2099 233e b8fd f03c
00000170: 5d12 f83d 22e0 d4bd d4ed c3bd 6306 353d
00000180: ff49 2b3e 3af3 38bc 474c c1bc 2ed4 a33d
00000190: 46e8 b13c 8e53 f2bc c279 ef3c d393 a13b
000001a0: 1ed8 8c3d 1ab8 d13d 3757 c53d 957c 18be
000001b0: 5c3c e1bd 7c11 99bd eaee bd3d 5c45 66bc
000001c0: fd67 f83c 6ba6 463e 1071 7dbd 92d8 553d
000001d0: fbd2 86bd 6a10 c0bc 4da3 b53d 10d8 083e
000001e0: fe0a 01be c8cf fbbc 3e2b 903c 7105 463c
000001f0: a347 30bd 655d 823c 305c ecbc 7e0c a4bd
00000200: b5a5 cc3d c757 c4bd cc10 5abe 2a4d 85bd
00000210: 94a0 d5bd b831 903d 7575 08bd 96ef 16be
00000220: 7b36 593c 9a66 1a3e 80fb b13d 5720 09bc
00000230: 7d95 e93c 6694 323c 6227 fb3d 0205 793d
00000240: 3c84 4ebd 4f57 663d f05b 033e 6d17 16bd
00000250: fb93 37bc cff2 debd 3e07 0d3e 3cc5 56bd
00000260: e768 c1bd 022d a93c c427 213c a656 e2bc
00000270: 7c31 02bd c89c 42bd 677a 41bd 8e37 f7bb
00000280: 662c e2bd c181 f7bd 3f51 273d 6963 853d
00000290: dceb d4bd e488 eb3d b14d 253d 592e abbc
000002a0: 74e6 28be d3d2 51bd a467 bdbc d52c 513d
000002b0: 2bd7 d13d c9c8 bcbd 05c8 a73c 812e f93d
000002c0: 5a42 c9bd 4667 d83d 6b0b afbc ab92 9cbd
000002d0: 42cc 83bd f3ea 53bd 14a0 19bd 90bf 643d
000002e0: e642 c8bc 20eb f43d 6b71 843c 3025 233e
000002f0: e6cc 79bd 91e9 5cbd 8a93 91bd 871e 473e
00000300: 85e0 803b 552a 1fbe 2091 59bd ea51 a0bc
00000310: efc5 ce3c 0c8e 17be 76c0 d3bd 40fa a8bd
00000320: b0e9 703e a182 083e ca61 c8bc baa3 2a3d
00000330: a3f0 333d cea9 5f3d bccb cf3c 8419 10bb
00000340: 32b9 2e3a dcbc f9bc 8a9d 843c 38a8 efbd
00000350: 59e9 99bd 4ec3 34bd 7f85 fbbd 3c6e 7c3c
00000360: 6e15 d2bc 2aa6 36bd c9ed b8bd d5fd fc3d
00000370: 8014 af3d 264d 663d 6708 a93d f854 703d
00000380: aeb5 9cbd 9947 353d 7637 0abd cb0e 6a3c
00000390: f2ac 9d3c 8eb2 debd aa1c b33d 4741 bd3d
000003a0: 5cff 9abc fa31 c83d bcba aabd bb84 843e
000003b0: eb12 c6bc d2c9 78bc 0e80 233d d7c2 4c3d
000003c0: 9c3c 53bd 8fb8 c73a 17b6 62bd c201 7d3d
000003d0: 15bc c2bc f190 36be 26b4 d73d 4878 86bd
000003e0: 8acd 873d 70bc a43d e797 b1bc 3439 0f3e
000003f0: 3a76 4e3d e621 d3bc e444 efbd f4c8 3cbd

network_body._body_endoder.seq_layers.2.bias f4 [128]
0.0 0.0 0.0 0.0 0.0 0.0 0.0 0.0
0.0 0.0 0.0 0.0 0.0 0.0 0.0 0.0
0.0 0.0 0.0 0.0 0.0 0.0 0.0 0.0
0.0 0.0 0.0 0.0 0.0 0.0 0.0 0.0
0.0 0.0 0.0 0.0 0.0 0.0 0.0 0.0
0.0 0.0 0.0 0.0 0.0 0.0 0.0 0.0
0.0 0.0 0.0 0.0 0.0 0.0 0.0 0.0
0.0 0.0 0.0 0.0 0.0 0.0 0.0 0.0
0.0 0.0 0.0 0.0 0.0 0.0 0.0 0.0
0.0 0.0 0.0 0.0 0.0 0.0 0.0 0.0
0.0 0.0 0.0 0.0 0.0 0.0 0.0 0.0
0.0 0.0 0.0 0.0 0.0 0.0 0.0 0.0
0.0 0.0 0.0 0.0 0.0 0.0 0.0 0.0
0.0 0.0 0.0 0.0 0.0 0.0 0.0 0.0
0.0 0.0 0.0 0.0 0.0 0.0 0.0 0.0
0.0 0.0 0.0 0.0 0.0 0.0 0.0 0.0
00000000: 0000 0000 0000 0000 0000 0000 0000 0000
00000010: 0000 0000 0000 0000 0000 0000 0000 0000
00000020: 0000 0000 0000 0000 0000 0000 0000 0000
00000030: 0000 0000 0000 0000 0000 0000 0000 0000
00000040: 0000 0000 0000 0000 0000 0000 0000 0000
00000050: 0000 0000 0000 0000 0000 0000 0000 0000
00000060: 0000 0000 0000 0000 0000 0000 0000 0000
00000070: 0000 0000 0000 0000 0000 0000 0000 0000
00000080: 0000 0000 0000 0000 0000 0000 0000 0000
00000090: 0000 0000 0000 0000 0000 0000 0000 0000
000000a0: 0000 0000 0000 0000 0000 0000 0000 0000
000000b0: 0000 0000 0000 0000 0000 0000 0000 0000
000000c0: 0000 0000 0000 0000 0000 0000 0000 0000
000000d0: 0000 0000 0000 0000 0000 0000 0000 0000
000000e0: 0000 0000 0000 0000 0000 0000 0000 0000
000000f0: 0000 0000 0000 0000 0000 0000 0000 0000
00000100: 0000 0000 0000 0000 0000 0000 0000 0000
00000110: 0000 0000 0000 0000 0000 0000 0000 0000
00000120: 0000 0000 0000 0000 0000 0000 0000 0000
00000130: 0000 0000 0000 0000 0000 0000 0000 0000
00000140: 0000 0000 0000 0000 0000 0000 0000 0000
00000150: 0000 0000 0000 0000 0000 0000 0000 0000
00000160: 0000 0000 0000 0000 0000 0000 0000 0000
00000170: 0000 0000 0000 0000 0000 0000 0000 0000
00000180: 0000 0000 0000 0000 0000 0000 0000 0000
00000190: 0000 0000 0000 0000 0000 0000 0000 0000
000001a0: 0000 0000 0000 0000 0000 0000 0000 0000
000001b0: 0000 0000 0000 0000 0000 0000 0000 0000
000001c0: 0000 0000 0000 0000 0000 0000 0000 0000
000001d0: 0000 0000 0000 0000 0000 0000 0000 0000
000001e0: 0000 0000 0000 0000 0000 0000 0000 0000
000001f0: 0000 0000 0000 0000 0000 0000 0000 0000

action_model._continuous_distribution.log_sigma f4 [1, 4]
0.0 0.0 0.0 0.0
00000000: 0000 0000 0000 0000 0000 0000 0000 0000

action_model._continuous_distribution.mu.weight f4 [4, 128]
-0.01660015 0.03693362 -0.011078626 -0.017454488 0.0014750393 0.004832667 0.03917024 -0.004699329
-0.01172506 0.010238363 0.03169048 0.0020509292 -0.019972151 0.006096857 0.023706196 -0.007247932
-0.0050852257 -0.0042028856 0.024945952 0.001269794 0.0019551467 -0.00926032 0.0056445193 0.0015475468
0.005590215 -0.0044700047 0.0024524245 -0.007392923 0.013086445 0.016510574 -0.015019054 0.021671211
0.010313365 -0.034412116 0.011243993 0.013574346 0.020103574 -0.0055038044 0.019867836 -0.01791541
0.004147225 0.016451763 0.007217365 -0.026245996 0.011537727 0.0033248987 0.007940494 -0.012529634
-0.01414036 -0.011600785 0.011493313 -0.017158147 0.005523035 0.022956816 -0.032881647 0.0061508617
0.03084294 -0.02212156 0.0052607944 -0.0073200366 -0.0014830532 0.020344786 -0.007122054 -0.026170224
-0.027447356 0.031568427 0.00818869 -0.015696162 -0.005022403 0.026877081 0.006574658 0.0024899754
-0.006379727 0.019967256 0.00026885487 0.0072341943 0.0017303763 -0.034724317 0.01925589 0.012298161
0.0025342247 -0.02147497 0.025498334 -0.010180126 -0.00091268925 0.00399299 -0.010087362 -0.013450193
0.006376032 0.013424486 0.012723299 0.0017879707 0.010640737 -0.01186639 0.032290943 0.025696343
0.00019464923 -0.008670899 -0.02852856 -0.03456654 0.004407672 0.022577187 0.023902224 0.00077848905
0.0042164978 0.0135767935 -0.00010072306 -0.018923273 -0.0027797834 -0.0004195168 0.014813944 0.009619903
-0.033052307 -0.0056398637 -0.021895487 0.0072603174 0.02782402 -0.014128073 0.01981317 -0.012773993
-0.01471431 -0.027174542 0.0043918225 -0.0021814671 0.012896915 0.011100445 0.01236909 0.012007034
0.012461354 0.0080649415 0.013201268 0.00932179 0.0047316724 -0.01887223 0.039786976 -0.0001638244
-0.0179347 0.003442342 0.009799138 -0.006619432 -0.0023097217 -0.009824855 0.007791806 0.03421731
0.011624262 -0.007095683 -0.009292867 0.005502473 0.007972393 -0.00020061235 -0.023181232 0.012921258
0.020384299 0.015580966 0.024082739 0.015893264 -0.012220582 0.014664854 0.04522799 -0.0027489203
0.0008321679 0.022427222 -0.0014005889 0.019709114 0.018586118 -0.0075181923 -0.024137378 0.006879516
0.004342604 0.00958309 -0.03439193 -0.0071490034 0.009627218 -0.01596335 -0.00443803 0.006266461
-0.019216742 -0.005044743 0.011266023 -0.01883737 0.0032361753 0.02553011 0.0005411664 -0.012149071
-0.030793378 -0.026626138 -0.019599503 -0.007836754 0.008919376 0.008829207 0.015052459 0.025772756
0.023996945 0.005741485 -0.025231678 -0.0020299477 0.024785032 0.008720103 0.0025878558 0.009767958
0.008257341 -0.025707392 0.027633611 -0.017719438 0.013277011 0.00067140284 0.002799412 -0.020017337
0.010797868 -0.018042969 0.0048214584 0.007597916 -0.0034655284 0.0019538866 0.007128001 -0.0055494937
0.021633375 -0.0047734226 -0.00085082784 0.029124677 -0.009994179 0.05025972 0.0050484682 -0.0121927345
0.0023670692 -0.00092701096 -0.028457168 -0.016560562 -0.026492054 0.007079826 0.0057178023 -0.0033753836
0.02788696 -0.004088169 -0.019534314 -0.0333545 0.004412699 -0.007236925 -0.019261299 -0.025693549
0.0061585954 0.018811114 -0.0048926384 0.011845662 -0.010258864 -0.0035763679 0.016637128 0.012639542
0.013268627 0.010929957 0.017815897 0.011908202 0.0034001109 0.020780856 0.036400754 0.0067882785
00000000: 0afd 87bc b547 173d 2083 35bc b7fc 8ebc
00000010: 1b56 c13a 595b 9e3b f970 203d d4fc 99bb
00000020: 771a 40bc cfbe 273c e0cd 013d e268 063b
00000030: a39c a3bc 25c8 c73b 7f33 c23c 0f80 edbb
00000040: f7a1 a6bb 5cb8 89bb 745b cc3c 376f a63a
00000050: eb21 003b 99b8 17bc a9f5 b83b 0ed7 ca3a
00000060: 1f2e b73b 1e79 92bb dbb8 203b 5540 f2bb
00000070: 8768 563c 2f41 873c 7a12 76bc d387 b13c
00000080: 63f9 283c b8f3 0cbd ba38 383c ef66 5e3c
00000090: 40b0 a43c 4259 b4bb dfc1 a23c 57c3 92bc
000000a0: 72e5 873b d9c5 863c a57f ec3b d801 d7bc
000000b0: bc08 3d3c 8be6 593b d918 023c 1849 4dbc
000000c0: f8ac 67bc 3811 3ebc 734e 3c3c 3e8f 8cbc
000000d0: 93fa b43b ef0f bc3c e8ae 06bd 2b8d c93b
000000e0: 55aa fc3c 4638 b5bc be62 ac3b ebdc efbb
000000f0: 0263 c2ba 1caa a63c 1f60 e9bb f062 d6bc
00000100: 47d9 e0bc e54d 013d db29 063c 3d95 80bc
00000110: f892 a4bb 532d dc3c 3b70 d73b db2e 233b
00000120: 070d d1bb 5f92 a33c 17f5 8c39 d20c ed3b
00000130: cbcd e23a 163b 0ebd 87be 9d3c 3a7e 493c
00000140: 3c15 263b 47ec afbc e2e1 d03c 8bca 26bc
00000150: 8a41 6fba a1d7 823b 7645 25bc 335e 5cbc
00000160: 08ee d03b 60f2 5b3c 6275 503c 575a ea3a
00000170: 7c56 2e3c 3f6b 42bc 8243 043d 2381 d23c
00000180: c11a 4c39 6310 0ebc bab4 e9bc a595 0dbd
00000190: 3c6e 903b cbf3 b83c 99ce c33c 8413 4c3a
000001a0: 8c2a 8a3b 3371 5e3c 483b d3b8 fb04 9bbc
000001b0: 072d 36bb 97f2 dbb9 2fb6 723c cc9c 1d3c
000001c0: db61 07bd 9bce b8bb 2a5e b3bc f5e7 ed3b
000001d0: 33ef e33c 6f79 67bc 3b4f a23c 034a 51bc
000001e0: 4a14 71bc 259d debc 47e9 8f3b f2f6 0ebb
000001f0: 954d 533c a4de 353c b9a7 4a3c 27b9 443c
00000200: b52a 4c3c d122 043c 224a 583c 6cba 183c
00000210: 250c 9b3b ef99 9abc abf7 223d 47c8 2bb9
00000220: cbeb 92bc ea98 613b 908c 203c d2e7 d8bb
00000230: b35e 17bb 6ef8 20bc 6852 ff3b 7327 0c3d
00000240: b073 3e3c e782 e8bb 1c41 18bc 174e b43b
00000250: a49e 023c 785b 52b9 91e6 bdbc afb3 533c
00000260: f9fc a63c 4f47 7f3c 2a49 c53c 9732 823c
00000270: d638 48bc db44 703c fc40 393d 3b27 34bb
00000280: d825 5a3a 4bb9 b73c f793 b7ba 0275 a13c
00000290: ea41 983c 2b5b f6bb c0bb c5bc 906d e13b
000002a0: 674c 8e3b 6502 1d3c 8dde 0cbd 3042 eabb
000002b0: 7bbb 1d3c 92c5 82bc e56c 91bb e356 cd3b
000002c0: 6e6c 9dbc 5f4e a5bb 2095 383c d450 9abc
000002d0: 0316 543b 8524 d13c 10dd 0d3a e60c 47bc
000002e0: 6542 fcbc 0f1f dabc 238f a0bc bb65 00bc
000002f0: 9322 123c 61a8 103c 979e 763c 6321 d33c
00000300: 3e95 c43c 1123 bc3b aab2 cebc df08 05bb
00000310: fb09 cb3c c3de 0e3c 0499 293b c909 203c
00000320: cc49 073c 4f98 d2bc e25f e23c 5b28 91bc
00000330: d287 593c 1501 303a 5776 373b 66fb a3bc
00000340: 8ae9 303c d9ce 93bc 53fd 9d3b f0f7 f83b
00000350: eb1d 63bb c70c 003b 0292 e93b 87d8 b5bb
00000360: 7a38 b13c 5f6a 9cbb 170a 5fba e096 ee3c
00000370: a0be 23bc 23dd 4d3d 9f6d a53b 09c4 47bc
00000380: d520 1b3b a702 73ba 021f e9bc 04aa 87bc
00000390: dd05 d9bc e3fd e73b 675c bb3b 8a35 5dbb
000003a0: 3273 e43c 0cf6 85bb 6d06 a0bc ba9e 08bd
000003b0: 6798 903b ba23 edbb dfc9 9dbc 477b d2bc
000003c0: 0bce c93b c419 9a3c 6d52 a0bb 4f14 423c
000003d0: cb14 28bc 7f61 6abb 964a 883c 1516 4f3c
000003e0: a864 593c 9013 333c a5f2 913c 9f1a 433c
000003f0: 65d4 5e3b 9d3c aa3c f518 153d 3570 de3b

action_model._continuous_distribution.mu.bias f4 [4]
0.0 0.0 0.0 0.0
00000000: 0000 0000 0000 0000 0000 0000 0000 0000

network_body._body_endoder.seq_layers.0.weight f4 [128, 4]
-0.6340188 -0.046030488 0.63945824 0.34006223 1.141986 -0.12726404 -0.32737193 0.46649787
-0.0771531 0.91726637 -0.2415001 -0.14236191 0.4089411 0.731163 -0.013976929 -0.116291784
-0.08259532 0.12393236 -0.7170693 0.21413568 -1.2508321 0.20254031 -0.2819471 -0.3311159
-0.27035144 -0.93719655 -1.1106937 -0.021238914 -0.03801687 0.3070729 -0.06299171 0.009464639
-0.30474582 0.3057885 0.08863381 -0.8138887 0.78238326 0.61340874 -0.30063128 -0.43007427
-0.11171714 0.50949466 -0.27884203 0.16867189 0.054748286 0.043449976 -1.2908987 -0.65615606
0.20088424 -0.4836107 -0.008721391 -0.4692463 -0.033687655 -0.36197808 -0.09644521 -0.72551113
-0.4190303 0.23082207 -0.32182217 0.28943264 -0.5118624 -0.36687237 0.29484448 0.16221091
-0.030939111 -0.23337458 0.7270411 0.8637344 -0.54914117 0.41647545 0.19158687 -0.3080986
-0.34259418 -0.0076029683 0.22006065 0.35277748 0.070286244 0.34002236 -0.77430856 -0.68029255
-0.5926696 0.56383795 -0.28016743 0.040640708 0.83042455 -0.09801407 0.2452967 0.2105122
0.052968144 -0.8060309 -0.025872312 0.31272367 -0.09185958 0.6804837 -0.50552875 -0.5836761
0.6749028 0.30612794 -0.0077297874 0.8644374 0.78756976 -0.68123484 0.1934838 -0.19391018
0.07725164 0.10736254 -0.70337164 0.16619085 0.89423287 -0.3317305 0.16448137 -0.6722308
0.3189118 0.76310533 -0.67645574 -0.37691823 -0.1963786 0.009755042 -0.05890364 -0.021367533
-0.48652017 0.32374173 -0.39837807 -0.02657611 -0.04712275 -0.55433947 -0.03217387 0.42280006
-0.42169452 0.097359024 0.072874285 0.3178343 -0.89314294 0.21059577 -1.5854901 -0.008733348
0.91820544 -0.5864627 0.5913194 -0.0037439857 -1.0558354 0.8463876 -0.5575544 -0.17091878
0.46333647 -0.069306865 0.1768626 0.1934221 0.45805135 -0.48544478 0.7480567 0.58456576
-0.31587023 0.42299455 -0.5144781 0.08721328 0.1661895 -0.35716695 -0.24765106 0.7972149
0.40880954 -0.27016103 0.35987037 0.14313488 -0.1168825 -0.31475657 -0.14459014 -0.6167314
-0.2174216 0.48663512 0.70671535 -0.15258105 0.5155433 0.07390897 0.6827555 -0.27021927
-0.86483693 0.017760765 -0.057098724 -0.5085129 0.2527969 0.42701247 -0.9735125 0.92107934
0.29643792 -0.3270761 -0.8050354 1.0263954 0.2528378 0.81275564 -0.21497822 -0.563734
0.7665093 -0.7167155 -0.5092153 0.2093007 0.18706053 0.26332954 0.45458874 0.1226515
0.69797325 -0.45197347 -0.37705982 0.2876411 -0.034883477 0.1612475 0.056138 0.103003666
-0.111527935 0.9647347 0.28106523 -0.2657882 -0.13462433 0.14197521 -1.5700686 0.03833063
-0.7963885 0.020780489 -0.68146104 0.4674446 0.3243276 -0.35159332 0.121152565 0.08458043
-0.12315768 -0.2525718 -0.57492715 0.08087482 0.7944774 -0.73095155 0.17795074 -0.043199822
-0.21695551 0.006536936 0.20589341 -0.28010944 0.165563 0.076483615 -0.1465513 0.26901364
0.08090636 -0.27794737 0.27599794 -0.4086753 -0.29684576 -0.33897495 -0.15609087 0.28333548
0.47583205 0.11307414 0.78638345 -0.038987435 0.9631633 0.21553062 0.8256403 -0.40180442
00000000: 0e4f 22bf 778a 3cbd 89b3 233f a31c ae3e
00000010: 992c 923f 8151 02be 4b9d a7be cfd8 ee3e
00000020: 7202 9ebd f8d1 6a3f cd4b 77be 52c7 11be
00000030: ba60 d13e 802d 3b3f 7dff 64bc 632a eebd
00000040: bc27 a9bd 40d0 fd3d db91 37bf 6246 5b3e
00000050: 441b a0bf ba66 4f3e 5f5b 90be 0688 a9be
00000060: 816b 8abe 1dec 6fbf 362b 8ebf 3bfd adbc
00000070: 94b7 1bbd a938 9d3e cc01 81bd 9311 1b3c
00000080: a507 9cbe 4f90 9c3e a585 b53d 035b 50bf
00000090: 454a 483f 5b08 1d3f 58ec 99be b232 dcbe
000000a0: f5cb e4bd 3e6e 023f 62c4 8ebe 53b8 2c3e
000000b0: bd3f 603d 9af8 313d 2b3c a5bf d8f9 27bf
000000c0: 99b4 4d3e d29b f7be 2ae4 0ebc 0d41 f0be
000000d0: 11fc 09bd 3155 b9be 1185 c5bd 19bb 39bf
000000e0: 248b d6be 9f5c 6c3e e0c5 a4be 8430 943e
000000f0: 6a09 03bf b2d6 bbbe dbf5 963e 9e1a 263e
00000100: 0574 fdbc bff9 6ebe 5e1f 3a3f b31d 5d3f
00000110: 8494 0cbf 453c d53e 592f 443e 1abf 9dbe
00000120: 8168 afbe 5222 f9bb 9457 613e 409f b43e
00000130: 3cf2 8f3d 6917 ae3e 1639 46bf a727 2ebf
00000140: 32b9 17bf af57 103f 1b72 8fbe df76 263d
00000150: b496 543f 9abb c8bd 0f2f 7b3e 8390 573e
00000160: 20f5 583d 0b58 4ebf 2cf2 d3bc 511d a03e
00000170: e020 bcbd 2e34 2e3f 556a 01bf cc6b 15bf
00000180: 6ec6 2c3f cdbc 9c3e 284a fdbb c54b 5d3f
00000190: 2c9e 493f 6865 2ebf 9e20 463e 6490 46be
000001a0: 1c36 9e3d e4e0 db3d 2a10 34bf ef2d 2a3e
000001b0: 72ec 643f 95d8 a9be ce6d 283e 5117 2cbf
000001c0: 6848 a33e df5a 433f 342c 2dbf 6dfb c0be
000001d0: 7917 49be 9dd3 1f3c f144 71bd f70a afbc
000001e0: 2c19 f9be 7ac1 a53e 36f8 cbbe 24b6 d9bc
000001f0: c903 41bd 31e9 0dbf bfc8 03bd 4079 d83e
00000200: 58e8 d7be 2b64 c73d 1d3f 953d 2dbb a23e
00000210: 04a5 64bf 6ba6 573e 57f1 cabf 5116 0fbc
00000220: 830f 6b3f 6b22 16bf b560 173f a85d 75bb
00000230: 9d25 87bf dcac 583f e3bb 0ebf 5505 2fbe
00000240: 703a ed3e c2f0 8dbd 781b 353e 7110 463e
00000250: b585 ea3e 388c f8be a580 3f3f 1aa6 153f
00000260: beb9 a1be be92 d83e d6b4 03bf e09c b23d
00000270: 952d 2a3e 96de b6be 3d98 7dbe 4716 4c3f
00000280: 7c4f d13e 8c52 8abe ee40 b83e f391 123e
00000290: 1860 efbd c627 a1be 700f 14be 1ce2 1dbf
000002a0: c5a3 5ebe 3d28 f93e 4ceb 343f 353e 1cbe
000002b0: a5fa 033f 965d 973d 10c9 2e3f 2e5a 8abe
000002c0: f465 5dbf 067f 913c 5ae0 69bd e72d 02bf
000002d0: 986e 813e 61a1 da3e 1d38 79bf dbcb 6b3f
000002e0: b6c6 973e 8576 a7be cd16 4ebf ed60 833f
000002f0: f573 813e c110 503f 4023 5cbe df50 10bf
00000300: f439 443f ab7a 37bf ef5b 02bf ec52 563e
00000310: cc8c 3f3e 21d3 863e dbbf e83e b630 fb3d
00000320: 60ae 323f 1169 e7be fc0d c1be b245 933e
00000330: fae1 0ebd 111e 253e f6f0 653d 96f3 d23d
00000340: c268 e4bd daf8 763f c8e7 8f3e 6415 88be
00000350: f6da 09be f361 113e 02f8 c8bf 9400 1d3d
00000360: 1ee0 4bbf d83b aa3c 3b74 2ebf e654 ef3e
00000370: 440e a63e 0a04 b4be d61e f83d 8138 ad3d
00000380: 183a fcbd 1751 81be 6d2e 13bf b3a1 a53d
00000390: df62 4b3f a41f 3bbf b838 363e 4cf2 30bd
000003a0: 9629 5ebe cb33 d63b b9d5 523e 816a 8fbe
000003b0: 5989 293e 71a3 9c3d 8b11 16be 28bc 893e
000003c0: 3cb2 a53d 1e4f 8ebe 9a4f 8d3e e43d d1be
000003d0: 2bfc 97be 208e adbe 49d6 1fbe 5911 913e
000003e0: 42a0 f33e 6a93 e73d 6d50 493f 4ab1 1fbd
000003f0: df91 763f 0fb4 5c3e 2a5d 533f 4fb9 cdbe

network_body._body_endoder.seq_layers.0.bias f4 [128]
0.0 0.0 0.0 0.0 0.0 0.0 0.0 0.0
0.0 0.0 0.0 0.0 0.0 0.0 0.0 0.0
0.0 0.0 0.0 0.0 0.0 0.0 0.0 0.0
0.0 0.0 0.0 0.0 0.0 0.0 0.0 0.0
0.0 0.0 0.0 0.0 0.0 0.0 0.0 0.0
0.0 0.0 0.0 0.0 0.0 0.0 0.0 0.0
0.0 0.0 0.0 0.0 0.0 0.0 0.0 0.0
0.0 0.0 0.0 0.0 0.0 0.0 0.0 0.0
0.0 0.0 0.0 0.0 0.0 0.0 0.0 0.0
0.0 0.0 0.0 0.0 0.0 0.0 0.0 0.0
0.0 0.0 0.0 0.0 0.0 0.0 0.0 0.0
0.0 0.0 0.0 0.0 0.0 0.0 0.0 0.0
0.0 0.0 0.0 0.0 0.0 0.0 0.0 0.0
0.0 0.0 0.0 0.0 0.0 0.0 0.0 0.0
0.0 0.0 0.0 0.0 0.0 0.0 0.0 0.0
0.0 0.0 0.0 0.0 0.0 0.0 0.0 0.0
00000000: 0000 0000 0000 0000 0000 0000 0000 0000
00000010: 0000 0000 0000 0000 0000 0000 0000 0000
00000020: 0000 0000 0000 0000 0000 0000 0000 0000
00000030: 0000 0000 0000 0000 0000 0000 0000 0000
00000040: 0000 0000 0000 0000 0000 0000 0000 0000
00000050: 0000 0000 0000 0000 0000 0000 0000 0000
00000060: 0000 0000 0000 0000 0000 0000 0000 0000
00000070: 0000 0000 0000 0000 0000 0000 0000 0000
00000080: 0000 0000 0000 0000 0000 0000 0000 0000
00000090: 0000 0000 0000 0000 0000 0000 0000 0000
000000a0: 0000 0000 0000 0000 0000 0000 0000 0000
000000b0: 0000 0000 0000 0000 0000 0000 0000 0000
000000c0: 0000 0000 0000 0000 0000 0000 0000 0000
000000d0: 0000 0000 0000 0000 0000 0000 0000 0000
000000e0: 0000 0000 0000 0000 0000 0000 0000 0000
000000f0: 0000 0000 0000 0000 0000 0000 0000 0000
00000100: 0000 0000 0000 0000 0000 0000 0000 0000
00000110: 0000 0000 0000 0000 0000 0000 0000 0000
00000120: 0000 0000 0000 0000 0000 0000 0000 0000
00000130: 0000 0000 0000 0000 0000 0000 0000 0000
00000140: 0000 0000 0000 0000 0000 0000 0000 0000
00000150: 0000 0000 0000 0000 0000 0000 0000 0000
00000160: 0000 0000 0000 0000 0000 0000 0000 0000
00000170: 0000 0000 0000 0000 0000 0000 0000 0000
00000180: 0000 0000 0000 0000 0000 0000 0000 0000
00000190: 0000 0000 0000 0000 0000 0000 0000 0000
000001a0: 0000 0000 0000 0000 0000 0000 0000 0000
000001b0: 0000 0000 0000 0000 0000 0000 0000 0000
000001c0: 0000 0000 0000 0000 0000 0000 0000 0000
000001d0: 0000 0000 0000 0000 0000 0000 0000 0000
000001e0: 0000 0000 0000 0000 0000 0000 0000 0000
000001f0: 0000 0000 0000 0000 0000 0000 0000 0000

network_body._body_endoder.seq_layers.2.weight f4 [128, 128]
-0.028758962 -0.033907652 0.094165854 -0.11170214 0.09300208 -0.034641337 0.019263785 0.08550591
-0.024224762 -0.10852387 -0.0728637 0.046170577 -0.07638903 0.007922884 -0.14705743 0.16760994
-0.087707 -0.06833761 -0.06043325 -0.022376062 -0.08285286 -0.025223779 -0.05695487 -0.14253412
-0.024370058 0.096570894 -0.041922346 -0.06660456 0.14952174 -0.05726468 -0.17118666 0.004261032
0.019290144 -0.0070148744 -0.045039985 -0.047411237 0.089289 -0.07382475 0.032650907 -0.022150945
0.040192254 -0.03505121 0.04864593 0.013364556 0.007977217 0.10770432 0.05873665 0.124868475
-0.07088264 -0.13480103 -0.06390961 -0.050578013 0.10075345 0.052062556 0.082261354 -0.19890231
0.023309411 0.04424616 -0.10943322 0.024079166 -0.053491525 0.11534588 0.016328119 0.13281782
0.16512918 0.10495664 -0.031927295 -0.01803452 0.04085315 -0.17456652 0.10842846 0.053509895
-0.033710007 -0.069032 0.06853292 -0.13374978 0.09593885 -0.01044189 -0.0653574 0.0062953816
-0.042602807 -0.03434472 -0.011216887 0.024820054 0.020071788 -0.10237602 -0.11657878 0.044846017
-0.17570955 -0.050166123 0.054451007 -0.0412654 0.06130956 0.09398863 -0.053237684 0.08703828
0.10532634 0.015917901 0.0032034218 -0.016227243 -0.051111467 -0.102281116 -0.084520586 0.12703864
0.04322954 0.07300672 0.031221977 -0.13400218 0.14158127 0.072546944 -0.04377781 0.069843784
0.008987918 0.012179378 0.019599311 -0.021368315 0.10719154 0.21652062 0.10737952 0.19784017
0.1993823 0.11230388 0.11782235 -0.013518314 -0.04128569 0.0061475914 -0.14797848 0.09577964
-0.02552023 -0.06989114 -0.08679852 -0.054325547 -0.0017990922 0.25323635 -0.115368485 0.12243526
0.0008624809 0.05410485 0.11212111 0.17941064 -0.09220317 -0.01553719 0.17505047 0.07791172
-0.023936836 0.044230647 0.17348608 0.10319569 -0.006093436 -0.04373125 0.13106251 0.14389041
-0.038348217 -0.13118015 0.048244752 0.06953336 -0.08222224 -0.023999332 -0.03225607 -0.044636104
0.007753444 -0.013851263 -0.052940797 -0.08399748 0.029185943 0.06515319 -0.28251922 -0.122421674
0.05830789 0.0054790005 -0.061174933 0.025643881 0.062213395 -0.053517155 0.056251533 -0.030789705
0.11306819 -0.13655254 0.11317961 0.10861814 -0.1405208 0.0051493244 0.11901769 0.048694678
-0.005197765 -0.07804076 0.056604903 -0.038765524 0.004573658 -0.053964607 -0.030210644 -0.06586616
0.051196672 0.026032371 0.14574054 -0.014244387 0.06534087 -0.071824275 -0.04581467 -0.09573309
-0.121389285 -0.008076905 0.016619638 0.18351737 -0.107680626 -0.07224931 0.0428681 0.04011162
-0.047582235 -0.11547213 -0.16088828 0.035004713 0.043352176 0.14075206 -0.04608858 -0.080708064
-0.040401172 0.07774173 0.067770496 0.048573606 -0.15091518 -0.04427929 0.039485414 -0.047800772
0.096766025 -0.053311173 0.0749553 -0.030946773 -0.011344879 0.007927166 -0.11883893 0.1435508
0.16670369 0.046067867 -0.06238538 -0.03162421 -0.20148908 0.13671705 0.014425141 -0.002069304
0.05259044 0.0544299 0.042108558 -0.009590553 0.06267028 -0.023475703 0.16079381 -0.12642436
-0.062173598 0.13973826 0.16855961 -0.05418524 0.030735064 0.02218889 -0.13003476 -0.18490182
00000000: ea97 ebbc c0e2 0abd 07da c03d 17c4 e4bd
00000010: e077 be3d 13e4 0dbd 16cf 9d3c b91d af3d
00000020: 0273 c6bc c341 debd 9039 95bd 5c1d 3d3d
00000030: da71 9cbd fcce 013c 3996 16be f1a1 2b3e
00000040: ba9f b3bd 97f4 8bbd db88 77bd 014e b7bc
00000050: c3ae a9bd 19a2 cebc 8249 69bd 77f4 11be
00000060: b7a3 c7bc f6c6 c53d c4b6 2bbd f967 88bd
00000070: 3a1c 193e 5e8e 6abd 8e4b 2fbe 21a0 8b3b
00000080: 5d06 9e3c 08dd e5bb d97b 38bd 4932 42bd
00000090: 27dd b63d 6e31 97bd f5bc 053d e675 b5bc
000000a0: a2a0 243d dc91 0fbd f440 473d 03f7 5a3c
000000b0: e0b2 023c 1594 dc3d d795 703d 0bbb ff3d
000000c0: eb2a 91bd 4809 0abe 0be3 82bd e42a 4fbd
000000d0: d357 ce3d 8c3f 553d a478 a83d 0cad 4bbe
000000e0: 61f3 be3c 763b 353d 861e e0bd ac41 c53c
000000f0: ee19 5bbd 763a ec3d 8cc2 853c 6501 083e
00000100: a017 293e 82f3 d63d 32c6 02bd 21bd 93bc
00000110: a255 273d 91c1 32be be0f de3d 312d 5b3d
00000120: 8113 0abd a660 8dbd fd5a 8c3d b4f5 08be
00000130: 967b c43d 7614 2bbc 1ada 85bd 7d49 ce3b
00000140: 4880 2ebd 0dad 0cbd 09c7 37bc 6d53 cb3c
00000150: 976d a43c 85aa d1bd dbc0 eebd 75b0 373d
00000160: 34ed 33be fe7a 4dbd 0508 5f3d e805 29bd
00000170: bc1f 7b3d 1c7d c03d c20f 5abd 2041 b23d
00000180: 56b5 d73d 4266 823c 80f0 513b ffee 84bc
00000190: 425a 51bd c378 d1bd 2119 adbd 6b16 023e
000001a0: 7511 313d 8c84 953d 3bc5 ff3c de37 09be
000001b0: aefa 103e 7e93 943d 5c50 33bd 420a 8f3d
000001c0: 0f42 133c 048c 473c bc8e a03c 9b0c afbc
000001d0: 3d87 db3d 95b7 5d3e cbe9 db3d 9d96 4a3e
000001e0: e02a 4c3e 94ff e53d d84c f13d eb7b 5dbc
000001f0: 2f1b 29bd bc71 c93b ac87 17be 1e28 c43d
00000200: cd0f d1bc 1623 8fbd 6cc3 b1bd 7784 5ebd
00000210: 84cf ebba 32a8 813e 5046 ecbd 56bf fa3d
00000220: 1d18 623a 0c9d 5d3d c19f e53d 6cb7 373e
00000230: 04d5 bcbd b38f 7ebc 6e40 333e 2e90 9f3d
00000240: 2f17 c4bc 322b 353d 56a6 313e 4358 d33d
00000250: 72ab c7bb 8a1f 33bd 4035 063e 0258 133e
00000260: 0513 1dbd 1754 06be 4a9c 453d 8267 8e3d
00000270: 2264 a8bd 3f9a c4bc f11e 04bd 59d4 36bd
00000280: 9a10 fe3b 68f0 62bc 73d8 58bd df06 acbd
00000290: 5c17 ef3c 096f 853d 5ca6 90be 37b8 fabd
000002a0: 41d4 6e3d 3089 b33b 9192 7abd 1e13 d23c
000002b0: 79d3 7e3d ce34 5bbd 0268 663d b13a fcbc
000002c0: 4c90 e73d 6ed4 0bbe b6ca e73d 3073 de3d
000002d0: afe4 0fbe aabb a83b 8cbf f33d 1274 473d
000002e0: 0352 aabb d5d3 9fbd 8bda 673d 99c8 1ebd
000002f0: a0de 953b fe09 5dbd 507c f7bc d6e4 86bd
00000300: 9ab3 513d d741 d53c 023d 153e 4a61 69bc
00000310: 6fd1 853d 9b18 93bd 2aa8 3bbd b60f c4bd
00000320: f29a f8bd ff54 04bc e825 883c faeb 3b3e
00000330: a987 dcbd 72f7 93bd 7696 2f3d 154c 243d
00000340: 97e5 42bd a77c ecbd e6bf 24be 1a61 0f3d
00000350: 0d92 313d 4f21 103e 61c7 3cbd 454a a5bd
00000360: b37b 25bd 0e37 9f3d 42cb 8a3d 1ef5 463d
00000370: 8289 1abe 335e 35bd 75bb 213d beca 43bd
00000380: 442d c63d d15c 5abd 2a82 993d 1684 fdbc
00000390: dfdf 39bc f2e0 013c d361 f3bd fbfe 123e
000003a0: 5fb4 2a3e a9b1 3c3d d087 7fbd 6388 01bd
000003b0: 2753 4ebe 8eff 0b3e 6d57 6c3c 299d 07bb
000003c0: 1369 573d e3f1 5e3d 067a 2c3d b221 1dbc
000003d0: 4759 803d 1e50 c0bc 22a7 243e 6375 01be
000003e0: bea9 7ebd 8c17 0f3e e49a 2c3e 58f1 5dbd
000003f0: 1ac8 fb3c 7ac5 b53c d527 05be e756 3dbe

network_body._body_endoder.seq_layers.2.bias f4 [128]
0.0 0.0 0.0 0.0 0.0 0.0 0.0 0.0
0.0 0.0 0.0 0.0 0.0 0.0 0.0 0.0
0.0 0.0 0.0 0.0 0.0 0.0 0.0 0.0
0.0 0.0 0.0 0.0 0.0 0.0 0.0 0.0
0.0 0.0 0.0 0.0 0.0 0.0 0.0 0.0
0.0 0.0 0.0 0.0 0.0 0.0 0.0 0.0
0.0 0.0 0.0 0.0 0.0 0.0 0.0 0.0
0.0 0.0 0.0 0.0 0.0 0.0 0.0 0.0
0.0 0.0 0.0 0.0 0.0 0.0 0.0 0.0
0.0 0.0 0.0 0.0 0.0 0.0 0.0 0.0
0.0 0.0 0.0 0.0 0.0 0.0 0.0 0.0
0.0 0.0 0.0 0.0 0.0 0.0 0.0 0.0
0.0 0.0 0.0 0.0 0.0 0.0 0.0 0.0
0.0 0.0 0.0 0.0 0.0 0.0 0.0 0.0
0.0 0.0 0.0 0.0 0.0 0.0 0.0 0.0
0.0 0.0 0.0 0.0 0.0 0.0 0.0 0.0
00000000: 0000 0000 0000 0000 0000 0000 0000 0000
00000010: 0000 0000 0000 0000 0000 0000 0000 0000
00000020: 0000 0000 0000 0000 0000 0000 0000 0000
00000030: 0000 0000 0000 0000 0000 0000 0000 0000
00000040: 0000 0000 0000 0000 0000 0000 0000 0000
00000050: 0000 0000 0000 0000 0000 0000 0000 0000
00000060: 0000 0000 0000 0000 0000 0000 0000 0000
00000070: 0000 0000 0000 0000 0000 0000 0000 0000
00000080: 0000 0000 0000 0000 0000 0000 0000 0000
00000090: 0000 0000 0000 0000 0000 0000 0000 0000
000000a0: 0000 0000 0000 0000 0000 0000 0000 0000
000000b0: 0000 0000 0000 0000 0000 0000 0000 0000
000000c0: 0000 0000 0000 0000 0000 0000 0000 0000
000000d0: 0000 0000 0000 0000 0000 0000 0000 0000
000000e0: 0000 0000 0000 0000 0000 0000 0000 0000
000000f0: 0000 0000 0000 0000 0000 0000 0000 0000
00000100: 0000 0000 0000 0000 0000 0000 0000 0000
00000110: 0000 0000 0000 0000 0000 0000 0000 0000
00000120: 0000 0000 0000 0000 0000 0000 0000 0000
00000130: 0000 0000 0000 0000 0000 0000 0000 0000
00000140: 0000 0000 0000 0000 0000 0000 0000 0000
00000150: 0000 0000 0000 0000 0000 0000 0000 0000
00000160: 0000 0000 0000 0000 0000 0000 0000 0000
00000170: 0000 0000 0000 0000 0000 0000 0000 0000
00000180: 0000 0000 0000 0000 0000 0000 0000 0000
00000190: 0000 0000 0000 0000 0000 0000 0000 0000
000001a0: 0000 0000 0000 0000 0000 0000 0000 0000
000001b0: 0000 0000 0000 0000 0000 0000 0000 0000
000001c0: 0000 0000 0000 0000 0000 0000 0000 0000
000001d0: 0000 0000 0000 0000 0000 0000 0000 0000
000001e0: 0000 0000 0000 0000 0000 0000 0000 0000
000001f0: 0000 0000 0000 0000 0000 0000 0000 0000

value_heads.value_heads.extrinsic.weight f4 [1, 128]
-0.015714183 -0.21232107 0.09368637 0.11378658 0.0643439 0.09793523 0.119306326 0.099825084
-0.024694204 -0.016899884 -0.20607172 -0.121489495 0.06217006 -0.15369402 0.19478843 -0.12289315
-0.1461235 -0.13086438 -0.1953007 0.15970138 -0.14169005 -0.0678104 -0.08654228 0.046583205
-0.18886377 0.18293744 -0.12028805 -0.12886743 -0.19706881 0.052596956 0.09832612 0.008414999
0.09011772 -0.20056997 -0.18996303 0.19444147 0.20550191 0.1702039 -0.083728164 -0.09548358
-0.005690381 -0.07981408 0.07536158 0.19898263 -0.077965796 0.036095798 -0.111927375 -0.088777214
-0.17510706 -0.15643498 -0.1227842 -0.19886306 0.010140821 0.1277363 -0.07446812 -0.18343648
0.18612748 0.030631468 0.17368463 -0.12446862 -0.18637061 -0.07814194 0.08646813 0.06316483
0.071041465 0.01399225 -0.12560675 -0.12892401 0.18247622 -0.17617498 -0.18481043 -0.01798059
0.19895476 -0.21467929 0.032517895 -0.19230965 0.04598698 -0.18285275 -0.19677293 0.02774483
0.06756738 -0.18747005 0.17910385 -0.11536049 -0.015475526 0.092635304 -0.11083701 0.026238024
0.18370897 -0.01460658 -0.09746471 -0.16176842 0.090224296 0.0073604584 0.011367977 0.20790404
0.13446611 0.16823488 0.19076195 -0.05596879 0.1332008 -0.09952614 0.024508968 0.11749223
-0.090473294 0.119586855 0.14059055 -0.11864355 -0.116694555 0.07388759 -0.21494515 0.19830728
0.107775986 -0.039109603 -0.09984738 0.13067499 -0.052823126 0.05405304 0.16484308 0.034080714
0.14292037 -0.1088603 0.1546503 0.041039854 0.14903605 -0.15796748 0.11191246 -0.1090181
00000000: 08bb 80bc b26a 59be a4de bf3d f008 e93d
00000010: bcc6 833d 4492 c83d e056 f43d 1871 cc3d
00000020: 804b cabc a071 8abc 7704 53be 7ccf f8bd
00000030: 08a6 7e3d f761 1dbe 9e76 473e 67af fbbd
00000040: 66a1 15be 5001 06be e8fc 47be c288 233e
00000050: 3217 11be 2ee0 8abd 143d b1bd 08ce 3e3d
00000060: 8165 41be f453 3b3e 9559 f6bd d3f5 03be
00000070: 68cc 49be e86f 573d 345f c93d 10df 093c
00000080: a48f b83d 3762 4dbe ab85 42be aa1b 473e
00000090: 186f 523e ee49 2e3e ac79 abbd e58c c3bd
000000a0: 6076 babb 9075 a3bd 2c57 9a3d 1ac2 4b3e
000000b0: 88ac 9fbd 30d9 133d 2e3a e5bd d4d0 b5bd
000000c0: 444f 33be 7e30 20be 4876 fbbd c2a2 4bbe
000000d0: b025 263c 4ecd 023e be82 98bd c6d6 3bbe
000000e0: 3498 3e3e d8ee fa3c 62da 313e 67e9 febd
000000f0: f0d7 3ebe e208 a0bd 3416 b13d 905c 813d
00000100: 307e 913d c03f 653c 0e9f 00be a804 04be
00000110: 0cdb 3a3e 3767 34be f23e 3dbe 084c 93bc
00000120: ccba 4b3e e3d4 5bbe 7c31 053d d2ec 44be
00000130: d85c 3c3d c03d 3bbe d87e 49be 2049 e33c
00000140: c460 8a3d 26f8 3fbe 0067 373e 1f42 ecbd
00000150: 108d 7dbc 94b7 bd3d 84fe e2bd 20f1 d63c
00000160: 341e 3c3e 7050 6fbc 949b c7bd 9fa6 25be
00000170: 84c7 b83d 0030 f13b c040 3a3c cce4 543e
00000180: 7cb1 093e c445 2c3e 1a57 433e 883f 65bd
00000190: ca65 083e 5cd4 cbbd 08c7 c83c c49f f03d
000001a0: 104a b9bd f4e9 f43d f8f6 0f3e 64fb f2bd
000001b0: 8efd eebd 6052 973d 951a 5cbe 1011 4b3e
000001c0: a8b9 dc3d 6431 20bd c87c ccbd aacf 053e
000001d0: 105d 58bd b866 5d3d a0cc 283e 3898 0b3d
000001e0: b859 123e 26f2 debd a65c 1e3e 6819 283d
000001f0: e89c 183e 3ac2 21be 5c32 e53d e244 dfbd
