old_ppo/PoI/PoI-1728.pt (torch, 487332 bytes, 36 tensors)

network_body._body_endoder.seq_layers.0.weight f4 [128, 20]
000000 92 4a cf 3d 7b dd c5 3e b5 06 46 3e 0d 2d 25 3e
       0.10121645 0.3864554 0.19338496 0.16130467
000010 95 20 86 bd de 26 fb 3c a0 ff 28 3e 04 a0 55 3e
       -0.06549183 0.030658182 0.16503763 0.20861822
000020 80 56 65 be 29 13 18 be ab 30 b0 bd 63 8f 19 be
       -0.22396278 -0.14851059 -0.08603033 -0.14996104
000030 6b f3 62 3e e4 ec 80 be 4e 1c 11 be 95 63 ce 3c
       0.22163169 -0.25180733 -0.14170954 0.025193969
000040 1c 3e 50 3e 84 f0 ee 3e 81 04 91 be 96 ce c3 bc
       0.20336193 0.46667874 -0.2832375 -0.023902219
000050 30 2d 75 be c9 99 ea be 37 f9 03 bf 78 60 b6 3e
       -0.23943019 -0.45820454 -0.51552147 0.35620475
000060 4f 0d c9 be 4c 32 8f bd a8 2b 2a 3e 72 8b 07 3d
       -0.39267966 -0.06992015 0.16618216 0.03309197
000070 82 c2 09 3e d2 c5 a2 bd a0 63 84 bd 61 49 ab be
       0.13453105 -0.079478875 -0.064643145 -0.3345442
000080 1f 68 91 bd d0 45 a6 bd 98 2c 2e 3d 89 9a af 3e
       -0.07099938 -0.081187844 0.042522997 0.34297588
000090 d6 7b 77 3d 7a c7 9b be 9d 58 07 3e b7 b2 68 3e
       0.060420834 -0.30425626 0.13217397 0.22724424
0000a0 8e 77 43 be df ab 9b 3e a7 a3 e2 3d 1e a3 0d 3e
       -0.19088575 0.30404565 0.110663705 0.13831756
0000b0 97 71 07 bd 15 50 fa 3e de 1d 1f bd 9d 53 5b 3e
       -0.033067312 0.48889223 -0.038846843 0.21418615
0000c0 0d 99 2b bd 89 f3 19 be 1c 6a b5 3e cf 90 7b ba
       -0.041894007 -0.15034308 0.35432518 -0.00095964683
0000d0 15 8a 85 bd 25 a9 ae bb e7 21 cd 3e 6c fe e0 3b
       -0.06520478 -0.005330222 0.40064928 0.006866267
0000e0 db 8f a8 bd 95 45 84 bc 20 20 1c 3e ec e9 ca be
       -0.08230563 -0.01614646 0.1524663 -0.39631593
0000f0 4e e4 35 3e b9 ce b6 be 42 3b 48 3e 4b 75 06 be
       0.17762873 -0.35704592 0.19553855 -0.13130681
000100 1d 31 e7 3e 4e bb 57 be 8d 57 81 3c c2 83 23 bc
       0.45154658 -0.21067545 0.015788818 -0.009980144
000110 e8 e8 d9 be 0f 40 8d bd b0 c9 0f 3e 64 f1 5f be
       -0.42560506 -0.06896984 0.14041781 -0.21869427
000120 9b c1 0e 3e e0 47 ab bd 48 89 ba bd 33 ce 73 be
       0.13941042 -0.083633184 -0.091082156 -0.23809128
000130 bd 13 b7 bc 6e 10 74 be 6a 99 e2 3d 12 ce 25 3c
       -0.02234828 -0.23834392 0.11064418 0.010119932
000140 08 83 3f 3e 3f 05 e4 3d 7f af 00 3e 59 51 a7 be
       0.18702328 0.11133813 0.12566946 -0.3267925
000150 e2 a9 f7 bd 21 63 cb 3d d7 2c 9f 3e 06 50 48 3c
       -0.120929495 0.09931017 0.31088898 0.01222611
000160 ec 27 f1 bd 7d 90 9f be bc 02 16 be dd 5a 61 3d
       -0.117751926 -0.31164923 -0.1464948 0.055018295
000170 58 78 d3 3b e6 77 d7 bc 7e 07 4b 3e 8d 11 e2 3c
       0.006453555 -0.02630229 0.19827077 0.02759626
000180 07 13 b1 3e 1c 86 e3 3d b2 52 75 3e 2d 16 08 be
       0.3458483 0.11109564 0.23957327 -0.1328971
000190 bf 4e 40 be cf 50 ac 3e f4 c2 e4 be 9a 0f 20 3e
       -0.18780039 0.33655402 -0.44679987 0.15630952
0001a0 1d e5 35 be 50 0d 47 be d3 fb 53 bc 79 85 0d 3e
       -0.17763181 -0.19438672 -0.012938458 0.13820447
0001b0 d8 2b 45 3d c9 4f 83 3e 87 a0 10 3f 60 c2 9e be
       0.048137516 0.2564681 0.56494945 -0.3100767
0001c0 04 4e 8d be 2a 32 57 be f9 05 af be 90 f6 29 3e
       -0.27598584 -0.2101523 -0.34184244 0.16597962
0001d0 ca 62 89 3e f2 bf 35 3e 1a 62 f7 bd 0b aa 6a be
       0.26833183 0.17749003 -0.12079258 -0.22916429
0001e0 c9 eb e1 bd 4b e2 c2 be 82 85 9a 3e d8 49 29 3e
       -0.110313006 -0.38063273 0.30179983 0.16532075
0001f0 a2 6e 2f bd b9 9e 93 3e c0 11 71 be 51 e5 22 3d
       -0.042830117 0.28832033 -0.23541927 0.039769474
000200 b7 fa 46 3d 8f e0 8a be 4e f6 3c 3e 67 ad db bd
       0.048578944 -0.2712445 0.18453333 -0.10726433
000210 82 8a 8d 3d be 31 96 be 45 5d 80 be 65 e7 2d be
       0.06911184 -0.29334825 -0.2507116 -0.16982801
000220 89 df 0b be 80 38 27 3e 9e 60 90 be a3 48 67 3e
       -0.1365949 0.16330147 -0.28198713 0.22586302
000230 bc f7 b9 3d f2 ac b0 3c d1 3a 91 be e0 76 f2 3d
       0.09080455 0.021566842 -0.28365186 0.1183908
000240 08 31 ce 3e 86 24 00 3f 2e c8 cf be 3f 1a 30 be
       0.40271783 0.5005573 -0.40582412 -0.17197512
000250 e1 9a 18 3f cd 8b 23 bd e4 ef 6b 3e aa 1c 64 be
       0.59611326 -0.039928246 0.2304073 -0.2227656
000260 da 0b cc bd 06 5f 2a bc 0d b2 43 bd 87 f8 b7 be
       -0.09963198 -0.010398632 -0.047777224 -0.359318
000270 49 39 b5 3e f7 15 7c 3e 10 fa 65 bd af fe 38 bd
       0.35395268 0.24617754 -0.05614668 -0.04516476
000280 a2 5c 96 3c 66 42 cc 3d ea 27 01 3e 06 02 dc 3d
       0.018354718 0.09973602 0.12612882 0.107425734
000290 de 40 84 3e a4 c5 e0 bd d0 84 a8 be 38 59 b0 be
       0.2583074 -0.10975197 -0.32913828 -0.34443069
0002a0 93 b1 6a bb d3 12 8d bd 72 bb 98 bc f9 ee 36 bf
       -0.003581141 -0.06888356 -0.018644068 -0.71458393
0002b0 fe e2 cb bd 65 d9 cb b9 92 b0 a1 3d 7a f9 0b 3e
       -0.09955405 -0.0003888115 0.07895006 0.13669387
0002c0 57 1d 1e be 76 15 73 be f1 c0 a4 be 25 e6 eb be
       -0.1544088 -0.23738655 -0.32178453 -0.46074024
0002d0 55 79 41 3e d4 6d 51 3c 42 30 d5 3d 74 a7 89 be
       0.18893941 0.012782533 0.10409595 -0.2688557
0002e0 02 65 80 be 9a 07 8d 3e b5 7f 58 bc 41 88 91 3e
       -0.25077063 0.27544862 -0.0132140415 0.28424266
0002f0 76 ac ab 3e 7c 8f f6 be 3d 84 dd 3d f4 46 8d be
       0.33530015 -0.48156345 0.10816238 -0.27593195
000300 81 2a 33 be 87 bc 8a 3e 31 4a a1 bd 45 70 25 be
       -0.17496683 0.2709696 -0.07875479 -0.16156109
000310 02 d9 93 be 01 76 da 3e e3 fb d1 3e ae de 02 bf
       -0.288765 0.42668155 0.41012487 -0.5112103
000320 2b 71 0f be 6d 90 87 be f7 d0 16 3e 71 69 4b 3e
       -0.14008014 -0.26477376 0.14728151 0.19864441
000330 9b 4c 76 3e 62 9a 2c 3e 6d 15 65 bd 95 fb f9 3c
       0.2405266 0.16855767 -0.055928636 0.030515471
000340 36 c6 cf be d1 9b d9 3e 8f e4 3f 3c 88 68 a7 3e
       -0.4058091 0.4250169 0.011712207 0.3269694
000350 68 74 14 bf 4e 0a 88 bd 83 00 60 3e 1f 75 b5 be
       -0.5799012 -0.066425905 0.21875195 -0.3544092
000360 eb 3a 54 bd 0c 35 b6 bb 2e ba fb 3d 47 66 ac 3e
       -0.051814 -0.005560523 0.1229137 0.3367178
000370 83 94 9a 3e 79 fe 32 3e 2f 1f 82 be 85 d8 a7 3d
       0.3019143 0.17479886 -0.25414416 0.08195595
000380 32 7d c4 3d 33 65 40 3e 7c 08 2d bb 2c 0f 3f bd
       0.095941916 0.18788604 -0.0026402762 -0.04664533
000390 d1 92 71 be a0 3a 8f bd e4 6a 8b 3e eb 9c a8 be
       -0.23591162 -0.06993604 0.2722999 -0.3293222
0003a0 e8 6a 3c bc ea 76 a0 3e 16 5b eb 3d 87 23 80 be
       -0.011500098 0.31340724 0.11491983 -0.25027105
0003b0 3b 12 a0 be 31 90 66 3e d0 59 97 3e b0 6e 9d 3e
       -0.3126391 0.22515942 0.2956071 0.3074851
0003c0 d1 4f 66 3d 2f 35 d5 3e a6 62 b3 be c4 e1 10 be
       0.056228463 0.41642138 -0.350362 -0.14148623
0003d0 69 03 bf 3d 74 c4 f3 3d 85 ea 8b bd 67 f2 0a be
       0.09326822 0.11902705 -0.068318404 -0.13569032
0003e0 fe 62 3f bd 41 09 0b bc b9 fe 8a bd cc 93 02 bf
       -0.046725266 -0.008486093 -0.06786866 -0.5100677
0003f0 b8 f5 66 3d 35 67 9c 3d 47 cb 89 3e d5 0a 44 be
       0.05638668 0.07636873 0.269129 -0.19144757

network_body._body_endoder.seq_layers.0.bias f4 [128]
000000 8a e4 46 bb 96 41 6c 3b 76 2a 53 bb 8e ef 0e 3c
       -0.0030348622 0.0036049834 -0.0032221354 0.0087241065
000010 29 d7 8a 3b 64 8a a7 3a 96 81 f4 bb 7f 37 8d 3b
       0.004237075 0.0012782332 -0.007461737 0.004309594
000020 7d 04 b3 3a 0d b5 38 3c fb 83 b3 39 cd 2e 09 3b
       0.0013657954 0.011273635 0.00034239874 0.0020932436
000030 3e 61 1a ba e0 5d 43 bb 76 0c 09 39 81 4f 54 bb
       -0.0005889124 -0.0029810593 0.0001306998 -0.003239602
000040 75 f9 9d ba 2c ac 65 3b e1 e7 2c ba bb d2 cf ba
       -0.0012052493 0.003504525 -0.0006595832 -0.0015855649
000050 20 cd 27 ba f5 0b ce 3a ae 8f a0 b9 f3 f0 93 39
       -0.00064011104 0.0015720116 -0.00030624628 0.00028217546
000060 20 63 b4 bb 23 7a 82 bc cb e4 cf b9 a9 4c 7b bb
       -0.0055049807 -0.01592738 -0.0003965258 -0.0038345254
000070 24 8c 8c ba e4 b5 2a 3b 27 76 ff ba 54 5b a1 bb
       -0.0010722918 0.0026048357 -0.0019490168 -0.0049242172
000080 2f a3 0c bc 7f ad 25 bb 05 7f 96 ba 86 20 ab 3b
       -0.008583828 -0.0025280414 -0.0011481947 0.005222383
000090 1d af a7 bb ac b3 bf bb e2 ae 5a 3b 2e d8 16 bc
       -0.0051173107 -0.005850276 0.0033368398 -0.009206815
0000a0 3e 36 75 3b de 93 be 3b b7 f5 86 bb d8 9c a9 3b
       0.0037416364 0.005815967 -0.004118647 0.005176168
0000b0 04 9f 49 ba 18 08 c0 39 81 9c 9f b9 99 6c fd 3a
       -0.00076912367 0.00036627124 -0.00030443448 0.0019334733
0000c0 87 41 4e 3c f4 a2 67 3b b7 82 80 3b 64 35 85 bb
       0.012588865 0.003534493 0.0039218324 -0.0040652025
0000d0 ce 4a 03 3a 1b 78 93 bb 6f 0e 28 bb de 78 79 bb
       0.00050084 -0.0045004017 -0.0025643369 -0.0038066427
0000e0 54 a5 24 3b 80 5a d5 3b 3a 96 c2 bb f5 93 10 3b
       0.0025122957 0.0065110326 -0.0059383186 0.0022060846
0000f0 dc ca 30 b9 00 92 b5 3b 21 b6 09 bc b4 64 5a 3b
       -0.00016860239 0.005541086 -0.008405239 0.0033324184
000100 58 d4 fe 3a 37 cf dd ba ea 9e 1b bc 80 92 e8 3b
       0.0019441945 -0.0016922717 -0.009498337 0.0070975423
000110 7e 1d d0 3b ea 78 28 bc 2b 22 2a 3a 5a b2 4b bb
       0.006351172 -0.010282734 0.0006490077 -0.0031081648
000120 a9 74 98 3a fd ab 0d bc 42 a4 90 3a b8 dc 98 ba
       0.0011631447 -0.008646962 0.0011035281 -0.0011662459
000130 28 d3 a2 3a 58 2f d2 ba 19 26 26 3b de 93 22 3b
       0.0012422549 -0.0016035838 0.0025352298 0.0024807374
000140 09 3c 22 bb 01 0e e6 3a b6 de 4e 3c 9b d1 0c bb
       -0.0024755022 0.0017551781 0.012626341 -0.002148724
000150 0c 75 54 bb 59 2d 9c bb 6c e8 3f b9 82 1d d1 bb
       -0.0032418398 -0.004766148 -0.00018301763 -0.0063816914
000160 11 fc 8c bb 94 fe d9 bb ae bf 07 bb 9f da 0c bc
       -0.0043025096 -0.0066526625 -0.0020713615 -0.008597045
000170 3f 7d f9 3a 6e be 81 b9 3a e5 11 ba b1 03 e0 bb
       0.0019034519 -0.00024746679 -0.00055654685 -0.0068363775
000180 84 f8 bc 3a 0c ea 3d b8 a7 42 f2 3a 7d 3d 2e 3b
       0.0014417325 -4.5279085e-05 0.0018482999 0.0026586943
000190 4c f7 86 3b 93 ed 95 ba 31 17 1c bc 43 d0 42 bb
       0.0041188356 -0.00114386 -0.009527014 -0.0029726184
0001a0 d0 53 36 3b 97 0d 92 bb 09 6c 03 3c b9 e6 02 bc
       0.0027820952 -0.0044571864 0.008021363 -0.007989579
0001b0 a8 44 3d bc aa 22 3c 39 0b a0 5a bb 1b 0d 67 bb
       -0.011552013 0.0001794199 -0.0033359553 -0.0035255614
0001c0 00 5f 72 3c 1d 21 c2 3a 01 33 90 3b 8e 0f b8 b9
       0.014793158 0.0014810894 0.0044006114 -0.00035106804
0001d0 58 d9 06 3b 06 52 71 bc 4c 5c 26 bb 43 b6 49 3c
       0.0020576324 -0.014729029 -0.0025384603 0.012311521
0001e0 b4 c8 dc bb fd 33 e5 bb 10 bd c1 b9 03 c5 03 bc
       -0.006737793 -0.006994723 -0.0003695269 -0.008042577
0001f0 49 ba bc bb 4c e3 01 ba 01 c4 11 3b 50 69 9a ba
       -0.0057595116 -0.00049548293 0.0022242072 -0.0011780653

network_body._body_endoder.seq_layers.2.weight f4 [128, 128]
000000 ed 0e 16 bd 4b e3 1a bd b8 95 71 3c 4e bd 62 3e
       -0.036635328 -0.03781442 0.014745168 0.22142527
000010 62 f1 2e 3b 96 00 67 bd cb fc b7 bd 44 29 22 3d
       0.0026694168 -0.056397043 -0.08983763 0.039590135
000020 79 34 56 3d 39 1d 3a be 86 9b 92 be eb 1c 07 3e
       0.052296136 -0.1817521 -0.2863428 0.13194625
000030 b4 f5 a6 bd 30 5d 97 bd 8c 52 6b bc 3f 06 03 bc
       -0.08152333 -0.07390821 -0.014362942 -0.007997095
000040 d9 01 94 bd 8b 40 db 3c f2 cb 34 be 6c 1b 0b be
       -0.07226915 0.026764175 -0.17655924 -0.1358468
000050 b5 fd ba bd 5b e9 43 bd 63 47 a8 3d a8 e3 40 3e
       -0.09130422 -0.047829967 0.08216741 0.18836844
000060 bb f1 c6 bd 4b 6a c9 bc 7f b8 12 3e 63 36 ee bc
       -0.09714075 -0.024586817 0.14328192 -0.029078668
000070 fe 2e d8 3d cb 13 c0 bd fa 3d 59 3e eb ea 83 3b
       0.10555838 -0.09378775 0.21215048 0.004025807
000080 9b d4 07 be e8 09 86 bd ac 58 0e 3b 40 02 81 bb
       -0.13264696 -0.06544858 0.0021720333 -0.003937036
000090 cb f6 28 3a fe 06 5c 3d 12 84 2c be 4d c6 a2 bd
       0.00064454664 0.053717606 -0.16847256 -0.07947979
0000a0 d4 7d e0 bd 26 3e ba bd a4 d3 9c 3d 90 f6 ff bc
       -0.109615 -0.09093885 0.07657555 -0.0312455
0000b0 55 9c 07 bd 86 3d 1f bd 43 7e 02 3d ea 75 3a 3c
       -0.033108074 -0.038877033 0.031858694 0.011380652
0000c0 c5 9e 95 3c 2a e1 13 3e 12 20 36 bd 14 6f b5 bd
       0.018264184 0.14441362 -0.04446418 -0.08859077
0000d0 48 97 fb 3c d7 3f 38 3d ef 3b 18 bc 7c 50 f1 bc
       0.030711785 0.044982757 -0.009291633 -0.029457323
0000e0 a3 a5 84 3d ee 18 83 be 6f 74 66 3d 9b b2 03 3c
       0.06476905 -0.25604957 0.056263383 0.008038188
0000f0 c5 5d 91 3d d3 17 b1 3b de 44 0a 3d 2c 42 a0 3b
       0.07097963 0.0054044514 0.033757083 0.004890701
000100 d3 4a 91 3d 22 4b ef bd 6f 90 15 3d d4 d3 b3 3d
       0.0709435 -0.11684252 0.036514696 0.087806374
000110 f7 5e 1d be 10 f6 39 3d 64 53 bb 3c e6 5a 3d bd
       -0.15368257 0.04540068 0.022866912 -0.046229266
000120 c8 16 0c bd 69 db 6f 3d ce 8e c3 3d 65 be a8 bd
       -0.034201413 0.058558855 0.09548722 -0.0823944
000130 ef f3 bd 3a 61 53 a1 bd e2 a3 34 3b af ba 89 bc
       0.0014492254 -0.078772314 0.0027563502 -0.01681265
000140 d2 14 ab bd 76 ac 76 bd 6a 48 b6 bb 56 9d d6 3b
       -0.083535805 -0.060223065 -0.0055628316 0.0065495176
000150 ab ea 12 3d f0 cf 59 3c e5 98 47 be a0 49 44 3d
       0.035868328 0.013294205 -0.19491918 0.047921777
000160 c5 3a 13 bd c9 b9 43 bd 95 29 41 bd bd a7 13 be
       -0.03594472 -0.0477846 -0.047158796 -0.14419456
000170 f0 52 cd bd 70 ae 28 3c 32 8e d3 3d 00 f0 bd 3b
       -0.10025585 0.010295495 0.10329856 0.0057964325
000180 51 4b 82 3c 4d 93 d3 3c 87 70 cf 3d d6 a2 5b 3b
       0.015905054 0.025827074 0.10128885 0.0033513806
000190 c9 c5 5c bd 8d 27 98 bd 6d 6d 0c bd e2 fd e8 bb
       -0.05389956 -0.07429419 -0.034284044 -0.0071103433
0001a0 f7 0b 95 bd 8b 5d 2b 3e 2d c8 51 3e 03 4b 9c 3d
       -0.07277673 0.16734903 0.20486517 0.07631495
0001b0 e2 c7 7a 3d 7e e0 7f bd 15 48 aa 3c 31 d6 63 bd
       0.06122578 -0.06246995 0.020786325 -0.05562419
0001c0 c3 a7 3f 3e e1 97 af 3d c3 63 d3 ba ca 4c 2b 3e
       0.1871634 0.085738905 -0.0016127754 0.16728511
0001d0 b0 c9 01 3e 21 5c 13 3e de 4d cb bd 1a 07 e4 3d
       0.12674594 0.14390613 -0.09926961 0.11134167
0001e0 58 81 6e 3d b9 0a f5 bb 26 5b 36 be 44 6f 5c bd
       0.05822882 -0.007478085 -0.17808208 -0.05381705
0001f0 f5 aa dc bd bb 42 6a bd 19 ef 80 bc 25 f9 14 bd
       -0.10774795 -0.057192545 -0.01573901 -0.036370415
000200 12 16 95 3c 46 44 70 bd f1 01 d2 bc 7d 20 f8 bd
       0.018199 -0.05865886 -0.025635691 -0.12115572
000210 63 ed 9f 3d 65 1e f6 bc d0 a0 27 3e e3 ea 52 bc
       0.0780895 -0.03004379 0.16369939 -0.012873384
000220 31 44 59 3c 80 fa 02 bd 14 bd 9b bb 7e e0 25 3c
       0.013260887 -0.031977177 -0.0047527645 0.010124324
000230 1b 8e af bd 1a 87 dc 3d 13 f5 87 3c 2e 4c aa 3c
       -0.08572026 0.10767956 0.016596353 0.020788278
000240 db ef 4e bc 47 37 1c 3d 4a 0d 3d bd 14 d2 7b be
       -0.012630428 0.038138654 -0.04615525 -0.24591857
000250 2d 93 aa 3c 06 93 ca 3d 74 70 b2 bd 8e 41 bf 3d
       0.020822132 0.09891324 -0.08712855 0.093386754
000260 ad 08 03 3e 85 4a 1b 3d d9 f0 18 3e 4f e4 03 be
       0.12796278 0.037912864 0.14935626 -0.12880062
000270 96 96 0c 3d 43 1b 29 bd a6 c5 c7 bd c0 da a1 bc
       0.034323297 -0.041285764 -0.09754495 -0.019757628
000280 7b 6a 4e bd 3e 9c 83 bd b9 f1 ed 3d 26 a1 02 3b
       -0.050394516 -0.06426285 0.116183706 0.0019932478
000290 94 91 00 3e cd 30 0c bb cd 10 47 bd e3 d8 1f 3d
       0.12555534 -0.0021391392 -0.048600007 0.0390252
0002a0 ea 65 f2 bb 0c 3f 00 be 30 14 1a be 70 05 5c bd
       -0.007397403 -0.1252405 -0.15046763 -0.053716123
0002b0 55 ea ec 3d 78 56 41 3e 22 36 8f bd 1b 33 5c bd
       0.11568133 0.18880641 -0.06992747 -0.053759675
0002c0 76 ac 3b 3e 4c 2a f2 bc 2f 90 c7 bd 97 5d b0 bb
       0.18327507 -0.029561184 -0.09744298 -0.0053822505
0002d0 e2 df 58 bd 39 78 a1 bc a8 d7 89 3d a0 7c 31 bc
       -0.052947886 -0.019710647 0.06730586 -0.010832936
0002e0 41 38 2c bc 87 e7 24 3d 8f 23 20 be c0 59 4b 3e
       -0.010511459 0.040259864 -0.15638565 0.19858456
0002f0 1e b2 7b bb 10 65 2d bc 74 6e 42 be 7d b3 a2 bd
       -0.0038405727 -0.010583177 -0.18987447 -0.07944391
000300 f6 d6 23 3e fc bd d7 3d 8f 20 46 3b a0 9c 18 be
       0.1599997 0.105342835 0.0030231809 -0.14903498
000310 d3 2a 62 be 00 46 ac bd 68 0e ae 3c da 7e 9b 3d
       -0.22086649 -0.08411789 0.021247104 0.075925544
000320 3e 70 d2 3c 8c fa 9e bd 8a e7 2e bd df 71 3b 3d
       0.025688287 -0.07762632 -0.04270128 0.045762893
000330 8a 4c dd 3d 35 04 1c bd 12 72 5d 3d d4 27 8b bb
       0.10805614 -0.03808995 0.054063864 -0.0042466912
000340 b0 6c c1 3c cc ef 9e 3d 4c 78 00 3d 07 ac 86 3d
       0.023611397 0.077605814 0.031364724 0.0657578
000350 69 ad 81 bc 83 11 b4 bd 2b 86 6a bd 70 f9 81 3c
       -0.015829759 -0.087924026 -0.05725686 0.015866011
000360 5f a1 99 bc 55 4d 1c 3d d7 80 36 3d 8a 68 35 3d
       -0.018753706 0.038159687 0.044556465 0.04428915
000370 b5 b6 30 bd 4e 3c 03 bd 17 ad 25 3e 4f 43 d9 3d
       -0.043142993 -0.032039933 0.1617931 0.10608541
000380 44 40 50 3e b0 90 32 3d 96 dc 1d 3d e0 81 0a be
       0.20337015 0.043595016 0.038540445 -0.13526106
000390 e5 b7 1f be ec 14 85 3d 34 d9 6f 3d b2 48 2d 3d
       -0.15597494 0.06498131 0.05855675 0.042305656
0003a0 2f 9a d0 3d 5b 96 f6 bd fa bd 0a bd d7 eb a6 bd
       0.10185658 -0.12040397 -0.033872582 -0.08150452
0003b0 25 e0 20 bc 32 bd 10 3e dc a3 25 3e 2b 70 45 3d
       -0.009819065 0.14134672 0.16175789 0.048202675
0003c0 c8 5a 75 bd c8 d3 28 be c6 ef 39 3c 67 b1 56 3b
       -0.05990103 -0.16487038 0.01134867 0.0032759549
0003d0 2e 25 99 bd 81 00 8a bd 10 8f b7 bd ce cc 84 ba
       -0.074777946 -0.06738377 -0.08962834 -0.0010131837
0003e0 f6 84 2f 3c 0c e2 cf bc 98 1f 39 bd ec 00 a4 bd
       0.010712853 -0.025376342 -0.045196146 -0.08007988
0003f0 83 72 0e bd f5 65 4e bd ea bc 9d bc 72 42 21 3e
       -0.034777176 -0.050390203 -0.01925512 0.15748003

network_body._body_endoder.seq_layers.2.bias f4 [128]
000000 f6 27 d7 3a 4d b2 9f bb 66 3b 54 bb e8 ec c2 3b
       0.0016415108 -0.00487355 -0.0032384037 0.0059486516
000010 0e 46 03 bc 1e 7e c6 bb fb bf cf 3a 9f 0e d7 ba
       -0.008012308 -0.006057515 0.0015850061 -0.0016407556
000020 60 8f 38 3b 69 54 c1 bb 95 93 de 39 4d c2 a7 ba
       0.002816163 -0.005899955 0.00042453097 -0.0012798995
000030 7a 39 8e bb 9c 14 ff ba 4f bc 92 bb f9 96 db 3a
       -0.004340348 -0.0019461098 -0.0044780145 0.0016753367
000040 a7 93 93 3b bc 08 9a 3a 76 fd 1b 39 d0 90 06 bc
       0.0045036855 0.0011751871 0.00014876373 -0.008213237
000050 af e6 03 3b ce 02 d2 b9 59 3c df bb 51 07 cb 3a
       0.0020126512 -0.0004005641 -0.006812614 0.0015489851
000060 69 9b 8d ba b2 49 ad ba ce dd e0 bb 89 11 19 3a
       -0.0010803762 -0.0013220815 -0.0068623787 0.00058391
000070 b9 9f f4 b8 da 6e 92 3b 9a 63 d9 3a b9 62 86 bb
       -0.00011664577 0.004468781 0.001658547 -0.004101124
000080 58 8b d6 bb 2e 13 d8 39 d4 29 04 3b 24 c4 ce 3b
       -0.006547373 0.0004121302 0.0020166533 0.006310003
000090 dc 12 35 3c d7 09 a8 3b 20 3b 54 37 4c ee 80 bb
       0.01105186 0.005128126 1.2649951e-05 -0.003934657
0000a0 a1 d6 8d bb 4f b7 79 3a a3 8c a1 bb 09 3d f4 39
       -0.0043285643 0.00095259113 -0.0049300953 0.0004658478
0000b0 61 f1 18 bb 42 44 96 bb c4 52 f1 bb ed ea e4 3a
       -0.0023337232 -0.0045857737 -0.0073646028 0.0017465033
0000c0 4b 2e 5d ba ca 89 b3 3b 18 2d 11 ba d3 08 60 3b
       -0.0008437379 0.005479072 -0.00055380305 0.0034184947
0000d0 2b 8b 39 bb 56 d2 ce ba 7b 32 4b bb d2 2a 91 bb
       -0.002831171 -0.0015779238 -0.003100543 -0.0044301534
0000e0 e4 a4 9b bb b0 51 66 3a c0 dd 19 bb 21 fe dd 3b
       -0.004749881 0.0008785976 -0.002347812 0.0067746793
0000f0 5c 70 ae bb 8f 65 00 3a fc b6 11 ba 53 59 2f bb
       -0.005323453 0.0004897946 -0.0005558578 -0.0026756122
000100 81 52 76 3b f4 23 43 3a 1e d8 9b bb 5d 79 5e bb
       0.0037585797 0.0007444017 -0.004755988 -0.003394685
000110 82 af a9 bb 38 8f fa bb 28 3e 97 ba 16 1f 64 3a
       -0.005178393 -0.0076464675 -0.001153891 0.0008702142
000120 66 8c e3 39 52 4c 89 b9 b5 7d 16 bb 04 46 d7 bb
       0.0004340142 -0.0002618754 -0.002296311 -0.006569626
000130 05 aa 8d 3a a2 47 9f b9 da cc 2a bb 67 2c 58 3a
       0.0010808116 -0.00030380214 -0.0026062042 0.00082463626
000140 87 a5 01 ba d3 ea d5 3a 6b 88 36 3a 5b a9 64 bb
       -0.0004945625 0.0016320593 0.0006963077 -0.0034890983
000150 0a ab 66 3b 93 56 52 ba 72 56 77 3b a9 f2 6e 38
       0.0035197162 -0.0008023765 0.0037740734 5.6969617e-05
000160 28 fd d5 ba 33 ab b3 bb 57 3b 85 bb 7d 51 70 ba
       -0.0016326057 -0.005483055 -0.0040659118 -0.0009167416
000170 73 76 c2 3b 95 2b 01 3b 20 e5 9b bb 18 89 e3 bb
       0.0059345304 0.0019709815 -0.0047575384 -0.006943833
000180 f3 29 80 ba 79 a5 1e bb d8 17 17 ba 68 50 07 3c
       -0.0009778127 -0.0024207516 -0.0005763746 0.008258916
000190 e3 44 fd bb b7 d3 b1 bb 76 08 fd 3b 50 86 b8 bb
       -0.007729159 -0.0054268497 0.007721956 -0.0056312457
0001a0 7e 07 05 b9 47 d9 9e 3a 8e 6c 77 bb 49 47 4b 3b
       -0.0001268666 0.0012119197 -0.0037753913 0.003101783
0001b0 05 77 86 3b 8d 1c 95 bb 21 e5 4a bb 52 7a 8d 3b
       0.0041035437 -0.0045505227 -0.0030959325 0.0043175602
0001c0 45 78 99 3a ce fd ab bb 1c c0 e5 bb e3 ed b8 ba
       0.0011708817 -0.0052487617 -0.0070114266 -0.0014108982
0001d0 91 01 ea ba 2f 0d 1b 3a 6b 1f 2f 3c c2 99 b7 bb
       -0.001785325 0.0005914745 0.010688643 -0.005603046
0001e0 5b ea b3 bb 12 21 84 bb 5d c5 6c bb 9d 88 02 bb
       -0.005490584 -0.0040322626 -0.003612838 -0.0019917854
0001f0 89 49 95 b9 5a 5d 77 39 6c ac 52 bb c8 a0 ec bb
       -0.00028474283 0.00023590532 -0.0032146228 -0.007221315

action_model._continuous_distribution.log_sigma f4 [1, 4]
000000 9a dd 8c 3b da 5a 65 3b 13 8e 48 bc 13 ab 7d ba
       0.004298878 0.0034996779 -0.012240904 -0.0009676676

action_model._continuous_distribution.mu.weight f4 [4, 128]
000000 14 74 9a bb 28 d6 5e 3b 81 f2 ba 3c 0b ac 83 3c
       -0.0047135446 0.0034002159 0.022820713 0.016073247
000010 c1 1f 53 3c dd fc 1c bc 61 86 62 3c 94 c5 1a bd
       0.012885989 -0.009581772 0.013825984 -0.03778608
000020 7f be 98 bb e3 2d a9 3c 60 c1 01 bb 75 71 23 bc
       -0.004661381 0.020651763 -0.0019799098 -0.009975781
000030 68 4c 4c 3c 1a e4 0d 3c 89 b2 67 bc 0f 9a c3 bc
       0.012469389 0.008660341 -0.014141687 -0.023877172
000040 b5 6e 33 3c 89 f9 24 bb 58 24 97 bc 47 48 2a bd
       0.010951688 -0.0025173149 -0.018449947 -0.041572835
000050 11 0b 1f bb 09 32 b7 bc 5e 94 97 3c 6f 38 06 b9
       -0.002426807 -0.022362726 0.018503364 -0.00012800259
000060 70 3d e8 3c a2 d5 46 bc c6 c9 e9 bb 2c 91 96 bb
       0.028349608 -0.012135895 -0.007134649 -0.0045949426
000070 33 c3 04 bc ab 41 94 3c f4 d5 08 bd 76 c3 89 3c
       -0.00810318 0.01809772 -0.033407167 0.016816836
000080 52 9e 11 3b ad 78 1f 3c f9 a1 b5 ba 7a 97 9e bc
       0.002221961 0.009733361 -0.0013857476 -0.019359339
000090 a0 d8 83 bc 2b c0 60 3c bb 55 f4 3b d6 43 ae ba
       -0.016094506 0.013717691 0.007456509 -0.0013295363
0000a0 19 d8 69 3c 2f 08 85 3c 48 1a ab bc a4 83 8e 3c
       0.014272713 0.016239254 -0.020886555 0.017396756
0000b0 c4 f9 8d 3c cb c1 5d 3c 7a ab 92 b9 d4 d4 86 3b
       0.017331012 0.013534973 -0.0002797505 0.0041147266
0000c0 ba 13 ef bc 33 18 0d 3c 60 d9 91 3b 4e f7 4c 3b
       -0.029184211 0.008611727 0.004450962 0.0031275335
0000d0 2f 3e a7 3b a8 ba a7 bc bf a1 e4 bb 0e cf 3c bc
       0.0051038484 -0.020474747 -0.0069772894 -0.011523975
0000e0 c5 c2 d7 b9 17 6b 0b 3c 59 70 04 bd 33 81 a6 3c
       -0.0004115311 0.008509419 -0.032333706 0.020325279
0000f0 75 f4 16 3c 52 bd 0b bd 41 c5 75 3c 8b c6 da 3b
       0.009213557 -0.034116097 0.015000642 0.0066765
000100 d6 ec 91 bb da cf 2e bc f0 05 c6 bc 84 cc c3 3a
       -0.004453282 -0.010669673 -0.024172753 0.001493827
000110 63 8b 20 bc 90 78 20 3c d4 0f ac bc 98 45 09 bd
       -0.009798857 0.009794369 -0.021003641 -0.033513635
000120 6b 77 f0 bc cc d3 37 bc 60 d5 a6 bc 02 b1 46 3c
       -0.029353818 -0.01121993 -0.020365417 0.012127163
000130 2a 20 ae 3c 4a 79 e0 3c 44 66 8e bc 68 be 97 3c
       0.021255571 0.027401585 -0.017382748 0.01852341
000140 22 6a 04 bc 88 01 1c 3c ba 89 49 bc 7b a6 6f 3c
       -0.008081945 0.009521849 -0.012300903 0.014627094
000150 82 9a 40 bd f0 38 12 3c 28 b8 51 bc 70 0b 32 bc
       -0.04702235 0.008924708 -0.012800254 -0.010866985
000160 22 df ae bb 73 a4 97 3c 5c f6 15 3c 6f e8 9a 3b
       -0.005336658 0.018511033 0.009152975 0.0047274153
000170 b0 9e a7 bc eb e7 8a 3c da d9 88 bc 65 99 f3 3a
       -0.02046141 0.01695629 -0.016705442 0.0018585144
000180 18 30 a1 b7 9e 70 d4 bc fd ca 7e bc ea c4 c2 bc
       -1.9215091e-05 -0.025932606 -0.015551326 -0.023775537
000190 81 02 bb 3b b4 09 6e bc dd 67 b1 bc fb 1e 3f bb
       0.0057070856 -0.014528681 -0.021655971 -0.0029162753
0001a0 96 c3 9c bb fd 20 51 bc 1b c4 08 3b 33 4b 89 bc
       -0.004784058 -0.012764213 0.002086884 -0.01675949
0001b0 4e c9 99 bc a9 14 ef 3b f8 05 f5 3c 3f 71 45 bd
       -0.018772747 0.007296164 0.029910073 -0.048203703
0001c0 7f 91 c0 3c 54 db dc 3b e2 51 ca b9 d2 c6 67 bc
       0.023506878 0.006740013 -0.0003858945 -0.014146524
0001d0 8e e2 41 bc 2a af b0 bb 92 5d 38 bc c4 82 27 ba
       -0.0118338 -0.005391975 -0.011252778 -0.000639003
0001e0 a9 86 00 3c 4f b8 1c 3b a5 86 0b 3d 3e 9b 96 bb
       0.0078446055 0.0023913567 0.034063954 -0.004596143
0001f0 3f f2 99 bc 3f 74 82 3c e6 1d bc bc 89 2f 9b 3c
       -0.01879227 0.015924571 -0.022963475 0.018943565
000200 fd 5c af 3c da 0e 15 bb 2e d8 43 3b 80 9d 81 3c
       0.021406645 -0.0022744448 0.0029883492 0.015822172
000210 bc 27 c3 3c 10 7e 72 3c 12 08 cb 3c 9c e6 85 3c
       0.023822658 0.014800563 0.024784122 0.016345315
000220 d8 37 80 bb 3d 5a 87 bc 4d c7 79 3c 60 8c 9e bb
       -0.003912907 -0.016522521 0.015245271 -0.0048385113
000230 3e 9d 26 bc 4f 2f 41 3c 0d 76 c8 bc 26 10 0b 3d
       -0.010169325 0.011791064 -0.024470353 0.033950947
000240 89 a4 a6 bc ce 8b dc bc 0f a7 44 bb 25 42 8b bc
       -0.020342128 -0.026922133 -0.0030006801 -0.016999314
000250 5e a6 05 3d c6 c6 11 ba af 52 a9 bc 99 79 cc bc
       0.032629363 -0.00055609306 -0.02066931 -0.024960326
000260 41 ae da 39 63 9d 29 3c 18 a6 90 3c d1 88 7a bc
       0.0004171003 0.010352465 0.017657325 -0.015291409
000270 ea 64 4d 3b 6b 19 8a bc 9d 6e 94 3c 5c b3 75 bc
       0.0031340667 -0.016857823 0.01811915 -0.014996376
000280 cf 01 c8 bc 28 ab f5 bb 91 c3 ec 3c 97 23 49 3c
       -0.024414925 -0.00749721 0.028901847 0.012276552
000290 2d 6c fe 3b 00 8b 0b 3d 19 5b 83 bc 37 94 02 3c
       0.0077643604 0.034068108 -0.01603465 0.0079699075
0002a0 4f bc 6c bb 54 ed 5a 3b 13 ad d3 3c d8 06 83 bc
       -0.0036122983 0.0033405619 0.025839364 -0.015994474
0002b0 56 40 86 3c 31 40 98 3b 51 3e 98 3a af b7 6c bc
       0.0163881 0.004646324 0.0011615251 -0.01444809
0002c0 fa cc 1a bb bd 02 8f 3c 65 dd 9a 3c 8d 52 18 3d
       -0.002362071 0.01745736 0.018904397 0.0371881
0002d0 28 e8 46 bc c9 18 89 3b 9a 1f de 3a cd 5a 52 bc
       -0.012140311 0.004183863 0.0016946674 -0.012839031
0002e0 27 0f 46 bc e0 0f 2f bc 71 11 65 bc 05 00 46 3c
       -0.012088574 -0.010684937 -0.013981209 0.012084966
0002f0 e1 fb a6 39 08 ef 89 3c f3 98 de ba 45 4d d4 39
       0.00031849652 0.016837612 -0.0016982838 0.0004049336
000300 2c b2 7a bc 07 7e ef bb ef 65 8f bb b6 ea aa bc
       -0.015301269 -0.007308725 -0.004376165 -0.020863872
000310 5a 4a 0f bc 10 40 ad bb 6f df 4d bc 4e 0e 9f 3c
       -0.008745754 -0.005287178 -0.012565478 0.019416
000320 3d 09 6e 39 21 dc 41 3b 72 33 08 bd 53 3d 4b bd
       0.0002270089 0.002958067 -0.033252187 -0.04961903
000330 c5 d5 3c 3c 8e be 80 bc b1 04 2c bc 3d 0a 4b bc
       0.011525576 -0.015715864 -0.010499165 -0.012392578
000340 72 96 31 3c 8f eb f7 bc 4c db 0a 3c 05 c7 f9 bb
       0.010839092 -0.03026369 0.008475136 -0.007622602
000350 a0 d8 8a 3d 9a 69 2f 3b 72 05 95 3c 93 fb 83 3c
       0.06779599 0.0026765824 0.018191073 0.01611117
000360 b3 64 9d 3b 48 50 15 bc e3 a0 e4 bb dc fd 24 3c
       0.004803264 -0.009113379 -0.006977187 0.01007029
000370 ba 32 39 bc af d6 04 3c 97 04 d7 bb cc b4 43 3c
       -0.011303598 0.008107825 -0.0065618264 0.011944961
000380 c8 d1 26 3b a2 cb 44 bc a0 b4 d6 3b 68 82 1e 3d
       0.002545463 -0.0120114405 0.006552294 0.038698584
000390 9a 52 3e bc 7b ef 4f bc 48 33 3a bc 7f fd ca bb
       -0.011616373 -0.012691374 -0.011364765 -0.00619477
0003a0 13 9c 81 bc 7a c3 d8 3c c6 0f 93 bb ec 63 3e bc
       -0.015821492 0.026460398 -0.0044879643 -0.011620503
0003b0 1e 7f 92 3c f0 45 c9 3c 5f 50 03 3c b9 62 47 bc
       0.01788288 0.024569482 0.008014767 -0.012169533
0003c0 9d 56 42 ba 29 44 8b 3b 6e 17 34 bc b8 96 19 ba
       -0.0007413419 0.0042500687 -0.010991914 -0.00058589457
0003d0 c5 7c a8 b9 d0 e2 af 3c d4 8d b5 3c 3b 37 98 bb
       -0.00032136418 0.021470457 0.022162355 -0.004645256
0003e0 a9 0e 30 3b 84 41 84 bc 03 32 e4 bb d8 b4 63 bb
       0.0026864207 -0.016144522 -0.0069639697 -0.0034745242
0003f0 6a b8 57 3b 61 0e 8b 3b 39 df 48 bc ad 79 14 bc
       0.0032916316 0.0042436575 -0.012260252 -0.009062213

action_model._continuous_distribution.mu.bias f4 [4]
000000 93 3d 10 ba 4f 50 9f 3b 4d 60 24 3a 16 d8 73 ba
       -0.00055023393 0.0048618685 0.00062704535 -0.00093019137

exp_avg f4 [128, 20]
000000 d3 08 80 ba 4e 3c 74 bb ac 64 2b bb e4 d3 0e bb
       -0.0009768255 -0.003726739 -0.0026152534 -0.0021793777
000010 d6 97 86 b9 b9 72 c3 38 1c a5 43 39 a3 cb 87 b9
       -0.00025671598 9.319693e-05 0.00018658157 -0.00025900928
000020 46 5b 62 39 92 87 8a 39 ca 7a 95 b9 6e fa 28 39
       0.00021587042 0.0002642242 -0.0002851098 0.00016115021
000030 8f 0b 39 38 bb 8b ae 37 a8 43 81 b8 4f f1 9b b9
       4.4118202e-05 2.0807483e-05 -6.163801e-05 -0.00029743693
000040 5e 7f 59 b8 5a d9 fe b8 b0 c7 f2 38 f8 4a 08 b8
       -5.185545e-05 -0.00012152149 0.00011576654 -3.2494747e-05
000050 40 c7 1e b7 04 d8 e2 b7 1a a7 84 b7 85 16 5d b7
       -9.463925e-06 -2.704189e-05 -1.5813439e-05 -1.317787e-05
000060 3e 26 10 34 e3 2f 71 34 1e e9 77 b5 a9 da 86 35
       1.3424958e-07 2.2462295e-07 -9.23539e-07 1.0047416e-06
000070 08 c6 85 34 c2 0a af 35 7d f4 4a b6 ca c1 3c b5
       2.4917267e-07 1.3041647e-06 -3.0242657e-06 -7.031746e-07
000080 35 ad 67 35 04 af a8 35 62 2d e4 b4 a3 a0 7d b6
       8.6306255e-07 1.2567912e-06 -4.250133e-07 -3.779344e-06
000090 f5 ea 1d b6 f3 0e a4 35 74 ee fd 35 3a 05 21 b6
       -2.3531586e-06 1.2223303e-06 1.8919368e-06 -2.3993912e-06
0000a0 79 91 60 3a b3 63 b0 bb 50 40 54 bb 41 e0 30 bb
       0.0008566599 -0.005382979 -0.0032386966 -0.0026989134
0000b0 1a aa 47 38 a6 d0 fe 38 17 60 bd 38 31 fa 05 39
       4.7603717e-05 0.000121505276 9.0301204e-05 0.00012777072
0000c0 f5 bf ca 38 ed 72 1c 39 b9 f9 f6 b8 40 69 e3 38
       9.6678654e-05 0.00014920133 -0.000117767086 0.00010843808
0000d0 dc 66 95 39 d2 b0 78 39 a6 b7 77 b8 33 9e 50 ba
       0.0002849613 0.00023716994 -5.9060425e-05 -0.0007958144
0000e0 c7 1a 0f b7 fa f6 69 39 8f 78 52 39 f1 26 60 b9
       -8.529699e-06 0.00022312618 0.00020072072 -0.00021376811
0000f0 3c a7 b1 ba 40 c0 47 ba 3f 68 58 ba e0 56 34 ba
       -0.0013553868 -0.0007619895 -0.000825528 -0.00068794005
000100 88 56 1a b9 5e 19 3f 35 fc 4e e7 35 27 69 1d b9
       -0.0001471882 7.118996e-07 1.7233829e-06 -0.00015011859
000110 e8 37 9d b6 3f 76 f6 b6 c2 33 19 b9 57 59 59 36
       -4.685473e-06 -7.345137e-06 -0.00014610498 3.2387522e-06
000120 82 8c 2c b9 a4 43 28 b9 40 a6 0e 37 28 31 95 37
       -0.00016455541 -0.00016046927 8.502568e-06 1.7785074e-05
000130 1f a7 1d b9 ba a3 26 b9 67 6a 9a b6 23 46 00 37
       -0.00015034944 -0.00015891987 -4.6019445e-06 7.6457245e-06
000140 2e 42 f0 ba d4 2e 9c 39 40 89 33 b7 a0 9d 15 b7
       -0.001833027 0.00029789528 -1.0701187e-05 -8.917792e-06
000150 b2 cc fa 37 29 ce 09 b9 11 d7 b3 b9 90 fd 8a 38
       2.9897641e-05 -0.00013142139 -0.00034301777 6.6275825e-05
000160 60 37 90 b9 22 93 97 b9 dd ec 5a 38 56 7a aa b9
       -0.00027507078 -0.00028910587 5.2195846e-05 -0.00032516074
000170 c6 ad 50 b9 b3 f2 5c b9 cd b7 05 b8 10 b8 6b 37
       -0.00019901161 -0.00021071247 -3.188085e-05 1.4049947e-05
000180 d7 35 82 b9 27 b8 26 37 1c 2a 90 b8 6a 58 2f b8
       -0.00024835646 9.937247e-06 -6.8742986e-05 -4.1805593e-05
000190 81 5d 49 39 1d 5a 08 3b 17 81 b1 3a 92 eb 93 3a
       0.00019203687 0.0020805665 0.00135425 0.0011285415
0001a0 c4 19 d1 37 49 8e 3e 38 5d 32 35 38 33 f8 0d b7
       2.492674e-05 4.5432043e-05 4.3200667e-05 -8.462043e-06
0001b0 24 5b e3 b6 aa 48 20 37 31 93 22 38 9f 67 2b 38
       -6.7757373e-06 9.553662e-06 3.8760892e-05 4.086608e-05
0001c0 e3 0c d2 b7 9d 2b bb b7 98 25 b7 37 d4 26 56 39
       -2.5039952e-05 -2.2312446e-05 2.1832806e-05 0.00020423095
0001d0 b6 17 0d 38 ea 58 0c b6 13 06 af b7 03 55 30 38
       3.3639102e-05 -2.091338e-06 -2.0864454e-05 4.2040843e-05
0001e0 0f c0 a6 b9 59 ac fb b9 19 0a cb b9 15 33 a9 b9
       -0.00031805082 -0.0004800286 -0.000387267 -0.0003227225
0001f0 48 2f 8a b7 c0 72 87 b3 df d7 cc b7 6f fd 24 b7
       -1.6472899e-05 -6.3073e-08 -2.4419218e-05 -9.834169e-06
000200 b1 9c 0f b8 dc 34 12 b8 26 16 a4 b7 00 30 dc b7
       -3.4239787e-05 -3.485834e-05 -1.9560637e-05 -2.6248395e-05
000210 16 08 02 b8 3b be 26 b8 3e 10 25 35 20 4c 40 b8
       -3.1001946e-05 -3.975465e-05 6.1490925e-07 -4.5847264e-05
000220 f2 36 3b b8 de 57 96 b7 fd 3b 29 b6 64 d1 9f b6
       -4.4635446e-05 -1.792231e-05 -2.521788e-06 -4.7629455e-06
000230 f8 d3 94 39 fe 7b a0 38 17 e9 21 39 e9 ec 06 39
       0.0002838669 7.65249e-05 0.00015440989 0.00012867492
000240 cb 25 03 39 dd 0b 90 b8 57 33 05 b9 1e 61 06 39
       0.00012507213 -6.868665e-05 -0.00012702994 0.00012815415
000250 3f 12 c4 b8 b7 f3 eb b8 e3 a5 15 39 7a 7c f0 b8
       -9.349407e-05 -0.00011251069 0.00014271545 -0.00011467277
000260 a8 ed f0 b7 0c 0e af 36 e8 46 83 37 b6 98 32 b8
       -2.8720897e-05 5.2170417e-06 1.5649435e-05 -4.258073e-05
000270 b6 c5 cd 37 e7 b0 96 38 87 40 5c b8 75 9b 9a 37
       2.452997e-05 7.185508e-05 -5.2512183e-05 1.8430621e-05
000280 f1 fd 1f bb 81 79 a8 3b d8 54 43 3b b1 c6 22 3b
       -0.0024412835 0.0051414375 0.002980521 0.0024837668
000290 72 9c 60 b9 ec ce 5e b8 f5 7c a5 b8 b5 8e 87 b9
       -0.00021420585 -5.3121636e-05 -7.891088e-05 -0.00025855532
0002a0 cc ad 82 b7 98 79 ee b7 81 93 4f b9 ce 86 ba b8
       -1.5578138e-05 -2.8428432e-05 -0.00019796008 -8.8942805e-05
0002b0 18 89 94 b9 33 3a 84 b9 3c 00 96 b7 56 97 41 3a
       -0.00028330903 -0.00025220364 -1.7881503e-05 0.00073849165
0002c0 fe 00 8c b9 7a c9 5b b9 d4 75 8f b8 9d 9f d5 b7
       -0.0002670362 -0.00020960523 -6.8407186e-05 -2.5465904e-05
0002d0 28 71 27 bb 42 67 fa ba 4a f5 d6 ba bc 21 b3 ba
       -0.0025549624 -0.001910426 -0.0016400006 -0.001366667
0002e0 52 94 c6 b7 8e 0e fa b6 3e 0d 96 b9 10 4e d6 b6
       -2.3672506e-05 -7.452275e-06 -0.00028620096 -6.3867847e-06
0002f0 aa dc 88 b9 8d 10 87 b9 a5 90 05 b8 d6 15 8f b9
       -0.0002610435 -0.00025761538 -3.184438e-05 -0.00027291354
000300 60 d1 a2 b9 ed 4d 9b b9 e0 62 e6 36 f3 0c 8a b9
       -0.00031055044 -0.00029621963 6.8660447e-06 -0.0002633106
000310 48 bc 94 b9 44 4a 78 b7 9d 40 ac b6 66 3f 8c 37
       -0.0002836904 -1.4799243e-05 -5.1335214e-06 1.6718823e-05
000320 26 79 03 38 1f 85 23 3a a3 6e cd 39 8a 31 ab 39
       3.1345662e-05 0.0006237793 0.00039183078 0.0003265257
000330 58 c8 1a b5 7e 00 d9 b7 d5 df 71 b7 12 ec 0a 37
       -5.766101e-07 -2.5868645e-05 -1.4416834e-05 8.280405e-06
000340 f9 a3 3f b7 1b 46 d9 b7 17 d6 62 37 80 71 52 b6
       -1.1422665e-05 -2.5901061e-05 1.3520496e-05 -3.1358504e-06
000350 de de ec b7 a9 a4 c7 b7 5f 93 91 37 c3 b0 c1 38
       -2.8237173e-05 -2.3799324e-05 1.7353972e-05 9.2358816e-05
000360 64 86 36 36 b7 7c bd b7 80 76 b2 b7 87 7f a4 37
       2.719834e-06 -2.258863e-05 -2.1274434e-05 1.9609708e-05
000370 4e d0 a9 ba e6 c9 ae b9 f6 38 dc b9 cf 84 b7 b9
       -0.0012955756 -0.00033338292 -0.0004200411 -0.0003500343
000380 8b d8 5e b9 19 38 a0 b7 f0 5b ae 37 76 44 3b b9
       -0.00021252238 -1.9099609e-05 2.0785228e-05 -0.00017859213
000390 0c a3 b1 38 72 57 99 38 1e 83 49 b9 d0 21 47 37
       8.4703875e-05 7.3118965e-05 -0.00019217699 1.1869197e-05
0003a0 78 30 7b b8 89 23 94 b8 19 2f 3c b8 cc 89 d2 38
       -5.9888203e-05 -7.063809e-05 -4.4866556e-05 0.00010039247
0003b0 0f 2a e3 b8 c7 9a 0a b9 38 3e 47 38 e9 a1 7f b7
       -0.000108320375 -0.00013218365 4.7503243e-05 -1.5236882e-05
0003c0 70 8b fb b9 8d e2 89 bb 39 ee 35 bb dc 9b 17 bb
       -0.0004797834 -0.004207915 -0.00277604 -0.002313367
0003d0 ed 3a 80 b9 e2 c8 b3 37 7e ac 22 39 42 5f 3e b9
       -0.00024457966 2.1432006e-05 0.00015513782 -0.00018155298
0003e0 04 42 7f 39 d8 6c 8c 39 cb fb b7 b9 26 3d 13 39
       0.00024343288 0.00026783976 -0.0003509208 0.00014041792
0003f0 08 03 09 39 34 68 e0 38 40 60 d2 b8 9b 39 be b9
       0.00013066467 0.00010700562 -0.00010031508 -0.00036282543

exp_avg_sq f4 [128, 20]
000000 11 0b a9 37 90 25 94 38 d3 69 2e 38 a5 3d f2 37
       2.0151523e-05 7.0641865e-05 4.158339e-05 2.8877354e-05
000010 b2 92 69 34 95 b6 80 34 84 2b 97 34 40 a5 74 34
       2.1753183e-07 2.3974704e-07 2.8157604e-07 2.2784388e-07
000020 ab d4 a5 34 6a 7e be 34 26 fd ca 34 b9 7b f0 34
       3.088838e-07 3.5482236e-07 3.7809622e-07 4.4793504e-07
000030 fd e1 be 34 8d 3c d9 34 40 19 b6 33 58 7e fd 34
       3.5554686e-07 4.0463456e-07 8.4796284e-08 4.721685e-07
000040 2f 26 7f 35 86 26 f9 34 40 1a 85 34 e3 36 00 35
       9.5050467e-07 4.6407894e-07 2.479228e-07 4.7763587e-07
000050 19 17 c4 30 5e 82 84 32 87 76 20 32 83 dd de 31
       1.4267442e-09 1.5426107e-08 9.340176e-09 6.4862333e-09
000060 e9 9f 2b 2e 6a 19 c2 2d 40 97 7f 2d 2e f9 93 2e
       3.9022927e-11 2.2066533e-11 1.4528656e-11 6.729049e-11
000070 0c fb 9b 2e d2 93 db 2e 8d cf a4 2e eb 08 40 2e
       7.093179e-11 9.985225e-11 7.494725e-11 4.3663666e-11
000080 29 be 88 2e 60 00 ea 2e e6 3b 8d 2d 28 41 0c 2f
       6.218343e-11 1.06411546e-10 1.6056444e-11 1.2756074e-10
000090 5b 95 69 2f dc 03 b6 2e 6b 4b 89 2e ad b0 e5 2e
       2.1244288e-10 8.2770873e-11 6.2434356e-11 1.0445098e-10
0000a0 e4 a9 1b 38 a8 75 ad 38 8f 5c 58 38 52 40 16 38
       3.7113103e-05 8.271198e-05 5.1584615e-05 3.582269e-05
0000b0 e1 4c ce 34 4b cb 16 35 a2 4f 31 35 a1 66 e0 34
       3.8426427e-07 5.6175185e-07 6.605352e-07 4.1797924e-07
0000c0 c0 21 30 35 b7 5e 37 35 0e da 00 35 24 fb 6c 35
       6.561422e-07 6.831064e-07 4.8001027e-07 8.828231e-07
0000d0 5a 00 0f 35 26 ea 3f 35 a8 e8 79 34 a1 9d 11 35
       5.3272163e-07 7.1493776e-07 2.3274572e-07 5.424609e-07
0000e0 20 c9 b4 35 1a 50 65 35 cf ad 11 35 65 4a 20 35
       1.346958e-06 8.542571e-07 5.4269634e-07 5.9712903e-07
0000f0 10 77 6f 36 d4 dd ee 35 50 f2 e0 35 83 36 9c 35
       3.5683079e-06 1.7796942e-06 1.6759823e-06 1.1638771e-06
000100 f4 50 3c 33 41 f1 3a 31 bf 5e 4b 31 eb b8 3b 33
       4.3845787e-08 2.72037e-09 2.9594245e-09 4.3707512e-08
000110 ee 73 35 31 0b a6 54 31 93 fa 3a 33 42 21 84 31
       2.6404865e-09 3.0944445e-09 4.3534396e-08 3.8454866e-09
000120 cf c2 46 33 26 0a 46 33 26 81 27 30 90 e6 08 31
       4.6277645e-08 4.6109697e-08 6.0937777e-10 1.9921664e-09
000130 6b d6 4c 33 20 bd 44 33 7f d4 42 31 6c ae 05 31
       4.7692463e-08 4.5806814e-08 2.8351506e-09 1.9453195e-09
000140 e7 a7 73 37 0f 6b ad 37 95 fa 6a 37 03 2e 23 37
       1.45230215e-05 2.067306e-05 1.400583e-05 9.72627e-06
000150 b9 e0 08 34 66 12 dd 33 78 68 1f 34 99 68 33 34
       1.274774e-07 1.0294461e-07 1.4846034e-07 1.6708726e-07
000160 75 44 1c 34 5e 93 19 34 2e 33 04 34 37 fd 3b 34
       1.4553537e-07 1.4302847e-07 1.2312077e-07 1.7507851e-07
000170 95 35 4c 34 d6 41 76 34 96 8c 6e 33 58 34 1a 34
       1.9018474e-07 2.2934486e-07 5.5541555e-08 1.436141e-07
000180 d5 76 c0 34 e3 b5 68 34 a1 e8 f2 33 0a e2 f4 33
       3.5849249e-07 2.1672854e-07 1.1311318e-07 1.1403252e-07
000190 01 b6 79 35 9e 59 8f 37 ad 74 0b 37 46 b0 c1 36
       9.302458e-07 1.708866e-05 8.312211e-06 5.772369e-06
0001a0 9f f4 a8 32 29 bf c1 32 4f ad 0f 33 e8 e8 49 32
       1.9669015e-08 2.2555087e-08 3.3452405e-08 1.1752697e-08
0001b0 9c 0e 4d 32 8f d7 05 33 8c ce ce 33 79 64 6f 33
       1.1935892e-08 3.1162525e-08 9.630193e-08 5.5737903e-08
0001c0 63 32 e2 31 93 02 89 32 fc b9 37 32 53 f0 22 34
       6.583194e-09 1.595007e-08 1.069429e-08 1.5174855e-07
0001d0 dd 1f 36 34 23 f6 2d 33 38 44 76 32 24 cf 06 34
       1.6961663e-07 4.050356e-08 1.4334596e-08 1.255508e-07
0001e0 c2 97 eb 34 71 f3 69 35 05 d7 28 35 f0 7f ea 34
       4.388258e-07 8.715352e-07 6.289777e-07 4.3678983e-07
0001f0 4d 32 8e 31 15 85 45 31 3f 50 f7 2f b0 4d 0b 32
       4.1384625e-09 2.8742921e-09 4.4986057e-10 8.108529e-09
000200 ab ea ca 31 45 40 60 31 ff f0 9a 31 d5 79 e0 31
       5.9056524e-09 3.2632823e-09 4.509388e-09 6.5331087e-09
000210 a7 86 c5 31 f1 0b e8 31 ff dc 45 31 a6 17 e9 30
       5.748763e-09 6.7534462e-09 2.8792895e-09 1.6959703e-09
000220 f3 25 90 32 9f bb 3f 32 d8 e6 0b 31 f8 7e f6 31
       1.6781064e-08 1.1160323e-08 2.0358382e-09 7.173977e-09
000230 2b 70 92 36 2d 7b bd 36 7b 26 8d 36 c9 0a 44 36
       4.364197e-06 5.6469785e-06 4.206607e-06 2.9212554e-06
000240 18 25 6f 33 6b 06 48 33 be bf 37 33 b8 a7 7c 33
       5.568026e-08 4.6571966e-08 4.2782396e-08 5.882586e-08
000250 e3 68 83 33 18 ae 65 33 99 e3 65 33 30 9c 83 33
       6.119242e-08 5.3476555e-08 5.3525216e-08 6.128573e-08
000260 70 67 8c 33 0a 55 9d 33 a0 56 ae 32 64 3f a5 32
       6.538073e-08 7.326351e-08 2.0295658e-08 1.9237355e-08
000270 32 b0 fa 33 fd 31 a8 33 3c 51 41 33 c1 14 36 33
       1.1673582e-07 7.8322024e-08 4.5010196e-08 4.2394053e-08
000280 67 d7 e8 37 22 83 b5 38 60 86 45 38 8b 2b 09 38
       2.775686e-05 8.655178e-05 4.7093607e-05 3.2703898e-05
000290 ab b9 98 34 83 d7 7c 34 c6 fc 9c 34 54 da 88 34
       2.8447297e-07 2.3547732e-07 2.924118e-07 2.549083e-07
0002a0 e4 38 5d 34 70 75 85 34 da 8c dd 34 29 d9 bc 34
       2.0602926e-07 2.4858628e-07 4.126694e-07 3.5175734e-07
0002b0 c0 38 9d 34 a8 1a c8 34 a1 8a 2f 34 70 2a 45 35
       2.928482e-07 3.7272298e-07 1.6348578e-07 7.3449974e-07
0002c0 69 22 7c 35 92 57 c0 34 26 91 1c 34 78 ab f3 34
       9.392739e-07 3.5826503e-07 1.4581437e-07 4.5387037e-07
0002d0 d1 b6 01 38 5b ef c5 37 af bf a8 37 94 5f 6a 37
       3.0926258e-05 2.3595689e-05 2.011642e-05 1.396974e-05
0002e0 c8 c5 86 34 bd 9a 21 34 4e 5c 81 34 cb 94 dc 34
       2.510335e-07 1.5050587e-07 2.4095283e-07 4.1086454e-07
0002f0 b8 ab 9d 34 73 65 33 34 0b 84 bd 34 4d a3 48 34
       2.936847e-07 1.6707581e-07 3.5300067e-07 1.868586e-07
000300 a8 b8 cd 34 b0 46 16 35 b0 ae 83 33 68 fb fb 33
       3.831858e-07 5.598222e-07 6.131938e-08 1.1733829e-07
000310 16 d8 15 35 cb 66 06 35 90 c8 7a 34 98 68 43 33
       5.582127e-07 5.0068473e-07 2.3356029e-07 4.5497103e-08
000320 22 98 b2 35 63 9a b8 36 0b 57 72 36 b5 4a 28 36
       1.330631e-06 5.5016003e-06 3.6111476e-06 2.5077436e-06
000330 25 64 15 33 d5 4c ab 32 c7 e6 b5 32 be a1 c7 32
       3.4782847e-08 1.994196e-08 2.1176119e-08 2.32402e-08
000340 66 2a 38 33 20 6d 74 33 38 e4 0e 33 8a 2b 8f 33
       4.28794e-08 5.6909926e-08 3.3269515e-08 6.666876e-08
000350 47 b4 10 32 89 ff fa 32 dc bc 52 32 ed bf 95 32
       8.4228935e-09 2.9220034e-08 1.226655e-08 1.743316e-08
000360 22 6c d3 33 06 82 96 33 73 78 f2 32 8e 2f 87 33
       9.8451224e-08 7.0085704e-08 2.8227282e-08 6.2950775e-08
000370 4f 45 93 37 92 b5 ba 37 d2 1a 7b 37 e1 60 2e 37
       1.755604e-05 2.2257478e-05 1.496701e-05 1.0393765e-05
000380 c3 68 3a 34 73 9d 34 34 35 4e 5e 34 88 1f 3d 34
       1.7360712e-07 1.6821086e-07 2.0703813e-07 1.7613468e-07
000390 b8 5d 53 34 d0 62 63 34 68 1b 35 34 56 7a 87 34
       1.9685001e-07 2.117697e-07 1.6866909e-07 2.523472e-07
0003a0 fa 29 80 34 c2 98 93 34 a7 ba b3 33 64 76 19 34
       2.38724e-07 2.749203e-07 8.369289e-08 1.4292306e-07
0003b0 e6 39 de 34 1e f7 74 34 e4 25 10 34 c6 99 3d 34
       4.139285e-07 2.2814172e-07 1.342483e-07 1.7657939e-07
0003c0 fa 95 59 37 82 16 5c 38 e5 5b f0 37 7d ea a6 37
       1.2969127e-05 5.247305e-05 2.8653021e-05 1.9897934e-05
0003d0 bb d8 42 34 d6 e2 69 34 c2 43 7c 34 f5 1e ef 33
       1.8146504e-07 2.1782338e-07 2.3493979e-07 1.1134936e-07
0003e0 00 59 1a 34 ac a4 7d 34 b8 5c 97 34 fb 0f 98 34
       1.4374746e-07 2.3622368e-07 2.8193404e-07 2.8323834e-07
0003f0 69 3d 50 34 df cb 6f 34 5e 9a fd 33 bf bb d3 34
       1.939385e-07 2.2332777e-07 1.180931e-07 3.9438416e-07

exp_avg f4 [128]
000000 3c 86 e4 b9 d2 de 30 b6 37 80 0d ba 80 45 10 b9
       -0.0004358756 -2.6355742e-06 -0.00053978286 -0.00013758801
000010 80 62 ef b5 1a ac 6c 39 12 5c 87 b8 6c e1 d7 37
       -1.7835555e-06 0.00022570827 -6.454451e-05 2.5734967e-05
000020 8d 38 02 3a 32 4e 8f b9 6d f4 88 38 a5 d0 92 b8
       0.0004967533 -0.00027333345 6.530513e-05 -7.0006856e-05
000030 f6 92 f2 b9 f3 31 e4 b5 06 4b 49 3a 83 76 79 b8
       -0.0004626733 -1.7001861e-06 0.0007678721 -5.94766e-05
000040 76 be 7e 39 50 bd 86 b9 00 e1 b5 b5 3c 09 61 b9
       0.0002429428 -0.0002569952 -1.3551034e-06 -0.00021461112
000050 d8 7a 4e 39 a0 b4 d0 b7 e1 6b 9d b8 e5 8b 06 38
       0.00019691454 -2.4879642e-05 -7.5064374e-05 3.2078377e-05
000060 e7 f8 2e ba 90 7f aa 37 40 7f 33 39 eb 18 67 37
       -0.00066746626 2.032498e-05 0.00017118175 1.3774475e-05
000070 db 84 f3 b8 bb 14 c8 b7 4a 2b b0 b9 8b b1 d8 37
       -0.00011611889 -2.3851511e-05 -0.0003360159 2.5831881e-05
000080 e4 76 90 39 96 cf 93 b6 09 b7 8f b8 de 56 f2 37
       0.000275544 -4.4051076e-06 -6.852864e-05 2.8889099e-05
000090 32 ea 9e b7 22 ed 68 b6 12 13 b2 39 61 fd 56 b6
       -1.8944123e-05 -3.4708723e-06 0.00033965014 -3.203597e-06
0000a0 22 42 2a b7 2f d8 36 b6 be 94 1b 38 da 69 f8 b8
       -1.0148187e-05 -2.7245949e-06 3.7093407e-05 -0.00011845278
0000b0 a3 29 fb 36 fa 78 22 38 18 08 d6 b8 fe 5d 01 b9
       7.48523e-06 3.8736478e-05 -0.00010205823 -0.00012337414
0000c0 8b d7 2b ba 6a 31 be 37 ae b4 35 38 66 2b 93 b8
       -0.0006555251 2.2672775e-05 4.3322034e-05 -7.01759e-05
0000d0 5e f3 39 b9 f8 c2 ca b8 22 cb 7b 39 25 6b 25 38
       -0.00017733636 -9.668426e-05 0.00024012898 3.943885e-05
0000e0 50 f6 2d ba 34 fd 5f b6 9f 07 7a b8 e2 0c 95 b8
       -0.00066361297 -3.3376973e-06 -5.9611742e-05 -7.107273e-05
0000f0 23 d3 04 39 f0 a1 82 b8 eb a1 ae 38 d1 0d aa b7
       0.00012667156 -6.229046e-05 8.327126e-05 -2.0272013e-05
000100 94 14 b5 b7 3e 36 b3 39 70 2c ba b7 90 23 28 ba
       -2.1586464e-05 0.00034181954 -2.219362e-05 -0.00064139906
000110 43 3c ef b8 ad 21 60 38 26 33 87 b9 e8 22 ec b8
       -0.00011407633 5.3437125e-05 -0.00025787315 -0.00011259859
000120 42 46 96 b9 99 0e 55 b7 f0 ec 8b b9 f1 5a 44 38
       -0.00028662576 -1.2699188e-05 -0.00026688678 4.6814737e-05
000130 38 28 af 39 f4 e4 97 b9 b9 22 36 ba c0 be bc b8
       0.00033408566 -0.00028971548 -0.0006947923 -9.0000685e-05
000140 58 0b 0b b8 30 b9 47 b9 a6 93 da b7 d0 dd 08 b8
       -3.3150747e-05 -0.00019047107 -2.605638e-05 -3.2631506e-05
000150 5e f0 c8 38 ed 53 81 39 38 08 df b8 16 ed 06 b8
       9.581515e-05 0.00024667327 -0.000106349995 -3.2168893e-05
000160 df 01 d4 39 6f f9 1e 39 0a c1 8f b9 ee 31 ae 37
       0.00040437185 0.00015160975 -0.0002741891 2.0765667e-05
000170 7f 7e 2f 39 15 5e da b7 53 c6 27 b9 42 39 27 b9
       0.00016736424 -2.6031435e-05 -0.00016000243 -0.00015947691
000180 8c c2 72 b7 69 b4 ce 39 5d bf 3c 37 50 cf af 36
       -1.44696205e-05 0.00039425798 1.1250228e-05 5.2395408e-06
000190 52 dc cd b8 c0 e8 c7 b5 74 02 37 b7 e6 05 5f 37
       -9.8161996e-05 -1.4894395e-06 -1.0908221e-05 1.3293209e-05
0001a0 36 07 09 b7 40 16 7c 36 16 49 af b8 d1 f1 1a b9
       -8.167515e-06 3.7563877e-06 -8.3582636e-05 -0.00014776668
0001b0 3b 60 6a b8 9e 86 c7 37 88 01 07 37 70 d5 95 b7
       -5.587957e-05 2.3785335e-05 8.046984e-06 -1.7861574e-05
0001c0 78 ca 41 36 bc a0 e7 39 c0 ef 96 b9 5e 6f 29 ba
       2.8877093e-06 0.0004417951 -0.00028788857 -0.00064634334
0001d0 3f 9b d4 b9 97 37 53 39 bd e5 f5 39 96 75 2a b8
       -0.00040551458 0.00020143237 0.0004690121 -4.064067e-05
0001e0 0e d1 53 39 8a be 22 39 0f 83 94 b9 61 5a 3d 38
       0.00020200407 0.00015520505 -0.00028326406 4.5145283e-05
0001f0 6d 0b 0d 39 ca c3 a2 37 d5 32 3b b8 4a c1 9f b7
       0.00013451064 1.9403076e-05 -4.4631615e-05 -1.9044284e-05
