old_ppo/PoI/PoI-9251.pt (torch, 514980 bytes, 36 tensors)

network_body._body_endoder.seq_layers.0.weight f4 [128, 29]
000000 54 29 28 be 06 0c 7c 3e cb fe bf 3d 13 42 16 be
       -0.16422015 0.24613962 0.0937477 -0.14673643
000010 99 b1 cd 3e 16 c3 22 3e f9 01 26 be 19 11 8c 3e
       0.4017456 0.15894732 -0.1621169 0.27356794
000020 9e 10 e7 be 22 b6 19 be fe 57 f6 be ed 5f 11 3e
       -0.45129865 -0.15010884 -0.48114008 0.14196749
000030 1a d6 cb bd 37 d3 4c 3e 96 57 3b 3e 09 a1 62 3e
       -0.09952946 0.20002447 0.1829513 0.22131743
000040 ae 6d 86 bc 4e af 3c be ec fa e7 bb 20 e8 87 be
       -0.016409721 -0.18426248 -0.0070794728 -0.26544285
000050 e6 17 ca 3e db e6 2f be 89 d7 8a 3e da 0c 72 3e
       0.39471358 -0.17177908 0.27117565 0.23637715
000060 31 a8 b4 3e 76 14 ce bd 8b c4 6d be 5f f6 b1 be
       0.3528457 -0.10062496 -0.23219506 -0.3475828
000070 56 5a c4 bd b7 76 06 3d 06 50 72 3e 20 e9 48 3e
       -0.09587543 0.03282806 0.23663339 0.1962018
000080 dc 13 65 be c1 52 51 3e e5 c6 e4 bd a5 9b 8f 3d
       -0.22370857 0.20441724 -0.111707486 0.07012109
000090 4f da 0c be fd 94 56 be 5e 4c 88 be e2 05 c4 bd
       -0.13755153 -0.20955272 -0.26620764 -0.095714346
0000a0 af 7f 64 be fc bc 8c 3d 7b 3c 7e bd aa 6e ad be
       -0.22314332 0.068719834 -0.062069397 -0.33873492
0000b0 29 94 4b 3e cb 52 ac bd 15 47 43 be 53 e2 e1 bd
       0.19880737 -0.08414229 -0.19070084 -0.11029496
0000c0 8a ff c7 bc 59 a1 55 bd 1c 22 1a 3d a1 f1 0b be
       -0.024413843 -0.052155826 0.037630185 -0.13666393
0000d0 52 ac d5 bc de 3b 44 be 7c da ec 3d 04 82 d5 bc
       -0.026083145 -0.19163463 0.1156511 -0.026062973
0000e0 e1 cc 22 3e 40 d4 ab 3d 0c 7e d7 3d 10 73 32 be
       0.15898468 0.08390093 0.105220884 -0.17426705
0000f0 07 cf 74 bd 25 e8 fc bb 9c 8d 9a 3e 26 01 94 bd
       -0.05976775 -0.0077181035 0.30186164 -0.072267815
000100 90 0e f7 3d cd a7 a5 bd 7d 82 c2 3d da d4 05 bf
       0.120633245 -0.08088646 0.09497545 -0.5227791
000110 68 88 98 bd ff 01 5b 3d f7 6a 92 3e aa f9 46 be
       -0.074478924 0.0534687 0.28597233 -0.19431177
000120 5b 91 9b 3e fc 83 b6 3d 62 33 5e bd cf 6c f9 3d
       0.30384335 0.08911893 -0.05424822 0.12178957
000130 a7 74 40 3e 4e e3 58 bd 88 db 22 bd 26 17 99 3d
       0.187945 -0.05295115 -0.039760143 0.07475118
000140 51 f2 b9 3d 95 1d c9 3d c8 eb 6b be 91 b7 d0 3d
       0.09079421 0.098200954 -0.23039162 0.101912625
000150 18 23 52 bd 4c 6e 48 3e 10 8b 96 be 6f d2 bd 3d
       -0.051303 0.19573325 -0.2940297 0.09268653
000160 35 84 98 3b d3 e3 3d 3e 19 77 13 be 3d 39 9a 3e
       0.004654432 0.1854394 -0.14400901 0.30121794
000170 36 d5 40 be 98 04 f2 bd 91 5a a5 3d 46 0f 53 be
       -0.18831334 -0.118172824 0.08073915 -0.20611295
000180 a7 74 11 3e 38 c6 ef 3d d0 d7 8b 3d d2 58 3a 3d
       0.14204656 0.11707729 0.06828272 0.045494862
000190 47 08 85 3c 70 f3 91 ba e7 51 ad bd 90 0c 14 3e
       0.016239299 -0.0011135172 -0.08462887 0.14457917
0001a0 0c a3 06 3e 32 c0 00 3e 65 a8 5f 3e 77 0a 5b 3d
       0.13148135 0.12573317 0.21841581 0.053476777
0001b0 36 99 5d be e7 0d 40 3e 52 0a d1 3d b2 cc 9c 3e
       -0.21640477 0.18755303 0.102070466 0.3062492
0001c0 03 27 d2 3d 5c 8c 76 be 62 7b 1c be 71 80 29 bc
       0.10261347 -0.2407698 -0.15281442 -0.010345564
0001d0 a7 a6 c8 be 1c 84 9f 3c 12 f6 4b be ea 43 a6 be
       -0.39189646 0.019472174 -0.19918087 -0.3247369
0001e0 6e 3d a9 bd 91 0b f9 bd 45 14 83 3e 8b eb 6e 3e
       -0.0826367 -0.12160409 0.25601402 0.2333204
0001f0 a7 2e e4 be 81 1b 3d 3d f7 a4 88 be e7 66 a7 be
       -0.44566843 0.046168808 -0.26688358 -0.32695696
000200 a4 32 33 be c3 71 bc bd 15 a9 f2 3c 3a 31 ab be
       -0.17499787 -0.09201386 0.02962164 -0.33435994
000210 f3 9c 54 be 89 67 ae 3d 5a a6 62 3e 35 5e e4 3d
       -0.20762996 0.085158415 0.2213377 0.11150781
000220 37 42 f2 3e 5e f5 0d be 6c c4 11 bc 0c 4f 02 3e
       0.47316143 -0.13863131 -0.008896928 0.12725466
000230 df 4c 8e 3c 3b d4 b6 be e2 7c db bd 5b 40 0b 3e
       0.01737064 -0.35708794 -0.10717179 0.13598768
000240 9b 61 f7 be 41 77 cd be 6b e0 69 be 06 bb 31 bd
       -0.48316655 -0.40130046 -0.22839515 -0.04339125
000250 ef 69 fe 3c 7f a5 21 be 2f 89 2b be 5d ad f2 bd
       0.031056372 -0.15785788 -0.1675155 -0.11849473
000260 22 75 ed bc 18 51 28 bd 10 71 b6 bd 2d e5 3a 3e
       -0.028986517 -0.041092962 -0.08908284 0.18251486
000270 86 05 b2 3d 2e 9c 41 bd 44 4b 4b 3a 0f 58 9a bd
       0.0869246 -0.047268085 0.0007755051 -0.07536327
000280 93 27 9f 3e ee 98 91 bb 83 13 2d be 72 3b 80 bd
       0.3108488 -0.0044432795 -0.16901974 -0.06261338
000290 b1 13 b6 3b 6c d6 13 3e 4b dc 19 bd d4 1f 0a bd
       0.0055565466 0.14437264 -0.037563603 -0.03372176
0002a0 38 0d be 3d 5c 99 f8 bc 67 b4 a9 3d c9 b5 89 3e
       0.09279865 -0.030346565 0.08286362 0.26896504
0002b0 aa 47 8c be 36 06 c8 3e f5 c3 16 3e 3b 48 d5 bd
       -0.27398425 0.3906724 0.14723189 -0.104141675
0002c0 7e a0 4f 3d 94 78 c4 3e ac 94 0c 3c 35 fb 0a 3e
       0.050690167 0.38373244 0.008580368 0.1357239
0002d0 37 18 8b 3d 41 06 5c 3e 1c 3c 87 3d ed 06 85 3e
       0.06791728 0.2148676 0.06603262 0.25981846
0002e0 fb 48 9e 3e fa 47 79 be 07 f6 2c 3e b7 c9 c0 be
       0.30915055 -0.24343863 0.16890727 -0.37653896
0002f0 1a 08 6c 3d 60 4b 66 be a5 57 f7 3d bc d4 2d 3e
       0.057624914 -0.22489691 0.12077264 0.16975683
000300 43 02 75 3d 4b 11 ec bd 52 d1 9d 3e c3 0c 79 bc
       0.05981661 -0.11526736 0.3082376 -0.015200797
000310 9c 65 75 bd b2 29 6b ba 43 d5 35 3e c0 de 0f be
       -0.059911355 -0.00089707517 0.17757134 -0.14049816
000320 8b d5 83 bd ea 69 8f bd da 64 45 be 56 4b a0 bd
       -0.064372145 -0.070026234 -0.19276753 -0.07826869
000330 df 61 8a bc 53 89 a7 bd 67 63 25 3e 87 29 f5 bd
       -0.016892372 -0.081804894 0.161512 -0.11970811
000340 5c 2c ae bd ef ef 81 3e 86 bc 2f 3e a0 cb 83 3e
       -0.08504555 0.25378367 0.1716176 0.2574129
000350 1a 06 da 3c 40 64 35 be de 2d 12 3e d4 80 91 3e
       0.026614238 -0.17714024 0.1427531 0.284186
000360 5e 2f 36 3e 49 24 ea 3d 82 bb 3f bb 1d 35 94 bd
       0.17791507 0.11432702 -0.002925605 -0.07236693
000370 2f df 0f 3f b8 0a a1 3e 12 0a f3 3c d8 ef f0 bd
       0.56199926 0.3145349 0.029667888 -0.117644966
000380 11 d9 c5 bc db 72 1d bd 79 2a 2b bd d0 e9 08 bd
       -0.024151357 -0.038439613 -0.041788552 -0.033426106
000390 d5 f1 97 bd e5 15 08 3e b2 bb 96 be 44 78 55 3c
       -0.07419173 0.13289602 -0.29440075 0.013029162
0003a0 a7 26 de 3d 62 43 8d bd 85 4e 18 3c 61 1f 07 bd
       0.10847216 -0.06897618 0.009296064 -0.03298891
0003b0 b3 b5 bd bd 44 fa e7 3d 05 cf 57 3d 1e 0b ad 3d
       -0.09263172 0.11327031 0.052687664 0.08449386
0003c0 09 23 f2 3c 52 9c 1c bb 27 f5 00 3e 18 17 71 3e
       0.029557722 -0.0023896885 0.12593518 0.23543966
0003d0 e8 36 f6 be 4c bb 12 be fb 10 3c 3f fd 6f bf be
       -0.48088765 -0.1432926 0.7346341 -0.37390128
0003e0 96 16 8a be a2 88 97 3b 48 e6 5c be 7c b2 39 3e
       -0.26970357 0.004624442 -0.2157222 0.18134493
0003f0 82 e4 8d 3e b8 06 1e bd 2f 63 f1 3d af 37 f5 bd
       0.277134 -0.038580626 0.11786496 -0.119735114

network_body._body_endoder.seq_layers.0.bias f4 [128]
000000 0f e8 e0 3b 00 b6 b3 3a df 81 98 3c f2 a9 88 bb
       0.006863601 0.0013710856 0.018616615 -0.0041706497
000010 27 c7 54 bc 25 7d 8f bc d8 fd 25 3b a6 e3 a8 bb
       -0.012986935 -0.017515728 0.0025328305 -0.005154091
000020 32 28 fa bb 88 0e 9b bc 54 45 b8 ba 61 9b fa bb
       -0.007634186 -0.018927827 -0.0014058747 -0.007647917
000030 94 6b d7 bc 31 94 d8 3b d1 71 b3 bb 3e 7c 26 3b
       -0.026296414 0.0066094627 -0.0054762145 0.0025403644
000040 d8 45 de 3a 2b 53 a5 bb 59 2d 68 3c f7 a1 58 bc
       0.0016958071 -0.005045315 0.014170968 -0.013222209
000050 3b f2 75 3c 14 4c 91 bb 98 90 5b ba a1 79 e7 bb
       0.0150113655 -0.004434118 -0.0008375733 -0.00706406
000060 8c f2 34 bc 0e d8 a4 ba 3f f2 8b 3c 79 82 a5 3b
       -0.011044156 -0.0012576596 0.017083285 0.005050954
000070 b9 45 01 3d 2b 9a 56 bc b6 d2 a0 3b a3 14 19 ba
       0.031560633 -0.01309828 0.004907931 -0.0005839562
000080 0f 33 69 bc b8 4e 0d 3a 1e ef bc bb 8d e7 dd 3a
       -0.014233365 0.0005390453 -0.0057658097 0.001692997
000090 4b 2c 27 3d 6e ac 1c 3c 1a 3f 34 ba 63 99 e6 3b
       0.040813725 0.009562595 -0.0006875858 0.007037328
0000a0 7d ce 79 bc a4 4f 6a 3c e9 91 3a bb 11 cd 07 bb
       -0.015246985 0.014301214 -0.0028468317 -0.0020721594
0000b0 a0 8c 98 bc 60 ef de bc 3a 1e bb bc 68 19 eb 3c
       -0.018621743 -0.027213752 -0.022841562 0.028698638
0000c0 ce b0 73 bc cf f1 94 3b 15 75 df 3b 38 d5 7e bc
       -0.0148736965 0.0045454274 0.006819377 -0.015553765
0000d0 e3 9f 90 3c 53 2c b2 3b 81 78 93 3a 50 9c c3 bc
       0.017654365 0.0054374128 0.0011251123 -0.023878247
0000e0 bf 95 e3 bb 52 11 6e bc 2a d1 0f bc 10 47 40 bb
       -0.0069453414 -0.014530497 -0.008777896 -0.0029339232
0000f0 66 fd 26 3b 60 64 cc bb 00 c8 e5 3b 84 c9 da 3c
       0.0025480627 -0.0062375516 0.0070123672 0.026707418
000100 25 8d 4b bc 9e e2 14 bc e9 9b 1a 3c 02 7d 87 3b
       -0.012423788 -0.009087233 0.009436586 0.004134775
000110 b6 d0 bc bc b7 e0 10 3c fe ed c9 bc e8 6f 21 3c
       -0.02304874 0.008842639 -0.024649616 0.009853341
000120 e2 c8 e7 bc 96 3f c7 bb ac ed 23 bc 3a c6 a4 3c
       -0.02829403 -0.006080578 -0.010005396 0.020114053
000130 6c 8c b6 3b d9 d7 5b bb a7 b0 cc ba 32 b7 11 bd
       0.005570939 -0.0033545403 -0.0015616611 -0.0355751
000140 1f f8 a0 bb 1d 7e 21 bc 54 87 9e bc 62 3a 85 3c
       -0.004912391 -0.009856728 -0.019351639 0.01626319
000150 ad 09 fb 3b f1 57 10 bd a9 17 d4 bb 95 cc 52 3b
       0.0076610656 -0.035240117 -0.006472547 0.0032165397
000160 27 2e 82 3c 9f 7d 69 3b f7 1f 7a bc 37 fe cd 3c
       0.015891148 0.0035627855 -0.01526641 0.025145633
000170 0b a9 a5 bb 1e fd d1 bb 2a 0d 82 bc f4 e1 9d 3a
       -0.005055552 -0.0064083477 -0.015875418 0.0012045489
000180 5f 0d bf bb a3 89 7a bb 31 ea 53 bc d0 09 da bb
       -0.0058304514 -0.003822901 -0.012934254 -0.006654002
000190 ae cb 0c bb 21 b5 a7 bb 7c 63 89 bb bc b2 cf bb
       -0.0021483707 -0.005118028 -0.0041927677 -0.0063384455
0001a0 22 ea b9 bb 78 83 e9 bb 22 6c 43 bc 0e 8d e5 3b
       -0.0056736628 -0.007126268 -0.011927636 0.0070053404
0001b0 0e bf 15 bc 2b 39 b5 bb fc 49 0f 3c 69 2c 56 bb
       -0.009139789 -0.0055304966 0.008745667 -0.003268028
0001c0 53 f9 34 bc be 8f 70 3b 23 32 0a ba 55 a9 28 bc
       -0.011045772 0.003670677 -0.0005271753 -0.010294278
0001d0 a7 90 b5 3a 80 c8 87 bb 12 d2 a6 bb ba 09 1e bc
       0.0013852314 -0.0041437745 -0.0050909603 -0.009645874
0001e0 27 f9 99 3b 64 bc 67 3c 2f 11 ac bc 75 d4 84 bc
       0.0046988907 0.014144037 -0.021004288 -0.016214589
0001f0 1c c3 ef bc 99 7d b0 bc 3d cd a7 3b 33 e5 81 3c
       -0.02926784 -0.021544265 0.005120902 0.015856361

network_body._body_endoder.seq_layers.2.weight f4 [128, 128]
000000 b7 fb 07 bc dc 1b 13 3e 4a 7d bb 3d 3f 90 97 3d
       -0.00829976 0.14366096 0.09154756 0.0740056
000010 2d fb 9f 3c db 85 df 3c 03 72 af 3b a2 4e 7b 3d
       0.01952895 0.027285507 0.0053541674 0.061354287
000020 4e b3 db 39 bd 42 82 3c ba 2b b3 bb a8 5c 33 3d
       0.00041904527 0.015900964 -0.005467859 0.043789536
000030 29 2f 62 bd 48 69 72 3d e1 ad 8e 3c 90 2b f2 3d
       -0.055220757 0.059182435 0.017416896 0.11824715
000040 b1 cd d6 3d 18 98 ae 3d 5b ce af 3d 70 5f 82 bd
       0.10488451 0.08525103 0.08584281 -0.063658595
000050 f2 22 cf ba bb e5 51 bd f1 8c 93 3d 68 4c 42 3e
       -0.0015803261 -0.05124448 0.07204617 0.18974459
000060 35 d0 80 bc 0e 52 4e 3d a5 be 06 bd 14 88 74 be
       -0.01572428 0.050371222 -0.032896657 -0.23880035
000070 e0 5a 53 3e 77 e4 91 3d ce 4e 1c be 0f 32 09 3e
       0.20640135 0.07123654 -0.15264437 0.13398002
000080 de ab 5d bd d3 a7 17 3e 63 81 d3 3d e4 d3 0a 3e
       -0.054118983 0.14810114 0.10327413 0.13557392
000090 c3 e3 92 3d 54 f0 c0 bc 7e bb 00 be ec cf b9 3c
       0.07172348 -0.023552097 -0.12571523 0.022682153
0000a0 4a f5 8c bd 82 b1 06 3e 17 c5 0a be 5f 79 d0 3d
       -0.06882723 0.13153651 -0.13551746 0.101794
0000b0 ed 3f 43 bc 32 a1 ab 3c ac 4a 13 3e 56 a8 9f 3d
       -0.011917097 0.020950887 0.14383954 0.077957794
0000c0 26 f8 2c be f3 80 28 bc 8e 17 ec 3d af ee d9 3c
       -0.16891536 -0.01028465 0.1152793 0.026603071
0000d0 7e b4 53 bd ca 35 c8 bd cb e6 00 3e ff 00 ed 3d
       -0.051685803 -0.097758844 0.1258804 0.115724556
0000e0 ab c4 5e 3d 55 4e ba 3c 43 9a 88 bd 87 fb b4 bc
       0.054386776 0.02274243 -0.06670048 -0.022092594
0000f0 c4 78 b0 3d c5 34 42 3d 75 a5 c5 bd a9 bb fb 3d
       0.08616784 0.047413606 -0.09650699 0.12291653
000100 a5 2f 4b bd f3 a3 2f bc d3 a5 b8 3b 2c 21 8f bc
       -0.049605984 -0.010720241 0.005635002 -0.017471872
000110 6b e7 a4 3d b0 5a 93 bb 63 9e b7 3b 49 68 b4 bd
       0.08051952 -0.004496895 0.005603598 -0.08808953
000120 06 a3 53 bd 0a 30 8c bc b8 f0 28 be a8 06 37 be
       -0.051669143 -0.01711275 -0.16498077 -0.17873633
000130 9e 83 73 3d be 55 0f bd dc 19 e6 bd b4 68 dc bd
       0.05945169 -0.03499388 -0.11235401 -0.10762158
000140 40 6b 36 bd 69 1c aa 3d b1 43 f3 3d a5 41 22 3e
       -0.044535875 0.083062 0.118781455 0.15845354
000150 73 71 b2 bc de 27 4e 3d db 75 08 be 59 17 b5 bd
       -0.021782612 0.05033099 -0.13326208 -0.08842344
000160 84 32 b6 3d 94 77 80 3d 5e 11 e8 3d af c4 90 bd
       0.08896354 0.06272808 0.113314375 -0.070687644
000170 3d 95 8a bd f6 39 4f bc 60 ea 8f 3d 72 dd 77 bd
       -0.06766746 -0.012648096 0.07027125 -0.06051392
000180 5d 7f fa 39 fb a2 10 3e bd fa a8 bd a6 73 ec bd
       0.0004777861 0.14124672 -0.082509495 -0.11545496
000190 27 3f 8c bd b9 9a 20 3d 07 fe b2 ba c4 d0 e2 bd
       -0.06847983 0.039210055 -0.0013656028 -0.11074975
0001a0 d4 dd e8 bc 00 50 96 3d 36 aa f0 bc 47 fb f1 bc
       -0.028426088 0.073394775 -0.029378038 -0.029538764
0001b0 58 8a 7d bd b2 f6 02 3e cd e7 9d 3c f8 a5 07 bc
       -0.061899513 0.1278942 0.01927557 -0.008279316
0001c0 af 3b d3 3b 9f 34 c2 bd 59 a1 f2 3d 1b 3a d3 3d
       0.006446324 -0.09482693 0.11847181 0.10313817
0001d0 0c 89 a4 3c f5 e9 bd 3d 8b 0b bc bd e8 7d 1f bd
       0.02008488 0.092731394 -0.09181889 -0.038938433
0001e0 9e 57 ab 3d 4a ed dc 3d 2d 48 e0 3d e3 f0 14 3d
       0.08366321 0.10787447 0.109512664 0.03636254
0001f0 31 57 0f 3e d4 11 04 be cc 8a 8d bd 6a 96 e0 bd
       0.13998105 -0.12897426 -0.06911239 -0.10966189
000200 5e 06 0d be 2f 42 97 3d 01 1c 8b 3c cd 7f a2 3d
       -0.1377196 0.073856704 0.016981127 0.07934532
000210 46 29 f5 bd 3c b2 1c bd 8a e2 d4 bd 23 2b 60 3d
       -0.11970763 -0.038255915 -0.103947714 0.05472864
000220 48 1f f9 bd 47 b8 16 3e db 10 5c bd 70 16 b7 3d
       -0.121641695 0.14718734 -0.053727012 0.089398265
000230 5f 89 fc 3d f6 1c 1c bd 49 82 d5 3d c2 60 3d 3d
       0.12330889 -0.038113557 0.104252405 0.046234854
000240 02 fd 09 3e 32 3a 00 3e 9c 8d c0 3d 5f ce b7 bd
       0.13475421 0.125222 0.0940201 -0.08974909
000250 71 b8 3f bc 4e ed 92 3d 54 5d 2a be 4a aa a1 bc
       -0.011701689 0.071741685 -0.16637164 -0.01973452
000260 06 7c d8 bd 32 7e aa bc 85 f2 ba 3d ac db 69 bd
       -0.105705306 -0.020812128 0.09128288 -0.05709426
000270 d6 bd bf bd 92 86 a6 3d f7 a3 92 bd e3 2c 07 3e
       -0.0936238 0.08131136 -0.0716018 0.13200717
000280 58 ec c5 3c 6d 05 50 bd c9 a8 23 bc a1 17 d9 3d
       0.024160549 -0.050786424 -0.009988972 0.1060021
000290 6d 8f dc 3d 3b 9d a3 bd 46 76 08 3d 22 f9 d4 3d
       0.10769544 -0.07988974 0.03331592 0.10399081
0002a0 cd 52 6f 3d 79 9f dd 3b 3a ce 53 bc 3b 48 5b 39
       0.058428574 0.0067633954 -0.012927586 0.00020912375
0002b0 83 3d b9 3d 90 db fc bb 22 5f 3d bd 73 a2 31 3c
       0.090449356 -0.0077166036 -0.046233304 0.010841954
0002c0 39 76 85 3d 31 8f e8 3d 68 6e 5a bd 9c bd 43 3b
       0.0651669 0.113554366 -0.053327948 0.0029867655
0002d0 77 0a 6b be 3c f0 92 3d 6e 0b 0a 3e 92 b7 34 bd
       -0.22953211 0.07174727 0.13480923 -0.04412038
0002e0 9b b1 2c be 41 7f 11 be 6d 19 35 be 14 92 04 bd
       -0.16864626 -0.142087 -0.1768548 -0.032365873
0002f0 58 51 2c 3e a5 b5 d5 3c 23 b4 ed bd 47 de 30 be
       0.16827905 0.026087591 -0.11606624 -0.17272292
000300 ae dc 2a bd 20 39 d3 3c 9f 01 c5 bc bb 9e 33 3e
       -0.041714363 0.025784075 -0.024048625 0.1754102
000310 ef b2 1d 3e c9 a0 83 bd 70 70 c2 bd e2 e1 99 3c
       0.15400289 -0.06427152 -0.09494102 0.018784467
000320 9d 37 e8 3d d9 f4 22 3e df 92 97 3d d5 eb f4 3c
       0.113387324 0.15913714 0.0740106 0.02989761
000330 46 ca 14 be 85 d6 72 3d 18 c3 24 3c 37 20 97 bd
       -0.14530286 0.059286613 0.01005628 -0.07379191
000340 5f 9c 7c 3d 84 7e ae 3c 9a 08 0c 3e ca f8 08 3c
       0.061672565 0.021300562 0.13675156 0.008360097
000350 e8 61 b3 bb 7c 98 42 3e d6 a7 b2 bc 03 20 54 bc
       -0.005474318 0.1900348 -0.021808546 -0.012947085
000360 30 bf 97 3c eb 06 1c be 63 c9 54 be 05 5e 27 3e
       0.018523782 -0.15237014 -0.20779948 0.1634446
000370 b5 95 05 be cd 36 42 bd db f2 e0 3b 5a 60 53 3c
       -0.1304539 -0.047415543 0.006864888 0.01290139
000380 f1 14 39 bd ce 7d 75 3d 55 6a b5 3d 7c de 32 be
       -0.045185987 0.05993443 0.08858172 -0.17467684
000390 ff ef 72 3d 26 b6 ff 3a d5 b2 4f be 33 ab 86 bd
       0.05931091 0.001950924 -0.20283063 -0.065756224
0003a0 d8 0e e7 bd 02 ba c9 bd a7 e1 ee bd 95 87 a7 3d
       -0.11282128 -0.09849931 -0.116641335 0.08180157
0003b0 7a 28 6b bc 3b 37 9a 3d 2c b0 d8 bd 99 81 63 bc
       -0.014352912 0.075300656 -0.10580477 -0.013885879
0003c0 f8 e4 79 bc 24 63 68 bc b6 5e ff 3b 4b 05 96 bd
       -0.015252344 -0.014183793 0.007793273 -0.07325228
0003d0 b9 8e a9 3c 20 ee 1d be 47 f2 2c 3d bb d8 9b bd
       0.020697938 -0.15422869 0.04222324 -0.076096974
0003e0 00 d4 31 bc 46 e8 61 bd be 1a bd 3d 57 34 3a bd
       -0.010853767 -0.055153154 0.09233616 -0.04546007
0003f0 c3 bc 66 3d 2e cf eb 3d 93 4e f3 3d b9 da c3 bd
       0.05633236 0.11514126 0.11880221 -0.095632024

network_body._body_endoder.seq_layers.2.bias f4 [128]
000000 15 de c3 bb e1 47 af bb 19 63 79 bb 95 b2 ae 3b
       -0.005977402 -0.005349145 -0.0038053452 0.005331347
000010 96 1c 86 3b 45 8c b1 3b 20 1a 21 bc c8 34 74 bc
       0.004092763 0.0054183328 -0.009832889 -0.014905162
000020 01 5e f0 bb 48 9d 2e 3c 59 b9 01 bc 09 a4 cd ba
       -0.007335425 0.010657616 -0.0079177255 -0.0015689145
000030 20 09 89 bb c7 9e 68 bc 8a 33 81 3c 72 a6 a1 bb
       -0.004181996 -0.014198012 0.015771646 -0.004933172
000040 28 72 bf 3b c9 11 cc bb 66 64 56 bc f3 a5 50 bc
       0.005842466 -0.006227706 -0.01308546 -0.012734878
000050 52 c7 fc ba 4b d9 56 bc ab b3 19 3b 6a 25 7b 3c
       -0.0019285476 -0.01311333 0.0023453038 0.015328744
000060 39 d1 97 bc fa cb 25 3c 1d f3 6c 3c ba 82 7e 3c
       -0.018532382 0.010119433 0.01446226 0.015534097
000070 6c 29 b1 bb 10 35 4a bc f6 08 52 bc 66 ed ed bb
       -0.005406549 -0.012341753 -0.012819519 -0.007260966
000080 68 bb 2f 3c 75 cf 4a bc 61 e8 32 ba fd c8 82 bc
       0.0107258335 -0.012378563 -0.0006824788 -0.01596498
000090 1b 22 20 bc 90 ba ab 3b 55 8a bd bb c8 25 55 bc
       -0.009773756 0.005240746 -0.0057843127 -0.013009496
0000a0 ff de cd ba d3 ba 9b 3b ee 97 6f bc fa 7d 3a 3c
       -0.0015706717 0.004752496 -0.014623625 0.011382574
0000b0 21 d9 ae 3a 95 fe 0f 3d b7 3d 34 3b f7 20 39 ba
       0.0013339856 0.035154898 0.0027502605 -0.0007062102
0000c0 02 0c 3e bc b9 75 c2 3b 99 c2 2f bc 0d b0 8a bc
       -0.011599543 0.005934444 -0.010727548 -0.01692965
0000d0 fb 79 8a 3c e6 ad 9a bc c2 64 04 bc 95 86 5b bb
       0.016903868 -0.01888175 -0.008080663 -0.0033496965
0000e0 69 18 bd b9 39 cc 75 3c 4f 99 cd bc ea ba 22 3c
       -0.00036067076 0.015002304 -0.025097517 0.009932259
0000f0 d9 b6 46 3c 43 44 57 bc 22 16 8e 3c 4a a8 52 bb
       0.012128555 -0.013138833 0.017344538 -0.0032143765
000100 c4 46 12 3d 3a 0a cf 3c 9a 52 03 bd a1 f6 a4 39
       0.03571202 0.025273431 -0.032061197 0.0003146427
000110 83 a5 32 bc 8e ca e9 bc 60 73 cf bb e9 40 49 3c
       -0.010903719 -0.028538968 -0.0063308924 0.012283542
000120 fe 2d 34 3b 49 4a 21 bb 33 90 0d bc b0 6b 08 3c
       0.0027493234 -0.0024610928 -0.008640337 0.008326456
000130 b1 46 02 bc 45 65 a8 ba 97 a5 96 ba bc 9d 99 3b
       -0.007951424 -0.0012847563 -0.0011493441 0.004687993
000140 ee cb db 3b df e4 26 bc 34 0b df bb 26 ff 4f 3c
       0.00670766 -0.010186403 -0.0068067554 0.0126951095
000150 54 17 de bb 1b 48 2a bc 05 1f e7 bb 66 3a 4e bc
       -0.0067776833 -0.010393168 -0.0070532584 -0.012587165
000160 3c ae 2b bc 62 f4 35 3b 71 df 91 3c 9d 1d 99 3c
       -0.010478552 0.0027764072 0.01780674 0.018690879
000170 4a cc f9 bb 8c 94 3d 3c b5 59 f9 3b 37 93 0d bd
       -0.00762323 0.011571061 0.007609571 -0.034564223
000180 d4 38 a0 3b 04 dd fa bc 94 9d 2f 3c fa 69 f2 3b
       0.004889587 -0.030622967 0.010718722 0.0073978873
000190 5c d9 6d bc 3d 06 4d 3c 81 66 8a bc d4 2a f5 3b
       -0.014517155 0.012513694 -0.01689458 0.007481912
0001a0 d7 1c a6 3c 21 64 0e 3c 00 65 01 bc 53 61 f0 3b
       0.020277424 0.008690865 -0.007897615 0.0073358207
0001b0 9c 6d 09 3c b5 59 03 bc 1d 5c 47 ba 3a 6d 24 3b
       0.008387949 -0.008016993 -0.00076049735 0.0025089518
0001c0 f0 09 46 bc 8f e3 50 bc 7c 98 5a bb dd 1f 15 bc
       -0.01208733 -0.012749567 -0.0033355048 -0.009101835
0001d0 cd c3 42 bc 45 e7 b7 bb 96 15 f8 3b e7 8e e6 3b
       -0.011887503 -0.0056122863 0.0075709326 0.0070360783
0001e0 60 dd fd bb d5 81 9d b9 f4 65 a4 bb 08 d2 fc bb
       -0.007747337 -0.00030042106 -0.0050170366 -0.0077154674
0001f0 3a e3 d0 3b 22 f5 05 3b 4b b7 e2 bc 5d a2 86 bc
       0.0063747438 0.00204403 -0.027675292 -0.016434843

action_model._continuous_distribution.log_sigma f4 [1, 4]
000000 28 65 4b bd c0 0d d0 bd bf 29 fa bc ee 63 c2 bb
       -0.049657017 -0.101588726 -0.030537484 -0.0059323227

action_model._continuous_distribution.mu.weight f4 [4, 128]
000000 d3 83 88 3a 7d e5 f5 bb fa f3 e1 bb 81 e2 a2 bc
       0.0010415263 -0.007504164 -0.0068955394 -0.019883396
000010 56 45 0c 3c 92 3b 16 3c 17 15 8a 3c 44 b6 46 bc
       0.008561453 0.009169476 0.01685576 -0.012128416
000020 f2 a9 56 3c 7a 09 d4 39 0c f8 2c 3c c6 c3 0b bd
       0.013102042 0.00040442852 0.010557186 -0.03412225
000030 41 c1 e6 bc 6c ce b6 bc b4 49 da bc 8e 31 33 bc
       -0.028168323 -0.022315226 -0.026646473 -0.010937108
000040 dd 71 88 bc fd ea 76 3c 69 b6 22 3c c5 11 10 bc
       -0.016655857 0.015070674 0.009931185 -0.008793299
000050 5c bb 24 3d 0f d9 82 bc fd 76 ea bb d1 61 e1 bc
       0.040217742 -0.015972642 -0.007155298 -0.027512463
000060 5b 2e 95 bb 20 d9 a1 3b 48 a3 aa b9 57 d3 b7 3c
       -0.004552645 0.0049392134 -0.0003254658 0.022439642
000070 0a e5 6d bc dc 37 bd 3c 18 ed a7 bb 2c 28 2f bc
       -0.014519939 0.023097925 -0.0051246993 -0.01069073
000080 95 5d d9 3a ac f5 42 3c a5 43 40 3c 0f 58 3b bc
       0.0016583676 0.011899393 0.011734878 -0.011434569
000090 3d 7f fc 3a f5 8b 61 3a 0b 51 b6 3b 34 d8 c6 bb
       0.0019263994 0.0008603924 0.0055638603 -0.006068254
0000a0 29 90 e4 3b 6c 28 01 3b bf 3e 06 b8 f7 28 0c 3c
       0.006975193 0.0019707931 -3.2006526e-05 0.008554689
0000b0 71 b1 d6 3b da 5b d4 3c 92 f1 a8 bc ef 20 d1 bb
       0.0065519144 0.025922704 -0.020623002 -0.0063821
0000c0 8c ae 48 bc 6e e3 7a 3a cc ba 94 bc 42 ce b7 bc
       -0.0122486465 0.0009570633 -0.018155478 -0.022437219
0000d0 3c 7a ef 3b f1 27 75 bc 80 0c 2d bc 9f 5d 52 b8
       0.0073082726 -0.014963136 -0.010562062 -5.0155093e-05
0000e0 a4 af a9 3c 93 ab a9 3a 56 4e 35 ba 4f e6 13 3c
       0.020713635 0.001294481 -0.0006916275 0.009027078
0000f0 63 a5 ce 3a 19 12 de bc b2 c3 49 3b 7d 09 26 3c
       0.0015765842 -0.027108239 0.003078681 0.010134098
000100 06 ba 09 3c b6 d1 7c ba e7 6b 3f bb 68 8e 02 bc
       0.008406168 -0.00096442865 -0.0029208602 -0.007968523
000110 54 33 3e 3b ab ef 1d 3b 36 15 e0 bc 37 0f 04 3c
       0.0029022293 0.0024099152 -0.027353864 0.008060268
000120 b4 cc 8b bb 49 e2 83 bb 1c 60 6d 3c ff 30 29 3d
       -0.004266346 -0.004024778 0.014488246 0.041306492
000130 a7 39 a8 bc 31 c2 56 3b 6c a6 6c bb ec 91 1f 3b
       -0.020535303 0.0032769556 -0.0036109937 0.002434845
000140 ac 71 6b bc 30 41 87 bb 62 a3 de 3b 59 9e ab bc
       -0.014370363 -0.004127644 0.006794379 -0.02094953
000150 6b 64 20 ba 04 5c 67 3b 8d ab b2 3b 7a b5 94 bc
       -0.0006118479 0.0035302648 0.0054525794 -0.018152941
000160 30 d0 99 bb ec 59 60 3b 1d 33 71 3c 11 e5 76 3c
       -0.0046940073 0.0034233285 0.014721659 0.015069262
000170 3c f7 c8 bb c9 0e 61 bb 0f aa 22 bb f7 80 14 3c
       -0.0061329883 -0.0034341088 -0.00248206 0.009063951
000180 61 62 21 3c 1d 63 3a bb e6 1e a3 3b 54 55 24 3c
       0.0098501155 -0.0028440424 0.0049780486 0.010030109
000190 0d 15 e7 bb 40 f7 18 3c c7 d8 d3 bc 53 8b 6e ba
       -0.00705207 0.009336293 -0.025860203 -0.00090997404
0001a0 1e 08 de bb 20 97 32 bb 20 85 d1 bc 9e bf 37 bb
       -0.00677587 -0.0027250722 -0.025576174 -0.0028037797
0001b0 8c 95 e0 3c dc 98 6c 3c 4f 2c 1f bd a9 60 c0 3c
       0.02741506 0.014440741 -0.038860615 0.023483591
0001c0 6e 35 30 bb b9 9a ea bc ac a3 c2 3a a9 0b 86 3b
       -0.0026887315 -0.02863823 0.0014849803 0.0040907455
0001d0 8c 8f 0b bc 48 fd 02 bd 05 f4 14 3c 75 3d 98 ba
       -0.008518111 -0.03197983 0.009091382 -0.0011614995
0001e0 ad 37 27 bc ad 48 6b bc d0 72 60 bb e8 b5 ed bc
       -0.010206145 -0.014360589 -0.003424812 -0.029017404
0001f0 39 a9 f4 bb d6 51 d4 3b 54 6c 36 bc c9 45 a9 bb
       -0.007466462 0.006479482 -0.011134226 -0.0051657897
000200 d3 e5 88 3c 11 15 4e 3b 2b 99 1f bc 95 3f 1e 3d
       0.016711151 0.0031445662 -0.009741108 0.038634855
000210 6d f0 67 3c 36 5d 0a 3d da d4 42 bc 85 da 60 3a
       0.014156443 0.0337803 -0.011891568 0.0008577484
000220 8e 11 b7 bb 7f 4b 96 3c 42 6c 15 3c 59 cb aa 3c
       -0.0055868095 0.018346546 0.009120049 0.020848917
000230 c2 03 c5 bc b2 28 b9 bc 45 1c 03 3c 05 11 15 bb
       -0.024049643 -0.022602413 0.008002345 -0.002274574
000240 fc 08 85 bb f0 45 67 bc 81 07 4c bc 60 c4 44 bb
       -0.004059909 -0.0141157955 -0.012452961 -0.0030024275
000250 49 94 29 3b 3a 99 3f 3c 9a 83 15 bc b8 6a 7d bc
       0.0025875738 0.011694247 -0.009125615 -0.015467338
000260 67 3a 98 bc 3c eb e8 3c 80 85 8e 3c 07 51 f9 3c
       -0.018582536 0.028432481 0.017397642 0.030434145
000270 b9 56 b0 bc 81 42 38 bd 0e 04 b3 bc 85 9d fb bb
       -0.021525728 -0.044985298 -0.02185252 -0.00767869
000280 1d a2 95 3c e0 86 72 3c 8a 1c 30 bb 5d 41 64 3b
       0.018265778 0.0148026645 -0.002687248 0.0034828999
000290 53 e1 8c bc 6f ba b0 3a 0d 89 12 3c 34 11 58 bd
       -0.017197287 0.0013483296 0.008943808 -0.05275078
0002a0 0b 56 a4 3c 42 6f 1c 3d 2a 68 43 bc 1d f7 fd 3c
       0.02006056 0.03819204 -0.01192669 0.031001622
0002b0 28 83 2c 3c d8 17 10 3d ab 7d b5 3c 25 62 81 3c
       0.010529317 0.03517899 0.02215465 0.01579387
0002c0 f9 86 de 3b 58 ca 4d 3d 6d 64 be bc 9d ba e9 bc
       0.0067909923 0.0502418 -0.023241246 -0.028531367
0002d0 24 8e 30 bd e2 6c f3 bb b8 19 d4 3b 38 4d 2f 3c
       -0.043104306 -0.0074287513 0.0064727925 0.010699563
0002e0 3d 89 5b 3b f2 6d 48 3c 7e 68 44 bd 54 33 a7 3c
       0.0033498548 0.012233244 -0.047951214 0.020410217
0002f0 dc 76 27 3d 3c 62 68 bc 54 da 41 3d a7 e0 3b 3c
       0.040884838 -0.014183577 0.047327355 0.0114671355
000300 e3 34 9f 3c a3 cb b7 bb 8e 5e 2c bc 00 0f 04 bd
       0.019434398 -0.005608992 -0.0105205905 -0.032240868
000310 c8 48 10 3c 2f d4 00 bd 2c a3 78 bc 66 4e 18 3c
       0.008806415 -0.031452354 -0.015175622 0.009296035
000320 dc c7 c3 3c fe 8e 39 bb f9 28 80 bc 1d f2 69 bc
       0.023899011 -0.002831399 -0.015644537 -0.014278916
000330 ef 9a 64 bc a2 90 28 bd f8 76 d6 3b 71 0f ed 3c
       -0.013952955 -0.041153558 0.006544944 0.028938027
000340 23 b4 f8 bc 5a bc 16 3c 30 8f fd bb 64 cb 09 bc
       -0.030359333 0.00920018 -0.0077380165 -0.0084103085
000350 d3 09 13 3c 28 1e 1e bd 97 ef e1 bb b9 6b 20 bb
       0.00897451 -0.038602978 -0.0068950164 -0.002447827
000360 07 b5 8d bc b9 59 41 3c be ef 1a 3d 19 b0 8d 3c
       -0.017298235 0.011801177 0.037826292 0.017295884
000370 39 5d 59 ba a9 d8 41 bc 48 34 e1 3c cc 03 db bb
       -0.00082917843 -0.011831441 0.02749075 -0.006683802
000380 4a a3 c3 3c 70 1b 51 3a aa 7f c1 3c 57 f1 e8 3c
       0.023881573 0.0007976806 0.023620445 0.028435392
000390 89 67 55 bc 51 f0 2e 3d f6 53 9f bd ee 60 01 3d
       -0.013025173 0.042709652 -0.07779686 0.03158658
0003a0 c9 a8 b6 3c 3d 3e bb 3c dc 90 b2 bc 8a 80 fd 3b
       0.02229728 0.022856826 -0.02179759 0.0077362703
0003b0 26 42 a9 3c a8 2c 0e bd fa 8d 27 3d 39 b1 b2 bb
       0.020661425 -0.034710556 0.040906884 -0.0054532555
0003c0 dc 9f b3 bb 93 07 0a bd 31 22 11 3d 57 42 23 bb
       -0.005481703 -0.03369863 0.035432998 -0.0024911368
0003d0 ec 2e 33 bc 3a ef ea bb 3c 27 0f bb 3c d1 f7 3c
       -0.01093648 -0.0071696313 -0.0021843454 0.030251138
0003e0 94 57 c5 bc 89 32 1f bb 11 c7 80 bb f9 e0 ba bc
       -0.024089612 -0.0024291596 -0.0039299806 -0.022812353
0003f0 87 b1 31 3d 64 b1 26 3c 7f 40 dc bc 0a ee 57 bc
       0.043382194 0.010174129 -0.026886223 -0.0131793115

action_model._continuous_distribution.mu.bias f4 [4]
000000 6c 52 0b 3c d7 a9 ab 3c 07 0f e6 ba 01 68 df 3a
       0.008503538 0.02095501 -0.0017552086 0.0017044545

exp_avg f4 [128, 29]
000000 ab 45 bc 3a d2 28 59 3b b9 ca 93 3b 71 4a 27 af
       0.0014364024 0.0033135903 0.0045102504 -1.5215008e-10
000010 62 cf 1e 3a 62 cf 1e 3a 0d 97 bf 1c 62 cf 1e 3a
       0.0006058124 0.0006058124 1.2678365e-21 0.0006058124
000020 04 00 00 00 40 b2 6b 39 9b ac 28 b9 8d f3 81 3a
       6e-45 0.0002247775 -0.00016086029 0.0009914503
000030 79 48 e9 39 6d 2f ca 39 bb 21 0a 3a 6d 2f ca 39
       0.0004449522 0.00038563777 0.00052693085 0.00038563777
000040 4c 0e 45 3a 9b ac 28 b9 40 6d a5 b8 9b ac 28 b9
       0.0007517084 -0.00016086029 -7.8881625e-05 -0.00016086029
000050 72 39 6f 3a 3a 63 7b b9 48 00 00 80 48 00 00 80
       0.00091256865 -0.0002397419 -1.01e-43 -1.01e-43
000060 6d 2f ca 39 3a 63 7b b9 39 aa a4 9b 0a 00 00 80
       0.00038563777 -0.0002397419 -2.7241528e-22 -1.4e-44
000070 8d f3 81 3a 6c d8 95 38 35 8b 57 3a 19 34 41 3a
       0.0009914503 7.1451854e-05 0.00082223426 0.0007370129
000080 c7 a6 1e 2f 5d 16 b9 b9 5d 16 b9 b9 a7 57 d0 9c
       1.4429268e-10 -0.00035302612 -0.00035302612 -1.3786943e-21
000090 5d 16 b9 b9 04 00 00 00 6a d1 4b 3a 07 03 18 39
       -0.00035302612 6e-45 0.00077750406 0.00014496977
0000a0 f1 8a 92 39 b1 29 5a b9 a7 d0 25 3a 0e 9e 2b ba
       0.0002795081 -0.00020805631 0.0006325342 -0.00065466843
0000b0 a7 d0 25 3a 70 cd 00 39 07 03 18 39 bf 25 9e b9
       0.0006325342 0.00012283563 0.00014496977 -0.0003016423
0000c0 07 03 18 39 d0 ac b9 b7 77 48 24 b9 80 03 00 00
       0.00014496977 -2.213419e-05 -0.00015667254 1.256e-42
0000d0 80 03 00 00 a7 d0 25 3a 77 48 24 b9 2a 52 37 1c
       1.256e-42 0.0006325342 -0.00015667254 6.0655815e-22
0000e0 0b 05 00 80 f1 8a 92 39 80 58 36 36 5e 66 d0 b9
       -1.809e-42 0.0002795081 2.7171627e-06 -0.0003974912
0000f0 10 87 e9 b9 cc 28 d3 2e 84 13 94 37 84 13 94 37
       -0.00044541853 9.602416e-11 1.7652063e-05 1.7652063e-05
000100 f3 ee b4 99 84 13 94 37 04 00 00 00 02 ae 08 b8
       -1.8708075e-23 1.7652063e-05 6e-45 -3.2586984e-05
000110 8b 3e 11 37 c6 e7 c5 b7 c4 b2 dc 37 a4 fd 2c b8
       8.657235e-06 -2.3592158e-05 2.6309288e-05 -4.1244217e-05
000120 b4 b0 2e b8 a4 fd 2c b8 5a af 9b b8 8b 3e 11 37
       -4.16494e-05 -4.1244217e-05 -7.423638e-05 8.657235e-06
000130 77 ba 78 b8 8b 3e 11 37 2c d7 ad b8 d5 6a 54 b8
       -5.9301467e-05 8.657235e-06 -8.289362e-05 -5.0644234e-05
000140 5c 0a 00 00 5c 0a 00 00 a4 fd 2c b8 d5 6a 54 b8
       3.716e-42 3.716e-42 -4.1244217e-05 -5.0644234e-05
000150 f6 fe 43 9a 39 08 00 80 c6 e7 c5 b7 c2 ee cd 39
       -4.053101e-23 -2.95e-42 -2.3592158e-05 0.00039278535
000160 03 5f 0c 3a 32 20 55 3a ba 63 f8 2e 38 59 00 39
       0.0005354734 0.00081301027 1.1295449e-10 0.00012240268
000170 38 59 00 39 8f 3a 39 1b 38 59 00 39 04 00 00 00
       0.00012240268 1.5321763e-22 0.00012240268 6e-45
000180 15 2b 1b 39 eb b0 a4 37 18 77 83 39 55 ef 14 39
       0.00014798001 1.9632707e-05 0.00025075 0.00014203538
000190 f8 94 06 39 ba 59 51 b7 f8 94 06 39 79 15 0e 39
       0.00012834731 -1.2478262e-05 0.00012834731 0.00013550174
0001a0 eb b0 a4 37 d3 6e 0d b9 eb b0 a4 37 b9 fe f2 38
       1.9632707e-05 -0.00013488093 1.9632707e-05 0.00011586905
0001b0 6b b1 f1 b8 02 02 00 00 02 02 00 00 f8 94 06 39
       -0.00011524822 7.2e-43 7.2e-43 0.00012834731
0001c0 6b b1 f1 b8 5f 60 a1 1b 2d 03 00 80 18 77 83 39
       -0.00011524822 2.6697494e-22 -1.139e-42 0.00025075
0001d0 c3 e9 ab 37 f2 62 47 38 00 6c d0 38 88 d3 d5 2c
       2.0493642e-05 4.7537447e-05 9.9383295e-05 6.077309e-12
0001e0 fb 7f 27 37 fb 7f 27 37 ae 93 5c 18 fb 7f 27 37
       9.983773e-06 9.983773e-06 2.8508893e-24 9.983773e-06
0001f0 04 00 00 00 c0 38 0d 35 84 37 d4 37 7f 1b 78 b7
       6e-45 5.2609175e-07 2.529822e-05 -1.4788354e-05
000200 c1 fb 13 38 bf cd cf b7 e7 88 86 37 bf cd cf b7
       3.5281995e-05 -2.4772131e-05 1.6037795e-05 -2.4772131e-05
000210 b0 f2 8a 37 84 37 d4 37 a0 23 cb 36 84 37 d4 37
       1.6563892e-05 2.529822e-05 6.0540187e-06 2.529822e-05
000220 af 89 12 b7 36 80 03 38 20 00 00 80 20 00 00 80
       -8.734335e-06 3.135224e-05 -4.5e-44 -4.5e-44
000230 bf cd cf b7 36 80 03 38 86 fa b7 19 07 00 00 00
       -2.4772131e-05 3.135224e-05 1.9022942e-23 1e-44
000240 7f 1b 78 b7 cb ad 73 b8 81 95 2f b9 97 24 6c b9
       -1.4788354e-05 -5.8097572e-05 -0.00016744995 -0.00022520345
000250 87 46 9e ab 29 9c b3 b7 29 9c b3 b7 31 39 49 99
       -1.124615e-12 -2.141118e-05 -2.141118e-05 -1.0403006e-23
000260 29 9c b3 b7 04 00 00 80 47 23 80 b7 61 ee 9f 35
       -2.141118e-05 -6e-45 -1.5275216e-05 1.19158e-06
000270 2b df 1e b8 42 9d a9 b7 2e 22 8a b7 2e b8 ba b7
       -3.7877977e-05 -2.0219599e-05 -1.6466798e-05 -2.2258693e-05
000280 2e 22 8a b7 ba 6d 1d b8 61 ee 9f 35 7e 80 63 b5
       -1.6466798e-05 -3.7533908e-05 1.19158e-06 -8.475107e-07
000290 61 ee 9f 35 2e 6d 22 b8 97 b8 b8 34 1d 00 00 00
       1.19158e-06 -3.872549e-05 3.4406978e-07 4e-44
0002a0 1d 00 00 00 2e 22 8a b7 97 b8 b8 34 66 91 72 99
       4e-44 -1.6466798e-05 3.4406978e-07 -1.254047e-23
0002b0 53 00 00 00 2b df 1e b8 07 0b f7 39 0e 17 14 3a
       1.16e-43 -3.7877977e-05 0.00047119727 0.00056491874
0002c0 a0 f8 61 3a 1c 46 ab ae 28 14 93 39 28 14 93 39
       0.0008620117 -7.7886336e-11 0.00028053042 0.00028053042
0002d0 67 22 06 1d 28 14 93 39 04 00 00 80 1f 75 bc b8
       1.7752538e-21 0.00028053042 -6e-45 -8.986354e-05
0002e0 db 47 05 b9 cd 9a a6 39 71 e0 20 39 2b 35 1c 38
       -0.00012710637 0.00031777323 0.000153424 3.7242815e-05
0002f0 51 e0 74 39 2b 35 1c 38 c3 a5 16 39 db 47 05 b9
       0.00023353218 3.7242815e-05 0.00014366866 -0.00012710637
000300 f4 1f 45 b8 db 47 05 b9 ce f6 8d 39 da 8f 36 b9
       -4.699822e-05 -0.00012710637 0.000270775 -0.00017410461
000310 4f 09 00 00 4f 09 00 00 2b 35 1c 38 da 8f 36 b9
       3.339e-42 3.339e-42 3.7242815e-05 -0.00017410461
000320 a8 6c 88 1b c7 05 00 80 cd 9a a6 39 84 36 a7 b6
       2.256953e-22 -2.073e-42 0.00031777323 -4.9833343e-06
000330 8e 62 cf 38 99 86 0f 39 34 2e 99 2f 2e a9 0c b8
       9.8888864e-05 0.00013687684 2.7863367e-10 -3.3536162e-05
000340 2e a9 0c b8 dc 14 0a 1b 2e a9 0c b8 04 00 00 00
       -3.3536162e-05 1.1421832e-22 -3.3536162e-05 6e-45
000350 c6 35 82 38 d0 4f 4c 38 d8 1a a9 b7 8c 9a 7e 37
       6.208899e-05 4.871172e-05 -2.015887e-05 1.5175563e-05
000360 fc 6e 60 37 5f bc 24 b8 fc 6e 60 37 59 5e bf 37
       1.3377281e-05 -3.927608e-05 1.3377281e-05 2.2812908e-05
000370 d0 4f 4c 38 9d 99 c0 b6 d0 4f 4c 38 42 41 d9 b7
       4.871172e-05 -5.739929e-06 4.871172e-05 -2.5898804e-05
000380 9e 3c 34 38 07 00 00 00 07 00 00 00 fc 6e 60 37
       4.29718e-05 1e-44 1e-44 1.3377281e-05
000390 9e 3c 34 38 8f d4 45 1c 46 00 00 80 d8 1a a9 b7
       4.29718e-05 6.545656e-22 -9.8e-44 -2.015887e-05
0003a0 58 76 e6 39 5c af 70 3a 37 c4 b2 3a d0 c6 bc ae
       0.00043957192 0.0009181404 0.0013638799 -8.5845664e-11
0003b0 3e ce 75 39 3e ce 75 39 8d b9 e1 1c 3e ce 75 39
       0.00023441852 0.00023441852 1.4937215e-21 0.00023441852
0003c0 04 00 00 00 5a 7e f5 b7 d8 27 86 b7 6d e3 67 39
       6e-45 -2.9265113e-05 -1.5992598e-05 0.000221146
0003d0 43 09 65 39 02 ad 5e b7 5d 85 86 39 02 ad 5e b7
       0.00021842592 -1.3272513e-05 0.00025657835 -1.3272513e-05
0003e0 f3 5a 6e 39 d8 27 86 b7 f5 e3 b9 37 d8 27 86 b7
       0.0002273133 -1.5992598e-05 2.215987e-05 -1.5992598e-05
0003f0 ee 1f 7f 39 74 f0 ce 36 c8 02 00 80 c8 02 00 80
       0.0002433059 6.167271e-06 -9.98e-43 -9.98e-43

exp_avg_sq f4 [128, 29]
000000 ad 72 de 37 88 fa ec 38 7b 6a f1 38 55 fd dc 37
       2.6517862e-05 0.00011300022 0.00011511609 2.634401e-05
000010 64 59 52 36 09 b0 5b 36 90 6d ba 34 a7 0d 4a 36
       3.134447e-06 3.273601e-06 3.4724917e-07 3.0108292e-06
000020 df d9 16 32 67 9e a9 35 3d f2 7b 34 49 5b 8e 36
       8.780687e-09 1.2637582e-06 2.3464322e-07 4.2425568e-06
000030 f6 38 4e 36 87 ba 84 35 22 8b 77 36 eb 7b 9f 35
       3.0729548e-06 9.889053e-07 3.6886854e-06 1.1882488e-06
000040 3b 8c a8 36 1a 34 c6 33 a0 da 2b 35 0d d1 28 34
       5.023115e-06 9.229571e-08 6.4020605e-07 1.5722271e-07
000050 e2 52 a0 36 49 bb 1e 35 e7 c1 92 34 52 46 90 34
       4.7780204e-06 5.913212e-07 2.7335702e-07 2.6873255e-07
000060 fc 6c af 35 02 20 73 35 15 72 8f 34 96 3b 51 34
       1.3070235e-06 9.057113e-07 2.671883e-07 1.9486319e-07
000070 0d 23 8c 36 d9 96 8e 38 1f 06 e6 38 96 43 c3 38
       4.1764056e-06 6.799185e-05 0.00010968395 9.3109134e-05
000080 c6 a2 16 38 59 1d 9f 35 0a 20 f7 35 ea 1f 91 35
       3.591438e-05 1.1854964e-06 1.8412259e-06 1.081263e-06
000090 9e e5 8a 35 6a 96 5d 32 39 2e c8 35 3e 34 85 35
       1.0348629e-06 1.2898093e-08 1.4914614e-06 9.924477e-07
0000a0 2c c5 1f 36 8c d3 c3 35 b7 3e 17 35 b2 67 c2 35
       2.3807615e-06 1.45902e-06 5.6343146e-07 1.4484306e-06
0000b0 9d 0b 29 35 66 c7 51 36 b4 d3 a3 34 09 05 c9 34
       6.2974306e-07 3.1259492e-06 3.051515e-07 3.744283e-07
0000c0 38 4e ce 34 31 25 10 36 fe 70 42 35 ec a1 64 34
       3.8427402e-07 2.147932e-06 7.2435057e-07 2.1293062e-07
0000d0 d9 68 4a 34 ba 54 46 35 3a 7a 4f 35 e3 0a f7 34
       1.885086e-07 7.388404e-07 7.729137e-07 4.6015256e-07
0000e0 25 73 86 34 e8 50 e5 35 04 74 db 37 65 a8 73 36
       2.5043224e-07 1.7085376e-06 2.6160858e-05 3.630784e-06
0000f0 36 b8 3a 37 b2 0d 4e 36 49 d0 54 34 50 8e 52 34
       1.1129354e-05 3.0704364e-06 1.9819812e-07 1.9609547e-07
000100 3c b8 07 35 c3 e1 4d 34 0d d8 2e 32 cc bc 0f 32
       5.0559515e-07 1.9174244e-07 1.0177257e-08 8.366623e-09
000110 0c 1d 55 32 b5 f9 11 35 e8 62 37 35 87 53 e4 32
       1.2404836e-08 5.438008e-07 6.831674e-07 2.6580677e-08
000120 13 75 62 34 7b be 73 32 64 71 41 35 a3 f1 c1 32
       2.1090482e-07 1.4187772e-08 7.206311e-07 2.257804e-08
000130 66 d2 20 33 ed d8 d8 31 1e cf 5c 34 3d db 2e 34
       3.744426e-08 6.311089e-09 2.0564445e-07 1.6284771e-07
000140 56 11 c2 34 be 27 b4 34 27 2d 9b 32 37 3f fd 32
       3.614793e-07 3.355653e-07 1.8064908e-08 2.9481823e-08
000150 ec a4 3a 34 08 51 30 34 8a 66 60 34 ea 09 11 38
       1.7382598e-07 1.6420756e-07 2.0898929e-07 3.4579927e-05
000160 07 1f 23 38 9f 20 d9 37 4a d7 7a 37 7e 46 1c 35
       3.8891125e-05 2.5883606e-05 1.4951287e-05 5.821711e-07
000170 fc c3 66 35 47 4b 06 35 1a ff 19 35 69 1f 98 32
       8.596687e-07 5.0028433e-07 5.7368163e-07 1.7709413e-08
000180 3b 46 0e 35 81 a3 f5 34 98 2e 8c 35 90 31 5c 35
       5.300132e-07 4.575377e-07 1.0444373e-06 8.202851e-07
000190 41 31 00 34 a4 d6 30 35 c0 dc 08 34 74 98 af 35
       1.1938847e-07 6.587745e-07 1.2746295e-07 1.3082886e-06
0001a0 57 d1 2d 34 d9 f7 07 34 f0 c9 38 34 24 3b 4b 35
       1.6188038e-07 1.2663021e-07 1.72098e-07 7.5709454e-07
0001b0 d6 9f 8c 34 e2 52 5f 34 bc 76 57 34 93 68 2b 34
       2.6193328e-07 2.0798646e-07 2.006663e-07 1.596366e-07
0001c0 bb ab a1 34 7e 7f 03 34 92 ab 9a 33 0e ca 31 35
       3.0113537e-07 1.2246707e-07 7.202392e-08 6.6231667e-07
0001d0 ba 53 10 34 df 72 01 35 99 b2 06 35 d3 15 3d 34
       1.3441505e-07 4.8223404e-07 5.0178784e-07 1.7609936e-07
0001e0 fa 7c 19 32 30 2a 12 32 33 24 7e 31 77 32 09 32
       8.9341885e-09 8.507911e-09 3.6982442e-09 7.985924e-09
0001f0 45 a4 f9 2e 95 b7 e5 31 88 8e 87 31 46 3d 52 32
       1.1352389e-10 6.685648e-09 3.945221e-09 1.2237541e-08
000200 70 fe 70 32 54 4e 8c 31 43 78 8a 32 df a2 b7 31
       1.4027691e-08 4.083441e-09 1.6120003e-08 5.3445173e-09
000210 ed 90 e0 32 da 28 82 31 4a e1 17 32 a0 11 5d 31
       2.6142937e-08 3.7881422e-09 8.840582e-09 3.2169751e-09
000220 f4 07 9a 32 f2 98 2d 32 e2 c3 7e 31 92 e0 55 31
       1.7931576e-08 1.0104701e-08 3.7073211e-09 3.1123233e-09
000230 21 2e c0 31 26 43 3b 32 97 61 88 31 9d 50 8f 31
       5.5931797e-09 1.09001e-08 3.9692156e-09 4.1710124e-09
000240 fa 92 53 32 78 07 83 34 c9 2c 05 35 30 ed 8b 35
       1.2315235e-08 2.4406086e-07 4.961153e-07 1.0425338e-06
000250 68 bd b1 35 3f 59 e2 31 95 26 e5 31 98 c7 d9 31
       1.3242652e-06 6.587612e-09 6.6691634e-09 6.3382224e-09
000260 47 08 c8 31 c6 81 a3 30 e3 41 17 32 dd 3e 43 31
       5.821707e-09 1.1896695e-09 8.804338e-09 2.8411968e-09
000270 8e c3 74 32 67 9b 1f 32 ca 43 14 32 75 9d 75 32
       1.4247133e-08 9.2903525e-09 8.630147e-09 1.42966785e-08
000280 c1 8e 87 32 7b c5 42 33 60 5c bc 32 43 bb ff 32
       1.5780985e-08 4.5348752e-08 2.1928088e-08 2.9771064e-08
000290 55 20 18 31 fa b7 66 32 99 2c c9 32 b9 86 59 32
       2.213729e-09 1.3429593e-08 2.341976e-08 1.2661695e-08
0002a0 13 6f 3e 32 c6 b0 8a 32 b4 1d 3d 32 89 14 dc 32
       1.1084711e-08 1.6145702e-08 1.1008002e-08 2.5620709e-08
0002b0 74 b3 02 33 1a fe 0f 33 74 ec c3 38 55 1a 9d 38
       3.0431195e-08 3.3525886e-08 9.3423674e-05 7.491248e-05
0002c0 20 90 8a 38 98 13 4e 38 67 38 b1 35 11 ff e9 35
       6.607198e-05 4.9132475e-05 1.3203943e-06 1.7434087e-06
0002d0 f1 8a ed 35 f6 49 ac 35 4c 82 4b 34 99 2a 70 35
       1.7698313e-06 1.2836524e-06 1.895325e-07 8.9468955e-07
0002e0 49 de 71 35 fa 3d 1e 36 75 c5 29 36 72 0c b5 34
       9.0102964e-07 2.357991e-06 2.5297898e-06 3.3722932e-07
0002f0 1d 30 cd 35 16 83 c2 34 4a fe 6c 36 86 a2 e5 34
       1.5287693e-06 3.6230693e-07 3.5314756e-06 4.2772825e-07
000300 3c 3d 29 35 bb cb f5 34 c4 c2 d3 35 e3 a9 5a 35
       6.3046514e-07 4.578304e-07 1.5777409e-06 8.1458546e-07
000310 d1 0a 9a 35 9b e7 89 35 64 fb ef 34 22 18 6f 35
       1.1477042e-06 1.0274701e-06 4.470013e-07 8.9069556e-07
000320 78 86 6e 35 eb 4f 41 35 f2 31 ca 35 1c 03 8f 38
       8.8857587e-07 7.20144e-07 1.5064709e-06 6.8193505e-05
000330 75 35 98 38 ad 36 71 38 4e df e3 38 06 fc 73 35
       7.257882e-05 5.75098e-05 0.00010865797 9.0891297e-07
000340 8b 45 bf 35 5a ed dc 35 45 b1 87 35 4d 24 cd 34
       1.4250849e-06 1.6460356e-06 1.0109876e-06 3.8210638e-07
000350 8f ec 92 35 bd d5 79 35 1b 21 05 36 25 4c fe 35
       1.0946695e-06 9.307076e-07 1.9837814e-06 1.8946636e-06
000360 8b c7 76 35 d7 c9 a5 35 8c 57 1d 35 8a a4 63 36
       9.1932515e-07 1.2352201e-06 5.8614455e-07 3.392141e-06
000370 61 4c 3a 35 be cf 76 35 8c 7e 00 35 5a bf 96 35
       6.9401545e-07 9.1944446e-07 4.7867866e-07 1.1231562e-06
000380 f4 46 78 35 98 25 ac 35 db 86 3a 35 35 69 2f 35
       9.249045e-07 1.282594e-06 6.948664e-07 6.5345677e-07
000390 3b 19 66 35 cb 2d c2 35 60 3a 8a 35 9b 2e d6 35
       8.571839e-07 1.4467454e-06 1.0298791e-06 1.5957806e-06
0003a0 b4 d0 06 38 16 1b ce 37 52 93 b4 37 c2 6b 85 37
       3.214246e-05 2.4569727e-05 2.1526273e-05 1.5905014e-05
0003b0 98 e2 8c 34 b5 65 ea 34 3b 3e 13 35 38 9e 89 34
       2.62419e-07 4.3659898e-07 5.4852325e-07 2.5633358e-07
0003c0 1c 49 94 33 f0 c9 8e 34 3a b7 a1 34 2d 95 15 35
       6.9050856e-08 2.659649e-07 3.0121902e-07 5.5723905e-07
0003d0 8c d1 df 34 09 0a c6 33 22 07 ca 34 dc a2 58 33
       4.1689452e-07 9.221919e-08 3.7630622e-07 5.043954e-08
0003e0 2b 45 53 35 22 cd be 33 05 88 38 34 c3 0c 8e 33
       7.870428e-07 8.884878e-08 1.7185819e-07 6.6147116e-08
0003f0 97 6e db 34 6f 35 04 34 f5 5e ab 34 04 18 a8 34
       4.0872393e-07 1.2312897e-07 3.1920322e-07 3.1309912e-07

exp_avg f4 [128]
000000 4c 0e 45 3a 70 cd 00 39 5a af 9b b8 79 15 0e 39
       0.0007517084 0.00012283563 -7.423638e-05 0.00013550174
000010 b0 f2 8a 37 ba 6d 1d b8 c3 a5 16 39 59 5e bf 37
       1.6563892e-05 -3.7533908e-05 0.00014366866 2.2812908e-05
000020 f3 5a 6e 39 e4 16 02 b9 48 54 71 38 85 a5 d5 b7
       0.0002273133 -0.00012406294 5.753737e-05 -2.5468655e-05
000030 dc bf 7b b6 09 c0 b5 37 54 a4 87 38 ca 3d f3 b8
       -3.7513591e-06 2.1666305e-05 6.46791e-05 -0.00011598652
000040 3c 85 13 39 7e b7 5b 37 1a 11 08 37 39 fe bd b7
       0.00014068646 1.309614e-05 8.1102135e-06 -2.2648937e-05
000050 8c 74 e1 37 43 93 b5 39 c7 9a 51 39 af 7a 24 b7
       2.6876362e-05 0.0003463273 0.00019989452 -9.803726e-06
000060 62 42 60 37 80 aa a1 b5 e5 a4 01 39 9a 29 11 38
       1.3366896e-05 -1.2045057e-06 0.00012363827 3.460944e-05
000070 63 c1 88 38 e6 2c 32 38 20 fa 0f b5 1c 07 f8 37
       6.5210064e-05 4.2480322e-05 -5.363563e-07 2.9567214e-05
000080 a2 0e 30 39 4a 60 df 38 9a c1 39 39 07 6e 15 b8
       0.00016790119 0.00010651404 0.00017715097 -3.562684e-05
000090 a8 8e 5e b7 a8 47 8f 39 70 d2 74 38 eb 32 6e 39
       -1.3265446e-05 0.00027328474 5.837012e-05 0.00022716417
0000a0 28 b0 bd b7 e4 e0 81 b8 33 6e 12 b9 fc b5 11 39
       -2.2612585e-05 -6.1930885e-05 -0.00013964697 0.00013896072
0000b0 94 9b d6 36 00 e0 29 36 0c d7 86 b9 05 56 27 39
       6.3958087e-06 2.5313348e-06 -0.00025718694 0.00015958406
0000c0 be 3e fe b8 52 80 2e 39 4e d5 79 38 b6 a3 00 b8
       -0.000121233505 0.00016641736 5.956488e-05 -3.0670046e-05
0000d0 d7 cc 59 37 de 56 08 38 ed 66 1d 3a ba 0c d4 37
       1.2981901e-05 3.2505828e-05 0.0006004412 2.5278296e-05
0000e0 cc 08 43 39 d2 fd c4 b8 06 6f 65 b9 4d 19 23 37
       0.00018599926 -9.393286e-05 -0.00021880501 9.721448e-06
0000f0 f7 45 a0 35 db b6 f8 36 30 3f 2b 39 26 b3 b3 b8
       1.1941291e-06 7.412263e-06 0.0001633137 -8.568754e-05
000100 82 1f ed 37 74 e9 21 38 42 ab f9 b7 62 07 2b b8
       2.8267274e-05 3.860281e-05 -2.9762861e-05 -4.0776453e-05
000110 2c 30 e1 37 c0 bc 04 b7 eb 0f 51 b9 2e fe be 36
       2.6844522e-05 -7.91176e-06 -0.00019937723 5.6920317e-06
000120 51 55 3f 37 38 45 da b8 af 8e 27 38 b2 a5 1d 39
       1.1404351e-05 -0.00010407943 3.9948787e-05 0.00015034413
000130 c4 ba 03 3a 00 dc af 35 1b 3f 52 b9 cc 42 29 37
       0.00050250837 1.3102544e-06 -0.00020050669 1.0088737e-05
000140 60 b5 e9 39 aa 14 64 37 a7 50 30 39 7c 34 c2 37
       0.00044576358 1.359467e-05 0.00016814713 2.3151042e-05
000150 ab a2 b0 b6 86 ad be 38 16 74 e2 b6 77 e9 2a b8
       -5.264146e-06 9.092227e-05 -6.748839e-06 -4.074859e-05
000160 96 f4 3a 39 28 a2 14 b8 cc 35 05 b8 42 fa 2b 38
       0.00017829458 -3.543697e-05 -3.1759773e-05 4.1002648e-05
000170 f4 4b 90 37 86 1e 25 b9 35 5e 3c 39 b2 76 a1 b7
       1.7201506e-05 -0.00015746997 0.00017964172 -1.9247967e-05
000180 4e e3 82 37 b0 3b c4 38 39 ef 05 39 5e e1 9a 38
       1.5603055e-05 9.357126e-05 0.00012772986 7.38527e-05
000190 dd 69 2d 39 de ed d1 38 dc 4c b6 39 3c 9f 19 b9
       0.00016538003 0.00010010203 0.0003477101 -0.00014650536
0001a0 d5 49 4f 37 c6 7d 28 b7 2d 91 f7 b8 04 1e 8d 38
       1.2355352e-05 -1.0042864e-05 -0.00011804919 6.728995e-05
0001b0 20 ec a3 b6 07 a5 14 38 78 52 50 36 8f f7 10 b8
       -4.885267e-06 3.5439643e-05 3.1042418e-06 -3.4562832e-05
0001c0 d2 21 0d 39 80 b9 69 b7 27 8c 59 38 85 c9 ca 39
       0.00013459407 -1.3931072e-05 5.186736e-05 0.00038678586
0001d0 32 33 7a 39 ee d2 25 37 00 92 41 b9 60 87 14 b9
       0.0002386093 9.883877e-06 -0.00018460304 -0.00014164811
0001e0 6e 4b 57 39 f4 a1 d1 b8 c2 b0 9a b8 22 51 03 37
       0.00020532098 -9.996063e-05 -7.376216e-05 7.827099e-06
0001f0 3b 88 2c b8 6d 25 08 37 df 69 f9 38 9f 61 9b 37
       -4.113487e-05 8.114946e-06 0.00011892965 1.8522898e-05
