old_ppo/PoI/PoI-1856.pt (torch, 482724 bytes, 30 tensors)

network_body._body_endoder.seq_layers.0.weight f4 [128, 20]
0.16087858 0.3428131 -0.19755927 0.30131698 -0.39301705 0.10548083 0.24522041 -0.32988158
-0.14866643 -0.004265205 0.21955477 -0.1084958 -0.2605819 0.21301855 -0.20776811 -0.04245061
0.48692518 -0.05994058 -0.1664974 0.059877947 -0.07441561 0.61500126 -0.03658298 -0.38274786
0.27324036 0.052172523 0.15242068 0.1835092 -0.13319504 0.29106316 0.08213711 0.10186276
-0.009726096 0.31948605 0.18781234 0.036495015 0.33183065 -0.0153461015 0.015449698 0.04829814
-0.0028830413 -0.0012487232 0.20249423 -0.071577065 -0.37685338 -0.035706248 -0.1247167 -0.2711367
-0.012408752 -0.111561745 0.07113491 -0.108537294 -0.055198718 -0.37295386 -0.037736915 0.07769615
-0.105534695 0.10233383 0.1909763 -0.081134416 -0.040121477 0.13067852 -0.02439313 -0.11279931
0.5391181 0.20998009 -0.33846596 0.13845392 -0.04983848 -0.03582697 0.15678203 -0.037888568
-0.14585203 0.0072045824 -0.01644247 -0.14576593 -0.21297069 0.19542044 0.059060358 0.2242428
-0.2501991 0.19472137 -0.1340681 -0.44283196 -0.03253693 -0.01851762 -0.06700472 0.016017161
-0.20058744 -0.090071194 0.336351 -0.009156664 0.15356246 0.07898516 -0.20692345 0.3902226
0.15121704 0.22645938 0.05758819 0.14056137 -0.016304843 0.5751029 0.006367145 -0.18174176
0.041161314 -0.3984391 0.19748244 -0.07350822 -0.3246249 0.58887094 0.17551734 -0.23663165
-0.14136012 0.23388292 -0.060957804 -0.077184856 -0.15868892 0.1460155 0.2143184 -0.15639563
-0.08055212 -0.20170735 -0.27468503 -0.114463925 -0.010473792 -0.15018575 -0.59516215 0.40453163
0.079536125 -0.16080555 -0.086486 0.38248095 -0.09024612 -0.25384 -0.25977552 0.24697776
-0.13058199 -0.024058681 0.22186342 0.28954843 -0.12387136 -0.249494 0.0088006845 -0.07923489
-0.15474397 0.15345737 0.011977419 0.39557108 0.13611262 0.42821696 -0.027033499 -0.071778506
0.0025566835 -0.08220193 -0.17281245 -0.0025730252 0.17500223 0.26192078 0.09151361 -0.18675512
-0.024717594 0.39495283 -0.05439051 0.08438916 0.16839625 -0.014941429 0.40133658 -0.41155732
-0.41761482 0.22036739 -0.30338874 -0.44263726 0.11152458 0.14508614 0.2665302 0.14191252
0.100075305 -0.13653503 -0.15181582 -0.3000243 -0.29217485 0.32914242 0.07893284 -0.087684594
0.09403399 0.3130904 -0.012662357 -0.091921814 -0.028448023 0.20704578 -0.41938916 -0.24974744
-0.13245179 0.014645776 0.062027115 0.28799725 -0.38124648 -0.40769547 0.004044925 0.23300454
-0.17406926 0.30579358 0.15026213 -0.08239734 -0.022315532 0.15746227 -0.15489276 -0.47975683
0.1660935 -0.29310712 -0.17757699 -0.05333465 -0.08689768 0.44186834 0.01618088 -0.43185142
-0.2979176 0.0318653 0.38939908 0.01945047 -0.15994154 -0.052110888 0.27066338 0.101202406
-0.21732458 -0.1842538 -0.11479984 -0.3327139 0.38112766 0.016647173 -0.062330395 -0.09209184
0.12500699 -0.11273361 0.24706967 0.46668962 -0.01825599 0.30570924 0.015204018 0.104530066
0.10845527 -0.11430243 -0.24746515 0.06114044 -0.047174465 0.078513406 -0.07833771 0.3234557
0.21454188 0.36526358 0.25754339 0.44619787 -0.008751542 0.1838699 -0.41088605 -0.18075219
00000000: 5bbd 243e 3385 af3e fa4c 4abe 3846 9a3e
00000010: 8839 c9be 5506 d83d 0f1b 7b3e 3de6 a8be
00000020: 033c 18be 22c3 8bbb f7d2 603e 0c33 debd
00000030: fe6a 85be 8921 5a3e 2ac1 54be b1e0 2dbd
00000040: 424e f93e 4184 75bd 4b7e 2abe 9442 753d
00000050: 3667 98bd b970 1d3f 09d8 15bd 87f7 c3be
00000060: 29e6 8b3e dbb2 553d 2b14 1c3e d6e9 3b3e
00000070: 4864 08be 3b06 953e 8037 a83d 6c9d d03d
00000080: 345a 1fbc ad93 a33e e151 403e cc7b 153d
00000090: b5e5 a93e 376e 7bbc bb20 7d3c 45d4 453d
000000a0: 68f1 3cbb 33ac a3ba a65a 4f3e ff96 92bd
000000b0: edf2 c0be b740 12bd 786b ffbd 6ed2 8abe
000000c0: 144e 4bbc 7c7a e4bd 2eaf 913d cd48 debd
000000d0: 0d18 62bd cff3 bebe 0692 1abd 291f 9f3d
000000e0: 9322 d8bd 6694 d13d 4b8f 433e cd29 a6bd
000000f0: 6b56 24bd 97d0 053e 1ad4 c7bc 5303 e7bd
00000100: a503 0a3f 0505 573e 694b adbe ddc6 0d3e
00000110: 6f23 4cbd 4dbf 12bd 788b 203e 0b31 1bbd
00000120: 3c5a 15be 6b14 ec3b 5cb2 86bc aa43 15be
00000130: fd14 5abe 4c1c 483e 46e9 713d e89f 653e
00000140: 191a 80be 0a65 473e 2649 09be dfba e2be
00000150: 7245 05bd 44b2 97bc c539 89bd 6c36 833c
00000160: cb66 4dbe 3f77 b8bd 3336 ac3e d505 16bc
00000170: 7a3f 1d3e f9c2 a13d bee3 53be 42cb c73e
00000180: a4d8 1a3e f8e4 673e 98e1 6b3d 52ef 0f3e
00000190: bc91 85bc f239 133f 7ca3 d03b 831a 3abe
000001a0: c498 283d 3600 ccbe d638 4a3e 7a8b 96bd
000001b0: 3c35 a6be 3fc0 163f d1ba 333e 914f 72be
000001c0: b5c0 10be 017f 6f3e e4ae 79bd 1813 9ebd
000001d0: 597f 22be 1685 153e 4876 5b3e 2d26 20be
000001e0: 83f8 a4bd 5f8c 4ebe 84a3 8cbe 106c eabd
000001f0: 459a 2bbc 4bca 19be 8c5c 18bf c51e cf3e
00000200: d6e3 a23d 36aa 24be 921f b1bd 8bd4 c33e
00000210: f5d2 b8bd 51f7 81be 4c01 85be bde7 7c3e
00000220: 49b7 05be b616 c5bc 2a30 633e b13f 943e
00000230: 45b0 fdbd 5b7b 7fbe bf30 103c e745 a2bd
00000240: 3475 1ebe ee23 1d3e f03c 443c 4b88 ca3e
00000250: 1b61 0b3e 413f db3e 5b75 ddbc 9c00 93bd
00000260: 088e 273b 7c59 a8bd bff5 30be 33a0 28bb
00000270: c933 333e 7b1a 863e 7d6b bb3d bc3c 3fbe
00000280: 8d7c cabc 4237 ca3e 95c8 5ebd 39d4 ac3d
00000290: 1170 2c3e e5cc 74bc fd7b cd3e a4b7 d2be
000002a0: 9cd1 d5be fda7 613e c555 9bbe 5aa1 e2be
000002b0: 0067 e43d 7691 143e a576 883e 8451 113e
000002c0: 48f4 cc3d d7cf 0bbe 9b75 1bbe c99c 99be
000002d0: f197 95be 5b85 a83e 8aa7 a13d fb93 b3bd
000002e0: e494 c03d 634d a03e c675 4fbc 8141 bcbd
000002f0: d40b e9bc cf03 543e 2dba d6be cbbd 7fbe
00000300: 71a1 07be d6f4 6f3c 2510 7e3d 6074 933e
00000310: bd32 c3be 76bd d0be 4a8b 843b be98 6e3e
00000320: 363f 32be fa90 9c3e 51de 193e f0bf a8bd
00000330: 10cf b6bc ca3d 213e 359c 1ebe b0a2 f5be
00000340: 6a14 2a3e 2312 96be bed6 35be 6f75 5abd
00000350: 69f7 b1bd 913c e23e c48d 843c a11b ddbe
00000360: a888 98be 3085 023d 515f c73e 9856 9f3c
00000370: b7c7 23be 3a72 55bd 6494 8a3e 3543 cf3d
00000380: 568a 5ebe 07ad 3cbe 2e1c ebbd 7a59 aabe
00000390: 2a23 c33e a75f 883c 284e 7fbd a69a bcbd
000003a0: d501 003e e1e0 e6bd d5ff 7c3e f1f1 ee3e
000003b0: 968d 95bc ec85 9c3e 461a 793c dc13 d63d
000003c0: cc1d de3d 6417 eabd 8167 7dbe 666e 7a3d
000003d0: 033a 41bd a3cb a03d 856f a0bd fc9b a53e
000003e0: deb0 5b3e d403 bb3e badc 833e 0c74 e43e
000003f0: a162 0fbc 6448 3c3e a85f d2be 1a17 39be

network_body._body_endoder.seq_layers.0.bias f4 [128]
0.002137677 0.0020778505 -0.003612169 0.009297958 0.0030654983 -0.0057238373 -0.00448486 -0.001178982
0.005519775 -0.015939653 -0.0021260625 -0.0047240476 0.00046859676 0.0020856482 -0.0008792514 0.0015418226
-0.0036091837 -0.026390191 -0.00158758 -0.0020558236 0.002375821 -0.018158646 -0.0024817914 0.00096751767
0.0034865728 -0.007001209 -0.0045055035 0.0034105761 -0.0033252707 -0.0040623895 -0.0038080341 -0.0067062774
-0.00878478 -0.0012766228 0.0020787949 -0.0018344341 -0.0028473404 -2.7601192e-05 -0.0050475076 -5.2206487e-05
0.0006675598 -0.003980035 -0.0019848833 -0.0039837374 0.0034773862 -0.004726223 -0.018529607 -0.0022865857
0.0021899098 -0.00060575886 -0.002177536 0.001909814 -0.0014740293 0.0022860179 -0.006509359 -0.004584042
-0.0057744314 -0.019883703 0.001024345 0.0018338205 0.0021869033 -0.0037800502 -0.00309959 -0.00704564
-0.0024676272 -0.004294653 -0.0014275109 0.00048417953 -0.0144258095 -0.011758614 0.001501469 -0.0037538842
-0.017614666 0.002585639 -0.0011876263 0.0003410361 -0.0015612129 -0.0032232297 -0.0030389726 -0.0019791378
0.00023089357 0.0015825441 0.0026340238 0.0027225069 0.0046881684 0.004128348 0.0005806535 -0.0028936495
0.0011427588 -0.0012770416 -0.0001849788 0.0022264936 -0.003972884 0.0017047037 -0.0041578608 -0.0022343453
-0.0048288796 0.0037513757 -0.0016555073 -0.0024344623 -0.003449887 -0.0034602329 -0.0034483739 0.0013956631
0.0028336095 -0.007655091 -0.004842592 -0.0021061117 0.018798402 0.0030872442 -0.001883629 0.002529703
0.0042909565 0.00075561873 -0.015093071 0.0016193491 -0.0029995828 -0.0037571539 -0.005388953 -0.02517199
-0.0038023056 -0.002125976 -0.0032472156 -0.00041698207 -0.00072997 -0.0034572815 -0.0051056314 0.02125474
00000000: 4518 0c3b 8c2c 083b 24ba 6cbb 7656 183c
00000010: 87e6 483b 078f bbbb bcf5 92bb 1288 9aba
00000020: 3bdf b43b e093 82bc 6955 0bbb 2fcc 9abb
00000030: fead f539 5faf 083b 907d 66ba fb16 ca3a
00000040: 0e88 6cbb 3e30 d8bc 5816 d0ba ffba 06bb
00000050: a9b3 1b3b 71c1 94bc 8da5 22bb 03a1 7d3a
00000060: fc7e 643b 666a e5bb e7a2 93bb f983 5f3b
00000070: c9ec 59bb cb1d 85bb 3690 79bb 55c0 dbbb
00000080: 0aee 0fbc 5a54 a7ba 643c 083b 6571 f0ba
00000090: 729a 3abb 1c89 e7b7 9065 a5bb 4af8 5ab8
000000a0: 2eff 2e3a f46a 82bb d114 02bb 038a 82bb
000000b0: dce4 633b 6fde 9abb 67cb 97bc 8bda 15bb
000000c0: 9784 0f3b cacb 1eba feb4 0ebb b952 fa3a
000000d0: 3734 c1ba 04d1 153b 764c d5bb bb35 96bb
000000e0: 7137 bdbb 26e3 a2bc 5143 863a ce5c f03a
000000f0: 2652 0f3b b8ba 77bb 7e22 4bbb 1ddf e6bb
00000100: eab7 21bb 29ba 8cbb 511b bbba 7ad9 fd39
00000110: 3b5a 6cbc 34a7 40bc f1cc c43a ba03 76bb
00000120: a24c 90bc d373 293b 20aa 9bba 17cd b239
00000130: 9da1 ccba d23c 53bb 8029 47bb 6cb4 01bb
00000140: 051c 7239 5e6d cf3a 969f 2c3b 166c 323b
00000150: 359f 993b 1847 873b ff36 183a 62a3 3dbb
00000160: 9fc8 953a 6862 a7ba def6 41b9 5dea 113b
00000170: f72e 82bb 5d70 df3a aa3e 88bb 186e 12bb
00000180: 943b 9ebb a4d9 753b 9bfd d8ba 808b 1fbb
00000190: 8017 62bb 13c5 62bb 1dfe 61bb afee b63a
000001a0: 14b4 393b 8fd7 fabb 9bae 9ebb b106 0abb
000001b0: 1bff 993c 5d53 4a3b 1ae4 f6ba 60c9 253b
000001c0: 279b 8c3b b714 463a ee48 77bc 5740 d43a
000001d0: a694 44bb 953a 76bb d095 b0bb 7d35 cebc
000001e0: 1a30 79bb f553 0bbb 3dcf 54bb 639e dab9
000001f0: 755b 3fba 8f93 62bb 244d a7bb 6c1e ae3c

network_body._body_endoder.seq_layers.2.weight f4 [128, 128]
0.06782181 -0.08603587 -0.073916875 0.0009750203 -0.047211125 -0.12698147 0.080994956 0.06977541
0.16704077 0.02671608 0.011540134 -0.030704262 -0.011384864 -0.0461535 -0.080403335 -0.0030399684
0.064230934 0.18733339 -0.03649253 0.020760864 -0.036323383 -0.1186688 0.0906648 0.16562748
0.16003802 0.035875406 0.06730056 -0.02385859 -0.10027012 -0.04260405 0.023215272 -0.16028818
0.09930416 -0.08976003 -0.012155171 -0.04936646 -0.023204612 0.026553648 0.003444378 0.017614828
0.10678916 0.1039715 0.060424346 -0.056748968 0.09390175 0.004011853 -0.09905975 -0.017079752
-0.13617788 0.1396133 -0.011966495 0.052958388 0.04582142 -0.04405202 0.07982178 -0.0839694
0.043253034 -0.012679762 -0.18586525 -0.10570082 -0.012123875 0.052766003 0.14054812 0.054938223
-0.08017848 0.017243553 0.022374935 0.020895565 -0.047964375 0.09001863 -0.044012357 0.14139722
0.017780863 0.05145595 -0.14332658 0.06090604 -0.045137998 -0.002658081 -0.01867415 -0.11244263
0.021468585 0.053533774 0.066720076 0.024820706 -0.105333894 -0.05487281 -0.0921161 0.09092775
-0.104267105 -0.07493887 0.14039384 -0.041136045 0.111144654 -0.030849656 0.2501982 -0.05225372
-0.08744309 0.096006796 -0.019766213 -0.044596124 -0.25754654 0.022366272 -0.110494815 -0.017458685
-0.0086016245 -0.045914624 0.21423939 -0.016598284 -0.030261792 0.12850796 0.10139233 0.03167962
0.03535948 0.0012024407 -0.19518161 -0.03722858 0.07370113 -0.19325425 -0.07553488 -0.10358993
-0.11677871 -0.037385568 0.014804474 0.025032328 -0.1929313 -0.017333226 0.051865075 -0.07966904
-0.08504841 -0.0056357165 0.19844219 -0.0859164 0.030224262 -0.030350266 -0.11573818 0.07631883
0.011847901 -0.05222658 0.007840379 0.048009295 -0.013849378 -0.0866519 0.1010834 0.053177822
0.11457954 -0.13900305 0.12966458 0.05129996 0.005204207 -0.19339646 -0.07696038 -0.11619396
0.041055568 0.082539216 0.08069871 -0.025919277 0.0068695988 -0.0038599735 -0.054955065 0.10189763
0.038296215 0.22710964 0.10808259 -0.08946396 0.0039546383 0.059981488 0.1479984 0.062191952
-0.037941407 -0.06943552 -0.07801678 0.036969278 0.09315776 -0.03537012 -0.030906452 0.021678606
0.040270314 0.044895988 -0.20704141 -0.027535636 -0.11489252 0.15887924 -0.05371539 0.011980856
-0.018753614 -0.07280615 0.0064369524 -0.07573441 0.030977882 -0.110864386 -0.13104655 -0.035555888
-0.1103238 0.043436907 0.016941532 0.004480958 -0.07009752 -0.04097556 -0.077271536 -0.08281977
0.04370738 -0.029392261 0.025237087 0.12217697 0.02217571 -0.034509137 -0.16408826 -0.122346595
-0.0014225901 0.08540382 -0.13056417 0.07467688 -0.04357551 0.06616611 -0.16442022 0.027894508
-0.014364433 0.09676052 -0.0024836631 0.03931551 -0.0002299937 -0.08517646 -0.068724036 -0.023172474
0.11266245 0.026053386 0.07670664 0.113134824 -0.01967594 0.08928655 0.02201134 0.17355576
0.022681523 0.0382776 0.08371173 -0.07615978 0.082607344 -0.008945651 0.090616405 0.12771645
-0.17016137 -0.02763078 0.0071969437 0.0026655383 0.063712195 0.10983011 -0.03098335 -0.11561026
-0.030764654 0.14670815 -0.07572311 0.047163356 0.032119624 0.014460641 0.1077513 0.043038458
00000000: 29e6 8a3d 9333 b0bd bb61 97bd 8198 7f3a
00000010: 7460 41bd 6e07 02be afe0 a53d 69e6 8e3d
00000020: bc0c 2b3e aedb da3c d512 3d3c 8187 fbbc
00000030: 9587 3abc 740b 3dbd 81aa a4bd 353a 47bb
00000040: 828b 833d 53d4 3f3e 3179 15bd b012 aa3c
00000050: d4c7 14bd a108 f3bd 77ae b93d 409a 293e
00000060: 02e1 233e 17f2 123d e0d4 893d 1773 c3bc
00000070: 6c5a cdbd 9681 2ebd f42d be3c 9622 24be
00000080: fb5f cb3d 1bd4 b7bd 7b26 47bc 7c34 4abd
00000090: 9917 bebc 0987 d93c 13bb 613b f94c 903c
000000a0: 46b4 da3d 03ef d43d 857f 773d 9b71 68bd
000000b0: 904f c03d dd75 833b d7df cabd d6ea 8bbc
000000c0: 3772 0bbe caf6 0e3e 1e0f 44bc e5ea 583d
000000d0: 3eaf 3b3d e46f 34bd 9a79 a33d 26f8 abbd
000000e0: 182a 313d c7be 4fbc 7653 3ebe ac79 d8bd
000000f0: 38a3 46bc 2a21 583d d9eb 0f3e e706 613d
00000100: 9d34 a4bd 5a42 8d3c a44b b73c 2d2d ab3c
00000110: 4b76 44bd b05b b83d 4d46 34bd 6fca 103e
00000120: 2ca9 913c 79c3 523d 34c4 12be 9d78 793d
00000130: 9fe2 38bd 3333 2ebb 88fa 98bc 5248 e6bd
00000140: e3de af3c 3b46 5b3d 89a4 883d cb54 cb3c
00000150: 4cb9 d7bd 50c2 60bd 5ea7 bcbd 5438 ba3d
00000160: fe89 d5bd 8d79 99bd 67c3 0f3e 457e 28bd
00000170: cf9f e33d 6bb8 fcbc fa19 803e ff07 56bd
00000180: 5d15 b3bd 369f c43d c1ec a1bc 6daa 36bd
00000190: 24dd 83be 7939 b73c 1b4b e2bd 8405 8fbc
000001a0: d4ed 0cbc f910 3cbd 9261 5b3e 20f9 87bc
000001b0: 94e7 f7bc 9797 033e c8a6 cf3d 7dc2 013d
000001c0: 1ad5 103d 379b 9d3a b0dd 47be ff7c 18bd
000001d0: 9ef0 963d 71e4 45be 08b2 9abd f526 d4bd
000001e0: ad29 efbd 9c21 19bd 778e 723c 9910 cd3c
000001f0: c88f 45be 69fe 8dbc 7970 543d 8629 a3bd
00000200: dc2d aebd d1ab b8bb 6e34 4b3e f0f4 afbd
00000210: df98 f73c 1fa1 f8bc 2408 edbd 0c4d 9c3d
00000220: b31d 423c 8aeb 55bd ef74 003c 65a5 443d
00000230: 80e8 62bc 8d76 b1bd d004 cf3d fdd0 593d
00000240: aea8 ea3d d156 0ebe cbc6 043e e81f 523d
00000250: 0d88 aa3b b909 46be 679d 9dbd 19f7 edbd
00000260: e229 283d 520a a93d 5e45 a53d aa54 d4bc
00000270: 5f1a e13b 9cf7 7cbb 9018 61bd b4af d03d
00000280: 7edc 1c3d 6e8f 683e 685a dd3d e138 b7bd
00000290: e995 813b 26af 753d e48c 173e fdbc 7e3d
000002a0: 7368 1bbd 3634 8ebd 43c7 9fbd 196d 173d
000002b0: 7fc9 be3d 42e0 10bd 872f fdbc 5597 b13c
000002c0: 7cf2 243d dbe4 373d aa02 54be 6a92 e1bc
000002d0: c54c ebbd 3db1 223e ab04 5cbd 5a4b 443c
000002e0: 2ea1 99bc 641b 95bd 12ed d23b a41a 9bbd
000002f0: 54c5 fd3c de0c e3bd 1131 06be 0da3 11bd
00000300: 72f1 e1bd e6ea 313d f8c8 8a3c 00d5 923b
00000310: 4a8f 8fbd fdd5 27bd 8a40 9ebd 699d a9bd
00000320: 8206 333d 0ac8 f0bc 02be ce3c eb37 fa3d
00000330: d6a9 b53c 7459 0dbd c106 28be da90 fabd
00000340: 3476 baba 33e8 ae3d 9db2 05be 31f0 983d
00000350: 3c7c 32bd 1982 873d c65d 28be 0683 e43c
00000360: cc58 6bbc 612a c63d f4c4 22bb 4d09 213d
00000370: 772a 71b9 ff70 aebd 30bf 8cbd 33d4 bdbc
00000380: 92bb e63d e96d d53c 5f18 9d3d 3bb3 e73d
00000390: 702f a1bc dedb b63d 2051 b43c 9ab8 313e
000003a0: 9ace b93c f9c8 1c3d 0e71 ab3d a9f9 9bbd
000003b0: 0a2e a93d c890 12bc 1895 b93d 1ac8 023e
000003c0: c83e 2ebe f259 e2bc 57d4 eb3b 50b0 2e3b
000003d0: 8a7b 823d 9cee e03d cbd0 fdbc 12c5 ecbd
000003e0: 2806 fcbc a93a 163e b814 9bbd 5d2e 413d
000003f0: de8f 033d 53ec 6c3c b7ac dc3d 1849 303d

network_body._body_endoder.seq_layers.2.bias f4 [128]
0.0020353415 0.0031299728 -0.0032090498 -0.0036866278 0.00392361 -0.0053240084 -0.0025672766 -0.0059964256
0.0021683497 0.00043581682 -0.0029978894 -0.0037551012 -0.00030008968 -0.016602932 -0.003936549 -0.009915403
-0.0042735776 0.00069055764 0.002375364 -0.010017706 -0.003907776 -8.547829e-05 -0.0012505299 -0.0049274536
-0.0017238832 0.00011070946 -0.003915443 0.00070214056 -2.7143715e-06 -0.003616717 -0.00081146 0.0026485547
0.0026745745 -0.00376972 -0.0055415924 -0.0034237786 -0.004310896 0.00040506062 -0.0042062295 -0.0003973043
0.002739872 0.0002517642 0.00340358 -0.0022673612 -0.0042726765 -0.021459635 -0.0002129397 -0.004007635
0.0005000283 -0.0041964864 0.0036294528 -0.003521429 0.0010218296 -0.0034798456 -0.0025788785 -0.005757698
-0.006475688 0.0020582827 0.00014363453 0.0035689296 -0.0037137826 -0.003802616 -0.00016966494 -0.0005423198
-1.3646515e-05 0.00090846355 0.0011002896 -0.00013583919 9.459649e-06 0.005309742 -0.002273642 -0.0043416857
-0.015235684 0.0029609543 -0.0075157103 -0.002290495 -0.0038905048 -0.0021920067 0.002432105 0.0005118579
-0.0040146518 -0.0055251755 -0.00393875 -0.005202059 0.0015024067 0.0012511048 3.6519825e-05 -0.0007495113
0.0003578082 0.0018332972 0.0012417509 -0.0022048207 -0.008117125 -0.0013702515 -0.0041273427 -0.003394428
-0.003698576 -0.0019365576 -0.007974306 -0.0076940563 -0.00012808008 -4.170165e-05 0.0033100047 -0.0040888
-0.004039257 -0.004839435 0.0013417405 0.0005924876 0.0027404733 0.0027331053 -0.008589428 0.0007958603
-0.0034294727 -0.0012090262 -0.003954863 -0.011525387 0.0007642053 -0.0011097103 -0.00055686495 -0.00070540095
0.0010532637 -0.0038975629 -1.6006474e-05 -0.00062097824 -0.0045301546 -0.009578871 -0.0036487852 -0.0060305567
00000000: 5d63 053b 3b20 4d3b ec4e 52bb 5a9b 71bb
00000010: a091 803b 0575 aebb c13f 28bb aa7d c4bb
00000020: df1a 0e3b 587e e439 3d78 44bb 2518 76bb
00000030: 5b55 9db9 df02 88bc 2bfe 80bb 3774 22bc
00000040: 5e09 8cbb 8a06 353a ffab 1b3b 4e21 24bc
00000050: cd0c 80bb cf42 b3b8 d2e8 a3ba 7a76 a1bb
00000060: ecf3 e1ba b02c e838 1e4d 80bb db0f 383a
00000070: 8c28 36b6 7106 6dbb 29b8 54ba 6093 2d3b
00000080: ea47 2f3b 680d 77bb 3f96 b5bb 7961 60bb
00000090: 6b42 8dbb 515e d439 69d4 89bb 484d d0b9
000000a0: 6d8f 333b 38ff 8339 990e 5f3b 0298 14bb
000000b0: cf01 8cbb 1ecc afbc 9148 5fb9 7b52 83bb
000000c0: 5514 033a ae82 89bb 1ddc 6d3b c6c7 66bb
000000d0: e9ee 853a 1f0e 64bb 6702 29bb 12ab bcbb
000000e0: 0232 d4bb 41e4 063b 9a9c 1639 b4e4 693b
000000f0: ef62 73bb 4f35 79bb 16e8 31b9 772a 0eba
00000100: 56f3 64b7 f525 6e3a 9837 903a 0e70 0eb9
00000110: e2b4 1e37 58fd ad3b 6201 15bb b344 8ebb
00000120: 179f 79bc 920c 423b 5946 f6bb 211c 16bb
00000130: d7f7 7ebb c5a7 0fbb f363 1f3b 342e 063a
00000140: 578d 83bb 880c b5bb a110 81bb 0976 aabb
00000150: 67ec c43a 1cfc a33a dd2c 1938 da7a 44ba
00000160: 3498 bb39 3f4b f03a 3fc2 a23a c17e 10bb
00000170: b1fd 04bc 039a b3ba a93e 87bb 0d75 5ebb
00000180: cf63 72bb 17d4 fdba aaa6 02bc 6c1e fcbb
00000190: 3c4d 06b9 cee8 2eb8 aaec 583b 57fb 85bb
000001a0: be5b 84bb 2094 9ebb 57dd af3a 2b51 1b3a
000001b0: 8399 333b e61d 333b acba 0cbc 48a1 503a
000001c0: 01c1 60bb 3078 9eba cc97 81bb fad4 3cbc
000001d0: f354 483a b373 91ba 93fa 11ba a8ea 38ba
000001e0: aa0d 8a3a 416e 7fbb a445 86b7 25c9 22ba
000001f0: b171 94bb b2f0 1cbc 7520 6fbb fa9b c5bb

action_model._continuous_distribution.mu.weight f4 [1, 128]
0.042915385 0.01606863 0.025751902 -0.004100882 -0.0015212649 -0.0012373469 0.005871245 -0.00033742134
0.01693128 -0.01544648 0.0049277893 0.014821467 -0.005928549 0.0012875731 0.007849611 0.0022742946
0.006559348 0.016872372 0.011139416 -0.00066966575 0.011621251 0.00016481278 0.029976865 0.01292509
0.032891087 0.00809664 0.016489368 -0.0024337529 -0.00012885965 0.019939391 0.006887518 -0.027452055
-0.027355703 0.016337018 -0.00030221415 -0.014865561 -0.011671787 -0.006626429 -0.030368038 -0.002891245
-0.03377451 -0.013229196 -0.0012737586 0.03210325 0.029095158 -0.00060993485 -0.036211427 0.011264032
-0.045845658 0.01147917 -0.009801479 0.023855174 -0.0061735776 0.019666247 -0.0254268 -0.0013109692
0.0008189607 -0.014740665 0.00040883044 0.012730432 -0.015342106 0.015175006 0.0058484436 0.005690583
-0.0069148913 -0.0001787368 -0.012055569 0.00020606465 -0.010154297 1.1010951e-05 -0.008725068 -0.006460747
-0.00017782467 0.027565703 0.002161401 0.0066430103 0.014715578 -0.0037267087 -0.02319346 -0.020786405
-0.019910285 -0.015115997 0.0063006897 0.011344369 0.025332727 -0.013209434 -0.006902559 0.003269234
-0.026501406 -0.00023813841 0.033266097 -0.008019527 0.0024300434 -0.0025174255 0.00940169 -0.038953923
0.021993667 0.005703703 -0.00063429936 -0.00019064886 -0.0060724895 0.035786465 -7.3037336e-05 -0.0064343456
0.011267186 0.0031977822 0.011544416 -0.008947446 -0.03183209 -0.028429553 7.651319e-05 -0.017671093
0.031134667 -0.007162571 0.020731587 0.0012518988 -0.00852199 -0.00414872 -0.00560848 -0.0005380367
-0.0082873665 0.024199715 -0.0058265696 -0.03038116 0.0036702654 0.0013373531 -0.012589701 0.0004022434
00000000: 0bc8 2f3d 5ca2 833c a7f5 d23c b160 86bb
00000010: 2e65 c7ba 792e a2ba 9363 c03b ede7 b0b9
00000020: 78b3 8a3c 3c13 7dbc 4b79 a13b bdd5 723c
00000030: 4644 c2bb c9c3 a83a a89b 003c 550c 153b
00000040: cdef d63b ee37 8a3c 1982 363c 828c 2fba
00000050: 0f67 3e3c 98d1 2c39 0b92 f53c c2c3 533c
00000060: ceb8 063d c5a7 043c b614 873c 997f 1fbb
00000070: 801e 07b9 ef57 a33c b0b0 e13b 22e3 e0bc
00000080: 1119 e0bc 36d5 853c 7f72 9eb9 af8e 73bc
00000090: 063b 3fbc 8422 d9bb 64c6 f8bc 0b7b 3dbb
000000a0: 2457 0abd 45bf 58bc 3ff4 a6ba b37e 033d
000000b0: f858 ee3c 09e4 1fba 6f52 14bd c68c 383c
000000c0: a8c8 3bbd 2113 3c3c 6296 20bc ed6b c33c
000000d0: b94b cabb 1c1b a13c dd4b d0bc d4d4 abba
000000e0: 86af 563a d582 71bc 4b58 d639 4d93 503c
000000f0: 755d 7bbc 97a0 783c 4da4 bf3b 1278 ba3b
00000100: 5096 e2bb 4b6b 3bb9 b984 45bc 0f13 5839
00000110: 355e 26bc adbb 3837 96f3 0ebc adb4 d3bb
00000120: 7276 3ab9 78d1 e13c 4ba6 0d3b 9cad d93b
00000130: 9c19 713c cc3b 74bb 3600 bebc 4048 aabc
00000140: e51a a3bc 16a9 77bc 0476 ce3b bbdd 393c
00000150: 9486 cf3c 626c 58bc dd2e e2bb a540 563b
00000160: 7a19 d9bc cbb4 79b9 0842 083d 5664 03bc
00000170: 5d41 1f3b 64fb 24bb 8c09 1a3c 268e 1fbd
00000180: 102c b43c 21e6 ba3b 1c47 26ba eae8 47b9
00000190: bcfb c6bb d494 123d 9f2b 99b8 34d7 d2bb
000001a0: 019a 383c e291 513b ca24 3d3c 4f98 12bc
000001b0: 5e62 02bd 18e5 e8bc b575 a038 f8c2 90bc
000001c0: 210e ff3c 00b4 eabb 4ad5 a93c c116 a43a
000001d0: d19f 0bbc fcf1 87bb 57c7 b7bb 080b 0dba
000001e0: bcc7 07bc 7b3e c63c cfec bebb e9e1 f8bc
000001f0: d688 703b 204a af3a 0945 4ebc 32e4 d239

exp_avg f4 [128, 20]
-5.80099e-05 -0.0001160198 -0.0002320396 -0.00014502459 -2.900495e-05 0.0 -2.900495e-05 -2.900495e-05
-2.900495e-05 -2.900495e-05 -2.900495e-05 0.0 -2.900495e-05 -2.900495e-05 0.0 -2.900495e-05
0.0 -2.9004892e-05 0.0 -2.9004892e-05 -0.00018137053 -0.00036274106 -0.0007254821 -0.0004534272
-9.0685266e-05 0.0 -9.0685266e-05 -9.0685266e-05 -9.0685266e-05 -9.0685266e-05 -9.0685266e-05 0.0
-9.0685266e-05 -9.0685266e-05 0.0 -9.0685266e-05 0.0 -9.0685266e-05 0.0 -9.0685266e-05
0.00016069165 0.0003213833 0.0006427666 0.0004017296 8.0345824e-05 0.0 8.0345824e-05 8.0345824e-05
8.0345824e-05 8.0345824e-05 8.0345824e-05 0.0 8.0345824e-05 8.0345824e-05 0.0 8.0345824e-05
0.0 8.03459e-05 0.0 8.03459e-05 -1.0407986e-05 -2.0815973e-05 -4.1631945e-05 -2.6019958e-05
-5.203993e-06 0.0 -5.203993e-06 -5.203993e-06 -5.203993e-06 -5.203993e-06 -5.203993e-06 0.0
-5.203993e-06 -5.203993e-06 0.0 -5.203993e-06 0.0 -5.2039923e-06 0.0 -5.2039923e-06
-3.3191473e-06 -6.6382945e-06 -1.3276589e-05 -8.297867e-06 -1.6595736e-06 0.0 -1.6595736e-06 -1.6595736e-06
-1.6595736e-06 -1.6595736e-06 -1.6595736e-06 0.0 -1.6595736e-06 -1.6595736e-06 0.0 -1.6595736e-06
0.0 -1.6595757e-06 0.0 -1.6595757e-06 0.00021143461 0.00042286923 0.00084573845 0.0005285868
0.00010571731 0.0 0.00010571731 0.00010571731 0.00010571731 0.00010571731 0.00010571731 0.0
0.00010571731 0.00010571731 0.0 0.00010571731 0.0 0.000105717314 0.0 0.000105717314
7.417148e-06 1.4834296e-05 2.9668592e-05 1.8542887e-05 3.708574e-06 0.0 3.708574e-06 3.708574e-06
3.708574e-06 3.708574e-06 3.708574e-06 0.0 3.708574e-06 3.708574e-06 0.0 3.708574e-06
0.0 3.7085767e-06 0.0 3.7085767e-06 1.9145005e-05 3.829001e-05 7.658002e-05 4.7862486e-05
9.572503e-06 0.0 9.572503e-06 9.572503e-06 9.572503e-06 9.572503e-06 9.572503e-06 0.0
9.572503e-06 9.572503e-06 0.0 9.572503e-06 0.0 9.572506e-06 0.0 9.572506e-06
-0.00011223328 -0.00022446657 -0.00044893313 -0.00028058313 -5.611664e-05 0.0 -5.611664e-05 -5.611664e-05
-5.611664e-05 -5.611664e-05 -5.611664e-05 0.0 -5.611664e-05 -5.611664e-05 0.0 -5.611664e-05
0.0 -5.611664e-05 0.0 -5.611664e-05 7.282303e-05 0.00014564606 0.00029129212 0.00018205748
3.6411515e-05 0.0 3.6411515e-05 3.6411515e-05 3.6411515e-05 3.6411515e-05 3.6411515e-05 0.0
3.6411515e-05 3.6411515e-05 0.0 3.6411515e-05 0.0 3.641152e-05 0.0 3.641152e-05
0.00012222119 0.00024444237 0.00048888475 0.00030555332 6.111059e-05 0.0 6.111059e-05 6.111059e-05
6.111059e-05 6.111059e-05 6.111059e-05 0.0 6.111059e-05 6.111059e-05 0.0 6.111059e-05
0.0 6.111074e-05 0.0 6.111074e-05 0.00015977153 0.00031954306 0.0006390861 0.0003994288
7.9885765e-05 0.0 7.9885765e-05 7.9885765e-05 7.9885765e-05 7.9885765e-05 7.9885765e-05 0.0
7.9885765e-05 7.9885765e-05 0.0 7.9885765e-05 0.0 7.988582e-05 0.0 7.988582e-05
-2.163223e-07 -4.326446e-07 -8.652892e-07 -5.4080573e-07 -1.0816115e-07 0.0 -1.0816115e-07 -1.0816115e-07
-1.0816115e-07 -1.0816115e-07 -1.0816115e-07 0.0 -1.0816115e-07 -1.0816115e-07 0.0 -1.0816115e-07
00000000: a84f 73b8 a84f f3b8 a84f 73b9 be11 18b9
00000010: a84f f3b7 0000 0000 a84f f3b7 a84f f3b7
00000020: a84f f3b7 a84f f3b7 a84f f3b7 0000 0000
00000030: a84f f3b7 a84f f3b7 0000 0000 a84f f3b7
00000040: 0000 0000 884f f3b7 0000 0000 884f f3b7
00000050: 482e 3eb9 482e beb9 482e 3eba f8b9 edb9
00000060: 482e beb8 0000 0000 482e beb8 482e beb8
00000070: 482e beb8 482e beb8 482e beb8 0000 0000
00000080: 482e beb8 482e beb8 0000 0000 482e beb8
00000090: 0000 0000 482e beb8 0000 0000 482e beb8
000000a0: 567f 2839 567f a839 567f 283a 3c9f d239
000000b0: 567f a838 0000 0000 567f a838 567f a838
000000c0: 567f a838 567f a838 567f a838 0000 0000
000000d0: 567f a838 567f a838 0000 0000 567f a838
000000e0: 0000 0000 607f a838 0000 0000 607f a838
000000f0: f69d 2eb7 f69d aeb7 f69d 2eb8 6f45 dab7
00000100: f69d aeb6 0000 0000 f69d aeb6 f69d aeb6
00000110: f69d aeb6 f69d aeb6 f69d aeb6 0000 0000
00000120: f69d aeb6 f69d aeb6 0000 0000 f69d aeb6
00000130: 0000 0000 f49d aeb6 0000 0000 f49d aeb6
00000140: 84be 5eb6 84be deb6 84be 5eb7 1137 0bb7
00000150: 84be deb5 0000 0000 84be deb5 84be deb5
00000160: 84be deb5 84be deb5 84be deb5 0000 0000
00000170: 84be deb5 84be deb5 0000 0000 84be deb5
00000180: 0000 0000 96be deb5 0000 0000 96be deb5
00000190: 8cb4 5d39 8cb4 dd39 8cb4 5d3a dc90 0a3a
000001a0: 8cb4 dd38 0000 0000 8cb4 dd38 8cb4 dd38
000001b0: 8cb4 dd38 8cb4 dd38 8cb4 dd38 0000 0000
000001c0: 8cb4 dd38 8cb4 dd38 0000 0000 8cb4 dd38
000001d0: 0000 0000 8db4 dd38 0000 0000 8db4 dd38
000001e0: d1e0 f836 d1e0 7837 d1e0 f837 8c8c 9b37
000001f0: d1e0 7836 0000 0000 d1e0 7836 d1e0 7836
00000200: d1e0 7836 d1e0 7836 d1e0 7836 0000 0000
00000210: d1e0 7836 d1e0 7836 0000 0000 d1e0 7836
00000220: 0000 0000 dde0 7836 0000 0000 dde0 7836
00000230: 9699 a037 9699 2038 9699 a038 f4bf 4838
00000240: 9699 2037 0000 0000 9699 2037 9699 2037
00000250: 9699 2037 9699 2037 9699 2037 0000 0000
00000260: 9699 2037 9699 2037 0000 0000 9699 2037
00000270: 0000 0000 9a99 2037 0000 0000 9a99 2037
00000280: c95e ebb8 c95e 6bb9 c95e ebb9 3b1b 93b9
00000290: c95e 6bb8 0000 0000 c95e 6bb8 c95e 6bb8
000002a0: c95e 6bb8 c95e 6bb8 c95e 6bb8 0000 0000
000002b0: c95e 6bb8 c95e 6bb8 0000 0000 c95e 6bb8
000002c0: 0000 0000 c95e 6bb8 0000 0000 c95e 6bb8
000002d0: 91b8 9838 91b8 1839 91b8 9839 afe6 3e39
000002e0: 91b8 1838 0000 0000 91b8 1838 91b8 1838
000002f0: 91b8 1838 91b8 1838 91b8 1838 0000 0000
00000300: 91b8 1838 91b8 1838 0000 0000 91b8 1838
00000310: 0000 0000 92b8 1838 0000 0000 92b8 1838
00000320: 8028 0039 8028 8039 8028 003a ac32 a039
00000330: 8028 8038 0000 0000 8028 8038 8028 8038
00000340: 8028 8038 8028 8038 8028 8038 0000 0000
00000350: 8028 8038 8028 8038 0000 0000 8028 8038
00000360: 0000 0000 9428 8038 0000 0000 9428 8038
00000370: 5888 2739 5888 a739 5888 273a 6d6a d139
00000380: 5888 a738 0000 0000 5888 a738 5888 a738
00000390: 5888 a738 5888 a738 5888 a738 0000 0000
000003a0: 5888 a738 5888 a738 0000 0000 5888 a738
000003b0: 0000 0000 5f88 a738 0000 0000 5f88 a738
000003c0: 3946 68b4 3946 e8b4 3946 68b5 e32b 11b5
000003d0: 3946 e8b3 0000 0000 3946 e8b3 3946 e8b3
000003e0: 3946 e8b3 3946 e8b3 3946 e8b3 0000 0000
000003f0: 3946 e8b3 3946 e8b3 0000 0000 3946 e8b3

exp_avg_sq f4 [128, 20]
7.382046e-06 2.9528184e-05 0.00011811274 4.6137793e-05 1.8455115e-06 0.0 1.8455115e-06 1.8455115e-06
1.8455115e-06 1.8455115e-06 1.8455115e-06 0.0 1.8455115e-06 1.8455115e-06 0.0 1.8455115e-06
0.0 1.8455117e-06 0.0 1.8455117e-06 6.4082844e-05 0.00025633138 0.0010253255 0.00040051795
1.6020711e-05 0.0 1.6020711e-05 1.6020711e-05 1.6020711e-05 1.6020711e-05 1.6020711e-05 0.0
1.6020711e-05 1.6020711e-05 0.0 1.6020711e-05 0.0 1.6020711e-05 0.0 1.6020711e-05
1.5044075e-05 6.01763e-05 0.0002407052 9.402542e-05 3.7610187e-06 0.0 3.7610187e-06 3.7610187e-06
3.7610187e-06 3.7610187e-06 3.7610187e-06 0.0 3.7610187e-06 3.7610187e-06 0.0 3.7610187e-06
0.0 3.7610184e-06 0.0 3.7610184e-06 1.3734257e-08 5.493703e-08 2.1974812e-07 8.583909e-08
3.4335643e-09 0.0 3.4335643e-09 3.4335643e-09 3.4335643e-09 3.4335643e-09 3.4335643e-09 0.0
3.4335643e-09 3.4335643e-09 0.0 3.4335643e-09 0.0 3.4335643e-09 0.0 3.4335643e-09
8.59754e-09 3.439016e-08 1.3756063e-07 5.3734663e-08 2.149385e-09 0.0 2.149385e-09 2.149385e-09
2.149385e-09 2.149385e-09 2.149385e-09 0.0 2.149385e-09 2.149385e-09 0.0 2.149385e-09
0.0 2.149385e-09 0.0 2.149385e-09 1.1401468e-05 4.5605873e-05 0.0001824235 7.125902e-05
2.850367e-06 0.0 2.850367e-06 2.850367e-06 2.850367e-06 2.850367e-06 2.850367e-06 0.0
2.850367e-06 2.850367e-06 0.0 2.850367e-06 0.0 2.8503673e-06 0.0 2.8503673e-06
2.4550424e-08 9.8201696e-08 3.9280678e-07 1.5344028e-07 6.137606e-09 0.0 6.137606e-09 6.137606e-09
6.137606e-09 6.137606e-09 6.137606e-09 0.0 6.137606e-09 6.137606e-09 0.0 6.137606e-09
0.0 6.1376064e-09 0.0 6.1376064e-09 1.9396727e-07 7.7586907e-07 3.1034763e-06 1.2122947e-06
4.8491817e-08 0.0 4.8491817e-08 4.8491817e-08 4.8491817e-08 4.8491817e-08 4.8491817e-08 0.0
4.8491817e-08 4.8491817e-08 0.0 4.8491817e-08 0.0 4.8491817e-08 0.0 4.8491817e-08
4.2147003e-06 1.6858801e-05 6.7435205e-05 2.634188e-05 1.0536751e-06 0.0 1.0536751e-06 1.0536751e-06
1.0536751e-06 1.0536751e-06 1.0536751e-06 0.0 1.0536751e-06 1.0536751e-06 0.0 1.0536751e-06
0.0 1.0536751e-06 0.0 1.0536751e-06 2.2917928e-07 9.167171e-07 3.6668685e-06 1.4323722e-06
5.729482e-08 0.0 5.729482e-08 5.729482e-08 5.729482e-08 5.729482e-08 5.729482e-08 0.0
5.729482e-08 5.729482e-08 0.0 5.729482e-08 0.0 5.729482e-08 0.0 5.729482e-08
2.4567515e-05 9.827006e-05 0.00039308023 0.00015354696 6.1418787e-06 0.0 6.1418787e-06 6.1418787e-06
6.1418787e-06 6.1418787e-06 6.1418787e-06 0.0 6.1418787e-06 6.1418787e-06 0.0 6.1418787e-06
0.0 6.1418787e-06 0.0 6.1418787e-06 1.0137612e-05 4.0550447e-05 0.00016220179 6.3360094e-05
2.534403e-06 0.0 2.534403e-06 2.534403e-06 2.534403e-06 2.534403e-06 2.534403e-06 0.0
2.534403e-06 2.534403e-06 0.0 2.534403e-06 0.0 2.5344032e-06 0.0 2.5344032e-06
4.04178e-11 1.616712e-10 6.466848e-10 2.526117e-10 1.010445e-11 0.0 1.010445e-11 1.010445e-11
1.010445e-11 1.010445e-11 1.010445e-11 0.0 1.010445e-11 1.010445e-11 0.0 1.010445e-11
00000000: 4bb3 f736 4bb3 f737 4bb3 f738 1484 4138
00000010: 4bb3 f735 0000 0000 4bb3 f735 4bb3 f735
00000020: 4bb3 f735 4bb3 f735 4bb3 f735 0000 0000
00000030: 4bb3 f735 4bb3 f735 0000 0000 4bb3 f735
00000040: 0000 0000 4db3 f735 0000 0000 4db3 f735
00000050: 3764 8638 3764 8639 3764 863a 9cfc d139
00000060: 3764 8637 0000 0000 3764 8637 3764 8637
00000070: 3764 8637 3764 8637 3764 8637 0000 0000
00000080: 3764 8637 3764 8637 0000 0000 3764 8637
00000090: 0000 0000 3764 8637 0000 0000 3764 8637
000000a0: cf65 7c37 cf65 7c38 cf65 7c39 832f c538
000000b0: cf65 7c36 0000 0000 cf65 7c36 cf65 7c36
000000c0: cf65 7c36 cf65 7c36 cf65 7c36 0000 0000
000000d0: cf65 7c36 cf65 7c36 0000 0000 cf65 7c36
000000e0: 0000 0000 ce65 7c36 0000 0000 ce65 7c36
000000f0: e7f3 6b32 e7f3 6b33 e7f3 6b34 8a56 b833
00000100: e7f3 6b31 0000 0000 e7f3 6b31 e7f3 6b31
00000110: e7f3 6b31 e7f3 6b31 e7f3 6b31 0000 0000
00000120: e7f3 6b31 e7f3 6b31 0000 0000 e7f3 6b31
00000130: 0000 0000 e7f3 6b31 0000 0000 e7f3 6b31
00000140: 61b4 1332 61b4 1333 61b4 1334 e3c9 6633
00000150: 61b4 1331 0000 0000 61b4 1331 61b4 1331
00000160: 61b4 1331 61b4 1331 61b4 1331 0000 0000
00000170: 61b4 1331 61b4 1331 0000 0000 61b4 1331
00000180: 0000 0000 61b4 1331 0000 0000 61b4 1331
00000190: ef48 3f37 ef48 3f38 ef48 3f39 e570 9538
000001a0: ef48 3f36 0000 0000 ef48 3f36 ef48 3f36
000001b0: ef48 3f36 ef48 3f36 ef48 3f36 0000 0000
000001c0: ef48 3f36 ef48 3f36 0000 0000 ef48 3f36
000001d0: 0000 0000 f048 3f36 0000 0000 f048 3f36
000001e0: f4e2 d232 f4e2 d233 f4e2 d234 58c1 2434
000001f0: f4e2 d231 0000 0000 f4e2 d231 f4e2 d231
00000200: f4e2 d231 f4e2 d231 f4e2 d231 0000 0000
00000210: f4e2 d231 f4e2 d231 0000 0000 f4e2 d231
00000220: 0000 0000 f5e2 d231 0000 0000 f5e2 d231
00000230: 5145 5034 5145 5035 5145 5036 21b6 a235
00000240: 5145 5033 0000 0000 5145 5033 5145 5033
00000250: 5145 5033 5145 5033 5145 5033 0000 0000
00000260: 5145 5033 5145 5033 0000 0000 5145 5033
00000270: 0000 0000 5145 5033 0000 0000 5145 5033
00000280: 006c 8d36 006c 8d37 006c 8d38 c2f8 dc37
00000290: 006c 8d35 0000 0000 006c 8d35 006c 8d35
000002a0: 006c 8d35 006c 8d35 006c 8d35 0000 0000
000002b0: 006c 8d35 006c 8d35 0000 0000 006c 8d35
000002c0: 0000 0000 006c 8d35 0000 0000 006c 8d35
000002d0: 5214 7634 5214 7635 5214 7636 ef3f c035
000002e0: 5214 7633 0000 0000 5214 7633 5214 7633
000002f0: 5214 7633 5214 7633 5214 7633 0000 0000
00000300: 5214 7633 5214 7633 0000 0000 5214 7633
00000310: 0000 0000 5214 7633 0000 0000 5214 7633
00000320: 5616 ce37 5616 ce38 5616 ce39 7301 2139
00000330: 5616 ce36 0000 0000 5616 ce36 5616 ce36
00000340: 5616 ce36 5616 ce36 5616 ce36 0000 0000
00000350: 5616 ce36 5616 ce36 0000 0000 5616 ce36
00000360: 0000 0000 5616 ce36 0000 0000 5616 ce36
00000370: b614 2a37 b614 2a38 b614 2a39 31e0 8438
00000380: b614 2a36 0000 0000 b614 2a36 b614 2a36
00000390: b614 2a36 b614 2a36 b614 2a36 0000 0000
000003a0: b614 2a36 b614 2a36 0000 0000 b614 2a36
000003b0: 0000 0000 b714 2a36 0000 0000 b714 2a36
000003c0: 66c2 312e 66c2 312f 66c2 3130 f0df 8a2f
000003d0: 66c2 312d 0000 0000 66c2 312d 66c2 312d
000003e0: 66c2 312d 66c2 312d 66c2 312d 0000 0000
000003f0: 66c2 312d 66c2 312d 0000 0000 66c2 312d

exp_avg f4 [128]
-2.900495e-05 -9.0685266e-05 8.0345824e-05 -5.203993e-06 -1.6595736e-06 0.00010571731 3.708574e-06 9.572503e-06
-5.611664e-05 3.6411515e-05 6.111059e-05 7.9885765e-05 -1.0816115e-07 -6.081238e-05 -1.0496529e-05 -1.7626146e-05
1.0833135e-05 5.8830516e-05 8.718813e-09 5.5486034e-06 -6.6290304e-06 2.7556556e-05 2.844195e-06 4.9249365e-07
-1.3124505e-05 2.079632e-05 6.1227554e-05 -1.6966524e-05 9.4381845e-05 0.00011526386 8.904673e-06 -3.6697857e-06
3.9668266e-06 2.971865e-07 -2.7563633e-06 3.5512103e-06 6.6759894e-05 1.7129158e-06 2.130132e-05 1.5555152e-05
-5.366169e-07 1.030827e-05 7.44526e-08 1.4543704e-06 1.996669e-06 9.3953795e-06 2.06676e-06 5.4194343e-06
-5.8303312e-06 1.7285789e-05 1.4650188e-06 -7.786763e-06 2.1496944e-06 -6.4081473e-06 1.4224272e-05 1.7479232e-06
4.7589747e-05 2.8440661e-05 -2.8162758e-05 -2.8399809e-05 -4.275424e-05 2.134105e-06 0.000103350976 2.4726805e-05
2.084762e-07 0.00013396608 6.777878e-07 1.14057286e-07 2.064182e-05 5.7878522e-05 -7.2880266e-06 4.0603928e-07
6.202033e-06 -7.340142e-05 -2.1631276e-05 1.9159606e-06 1.2558154e-05 2.8121485e-07 1.2297427e-05 1.0623653e-06
-6.471647e-07 8.424731e-07 -1.0972928e-05 2.5229633e-06 -4.694615e-06 -3.963093e-05 -8.679977e-06 1.5671212e-05
-3.9388513e-05 2.6666407e-07 -3.0058349e-05 -8.9277455e-07 0.00010055708 -1.04315495e-05 5.6643134e-05 1.0975849e-05
4.5092997e-06 -4.196773e-06 1.0704534e-06 2.7515205e-05 9.060238e-05 7.605339e-05 6.217158e-05 -8.060722e-06
-1.8482722e-05 2.767571e-05 6.2972013e-06 2.1913242e-05 -2.323899e-06 -2.9524826e-06 -2.2278538e-05 -3.998512e-05
2.8929207e-08 -2.1048645e-06 3.9915616e-05 -8.7539986e-05 3.7262875e-05 2.6837865e-06 7.7473844e-05 1.971301e-05
1.01819805e-05 7.017617e-08 2.1762897e-05 -2.640432e-05 -3.5840974e-05 1.8428127e-06 1.1397901e-05 -5.288395e-06
00000000: a84f f3b7 482e beb8 567f a838 f69d aeb6
00000010: 84be deb5 8cb4 dd38 d1e0 7836 9699 2037
00000020: c95e 6bb8 91b8 1838 8028 8038 5888 a738
00000030: 3946 e8b3 cc10 7fb8 401a 30b7 dcdb 93b7
00000040: f6bf 3537 c9c0 7638 bfc9 1532 242e ba36
00000050: f06e deb6 4129 e737 e6de 3e36 e833 0435
00000060: 5231 5cb7 c273 ae37 4b67 8038 5553 8eb7
00000070: deee c538 d0b9 f138 4865 1537 7046 76b6
00000080: c81a 8536 008d 9f34 f6f9 38b6 5451 6e36
00000090: 7201 8c38 57e7 e535 3db0 b237 6f7c 8237
000000a0: 080c 10b5 aff1 2c37 c0e2 9f33 c933 c335
000000b0: 83fe 0536 d9a0 1d37 abb2 0a36 96d8 b536
000000c0: 2aa2 c3b6 f300 9137 aaa1 c435 e4a3 02b7
000000d0: 7843 1036 9105 d7b6 c8a4 6e37 2f9a ea35
000000e0: 1a9b 4738 db93 ee37 103f ecb7 203c eeb7
000000f0: 0453 33b8 a537 0f36 22be d838 696c cf37
00000100: 80d9 5f34 3f79 0c39 39f1 3535 a8ef f433
00000110: f927 ad37 97c2 7238 ac8b f4b6 9dfd d934
00000120: 0f1b d036 16ef 99b8 d074 b5b7 f493 0036
00000130: dcb0 5237 e0f9 9634 0c51 4e37 9896 8e35
00000140: d2b8 2db5 5026 6235 5e18 38b7 2e50 2936
00000150: 7086 9db6 6339 26b8 38a0 11b7 ac75 8337
00000160: 1835 25b8 082a 8f34 d025 fcb7 00a7 6fb5
00000170: 2ce2 d238 2a03 2fb7 1a94 6d38 ea24 3837
00000180: 974e 9736 01d2 8cb6 80ac 8f35 74d0 e637
00000190: c801 be38 da7e 9f38 1d62 8238 8a3c 07b7
000001a0: 580b 9bb7 2229 e837 8c4c d336 54d2 b737
000001b0: 48f4 1bb6 4423 46b6 cce2 bab7 b2b5 27b8
000001c0: 0080 f832 4c41 0db6 116b 2738 ac95 b7b8
000001d0: b54a 1c38 1a1b 3436 7479 a238 5e5d a537
000001e0: 46d3 2a37 c2b3 9633 778f b637 d87e ddb7
000001f0: f453 16b8 9056 f735 9d39 3f37 f872 b1b6

exp_avg_sq f4 [128]
1.8455115e-06 1.6020711e-05 3.7610187e-06 3.4335643e-09 2.149385e-09 2.850367e-06 6.137606e-09 4.8491817e-08
1.0536751e-06 5.729482e-08 6.1418787e-06 2.534403e-06 1.010445e-11 5.2547352e-06 1.6853703e-06 1.2570406e-06
7.153993e-08 1.6035499e-07 2.8722916e-11 4.6297888e-08 5.6267933e-08 4.050831e-08 7.063235e-09 1.7031218e-09
7.4805406e-08 9.304761e-08 2.0907105e-06 3.532703e-07 6.3537614e-06 7.386475e-06 3.2512293e-08 3.118054e-07
1.9711721e-09 3.0229657e-08 1.899503e-08 3.6815877e-08 4.3211226e-06 3.1038734e-09 1.9779176e-07 4.1034394e-08
9.1551083e-10 8.411895e-08 8.337409e-09 8.4106333e-10 4.883139e-09 2.8092064e-08 2.5395368e-11 4.9266717e-08
3.964229e-08 5.371536e-07 2.723114e-09 6.7953955e-08 4.549853e-07 8.621242e-09 1.0452261e-06 1.2705647e-09
6.14785e-07 4.912118e-08 2.4374851e-06 2.626727e-06 2.889815e-06 2.8777645e-09 8.94476e-06 2.1640334e-07
4.2833244e-09 7.39091e-06 4.1566076e-10 2.4694502e-11 5.8947844e-08 1.1382925e-07 1.7306992e-07 1.1273334e-09
2.393835e-09 3.5634373e-06 3.2480962e-06 1.9183872e-08 7.9823883e-07 2.0664851e-08 8.205206e-07 1.4706686e-09
1.8394672e-09 5.596152e-08 1.0203272e-07 2.0171749e-09 7.610041e-09 6.056297e-07 1.5682283e-06 1.926465e-06
8.125831e-06 1.4282833e-09 5.1093243e-06 6.1302136e-10 5.569958e-06 3.1307202e-08 2.1836609e-06 1.9428639e-07
6.6677464e-09 6.729969e-09 1.1911677e-06 1.1158346e-06 5.5894516e-06 5.309401e-06 1.949765e-06 1.12906484e-07
3.104015e-07 1.5953655e-07 1.4992892e-08 2.708513e-07 4.149166e-09 1.2166483e-08 3.600041e-07 1.92946e-06
3.5209664e-09 1.0899237e-08 1.3522752e-07 1.085085e-05 1.0791315e-06 4.038298e-09 1.6585584e-06 7.16065e-08
5.5638633e-08 4.188238e-10 2.8301451e-07 3.2183927e-06 4.906626e-06 1.8091553e-09 4.804491e-08 5.383953e-10
00000000: 4bb3 f735 3764 8637 cf65 7c36 e7f3 6b31
00000010: 61b4 1331 ef48 3f36 f4e2 d231 5145 5033
00000020: 006c 8d35 5214 7633 5616 ce36 b614 2a36
00000030: 66c2 312d d551 b036 e234 e235 96b7 a835
00000040: 7ea1 9933 0b2e 2c34 42a6 fc2d 11d9 4633
00000050: 3fab 7133 5cfb 2d33 dfb0 f231 4513 ea30
00000060: b5a4 a033 77d1 c733 224e 0c36 1aa9 bd34
00000070: 6532 d536 56d9 f736 a5a3 0b33 3566 a734
00000080: 3a75 0731 dcd5 0133 832a a332 7c1f 1e33
00000090: 29fe 9036 eb4b 5531 9660 5434 cb3d 3033
000000a0: 59a7 7b30 e2a4 b433 503c 0f32 9230 6730
000000b0: 8bc8 a731 1a4f f132 4961 df2d 5499 5333
000000c0: 2943 2a33 ea30 1035 8721 3b31 15ee 9133
000000d0: b444 f434 a01c 1432 b249 8c35 05a0 ae30
000000e0: b407 2535 4ff9 5233 ad93 2336 d446 3036
000000f0: a5ee 4136 2bc2 4531 7411 1637 7f5c 6834
00000100: 852c 9331 6fff f736 0d83 e42f 1337 d92d
00000110: d72d 7d33 4b72 f433 19d5 3934 85f0 9a30
00000120: ca80 2431 6323 6f36 def9 5936 c8c9 a432
00000130: 8e46 5635 7d82 b132 bf41 5c35 8d20 ca30
00000140: 80d0 fc30 585a 7033 151d db33 849e 0a31
00000150: 50bd 0232 8e92 2235 ea7b d235 6b48 0136
00000160: 2e54 0837 404d c430 c370 ab36 8b81 2830
00000170: 93e5 ba36 a276 0633 028b 1236 099d 5034
00000180: 1e1a e531 6f3d e731 36e0 9f35 c9c3 9535
00000190: 068d bb36 6827 b236 b5d8 0236 ff76 f233
000001a0: 42a5 a634 134d 2b34 b8c9 8032 8569 9134
000001b0: 7390 8e31 c204 5132 9646 c134 df7b 0136
000001c0: 7ff5 7131 5a3f 3b32 0f33 1134 0c0c 3637
000001d0: add6 9035 3fc1 8a31 a29b de35 17c6 9933
000001e0: 53f7 6e33 3640 e62f 38f1 9734 91fb 5736
000001f0: 99a3 a436 fea5 f830 f059 4e33 33fe 1330

exp_avg f4 [128, 128]
-4.88561e-07 -6.0938396e-07 -1.0008596e-07 -4.451556e-08 1.5130743e-07 -1.3063104e-06 5.6401234e-08 1.4927e-07
-5.104896e-07 -3.6871518e-07 -4.1261256e-07 -1.8468595e-06 1.9393468e-07 -3.6677284e-07 -3.276461e-06 -1.1282802e-07
-7.702795e-09 -1.0200026e-06 1.939282e-07 1.755983e-07 7.631429e-08 7.793456e-08 1.9613279e-07 1.9712206e-07
1.6809426e-07 -2.4724318e-07 -1.1284051e-06 5.39665e-08 -2.2896174e-06 -1.0564977e-06 1.8958463e-07 -2.0562749e-07
1.157303e-07 1.6499834e-07 1.2360732e-07 1.3387381e-07 -9.4098345e-07 9.848806e-09 5.4791172e-08 -7.4695174e-07
1.9697478e-07 1.8136828e-07 7.018308e-08 1.9219306e-07 -8.922424e-09 1.540545e-07 1.5588523e-07 1.2488934e-07
1.2799174e-07 3.119473e-08 5.457919e-08 1.4720067e-07 -9.59991e-07 8.235614e-08 -4.7308768e-06 1.6983073e-08
-1.0875019e-06 9.774908e-09 -2.3039006e-06 -1.5690648e-07 -3.503817e-08 6.0893555e-08 -9.3401854e-07 -6.569834e-07
4.770945e-08 -2.7219344e-06 6.313893e-08 5.6618594e-09 -2.240129e-06 -3.1158306e-06 1.9654334e-07 1.9387605e-07
1.4741343e-07 -1.6860472e-06 -3.950947e-06 1.4744289e-07 -5.992099e-07 -4.7012804e-08 -3.2691805e-06 1.3282625e-08
-2.2610635e-08 -3.7277708e-08 1.4170666e-07 1.7400635e-07 -2.5018963e-08 8.0901174e-08 -2.1240157e-06 -2.0513357e-06
-4.2552927e-07 2.505967e-08 -4.7578023e-06 2.0711568e-08 -6.1416506e-07 -6.2432787e-07 -7.14464e-07 1.6231465e-07
1.8419578e-07 1.0092501e-07 -1.1282734e-06 4.6325255e-09 -1.1794298e-06 -2.138699e-06 -2.159181e-06 1.4095428e-07
1.8107778e-07 -1.5295093e-06 1.1882139e-07 1.2638097e-07 9.299427e-08 1.810429e-07 -2.3909083e-06 -7.1754744e-07
1.5551265e-07 1.4386828e-07 -8.1183407e-07 -9.542621e-07 -1.161708e-06 1.770592e-07 -3.0650644e-06 -1.1731502e-06
1.3828438e-07 1.9392974e-07 -2.7594629e-06 -2.9045245e-06 -1.485306e-06 1.9556964e-07 1.6551488e-07 9.044996e-08
-5.770096e-07 -7.1961676e-07 -1.4115983e-07 -3.7750937e-08 1.8362815e-07 -1.6346085e-06 7.0808014e-08 1.7815341e-07
-6.019683e-07 -4.845643e-07 -5.338773e-07 -2.3029029e-06 2.3906364e-07 -4.2007275e-07 -3.9956876e-06 -1.1595711e-07
1.7854745e-08 -1.198556e-06 2.390537e-07 2.1399819e-07 9.115695e-08 1.2403247e-07 2.4352272e-07 2.4642623e-07
2.1435366e-07 -3.0845302e-07 -1.4168731e-06 7.572746e-08 -2.8577447e-06 -1.3324307e-06 2.3595157e-07 -2.109191e-07
1.4488992e-07 2.0082854e-07 1.4961861e-07 1.5998359e-07 -1.1929192e-06 1.49033e-08 5.8354217e-08 -9.654242e-07
2.4375925e-07 2.2192029e-07 8.3368334e-08 2.3645515e-07 -1.7371637e-08 1.8496604e-07 1.9418633e-07 1.5680322e-07
1.5441017e-07 5.1300695e-08 6.481234e-08 1.7814676e-07 -1.2049529e-06 9.489267e-08 -5.781064e-06 2.137389e-08
-1.3570348e-06 3.4957992e-08 -2.80092e-06 -1.7044306e-07 -2.1955856e-08 7.643406e-08 -1.1849754e-06 -7.923675e-07
7.210552e-08 -3.382706e-06 7.638636e-08 6.915853e-09 -2.7070196e-06 -3.862212e-06 2.4599615e-07 2.389715e-07
1.8513865e-07 -2.0397601e-06 -4.8257525e-06 1.9222088e-07 -7.6617516e-07 -2.050706e-08 -4.0364066e-06 1.6817712e-08
-3.287991e-08 -4.6674295e-08 1.7131197e-07 2.197039e-07 -1.456263e-08 1.13010834e-07 -2.5807271e-06 -2.4815777e-06
-4.926103e-07 2.9506609e-08 -5.8235155e-06 2.4154424e-08 -7.8125004e-07 -7.690659e-07 -9.016628e-07 2.0306769e-07
2.2916618e-07 1.2071251e-07 -1.349182e-06 -6.351385e-09 -1.4822042e-06 -2.6646985e-06 -2.6994462e-06 1.7045559e-07
2.307792e-07 -1.8967739e-06 1.4865364e-07 1.4831792e-07 1.02481465e-07 2.2170406e-07 -2.8922454e-06 -8.538984e-07
1.8652855e-07 1.7369126e-07 -9.722698e-07 -1.1356276e-06 -1.4603379e-06 2.162381e-07 -3.8055932e-06 -1.380406e-06
1.7362723e-07 2.390559e-07 -3.4262134e-06 -3.5339144e-06 -1.7829975e-06 2.4286612e-07 2.0085838e-07 1.1908443e-07
00000000: a825 03b5 8c94 23b5 d7ee d6b3 6031 3fb3
00000010: 1277 2234 7c54 afb5 d03d 7233 0647 2034
00000020: 9408 09b5 d4f3 c5b4 0a85 ddb4 9ce1 f7b5
00000030: 5c3c 5034 e0e8 c4b4 2ce1 5bb6 dc4b f2b3
00000040: 4055 04b2 06e7 88b5 943a 5034 188c 3c34
00000050: 3ae2 a333 fa5c a733 9298 5234 80a8 5334
00000060: 667d 3434 d8bc 84b4 b473 97b5 cbc8 6733
00000070: 54a7 19b6 fccc 8db5 a090 4b34 74ca 5cb4
00000080: 6887 f833 662a 3134 ecb8 0434 f4be 0f34
00000090: e497 7cb5 8233 2932 8853 6b33 2282 48b5
000000a0: 0480 5334 22be 4234 8eb7 9633 a05d 4e34
000000b0: 3c49 19b2 2e6a 2534 6861 2734 5219 0634
000000c0: 1a6e 0934 f8fa 0533 746a 6a33 360e 1e34
000000d0: 0ad9 80b5 c4db b033 ecbd 9eb6 2ce2 9132
000000e0: 48f6 91b5 80ee 2732 b69c 1ab6 207a 28b4
000000f0: e07c 16b3 96c4 8233 44b9 7ab5 8e5b 30b5
00000100: 18e9 4c33 7aaa 36b6 fe96 8733 3e8a c231
00000110: 2055 16b6 9019 51b6 6c09 5334 3e2c 5034
00000120: b248 1e34 244c e2b5 6092 84b6 cb50 1e34
00000130: 64d9 20b5 20eb 49b3 1864 5bb6 9a31 6432
00000140: 5039 c2b2 461b 20b3 0828 1834 80d6 3a34
00000150: 48e9 d6b2 e4bb ad33 508a 0eb6 aea9 09b6
00000160: 4c74 e4b4 cc42 d732 36a5 9fb6 38e9 b132
00000170: 1add 24b5 7c97 27b5 98c9 3fb5 b648 2e34
00000180: 5ac7 4534 1cbc d833 2e6f 97b5 202c 9f31
00000190: e64c 9eb5 9286 0fb6 72e6 10b6 3859 1734
000001a0: 486e 4234 8a49 cdb5 c02a ff33 56b3 0734
000001b0: 24b4 c733 b264 4234 7e73 20b6 7c9d 40b5
000001c0: fefa 2634 367a 1a34 d0ec 59b5 3214 80b5
000001d0: fceb 9bb5 aa1d 3e34 68b1 4db6 2275 9db5
000001e0: 527b 1434 003b 5034 362f 39b6 5aeb 42b6
000001f0: ba5a c7b5 c6fd 5134 62b8 3134 643d c233
00000200: cce3 1ab5 b02b 41b5 b891 17b4 9823 22b3
00000210: 522b 4534 b864 dbb5 1e0f 9833 704a 3f34
00000220: f296 21b5 0113 02b5 c54f 0fb5 928b 1ab6
00000230: a858 8034 5c86 e1b4 b212 86b6 1804 f9b3
00000240: 005f 9932 12de a0b5 4a57 8034 60c7 6534
00000250: 10c2 c333 c92d 0534 82bd 8234 904c 8434
00000260: 1629 6634 7699 a5b4 642b beb5 9d9f a233
00000270: aec7 3fb6 f8d5 b2b5 e059 7d34 0079 62b4
00000280: 0a93 1b34 54a3 5734 daa6 2034 f4c7 2b34
00000290: 641c a0b5 b404 8032 24a1 7a33 b993 81b5
000002a0: 04de 8234 fc48 6e34 3a08 b333 4ce4 7d34
000002b0: a238 95b2 149b 4634 8881 5034 be5d 2834
000002c0: f2cb 2534 b655 5c33 f62e 8b33 9c48 3f34
000002d0: deb9 a1b5 ccc7 cb33 f6fa c1b6 ae99 b732
000002e0: 5c23 b6b5 b824 1633 70f7 3bb6 0803 37b4
000002f0: 7099 bcb2 1224 a433 720b 9fb5 14b3 54b5
00000300: 6ed8 9a33 7202 63b6 d809 a433 7ca0 ed31
00000310: 3eaa 35b6 2698 81b6 7411 8434 fe4b 8034
00000320: 86ca 4634 d0e2 08b6 e6ec a1b6 4665 4e34
00000330: 28ab 4db5 8027 b0b2 7870 87b6 8a76 9032
00000340: d837 0db3 ee76 48b3 e0f1 3734 c0e7 6b34
00000350: 202f 7ab2 5db0 f233 8e30 2db6 2e89 26b6
00000360: ec3b 04b5 b875 fd32 9e67 c3b6 247c cf32
00000370: 18b7 51b5 ce71 4eb5 cc09 72b5 d20a 5a34
00000380: b810 7634 349d 0134 8a15 b5b5 603b dab1
00000390: 26f0 c6b5 2cd3 32b6 2228 35b6 7a06 3734
000003a0: 1acc 7734 a894 feb5 9a9d 1f34 5241 1f34
000003b0: c813 dc33 8c0d 6e34 6618 42b6 7437 65b5
000003c0: 9448 4834 e47f 3a34 f07e 82b5 de6b 98b5
000003d0: d400 c4b5 142f 6834 9863 7fb6 6446 b9b5
000003e0: 4a6e 3a34 9857 8034 e6ed 65b6 3028 6db6
000003f0: 544f efb5 4463 8234 88ab 5734 5cbb ff33
