old_ppo/PoI/PoI-17384.pt (torch, 438243 bytes, 36 tensors)

network_body._body_endoder.seq_layers.0.weight f4 [128, 4]
00000000: 39a0 e2be 444a bcbe 0258 ef3e 5f3f ff3d
00000010: 033a 80bf cc98 5abe 0bb2 adbf d9e3 a43e
00000020: 38f2 39be dd78 32bf 389b 073f bd76 c73d
00000030: 9f2d 193f bde0 443d a71d 4c3e 5bdc 91be
00000040: 5159 243f 43e3 7bbe a75b 98be 2981 09bf
00000050: 1304 d5be 1d8b 543f 331c 6cbf 336a 91be
00000060: ce5c 87be e474 893e 5712 4a3f fd2f a53e
00000070: 975b 0b3f 63d3 0a3f 59e4 ddbe 07a5 a23e
00000080: d41d 2bbf 9f58 0b3d 8991 543f b5b6 803d
00000090: c235 8b3d ea4d debe ad03 3dbf e0af bebe
000000a0: adb6 573f 9257 3cbf eae4 9fbf ce44 34be
000000b0: 2327 a83c 2faf 81bf e394 1c3f 2c75 d83c
000000c0: e579 df3d b4df bd3c cf66 b13f 1441 60bf
000000d0: 1f87 5b3f 044b a03e afd5 fbbd 236a ddbe
000000e0: 9275 ad3e 4520 bebe 0922 87bb 0246 8a3e
000000f0: 4b86 75be 59ed 60bf eff3 01bf a516 2abf
00000100: 6495 32bd 29d4 57be 20c5 333f 38bd 363c
00000110: b297 92bf cd41 0fbf 980b 733e 969a 07be
00000120: 5537 15be 0c4a dcbd 51cc 6e3e 4a4c c2bd
00000130: 49cc 46be 40cd 5d3e 8971 803e 8fd1 0e3e
00000140: 6b37 363e 6aaf 643f f4b4 a63d 5e9a 153f
00000150: b99e 3e3f 9964 153f da21 25bf 346d a33e
00000160: 6d63 523e 90c5 60be 477b f53e c969 16bf
00000170: 75e8 b2bf 8ca8 053e c268 f43e 636e bd3e
00000180: cad7 2bbf 60aa 2dbf 0b13 df3e 466b 713e
00000190: b22c ea3e b003 0fbd 4f70 4b3e e988 243e
000001a0: 0dcd 653e 7367 033e 600d 363f af92 8abf
000001b0: fb45 abbd 7560 493e 09d5 193e dc14 0c3f
000001c0: b090 173f 79bd dbbe 7a83 7e3e 208f 723e
000001d0: 52b9 3fbe 1552 f93e 5164 dabd 3809 5ebd
000001e0: 8685 013d 9ff5 96be a4d8 02bf 6074 73bf
000001f0: a44f 15bd 7c93 f0bd 3b3d 013f 7118 1e3e
00000200: 24bd 203f 6c93 533e 19c7 13bf 5e50 b23e
00000210: 804a a3bc 92b3 143f 3545 d03c 8694 953f
00000220: 41ea 95bf d6c6 82bc dfbb d1be b4b8 303f
00000230: 42a3 fbbe 7226 26be 6aef 67be 522d 003e
00000240: e1a8 fc3c 8cc9 813e 55f5 5ebe 73ad f33e
00000250: b2b8 c9be 5c59 033f 3daa 8ebe a4a4 84be
00000260: dc49 913e 1cd7 bcbf 65ce b43e db6a 733f
00000270: 8b21 36bf 9a2b 153f 29ce 90be 707b 543f
00000280: ba8a 4cbe 2900 043f f9f0 a5be 6ec9 ffbe
00000290: b9e2 8fbc 6006 aabe 6b19 fbbe b0bc dd3d
000002a0: 1434 1dbe 9b01 3c3e 8114 a6be 4dc9 bb3e
000002b0: 982e e3be e63a 253e bb29 d83d 6e5b 3bbe
000002c0: ab16 bd3e e0a7 3cbf 31c5 433f 69ab 67be
000002d0: e179 553f 8b13 89bf 1c30 75bd 1e3e debe
000002e0: d21a 9dbd acb8 1bbf ecb0 573f 4961 06bf
000002f0: f6b1 a4be 6a04 783f a5b4 693e ddae 52bf
00000300: 24ec 6ebd c1cc 433d 9834 4e3e 275c 0dbf
00000310: 4e36 4dbc 3ebb 563e 296d 43bf 6e50 71be
00000320: 2881 ca3e e7fc 6dbd ced0 2fbe 402f 5cbe
00000330: 5ca3 13bf b99a 153d f047 403f bb30 693e
00000340: 3122 a3bf 5ba3 dc3e 7624 09bf 3588 5ebe
00000350: b041 27be 1d23 f93e 780c 73be 055c 0b3f
00000360: 1058 30bd 6b06 4c3c 778e b1be 9b83 df3e
00000370: a3f7 a8bd c38d 78bc 69fc d43e c2d2 a43d
00000380: b833 89be 5ce5 233e 9a54 d53e 715d e33e
00000390: dd28 17be 2223 50bf 0a99 ac3d 8fe8 023f
000003a0: 8b7f 2a3e f4bc 3e3f f9f4 943e 0556 4b3e
000003b0: d956 303d 3eba a4be 471c e43e a80d 4fbd
000003c0: 7218 2abe 9c8b 523e 4bfc 8d3d 290e bdbe
000003d0: 8256 e83d eacb d5bc bf70 e43e 4830 97be
000003e0: 074c 9cbe 7c0c 9dbe 9be6 a13c 8776 debd
000003f0: bd1d 2ebf e3a0 e63e bc8e 21bf a1df 4f3f
-0.44262865 -0.3677541 0.46746832 0.12463259 -1.0017704 -0.2134735 -1.3569959 0.32205084
-0.18158805 -0.6971567 0.5297122 0.097394444 0.5983524 0.04806589 0.19933186 -0.2848843
0.64198786 -0.24598412 -0.29757425 -0.5371271 -0.4160467 0.8302477 -0.9223053 -0.28401336
-0.26437992 0.26846993 0.78934234 0.32263175 0.5443663 0.542288 -0.43338278 0.3176653
-0.6684239 0.034020063 0.8303457 0.062848486 0.06797363 -0.4341882 -0.73833734 -0.37243557
0.84263116 -0.7357112 -1.2491734 -0.17604372 0.020526474 -1.0131587 0.61164683 0.02642306
0.109119214 0.023177959 1.38595 -0.875993 0.85753053 0.31307232 -0.12296616 -0.43245038
0.33878762 -0.37133995 -0.0041239304 0.27006537 -0.2397701 -0.87862164 -0.5076284 -0.664408
-0.0435995 -0.21077026 0.70222664 0.011153512 -1.1452544 -0.5595978 0.23734891 -0.13242564
-0.14571889 -0.10756311 0.23320128 -0.09487207 -0.19413866 0.21660328 0.2508662 0.13947128
0.17794578 0.8933016 0.08139983 0.5843867 0.7446094 0.58356625 -0.6450478 0.31919253
0.2054574 -0.21950364 0.47945616 -0.58755165 -1.397719 0.13052577 0.47736174 0.3699828
-0.6712614 -0.67838097 0.43569216 0.23576078 0.45737225 -0.034915626 0.19867061 0.16067852
0.22441502 0.12832431 0.7111416 -1.0826014 -0.08362957 0.19665702 0.15022673 0.5471933
0.5920515 -0.42917994 0.24854842 0.2368741 -0.18723038 0.48695436 -0.10663665 -0.05420801
0.03162148 -0.2948427 -0.5111182 -0.9509945 -0.036452904 -0.117468804 0.50484055 0.15439011
0.62788606 0.20661706 -0.57725674 0.3482694 -0.019932985 0.580865 0.025423625 1.1685951
-1.1712114 -0.015963953 -0.40963647 0.69031835 -0.49147993 -0.16225603 -0.22649923 0.12517288
0.030842246 0.2534908 -0.21773274 0.4759327 -0.39398724 0.51308227 -0.27864257 -0.2590686
0.28376663 -1.4753146 0.35313717 0.95084924 -0.7114493 0.58269656 -0.28282288 0.8300085
-0.19974795 0.51562744 -0.3241041 -0.49958366 -0.017564164 -0.3320799 -0.4904283 0.10827005
-0.15351897 0.18359987 -0.32437518 0.36677018 -0.44371486 0.16135749 0.105548345 -0.18296596
0.36931357 -0.73693657 0.76472765 -0.22623982 0.833891 -1.0709089 -0.059860334 -0.43406767
-0.07671131 -0.6082866 0.84254336 -0.52492195 -0.32167023 0.96881735 0.22822817 -0.8229807
-0.05833067 0.04780269 0.2013725 -0.5521874 -0.012525154 0.20969865 -0.7633844 -0.23565838
0.39551663 -0.058102515 -0.17169496 -0.215024 -0.5767114 0.03652451 0.7510977 0.22772495
-1.2744809 0.4309338 -0.5357126 -0.21731646 -0.16333652 0.48659602 -0.23735225 0.54437286
-0.043052733 0.012452702 -0.34679005 0.43655095 -0.08250358 -0.015170517 0.41598824 0.08048011
-0.2679727 0.16005462 0.41666108 0.44407228 -0.14761682 -0.8130361 0.084276274 0.51136106
0.16650216 0.7450707 0.2909315 0.19857033 0.043051574 -0.32173342 0.44552824 -0.050550133
-0.16610888 0.20561069 0.06932887 -0.36924866 0.11344625 -0.02609821 0.44617268 -0.29529023
-0.30526754 -0.30673587 0.019763282 -0.10862451 -0.68014127 0.45044622 -0.6310842 0.81200606

network_body._body_endoder.seq_layers.0.bias f4 [128]
00000000: 0018 93bc 8eb8 29bd ab3e 0abd d99f be3c
00000010: 7cc4 d93c 6515 06bc 2caa 00bd 9bf3 a8bc
00000020: 246a 77bc 4793 0ebc 06c2 5d3c aa27 acbc
00000030: 9a26 92bc 016f b7bc c3fe 90bc 7b3d f8b8
00000040: bb00 793b 9d82 52bc 5232 fdbb ca07 e03c
00000050: 777d 133d 9bc9 b33c 3f2d efbc f7cc cfba
00000060: 6941 b13c 32d8 11bc cf4c b9bc adb2 49bd
00000070: 1905 ccbc d6b8 153c 9ae2 9fbc b2a0 b1bc
00000080: 57d5 4cbc 982e 96ba 9b01 7ebc f41e a1bc
00000090: 7c7e 2dbd f2ce 0c3c 23e8 623d 549c 56bc
000000a0: 6a3e 383c 3dcc 4d3c 69e3 6abd 7ac0 be3c
000000b0: 8881 8c3c 659e f2bc 1f87 ebbc 969e 183c
000000c0: 13fd ecbc ad20 9ebb 385a 1c3d 26a7 b6bb
000000d0: 9df1 80bc 1784 02bd 5652 823b 4ddb e43b
000000e0: 3331 2dbc 790c eb3c 06b3 c1bb 3831 553c
000000f0: c221 64bc fe28 39bd 39a4 c2bc 6adf 0dbd
00000100: 7c9b 91bc 2812 d23c afaf c43b 1dc9 44bc
00000110: fbdd 41bc 079e a83c ee8a 293c 52ea fbbc
00000120: 2643 bcbb 2d49 19bb 02ed 203d 6739 7d3b
00000130: 7854 143c 0cbc b0bb e8ce 463d 7865 623b
00000140: 241f a6bc 88f0 96bc 4a9c cd3b 2a4f a6bc
00000150: 035c a6bc c1f7 5f3c 4664 eabb e206 52bc
00000160: ee16 f93b 83d1 203d f6c0 3d3b afa0 80bc
00000170: 6d67 7a3c 7a65 a13c 18ed a2bc 0ced 7abc
00000180: 628f 6abd 7206 92bc 97a0 2ebd 55a1 283c
00000190: 4f18 173b 00ed ad3c 6f51 79bc 680f c83a
000001a0: f31f 8d3b d63e 1bbd 13a9 88bc 423e 89bc
000001b0: 9baf 7d3c d697 1bbd 9147 23bc 338e 8ebc
000001c0: b022 8bbc 4070 083c ec4e ce3c 9b1d fb3b
000001d0: d514 21bc 4c2d d83b c485 f4bb 161e 8ab9
000001e0: 7514 083c 986c e1bc 5583 5e3c 8945 b43c
000001f0: 1ffc 6f3c b214 893c 56ad be3a 5047 c93c
-0.01795578 -0.04143577 -0.03375117 0.02326958 0.026582949 -0.008183812 -0.03141229 -0.020623973
-0.0151009895 -0.008702106 0.013535028 -0.021015007 -0.017840672 -0.022391798 -0.017699605 -0.00011837013
0.003799482 -0.012848523 -0.007726946 0.027347464 0.036008324 0.021946719 -0.02919638 -0.0015853931
0.021637635 -0.008901643 -0.022619633 -0.049242664 -0.024904775 0.009138307 -0.019517232 -0.02168307
-0.012502036 -0.0011457978 -0.015503312 -0.01966808 -0.042356953 0.0085942615 0.055397164 -0.013098795
0.011245349 0.012560901 -0.05734578 0.02328514 0.017151609 -0.029616544 -0.028750954 0.009315154
-0.028929269 -0.0048256726 0.038171977 -0.005574125 -0.01574021 -0.031864252 0.0039771004 0.0069841505
-0.010570812 0.02869247 -0.005911234 0.013012223 -0.013924064 -0.04520511 -0.023759948 -0.034636892
-0.017774336 0.025643423 0.0060023884 -0.01201084 -0.011832709 0.020583166 0.010348065 -0.030751381
-0.0057453094 -0.0023389563 0.03928853 0.003863895 0.009053342 -0.0053935107 0.048537165 0.0034545343
-0.02027852 -0.018425241 0.0062747346 -0.02030142 -0.020307546 0.013669909 -0.007153067 -0.012819024
0.0076016104 0.039262306 0.0028954125 -0.01570162 0.015283448 0.019701708 -0.019888446 -0.015315305
-0.057265647 -0.017825339 -0.04263362 0.010292371 0.002305526 0.021231174 -0.015217169 0.001526338
0.004306787 -0.037901722 -0.016682183 -0.01675332 0.015483762 -0.0379866 -0.009965793 -0.01740179
-0.016984314 0.008327544 0.025184117 0.0076634414 -0.009831627 0.0065971967 -0.007462235 -0.00026343827
0.008305659 -0.027517602 0.013581117 0.022005813 0.014647513 0.016733501 0.0014547508 0.024570137

network_body._body_endoder.seq_layers.2.weight f4 [128, 128]
00000000: dcbe 50bd 0dec b3bd b372 3ebe 92d0 873d
00000010: 6e6a ecba bd6d 0fbe e71b 17be 3084 e53c
00000020: 3be3 c53d 8984 23be 5990 57bc 0a66 d2bd
00000030: 374d f1bc f055 173e 8fbd 09bd f785 d83d
00000040: 1497 b63d 5f6e df3d e6c3 463d 8e61 553e
00000050: 7f78 19be 2d1b b2bd c0f2 e93d deb0 bbbd
00000060: 80a8 ce3c 7e7a d33d 7e68 3c3d 9fbe df3d
00000070: d2f0 9a3c 4341 2c3b 30c4 1d3d 2931 f0bd
00000080: a11d 12bd 9332 76bd 0cf5 b0bc 9963 92bd
00000090: 368f a63c eee1 d2bd f083 143e a05c 633d
000000a0: c755 40bd f48b 14bd bded 853c 4634 da3d
000000b0: e266 95bd 8b7d 03bc 0ae9 a5bd 1bfe 48bc
000000c0: e70d cf3d aa44 0abe 3646 d63c 4f2c a1bc
000000d0: 3eae 90bd c96c 76bc 695d ee3d 0a65 543d
000000e0: 0339 17be 2531 74bd 07f3 eabb 7d38 d6bc
000000f0: 9c83 d5bd b795 7abd 72a9 b43d 7dee 26bc
00000100: f5c9 f7bc 3240 1abe cbb0 66be 7fd4 7bbd
00000110: 9ebb 463d fa72 ee3c 1619 38bd e2bc 4f3d
00000120: 2072 b8bd d5d8 1a3d 7f08 91bd 49a9 21bd
00000130: 10ec b7bd 5051 f33c 9335 5c3d 012f 5c3b
00000140: 743d 9ebd 8a74 723d cf9c 0d3c 13bd 4cbd
00000150: 3861 05bd 38f4 cd3c 7397 aabc c363 3fbe
00000160: bafd 0fbe aaf9 0fbd cb89 9c3d 3750 c4bd
00000170: 3fe0 35bc 2275 953b 5f70 663e d735 53bd
00000180: 0ce0 cfbc 2666 283c 90c4 0dbd b2df c4bd
00000190: 8edc 15bd ca3e 53bd 30b5 333d 1fcf 10bd
000001a0: 2c26 95bd ae49 0f3d f2a9 0cbd cff0 213d
000001b0: aa5c 6e3d df75 ccbc 4b7f 89bd 1d2f 4c3d
000001c0: d38d ac3c 96bc cebb 00f3 f9bd e40e e5bb
000001d0: fefa 12be 385d f23d c9fa 513d 0152 a4bd
000001e0: 1629 6b3d 7a3e 28bc 9da8 c0bc 3c45 b93c
000001f0: 68eb b6bc 0e2c 063e 2d15 0cbe dc87 43bc
00000200: 5da4 713c 79cd 55be e431 f5bc f73a 4b3d
00000210: 3163 8d3a cd8c f1bd c0b1 56bb c87b 17be
00000220: 3436 35be d0cd e6bd 0873 bc3a 61e0 f03d
00000230: 644a 243d 5c41 a2bd 338a 17bd e5fc 1f3d
00000240: 14de 193e 998b 453d 8a79 a3bd 5c1f 953d
00000250: e40c b13b d5d7 9bbd 780f ebbd c2d5 2bbd
00000260: c44c 50bd 57e2 4cbd 9ecb 153d 12d5 c9bd
00000270: 6b9a 2ebe bbf3 72bd b3a8 c0bd 3068 aabe
00000280: d381 f33c d399 23be 8dbf 9b3c 385d 9abd
00000290: b05c 103d ff1d 0f3d fb22 cd3a 39f6 583d
000002a0: 6338 013e a533 0cbd 1a9b 86bd c33a 0f3e
000002b0: 84b6 42ba a5d5 3b3d f058 a33d 5b22 053e
000002c0: a720 1e3d ff0c 3cbd bd48 b13d f7ad 0abe
000002d0: 01f5 323d 574e 35be 938f 8cbc 4a08 14bc
000002e0: 692d 25bd e3ca 8cbd 4cad a03c 1a78 95bd
000002f0: 74bf 8f3d 127c bd3d 91cc b7bc 35a1 3d3d
00000300: f213 86ba d144 0cbe 2d82 bcbc e173 debc
00000310: 2521 16bd 3129 e4bd 2ae9 773c ebfe 593d
00000320: 45a9 a53c 704b c8bd a2d1 bfba e8d2 cf3d
00000330: b715 06bd b7bd fb3d 9181 79ba ea0e 9ebd
00000340: fc82 073c 0ca5 cdbd 055b 323d 1ff1 c53d
00000350: 9314 d43d 6205 053e 56f5 043d 996e 9dbd
00000360: 80a3 46bd 2722 e73b e06d 9dbd 3832 153e
00000370: fedb d9bd 9eea 45be d22c d83c 78ba 14bd
00000380: 1dff 5dbc 58c4 d5bd 8471 e8bd 0ab9 523e
00000390: 951d 973d 51ff 01bd cade cabb 9351 9b3d
000003a0: 2d74 15bd cefd 033e 03e7 293e 2c42 02be
000003b0: a8c4 56bc 1314 44be b402 a53c e985 d53c
000003c0: fa0d 0dbc 6261 91bc b39b df3d 0176 3abe
000003d0: e8f0 d33c b1e0 fc3d 8934 5f3e 40d0 b2bd
000003e0: 0476 e4bd b0e2 313c f47a 973b 04bd 99bd
000003f0: 5339 133d 0d94 dabd f4de 61bd a32f 4dba
-0.050963268 -0.087852575 -0.18598442 0.066315785 -0.001803709 -0.14006706 -0.14756738 0.028017133
0.096624814 -0.15968527 -0.013156974 -0.10273369 -0.029455764 0.14778876 -0.033628043 0.10572427
0.089155346 0.109097235 0.048526667 0.20837995 -0.14987372 -0.086965896 0.11423254 -0.09164594
0.025226831 0.10326098 0.04599809 0.1092503 0.01891366 0.0026284016 0.038517177 -0.117281266
-0.035672788 -0.060106825 -0.021601222 -0.07147903 0.02033196 -0.10296999 0.14503455 0.055508256
-0.046956804 -0.036266282 0.016348714 0.106545016 -0.07295014 -0.008025537 -0.08101089 -0.012267615
0.101100735 -0.13502756 0.026156526 -0.019674448 -0.07064484 -0.015040585 0.1163891 0.05185417
-0.14767842 -0.05961718 -0.0071700844 -0.026149983 -0.10425493 -0.061177935 0.08821382 -0.010188696
-0.030247668 -0.15063551 -0.22528379 -0.06148195 0.04851877 0.02910756 -0.0449458 0.050717242
-0.090061426 0.037804443 -0.070816986 -0.039468084 -0.08980572 0.029701859 0.05376203 0.0033597352
-0.07726565 0.05919317 0.008643343 -0.049985003 -0.03256342 0.025140867 -0.02082417 -0.186904
-0.14061633 -0.035150208 0.076434694 -0.09585612 -0.011100828 0.0045610825 0.22503804 -0.051565018
-0.025375389 0.01027826 -0.034611285 -0.09612979 -0.03658729 -0.051573552 0.043873966 -0.035353776
-0.07282671 0.034982376 -0.03434176 0.039536294 0.05819384 -0.024958549 -0.06713732 0.04984962
0.02106372 -0.0063091023 -0.12204552 -0.0069903005 -0.14353558 0.11834186 0.051264558 -0.080234535
0.05741223 -0.010268802 -0.023517901 0.022616021 -0.022329047 0.13102743 -0.13679953 -0.011934247
0.01474866 -0.20879163 -0.029931016 0.04961678 0.0010787008 -0.11794434 -0.0032759756 -0.14793313
-0.17696458 -0.11269724 0.0014377544 0.11761547 0.040110007 -0.079226226 -0.03699703 0.03905954
0.15026122 0.048228834 -0.07982166 0.07281372 0.005403148 -0.07609526 -0.1147756 -0.041951902
-0.05085446 -0.050020542 0.036571138 -0.09855093 -0.17051093 -0.05931447 -0.09407177 -0.33282614
0.029724991 -0.15976648 0.019012237 -0.07537311 0.035244644 0.034940716 0.0015650684 0.05296919
0.12619166 -0.03422894 -0.06572552 0.1398726 -0.00074277096 0.045858044 0.07975948 0.13001387
0.03860536 -0.04591083 0.08656452 -0.13542925 0.043690685 -0.17705666 -0.017158305 -0.009035179
-0.04032651 -0.06874635 0.019613884 -0.07298298 0.07018939 0.0925218 -0.022436412 0.046296317
-0.0010229333 -0.13698126 -0.023011291 -0.027154865 -0.036652703 -0.11140669 0.015131274 0.053221624
0.020222316 -0.097800136 -0.0014634619 0.10147649 -0.032735553 0.122920446 -0.0009517903 -0.077176884
0.008270975 -0.10041246 0.043543834 0.09665131 0.10355487 0.12990335 0.032460533 -0.076871105
-0.04849577 0.007053632 -0.076869726 0.14569938 -0.10637663 -0.1932778 0.02638856 -0.036310643
-0.013549593 -0.1043784 -0.113497764 0.205784 0.07378689 -0.03173763 -0.0061911093 0.075839184
-0.036487747 0.12889788 0.1659203 -0.12720555 -0.01310841 -0.19148283 0.02014289 0.02606483
-0.008609289 -0.017746631 0.10918369 -0.18209077 0.025871709 0.12347544 0.21797384 -0.08731127
-0.11155322 0.010857269 0.0046228115 -0.07506755 0.03594334 -0.1067277 -0.055144265 -0.0007827228

network_body._body_endoder.seq_layers.2.bias f4 [128]
00000000: ada7 f8bc 7d07 903c 49ab 57bc 7efa 63bc
00000010: 8798 dc3c 9926 8abc 35df 2dbd 51a0 9ab8
00000020: 5c04 4e3c 020b 7abc 4791 9dbb adef a8bb
00000030: 04fa 33bc 2461 e73c 8aae d53c 56a1 e03b
00000040: af1e 08bd 8d42 c0bc 3deb a83c b7eb 34bb
00000050: fa0f 4d3c 14cf d53c 6f98 b03c 47a2 5e3c
00000060: 3f92 923c cfb3 cfbc 7576 40bc fa29 48bc
00000070: 8d7d 2fbc eb64 c63c de41 983c 33ce 09bd
00000080: 7815 e7bb 6fa3 89bb bb00 21bc 5d98 ae3c
00000090: eb80 b1bc b976 963c de40 e8b9 461c 153c
000000a0: 3a46 4dbc 9a53 e2bc 412e cb3a a9f7 e839
000000b0: 8551 6bbb d658 2c3b c6ad 673c 73df 43bc
000000c0: b4b9 7e3b f2e1 2f3c ab74 a8bc b6cb 66bc
000000d0: 4079 313c 7306 39bb 7905 24bc 4f80 0a3d
000000e0: 8d84 8cbb a5c8 943c 0fed 24bb 69a0 82bc
000000f0: 250d 1e3c 8972 773b 14f3 393c 322a 423a
00000100: db1d d4bc dfbc a03c 1b17 7fbc 2880 54bc
00000110: 4a0f c03b df47 8d3b e1e5 10bc 976d 77bc
00000120: 91ed 9cbb 39ad 51ba 3647 ddbc 6d28 dbbb
00000130: b4d2 10bd 2cad 073d 03cc 05bc c2cd 8dbc
00000140: 0bc2 14bd 02f8 af39 8cfa 2d3c 8195 5cbc
00000150: b4b7 3abc ead4 b0ba 52f0 50bc 86db 083d
00000160: f662 2dbc 97f8 053c 33f8 1b3c b7ac 01bc
00000170: fd71 8d3b 75a1 d0ba 79a4 ce3b 392d b7bc
00000180: 6350 a8bb a57b cdba 27fe 82bc db33 8abc
00000190: dde5 e5bc 01eb d9bc 9455 9c3c bea6 24bc
000001a0: 48ff 523d 0c5f 953c 1537 bbbc b8e9 26bc
000001b0: 7437 043b da10 503b 6681 bbbc 1472 eebc
000001c0: e3eb 5d3c 274a 46bc 68d7 3fbc bd8d 8b3b
000001d0: 67c7 3bbc 265b af3c c0a6 f6bb 7a15 92bb
000001e0: 5b17 c03c e8a5 c83b 5cd9 053b 5c40 d6bc
000001f0: 0e67 a23b b388 a2bc f6df 943b f829 22bb
-0.030353392 0.017581696 -0.013163396 -0.013914702 0.0269282 -0.016864108 -0.042449195 -7.3731535e-05
0.012574282 -0.0152614135 -0.004808578 -0.0051555247 -0.010984901 0.028244562 0.026084203 0.0068551702
-0.033232387 -0.023469234 0.020619983 -0.0027606317 0.012516016 0.02609972 0.021557061 0.013588495
0.017892001 -0.025354294 -0.011746992 -0.012217039 -0.010711086 0.024218043 0.018586095 -0.033643913
-0.00705212 -0.004200391 -0.009826834 0.021312887 -0.021667918 0.018367158 -0.00044298818 0.009100979
-0.01252895 -0.027627755 0.0015501456 0.0004443501 -0.0035906744 0.0026298068 0.014140552 -0.01195513
0.0038868012 0.010735022 -0.020563444 -0.014086654 0.010832131 -0.0028232604 -0.01001107 0.03381377
-0.004288262 0.018162081 -0.0025165712 -0.01594563 0.009646689 0.0037757477 0.011349458 0.00074068
-0.025893142 0.01962131 -0.015569474 -0.012970008 0.0058611976 0.004311546 -0.00884387 -0.015101812
-0.0047890623 -0.00079985295 -0.027011495 -0.0066881687 -0.035357192 0.033124134 -0.008166316 -0.017310027
-0.036317866 0.0003356338 0.010618817 -0.013463379 -0.011396337 -0.0013491188 -0.012752609 0.03341248
-0.010582676 0.008176944 0.0095196245 -0.007914714 0.004316567 -0.0015917259 0.0063062278 -0.022360431
-0.005136536 -0.0015677108 -0.01599033 -0.01687043 -0.028063709 -0.026601316 0.019083776 -0.01004952
0.051512986 0.018233798 -0.022853414 -0.010187559 0.0020174654 0.0031748326 -0.02288885 -0.029107131
0.013545009 -0.01210264 -0.011709072 0.00425884 -0.011461115 0.021405768 -0.0075272024 -0.0044581266
0.023448637 0.006123293 0.0020423746 -0.026153736 0.0049561327 -0.019840574 0.0045433 -0.0024744254

action_model._continuous_distribution.log_sigma f4 [1, 4]
00000000: 1322 85bd 3664 01bd aa81 50bd 7382 0fbd
-0.0650064 -0.03158971 -0.050904907 -0.035036515

action_model._continuous_distribution.mu.weight f4 [4, 128]
00000000: bf3a ba3c b721 32bd a686 133c ab1a 623a
00000010: b611 3dbc d9de 1bbc 340d 953c b7ae cebc
00000020: d43f b7bc 23fe 80bc bfda c73c b2f6 a23c
00000030: 8dbf c73c 06ff d83c 94b0 d3bb 2091 06bd
00000040: 48a6 ee3b e1a2 f4bb 317d e3bc 5b05 9dbc
00000050: a04e 473c 825d 13bd 3eee babc 3a51 f8bc
00000060: 847f 8cbc 6d24 b43c d688 90bc ad8a 323d
00000070: d210 6cbc f16e 34bc 084e c6bc 7816 43bc
00000080: 2620 793b 064b d9bb 3cf6 abbb fb73 e7b9
00000090: a9e0 183c 9b92 9ebc 6268 82bb d1cc b93b
000000a0: 4e04 7a3c 051e 9a3c 539d 833b 0668 d13c
000000b0: 0d3e 47ba ad03 b0bc b46f bcbc 471a 5dbc
000000c0: 2199 07b9 3d55 6cba eb3e 713d aee7 843c
000000d0: 43b1 f2bb bff5 7bbc 63c8 0f3c 3b6a 0dbd
000000e0: 3eda 2bbc f4d8 babc 9cc3 3aba 4ad4 853c
000000f0: 510e 0cbd 86b9 30bc 4c2e 9c39 c75d 68b9
00000100: 12db 5dbc 2fad 22bc 4e3c 8a3c 3df0 4d3d
00000110: 8e8c 533c 60ec 20b9 7845 8b3b a2e3 d6bb
00000120: 5b67 eb3b 4d42 da3c 0d01 1cbc 7e88 22bc
00000130: bc95 fe3b 3745 16bd a2f6 c33a 50f6 a1b9
00000140: 462e f83b 89d3 adbb 02b2 17bc 669c a93b
00000150: 3e91 74bc 09c1 07bb 520a 933b 616f 45bc
00000160: 2c70 15bd fe5a 373c c823 a7bc 1e7e fd3b
00000170: 9b75 01bc 7c25 67bc fda8 e9bb 5bc3 db3c
00000180: 2195 b2bc 17e9 263a 1ed5 f03c 425b 8fbc
00000190: 8f49 2c3d 3d7e 56bc 9915 94bc f9fc 67ba
000001a0: 74c3 e4bc fbad a4bc f9ef d03c 9779 603d
000001b0: 5531 bdbc 7b5b c7bc f4cf 163d 561d d83c
000001c0: 476d 6abc 8785 cdbc dc89 613c 3df4 8e39
000001d0: 067d 34bc 456b 6ebd a11b 5bbc 0e1f c13c
000001e0: ae9a f6bc b19e babc 6204 603b e065 aebc
000001f0: 37a3 3cbc fbc8 9fbb 3dad 01bd 072d fd3b
00000200: 2709 bc3c 6295 88bc 63b2 30bc 855d aa3b
00000210: 67ca f83b 0c51 c1bc 30e6 f43b 5591 953a
00000220: b6e8 68bd fe84 99bb efd2 2bbd 2c29 b33c
00000230: 8548 15bd 3f7d 4cbd 6828 92bd f07c 7a3b
00000240: 3b73 ab3a b71c 4a3c f2c6 17bd cb2e 3dbb
00000250: 787c 95bc d9f8 a93a 8351 27bd 4558 9dbc
00000260: 1806 60bc 00fd 253b 4ecc d53b f3e9 913d
00000270: 3ac3 893c ad6f f2bc dda8 9dbb f0f8 5bbc
00000280: 60da aa3c 51a7 123d 4e76 583c a613 21bd
00000290: 02f8 8dbc c3c8 ec3b b84d aebc ea73 c53b
000002a0: 151c dcbc f45b 1fbc a8b8 45bb c6e7 c9bc
000002b0: 569c 35bc 75ac 673d ad6c 1fbb e296 0b3c
000002c0: e572 4a3c 2fd6 0fbd 6e73 153c 8670 6f3c
000002d0: c8df ddbc cb30 0d3c b525 843c 09fb 86bc
000002e0: 451f b53c d062 8c3b 7fb1 7f3b 052d 00bb
000002f0: 785d 923a b394 cebc e983 013b aae6 d8bb
00000300: 19ca ee3c 129f 24bd 806a 203d 29f0 a3bc
00000310: 6f2d 3bbd 0dc4 c53b f1e0 473c 1aa0 72bc
00000320: 8b43 b7bc 2e8e adbc 9653 eb3c 5d68 653c
00000330: d686 2e3c 38c4 96bc ca52 b6bb c8f0 89bc
00000340: a208 11bc f96a 55bd 6f8d 8a3c dee5 2abd
00000350: 65e6 8a3c 221f 80ba 606f e53c 6f73 cbbc
00000360: 6ee6 b03c 740a 12bd 3a4a 22bc 7890 83bc
00000370: 00c1 afbc 8ef3 cabb e208 9a3c 5629 98bc
00000380: 43cd 873d c5fb bfbc 0734 b63c 5783 d3bb
00000390: 0d9b 04bd 8661 783c b828 48bd 88e8 95bc
000003a0: 99b0 87bd 48ff 01bd 8218 833c 6cb8 33bc
000003b0: 2469 943c ce9e 4d3c bcc0 89bc e858 bfbc
000003c0: c273 9a3c b258 f83c e8d7 0f3d 8874 78bb
000003d0: 378f b3ba 6973 72bc 7d3a cf3c 48c7 003d
000003e0: af36 cdbb 5400 e03b 332f ebbc 1c01 963b
000003f0: df25 a9bc 6321 e53c f4d5 473c 0f39 edbc
0.02273309 -0.043489184 0.009004271 0.00086251897 -0.011539867 -0.00951358 0.018194772 -0.025229795
-0.022369303 -0.015746182 0.024396298 0.019893024 0.02438333 0.026488792 -0.0064602587 -0.032853246
0.007283006 -0.0074657057 -0.027769657 -0.019167593 0.012164742 -0.035977848 -0.02281868 -0.03031217
-0.017150648 0.021990025 -0.017643373 0.043589283 -0.014408307 -0.011012779 -0.02420713 -0.011907212
0.0038013547 -0.006631258 -0.0052478593 -0.00044146166 0.009330907 -0.019357016 -0.0039797286 0.005670168
0.015259815 0.018813143 0.0040165572 0.025562298 -0.0007600494 -0.021486128 -0.023002483 -0.013495035
-0.00012931648 -0.0009015387 0.058897894 0.016223755 -0.007406385 -0.015378415 0.008775803 -0.034525137
-0.010489045 -0.02280853 -0.0007124485 0.016336579 -0.03419334 -0.01078642 0.00029789133 -0.00022160179
-0.013541 -0.0099289855 0.016874459 0.050277937 0.012911929 -0.00015346846 0.0042502247 -0.0065578977
0.007183952 0.026642943 -0.009521735 -0.009920238 0.0077693146 -0.036687102 0.0014950822 -0.0003089183
0.0075738756 -0.005304758 -0.009258749 0.005176115 -0.014927207 -0.0020714423 0.0044873143 -0.012050481
-0.03648393 0.011191128 -0.020402804 0.0077359816 -0.0079015745 -0.014108058 -0.0071307407 0.026826551
-0.021799626 0.00063671306 0.029398497 -0.01749957 0.04206234 -0.013091621 -0.018076705 -0.00088496465
-0.02792523 -0.020102492 0.025505053 0.054803457 -0.023094812 -0.024335613 0.036819413 0.026381176
-0.01430828 -0.025088085 0.013765778 0.00027266322 -0.011016136 -0.05820777 -0.013373286 0.023574378
-0.030103054 -0.022780748 0.00341823 -0.021288812 -0.011513523 -0.0048762537 -0.031659354 0.007726315
0.022953583 -0.016672794 -0.010784718 0.0051991367 0.0075924876 -0.023598216 0.0074737296 0.001141111
-0.056862555 -0.0046850434 -0.04194921 0.021870218 -0.036446113 -0.04992413 -0.07136613 0.0038221441
0.0013080606 0.012335948 -0.037054963 -0.0028867002 -0.018247828 0.0012967839 -0.04084922 -0.01920713
-0.013673328 0.0025327802 0.006524599 0.071247004 0.016816724 -0.029594267 -0.00481139 -0.013426051
0.020856082 0.035804097 0.0132118 -0.03932538 -0.017330173 0.007226081 -0.021277294 0.006025781
-0.02686886 -0.009726513 -0.0030169878 -0.024646651 -0.011084637 0.056560952 -0.002432625 0.00851986
0.012356495 -0.03511637 0.009121759 0.01461423 -0.027084246 0.00861759 0.016131261 -0.016477125
0.022109637 0.0042842403 0.0039015708 -0.0019558084 0.0011166772 -0.02521739 0.0019762462 -0.006619294
0.029149102 -0.040190764 0.039164066 -0.020011978 -0.045697626 0.006035334 0.012199626 -0.014808679
-0.022371074 -0.02118596 0.02872638 0.014001933 0.010652265 -0.018404111 -0.0055640684 -0.016838446
-0.008852156 -0.05210397 0.016913144 -0.041723125 0.016955564 -0.0009774903 0.02800721 -0.024835316
0.021594252 -0.0356545 -0.009905392 -0.016060099 -0.021454334 -0.0061935848 0.018803064 -0.018574398
0.066309474 -0.023435483 0.022241605 -0.006454866 -0.03237443 0.01515997 -0.048866957 -0.018299356
-0.0662548 -0.031737596 0.016002897 -0.010969263 0.018116541 0.012550069 -0.016815536 -0.023357823
0.018854026 0.03031573 0.035118014 -0.0037911255 -0.0013699298 -0.014798024 0.025296444 0.03144005
-0.0062626223 0.0068359766 -0.02870903 0.004577769 -0.020647941 0.027970022 0.0121970065 -0.028957872

action_model._continuous_distribution.mu.bias f4 [4]
00000000: 6fe4 fdbc 8a57 99bc 4f62 fabb 2551 c7bc
-0.030992715 -0.0187185 -0.007641114 -0.024330685

exp_avg f4 [128, 4]
00000000: 7080 dbba 2534 90ba 3df8 2b3a eedd b439
00000010: 3114 01ba 349d 2eb9 0f78 42b9 7452 5dba
00000020: 3a8c 8eba 6cdd 85b7 fa9f 65b9 2706 7aba
00000030: be41 773b 4c54 b7ba 7393 a03a 2669 acba
00000040: da75 253b 4cf7 f23a 965f 8d38 81ff 0ebb
00000050: cbea 033a 16c6 e1ba f13c c1b8 5606 7f3a
00000060: 29f8 463b 8698 d6ba ef11 993a c055 b83a
00000070: 1a52 d5ba 20eb 9d39 680a 8bba 0df4 c6ba
00000080: 23ec 78b9 f113 9239 829d 1fba 80dd a7b9
00000090: 0a5f 9339 2e57 193a c5c8 bbb8 9104 6939
000000a0: 9610 333b ec6a 98ba 0676 513a 7976 2b3b
000000b0: 5d1a 4a3b c012 8cb7 0808 503a 7cea c739
000000c0: 1b6c f53a 4a22 003b 21cd aab9 ba14 d4ba
000000d0: 365f 2eba b47e d039 f84f 44ba 805a 1fbb
000000e0: 6aca e2ba 1322 29ba a020 68ba bd2a 2ebb
000000f0: 0e74 2cb9 2da3 923a 5eed 1139 40a4 853a
00000100: 1d29 263b 6aeb 09ba bb03 ac3a 6696 a23a
00000110: 5312 32ba f6e0 29ba b828 1b39 868e 5fb9
00000120: 19da 6b3a 16bf 723a 5ce6 a8b8 fcd7 f739
00000130: d162 3aba c6f8 a2ba 10dd 56ba f4b0 6c38
00000140: 680b c939 4f01 22bb e519 4cba 8b41 cdb9
00000150: 4947 ff3a 59af f53a d97a f6b9 5183 f5ba
00000160: 332e 8b39 3cbf 703a 6873 3838 fe6f 35ba
00000170: 03b0 8dba 5f66 49ba aaa1 d139 3569 0139
00000180: 884a f1ba 0c94 5cba 2443 72b9 620e 5bb8
00000190: 629c 66ba e2f0 e739 c720 6bba 6c5d bfba
000001a0: f134 adba 991b 9fb8 183d a7b8 0a10 243a
000001b0: 1444 a2ba 420c 983a 52ff 07ba a251 6fba
000001c0: 1ecb 86bb 8175 81b9 a1f8 92ba 6a1f 9dba
000001d0: 701e 473a 7454 3bbb 205e bc37 5c7f eb39
000001e0: 32be 93b9 1546 353a 514a 9638 cadb 94ba
000001f0: 223a d53a 3402 cf39 6842 4e39 f1d0 ac3a
00000200: 6477 9aba 71df e839 29b8 44ba dba6 36ba
00000210: 5118 a73a b0ce 013b 41fe 37b9 04b6 7fba
00000220: a046 a1b8 ce8f c5b8 12ce ddb9 b001 97ba
00000230: 8a4a 50b9 7d0b 52b9 ccf0 e339 3077 cab9
00000240: 9cb6 b5b9 a868 8b3a ae60 b9b9 7063 58ba
00000250: 33b1 b53a 4f68 68bb 1d5d f239 263c 9439
00000260: 76a2 f33a e370 9939 c6bd 4f39 8bac 453a
00000270: 127f 50b8 ad51 6539 7eb6 5f39 b55f 06b8
00000280: 514d b939 0e64 8839 3636 07b9 3ff4 5a39
00000290: fcb8 2c3a 774a 4e39 2835 c9b9 ac31 06b9
000002a0: fea6 1b3a 0266 7d3a fafb 2139 fc11 67b9
000002b0: 1dc3 8a39 768c 9437 9f34 4eba 2082 fb38
000002c0: 65bc 103b f08b 2838 dc09 1c3a ed8e c53a
000002d0: d446 803a c736 9dba 8a41 053b dc27 2f3b
000002e0: bcc9 373a 90c6 ba38 4e2a 263a 7c87 043b
000002f0: f2cf 523a 1c5d 32bb 289d 80b9 7019 fab8
00000300: aa71 6f39 0273 5eb9 6c55 a039 3409 a1ba
00000310: 7545 33ba 1c95 783a 483a 27b8 866a a3b9
00000320: b7c7 15ba 2924 493a be2b 3fba 0e20 1abb
00000330: 9e7d c4ba 7fc8 96ba 8ee6 0239 4e13 19ba
00000340: 8c4e 5cba 8768 d4b9 4cc0 b039 12f4 3939
00000350: 8597 883a 5386 5239 e6ec 0eb9 c81f 62b9
00000360: 8207 93b9 100e 31b9 2920 d838 3dd8 dc39
00000370: 168c dcb9 0a43 603a 56ca 88ba 66e8 61ba
00000380: f5b1 21bb d661 243a 5971 a0ba 950a 8aba
00000390: 3962 8f39 82bc 253a 19ed e939 00f3 dc3a
000003a0: 659c 833b 50e6 6838 1303 b63a fcbe 0239
000003b0: 8e6c b93a 581f ae39 2eb4 263a 0e29 9f3a
000003c0: 651f 883a e7ac 8bba 9d5b 0f39 c41c 1eb9
000003d0: 7a33 38bb 7f3e 3839 d344 07ba 6066 3e39
000003e0: 58b6 c4ba 8397 89ba 4ca2 333a a033 1a3a
000003f0: d801 863a d505 f93a e629 42ba f720 99ba
-0.0016746651 -0.0011001868 0.0006560123 0.00034497626 -0.0004923968 -0.00016652496 -0.00018546007 -0.00084427674
-0.0010875531 -1.5957943e-05 -0.00021898738 -0.000953766 0.0037728394 -0.0013986914 0.0012250975 -0.0013153895
0.0025247247 0.0018536835 6.741208e-05 -0.0021819773 0.00050322403 -0.0017225172 -9.2143084e-05 0.0009728422
0.0030360317 -0.001637236 0.0011678318 0.0014063641 -0.0016275079 0.00030120555 -0.001060796 -0.0015178934
-0.00023739091 0.00027862148 -0.0006088839 -0.00032017753 0.00028108835 0.00058494776 -8.954251e-05 0.00022222313
0.0027323118 -0.0011628545 0.0007990304 0.0026163145 0.0030838468 -1.6698032e-05 0.0007935767 0.00038130942
0.0018724235 0.0019551688 -0.0003257776 -0.0016180493 -0.0006651761 0.00039767253 -0.0007488723 -0.0024315417
-0.0017302756 -0.0006451916 -0.0008854959 -0.0026575767 -0.00016446432 0.0011187546 0.00013916704 0.0010196045
0.0025354095 -0.00052612147 0.001312367 0.0012404441 -0.00067928917 -0.000648036 0.00014797121 -0.00021320031
0.00089970377 0.00092600414 -8.053772e-05 0.00047272432 -0.00071100617 -0.0012433759 -0.0008196393 5.6431585e-05
0.00038346206 -0.0024720018 -0.0007785841 -0.0003914948 0.0019476201 0.0018744274 -0.00047012305 -0.0018731152
0.00026546567 0.00091837696 4.39765e-05 -0.000692129 -0.0010809902 -0.0007682796 0.00039984036 0.00012341591
-0.0018409053 -0.00084143947 -0.0002310393 -5.2227064e-05 -0.00087971066 0.00044239225 -0.0008969423 -0.0014599985
-0.001321463 -7.586851e-05 -7.97456e-05 0.00062584935 -0.0012379908 0.0011600333 -0.0005187887 -0.00091292907
-0.004113569 -0.00024692345 -0.0011213013 -0.0011987512 0.0007595783 -0.0028584274 2.2455177e-05 0.00044917583
-0.0002817973 0.0006915045 7.1664e-05 -0.0011357006 0.0016267935 0.00039483758 0.00019670429 0.0013184828
-0.0011784849 0.00044416965 -0.00075042486 -0.00069676124 0.0012748336 0.0019807033 -0.00017546957 -0.00097546005
-7.690233e-05 -9.420478e-05 -0.0004230594 -0.0011520889 -0.00019864194 -0.0002003144 0.00043476222 -0.00038617244
-0.00034659065 0.0010636048 -0.00035357982 -0.00082545634 0.0013862014 -0.0035462563 0.00046227212 0.00028273574
0.0018587846 0.0002926654 0.00019811754 0.00075406645 -4.9709408e-05 0.00021869568 0.00021334921 -3.2037224e-05
0.00035343555 0.00026014488 -0.00012894798 0.00020881089 0.0006588844 0.00019673431 -0.00038377312 -0.0001279774
0.00059376645 0.00096663844 0.00015448025 -0.00022036576 0.00026466782 1.7708382e-05 -0.00078661175 0.0001199285
0.0022084948 4.018465e-05 0.0005952397 0.0015072502 0.0009786733 -0.0011994474 0.0020333254 0.002672664
0.0007010957 8.906156e-05 0.00063387014 0.0020222357 0.00080418505 -0.0027216142 -0.00024531153 -0.00011925667
0.0002283516 -0.00021214414 0.00030581222 -0.0012286068 -0.0006838658 0.0009482668 -3.987018e-05 -0.0003116915
-0.0005713659 0.000767293 -0.000729259 -0.0023517641 -0.001499105 -0.0011503844 0.00012483654 -0.00058393634
-0.00084040384 -0.0004051367 0.00033712608 0.00017733898 0.0010421133 0.000200772 -0.00013630427 -0.00021564879
-0.0002804362 -0.00016885274 0.00010305673 0.0004212278 -0.00042066042 0.00085549115 -0.0010436277 -0.0008617699
-0.002467272 0.0006270682 -0.0012240811 -0.0010531718 0.00027348267 0.00063223403 0.00044617875 0.0016857088
0.0040164464 5.5527606e-05 0.0013886414 0.00012468913 0.0014146732 0.0003321122 0.00063592463 0.0012142973
0.0010385333 -0.0010656387 0.00013671671 -0.0001507877 -0.0028106854 0.00017570889 -0.0005160097 0.0001815795
-0.0015007956 -0.0010497425 0.0006852492 0.00058823265 0.0010223938 0.001899893 -0.0007406756 -0.0011682798

exp_avg_sq f4 [128, 4]
00000000: d44f 0339 b496 f338 2d25 f438 239c 9838
00000010: dd8b 0738 d426 4238 c033 6938 20f9 fc37
00000020: aa2e 9738 aa7f 7f38 3e67 8e38 2711 2c38
00000030: de24 4639 b609 2d39 84bc 6339 12d2 1a39
00000040: dabe 4b39 1e67 3f39 cad8 8439 1816 2f39
00000050: aff1 e938 4daf f138 eb96 4d39 4074 c238
00000060: 81c1 9438 c673 f437 049f 8238 391a 0b38
00000070: 8ca9 e638 f670 b738 1acd ce38 0b95 7638
00000080: 37f1 3138 bad8 d037 7553 3a38 dbda f437
00000090: 476b 7938 c04f 2a38 0179 7738 0bea f637
000000a0: fb07 4c39 705e 6639 b802 8639 2801 1539
000000b0: 0384 c638 750f c538 d4ef b138 c4a3 5338
000000c0: 3440 a538 fd18 7e38 db84 b938 981f 8638
000000d0: ddf4 b238 8d04 be38 837b 0639 3459 bb38
000000e0: d686 c638 b42b 9938 99c2 8738 0899 2038
000000f0: 9d31 1339 fe7d 2039 3f2c 2939 16bd bc38
00000100: 1bea a538 bbf4 ae38 a4ec b638 92eb 8438
00000110: 65f5 be38 e9d6 7038 b294 fc38 ddd2 6b38
00000120: 7827 c937 d4db ed37 1cfa c637 9453 9f37
00000130: 1692 4338 90f6 9638 c67c c638 c66c 8238
00000140: a46b 9938 b290 e738 615b df38 252b 9c38
00000150: 87a6 2d39 c1a9 0339 d581 0239 78f2 a438
00000160: 538c 0838 fe9c 1238 291f 3738 36d3 e937
00000170: 5163 3c38 fcb7 5338 aa1c 9938 a627 3838
00000180: 02ab 3438 82c2 aa38 1889 a238 c837 5638
00000190: a6e7 1039 78e0 d738 10a7 e238 0170 8e38
000001a0: 3245 1c39 12e8 ba38 9e72 ee38 e50c 9138
000001b0: 63b1 0538 f6b4 eb37 18f7 2f38 4ec9 af37
000001c0: 7ab3 8c39 57ee 0b39 c677 4439 febf cd38
000001d0: c32a ca38 a464 1c39 4c86 2839 0d00 de38
000001e0: bcab 8238 e17d 9638 b967 c338 c2d9 7838
000001f0: 72af a838 c8b1 ae38 5333 1939 7cf3 b538
00000200: 36e4 9938 c0db 9038 adf5 1739 58d0 8338
00000210: ff2a 8538 dcb2 8e38 1f89 0c39 dc59 9638
00000220: 5ff2 af38 96d1 b038 0f62 0639 043a 9338
00000230: 1260 8a38 165a aa38 26be 1639 e3d0 7a38
00000240: 69be 6838 b78a 2e38 6067 bc38 661c 2838
00000250: eda6 2639 a6fc 8139 8c2e b039 f014 5c39
00000260: 0791 7e39 d004 1f39 5b63 5839 cc22 ef38
00000270: 8ed7 1639 622b 3339 fbc3 8a39 9f4d 3539
00000280: 20af 3139 7631 9039 58d8 9439 389b 4439
00000290: 2df3 b338 3287 b338 2974 1f39 a569 9538
000002a0: d77c 4538 5a3a 5f38 9cc1 6a38 0008 0138
000002b0: d6ce 2238 1c04 8238 631b d638 579a 9c38
000002c0: 294c 6b39 09a0 5839 d407 8039 f11e 2f39
000002d0: a135 ce38 ee4f 8138 71da c138 e79a 4a38
000002e0: 5048 8c38 1ee3 8938 d6a9 6d38 e847 0138
000002f0: 944a c538 f25e 1f39 a867 4b39 de4e 0939
00000300: 021a d737 9ec6 0838 52d1 4038 f4e1 0d38
00000310: 57a0 ff38 6849 2039 a781 3b39 4dd8 c138
00000320: 43b7 2739 dd96 2039 2d2e 5c39 32b6 0739
00000330: 95ee eb38 71fc aa38 f97c 0e39 7e11 bf38
00000340: 42c1 b538 b100 e738 009e 5139 5fbb ba38
00000350: 3332 2b38 41f7 3038 701e 3c38 d66f 0038
00000360: f966 d238 d857 f338 e672 3a39 4944 cc38
00000370: 3baa a138 c803 7a38 279a f938 cfa3 8a38
00000380: 16e7 f338 aa8d 9438 261a b238 7c6a 9138
00000390: 5aef 0a39 61f3 2d39 400e 1839 74a4 b638
000003a0: 4046 c338 39e8 e038 0d71 2239 cfa0 dc38
000003b0: 942b 7438 4a94 a938 19ee 7738 ff20 5838
000003c0: 5d53 af38 59b4 e638 f058 f938 10f2 d738
000003d0: 83b8 4338 e5f5 0e38 3bbd 3338 5bb2 0938
000003e0: 9410 8f38 d74b ad38 95df c238 ea6c 5938
000003f0: 1838 9b38 bb21 a738 7688 1939 eed0 9738
0.00012522872 0.000116152136 0.00011641751 7.2770075e-05 3.2316766e-05 4.6289366e-05 5.5599725e-05 3.0156749e-05
7.208933e-05 6.0915634e-05 6.790318e-05 4.102397e-05 0.00018896486 0.00016502183 0.00021718635 0.00014764842
0.00019430686 0.00018253594 0.00025338522 0.00016697531 0.00011155323 0.00011524428 0.00019606545 9.272294e-05
7.093233e-05 2.9140978e-05 6.228502e-05 3.3164604e-05 0.00010998835 8.7471606e-05 9.8610486e-05 5.8789778e-05
4.2424737e-05 2.4896453e-05 4.442358e-05 2.918898e-05 5.9466136e-05 4.060543e-05 5.9002083e-05 2.943447e-05
0.00019457929 0.0002196969 0.00025560497 0.00014210178 9.465965e-05 9.396571e-05 8.484689e-05 5.045884e-05
7.879772e-05 6.058159e-05 8.846234e-05 6.395503e-05 8.533311e-05 9.060754e-05 0.00012825248 8.93347e-05
9.466491e-05 7.303749e-05 6.473548e-05 3.8289494e-05 0.00014037495 0.00015305725 0.00016133579 8.9997586e-05
7.911419e-05 8.342551e-05 8.722514e-05 6.338129e-05 9.105614e-05 5.742061e-05 0.00012043993 5.6224748e-05
2.3979446e-05 2.8354967e-05 2.3719906e-05 1.8993196e-05 4.6627676e-05 7.198483e-05 9.4646166e-05 6.219144e-05
7.315658e-05 0.0001104189 0.00010650489 7.446696e-05 0.00016560602 0.00012556372 0.00012446132 7.865293e-05
3.2555614e-05 3.4955323e-05 4.365962e-05 2.7874117e-05 4.491519e-05 5.047767e-05 7.3009476e-05 4.3905944e-05
4.3074608e-05 8.1424616e-05 7.750298e-05 5.1073526e-05 0.00013819206 0.000102938095 0.000108076376 6.79195e-05
0.00014903097 8.9123976e-05 0.000113700735 6.9165406e-05 3.1874875e-05 2.809845e-05 4.1953375e-05 2.0955365e-05
0.000268366 0.00013344862 0.00018736636 9.810923e-05 9.6400756e-05 0.00014914811 0.00016071758 0.000105857944
6.230871e-05 7.176004e-05 9.3176444e-05 5.933061e-05 8.0435435e-05 8.330081e-05 0.00014610337 8.676105e-05
7.338116e-05 6.907387e-05 0.00014492004 6.285374e-05 6.349943e-05 6.804403e-05 0.00013402522 7.169295e-05
8.3897954e-05 8.4313724e-05 0.00012815766 7.0203125e-05 6.598247e-05 8.1230115e-05 0.0001437595 5.9799186e-05
5.5490444e-05 4.161402e-05 8.983794e-05 4.008077e-05 0.00015893178 0.00024793035 0.00033604016 0.00020988635
0.00024277355 0.00015165214 0.00020636378 0.000114028895 0.00014385415 0.00017086932 0.00026467428 0.00017290421
0.00016945275 0.00027502672 0.00028389948 0.0001874984 8.58068e-05 8.560567e-05 0.00015206695 7.1245515e-05
4.7084726e-05 5.3221687e-05 5.597026e-05 3.0763447e-05 3.881644e-05 6.1996485e-05 0.00010209416 7.467408e-05
0.00022439718 0.00020658983 0.00024419895 0.00016700827 9.8328346e-05 6.1660874e-05 9.243645e-05 4.8304817e-05
6.6891895e-05 6.574973e-05 5.6663375e-05 3.0822965e-05 9.407583e-05 0.00015198792 0.00019398204 0.00013094718
2.5642108e-05 3.2609903e-05 4.5971312e-05 3.3827455e-05 0.00012189213 0.00015286135 0.00017882009 9.243246e-05
0.00015994631 0.0001531499 0.00020998037 0.00012942476 0.000112501126 8.1532526e-05 0.00013588731 9.110848e-05
8.6667496e-05 0.00011015067 0.00019990653 8.904072e-05 4.081633e-05 4.2191943e-05 4.485104e-05 3.0621733e-05
0.000100327605 0.00011603505 0.00017781145 9.740197e-05 7.708786e-05 5.9608166e-05 0.00011901958 6.6108645e-05
0.00011630186 7.083577e-05 8.492572e-05 6.933973e-05 0.00013249871 0.00016589231 0.00014501158 8.709068e-05
9.31141e-05 0.00010724407 0.00015491639 0.000105203704 5.821472e-05 8.086169e-05 5.9111135e-05 5.1529143e-05
8.360178e-05 0.00011000847 0.00011889811 0.000102970866 4.6663463e-05 3.4084445e-05 4.285316e-05 3.282945e-05
6.821859e-05 8.263409e-05 9.292286e-05 5.1838266e-05 7.401424e-05 7.969463e-05 0.00014642053 7.239157e-05

exp_avg f4 [128]
00000000: 7e8e 7c39 8bb0 1a39 22a5 d438 b16f 343a
00000010: bde1 ee39 522e 5fb9 8013 fdb5 f01d 6f37
00000020: dc66 13b9 363b 5db8 ce22 8cb8 6e97 3539
00000030: 4bbb 5839 cf67 aa39 4244 8a39 b2d4 68b9
00000040: 7817 6539 bcf8 1739 0931 06b9 6721 91b9
00000050: 4e48 55b9 e240 e239 cd61 f438 b1b5 3d39
00000060: 523b 9d38 1b2d 9938 46de 55b9 90ca e636
00000070: 72ac d9b8 4eb6 95b8 666a 9439 9e79 d3b8
00000080: 3a65 aab8 3e07 3139 72fc 7038 3c6b 1639
00000090: 6c58 2236 d0f9 e9b8 3c3a b9b8 c2c0 3939
000000a0: 7f8a d7b8 70d2 79b8 3313 8e38 0656 9eb9
000000b0: 4e72 08b9 cc37 9038 8884 0fb9 402a f137
000000c0: db0c c639 7168 b238 aad0 d539 231d 9239
000000d0: 1aa5 9fb7 3981 b9b7 5352 4d38 ba57 6fb9
000000e0: 0a0f 65b9 e062 deb8 d31e b539 7486 83b8
000000f0: 8057 b538 75b7 47b9 25ba 8d39 4eec f937
00000100: 176d b4b8 a27f 61b9 1451 e338 57f7 7938
00000110: e03f fdb7 b4c6 6a38 5d36 37b9 78a7 cdb7
00000120: 5809 90b8 0fd8 9638 5ad1 ea39 45dd a1b9
00000130: 21e7 003a db58 4439 941d b838 23e6 0039
00000140: 12c5 c3b8 0042 0c39 54da 0839 6127 db39
00000150: 90bf cd39 6c8f 33b8 341a 79b9 1d36 9e39
00000160: 2de0 e7b8 4608 18b7 28e9 1638 d296 84b8
00000170: 9ddf 5e38 acf7 2939 d167 4fb9 5083 9ab6
00000180: ece6 5db9 8a31 aab9 1c2a c038 006f abb4
00000190: e4cd 0d38 0081 9db4 a2c2 be39 dc6f d1b8
000001a0: a853 3eb9 2090 ecb7 4b70 afb8 d68e cbb8
000001b0: 11d2 5ab9 147c 6537 8e39 223a 8608 1fb8
000001c0: 6709 0d39 4045 bdb8 11c6 17ba da68 9238
000001d0: 4a3b 2639 7d57 0536 10da 0638 c872 b037
000001e0: cc1b 5739 a06c 8a38 f443 76b9 5e7e e9b8
000001f0: db3f 81b8 3d0e b5b8 766e e638 4bdd 26b9
0.00024085675 0.00014752352 0.00010139706 0.00068830984 0.00045563086 -0.00021284193 -1.8855644e-06 1.42524805e-05
-0.0001405733 -5.274565e-05 -6.682203e-05 0.00017317917 0.00020669137 0.0003250227 0.00026372267 -0.0002220448
0.00021847885 0.00014493143 -0.00012797503 -0.00027681442 -0.00020340199 0.0004315442 0.000116530435 0.0001809213
7.497393e-05 7.30401e-05 -0.00020396066 6.8781155e-06 -0.00010379487 -7.1388306e-05 0.00028308033 -0.00010083917
-8.1250866e-05 0.00016882733 5.7455567e-05 0.00014345063 2.419135e-06 -0.00011156837 -8.8323344e-05 0.00017714783
-0.00010277796 -5.956221e-05 6.774664e-05 -0.000302002 -0.00013012553 6.876848e-05 -0.00013686914 2.8749113e-05
0.0003777508 8.507155e-05 0.00040781993 0.00027869 -1.9031158e-05 -2.2113893e-05 4.895248e-05 -0.00022825497
-0.00021844744 -0.00010604202 0.00034545976 -6.2716106e-05 8.647051e-05 -0.00019046462 0.00027032304 2.9793151e-05
-8.6033884e-05 -0.00021505219 0.000108393055 5.959658e-05 -3.0189694e-05 5.5975004e-05 -0.00017472492 -2.4515888e-05
-6.8681955e-05 7.1928014e-05 0.00044787937 -0.00030873172 0.00049172534 0.00018725118 8.779313e-05 0.00012292764
-9.335032e-05 0.00013376027 0.00013051304 0.00041800275 0.00039243372 -4.2810498e-05 -0.00023756252 0.00030176426
-0.00011056694 -9.061832e-06 3.597993e-05 -6.322343e-05 5.313718e-05 0.00016209361 -0.00019779733 -4.6048444e-06
-0.00021162227 -0.00032461836 9.163117e-05 -3.1931995e-07 3.380877e-05 -2.933739e-07 0.00036384637 -9.986732e-05
-0.00018150976 -2.8200506e-05 -8.3655665e-05 -9.7063996e-05 -0.00020868356 1.3678353e-05 0.0006188386 -3.7916492e-05
0.0001345031 -9.025121e-05 -0.0005789707 6.9813526e-05 0.0001585308 1.986947e-06 3.2151176e-05 2.1034284e-05
0.00020514353 6.600586e-05 -0.00023485703 -0.000111338435 -6.163093e-05 -8.633405e-05 0.000109878296 -0.00015913432

exp_avg_sq f4 [128]
00000000: a4b1 8836 a30c ea35 a69c 1536 2a1b b936
00000010: e9d0 e736 a2e6 a336 39fe b735 314e 5936
00000020: 7664 9335 5982 ee35 e9e7 0537 009a 4636
00000030: 5a03 1a36 a05d 4e36 ba11 1636 5d2b b036
00000040: bb87 2836 2f00 5636 7248 6e35 e275 0836
00000050: 67a2 4d36 a1a0 8636 a093 9235 33e8 0a36
00000060: 6337 2236 5eee 5c36 1eff 6536 3d98 8b35
00000070: 561e b036 7209 9036 80d7 2b36 56f3 4536
00000080: 213a 5c36 2542 6936 9a9b 7b36 8ce6 7636
00000090: 14e2 1036 0b0b 0e37 b3c3 de36 0a88 fc36
000000a0: bda6 0637 2f3b 8836 fab5 e735 0804 1636
000000b0: 2a39 e936 f8c7 4136 ddaa db35 38c6 9936
000000c0: 566b a035 bf76 b436 44f8 c336 200e 7136
000000d0: 715e a736 107e c035 dc7a a436 9d6d 1836
000000e0: a4ce 3136 1246 ac36 7046 6d36 1726 1336
000000f0: a0d9 7736 c2eb a835 1e15 4036 8ac2 8436
00000100: 4e9b 9936 9112 ed35 52e0 2f36 3010 f035
00000110: d986 2a36 4090 6a36 fe3d c436 7780 8435
00000120: 171e 9e36 d109 9336 ae76 0b37 52fd 6836
00000130: a764 6936 7a97 1f36 70ed 2736 5345 6536
00000140: 7516 6936 cdfd 2036 40b2 5f36 045d 6d36
00000150: f5b8 9036 6a7b 6c36 dade 3b36 c619 f135
00000160: 1949 cd35 2d58 fd36 1153 1737 4f2e 5336
00000170: 1926 3336 458b f136 9430 4c36 d0f4 9136
00000180: 2e6c eb35 afbf 1c36 b93e 7b35 ce58 6636
00000190: 45ed 9f36 18e2 ec35 bcc5 b636 982a 2236
000001a0: 300c b036 563f 4936 dd74 ce35 f32a dc35
000001b0: 16de b636 82df e835 5e3e 8036 dc75 1f36
000001c0: d19f ce35 1b3c 9536 934d 1b37 73b9 ea36
000001d0: cdf9 8336 1e61 df36 0cb4 9b35 08f7 e536
000001e0: 2cc7 c736 625b e635 f7d2 7b36 3658 4736
000001f0: 9d3b 5436 4a80 9636 7749 9636 5dfc a136
4.073796e-06 1.7438036e-06 2.2293912e-06 5.516592e-06 6.908657e-06 4.8846277e-06 1.3708551e-06 3.2381033e-06
1.0981591e-06 1.7770318e-06 7.981414e-06 2.959394e-06 2.294974e-06 3.075089e-06 2.236206e-06 5.250257e-06
2.5112956e-06 3.1888592e-06 8.876733e-07 2.0334196e-06 3.064191e-06 4.012211e-06 1.0920812e-06 2.069876e-06
2.417212e-06 3.2921303e-06 3.4272157e-06 1.0400614e-06 5.2487403e-06 4.292634e-06 2.5606423e-06 2.9496928e-06
3.281639e-06 3.4758207e-06 3.7492487e-06 3.6791052e-06 2.1589267e-06 8.466431e-06 6.638898e-06 7.5260223e-06
8.025844e-06 4.0600057e-06 1.7263803e-06 2.2354088e-06 6.950596e-06 2.8875638e-06 1.6366499e-06 4.582831e-06
1.1952168e-06 5.378242e-06 5.840355e-06 3.592002e-06 4.9879823e-06 1.4341804e-06 4.9018836e-06 2.2713568e-06
2.6495336e-06 5.1341567e-06 3.5356752e-06 2.1926878e-06 3.6932543e-06 1.258559e-06 2.8622521e-06 3.956554e-06
4.577835e-06 1.766328e-06 2.6207604e-06 1.7886105e-06 2.5410466e-06 3.4952682e-06 5.848472e-06 9.872155e-07
4.71227e-06 4.382084e-06 8.312678e-06 3.4718146e-06 3.4778293e-06 2.3781017e-06 2.5023146e-06 3.4164011e-06
3.4732777e-06 2.398959e-06 3.3333345e-06 3.5369894e-06 4.3130663e-06 3.5238577e-06 2.7994888e-06 1.79634e-06
1.5294964e-06 7.5502526e-06 9.019642e-06 3.1468405e-06 2.6695254e-06 7.198573e-06 3.0426645e-06 4.3498367e-06
1.7540349e-06 2.3357386e-06 9.359606e-07 3.4324362e-06 4.766191e-06 1.7649172e-06 5.447042e-06 2.4164674e-06
5.2466276e-06 2.99882e-06 1.5382208e-06 1.6403777e-06 5.449877e-06 1.7350396e-06 3.8219578e-06 2.376145e-06
1.5394709e-06 4.4475432e-06 9.256782e-06 6.9953326e-06 3.933185e-06 6.657224e-06 1.16008e-06 6.85349e-06
5.953849e-06 1.7162931e-06 3.7524712e-06 2.9704656e-06 3.1625161e-06 4.485283e-06 4.478901e-06 4.827553e-06
