old_ppo/PoI/PoI-3611.pt (torch, 438180 bytes, 36 tensors)

network_body._body_endoder.seq_layers.0.weight f4 [128, 4]
00000000: 8012 50be 38f7 8f3e 31e0 673e 956c c7be
00000010: 8dab 393d 150f 943f 403f c5bd d5af 98bf
00000020: b732 f0be c77b d53d 02f0 a3be 4049 db3e
00000030: 25c5 683e b6a2 d93e 9340 023e a16f fbbe
00000040: 7da6 bebd 66d7 c03e 0851 6f3e 1975 a93e
00000050: fc20 d4be 6437 013f 73fc 4abe d3e7 1fbf
00000060: ea5f a53e d738 b4bd 2da2 1bbe 05cb 82be
00000070: c3aa 943e 4905 13bf 0d4d 263f 001e 6d3e
00000080: 22a9 413d faeb fb3d 5062 a03e 4b23 febd
00000090: 17f8 3fbe be71 2bbc 886d 14bf 5a13 80bf
000000a0: ab59 f9be cde1 ed3e ed15 d43e 5c2a 0b3f
000000b0: 8d11 753f ecca cf3e aa19 663d 8748 143f
000000c0: 8bf6 65bf 68f4 a9be 9f04 c83d e25e 5abf
000000d0: 083a 7dbe c28e e8be 011e 923f 24f8 d1be
000000e0: 787b d0be 0cee 963e 3dc9 0d3e 318e 773e
000000f0: 4464 643e 35aa ba3e dece d5bd 00b8 7d3b
00000100: c827 65be ca4d 5c3e 6968 68be 4d15 cc3b
00000110: 449e f83e b954 8ebd 0fd9 5c3e 6f9f 4c3e
00000120: fc04 14be 33d0 2dbf 00e2 483f e7aa 363f
00000130: 5f6b 87be 83ac 2b3f aec7 74be ac26 fbbe
00000140: 8c57 653e 8751 0cbf d5a8 c4be 2ff3 58be
00000150: 3c93 5d3e b332 593e 9bbd 0a3f 9042 693d
00000160: e8e4 4f3f e926 4bbf cf4e 87be dd61 ea3e
00000170: f2e3 073d 246e 04be db51 b43c e6d4 443e
00000180: 4703 bf3d a9a0 f13d 0f5a c0be 0c6b 24bf
00000190: c81e 113f b2b6 46be 1ac8 8a3f 1003 643b
000001a0: 788c 7a3e 66be 2fbf f8f0 e13d 2cb3 a63e
000001b0: 947e 2ebf 3bbf b8bc dbbd fa3c d426 9dbe
000001c0: 0814 c03e ca7d 9d3e ccc9 bb3e 354f f63d
000001d0: 4e8a 8dbe 944b 843e 01c9 3b3e ff76 a6bb
000001e0: 5de3 0dbf 6c89 cd3c 3331 c2be b6f0 73bf
000001f0: ae95 813f 7a89 08bf 6d6b 5f3d ea5f 303e
00000200: f7c8 19bf fd7f dbbe 2fad b63e ff6f 813f
00000210: 2de6 633e 306c bd3e e5e1 39be 8f2b 1dbf
00000220: 1d93 633f 9b3b 0ebd 34a1 2d3e 7e9e 76bf
00000230: 4f66 e73e 2950 583f dc84 efbe 2609 123f
00000240: db3c e23e 8ffa 64be a176 adbe 0f4f d43e
00000250: f256 97be f6c3 9cbe 1d73 b63d daaa 493e
00000260: 9e8e dfbe fee9 a43e c092 a7be c382 adbe
00000270: 0c36 a73c ad26 a03e 684e 1fbd b9fe eb3e
00000280: 0caa a4be 6418 843c d03b 4bbe 541b b1be
00000290: 5bd5 07be b5e9 46be e718 0ebf dc05 123f
000002a0: 0454 a13e 8b1c 4a3d 0152 433f 64b0 0e3f
000002b0: d556 d2be fab2 ca3d 98d6 52be 50ce 63be
000002c0: bd13 3a3f b205 3a3e 0b2f 493e 6dd2 acbe
000002d0: 6e32 b73e 320f ddbe d6be 883e 4a0c 1fbe
000002e0: 89b5 5d3e 9028 ee3e 17b1 1bbd c126 18bf
000002f0: 68e8 5e3f e6ab 22bf 0635 cf3e 7b5c 8b3f
00000300: 1336 1f3f bb91 fb3e 10f1 05bf 465f 0c3f
00000310: d2ff 2a3f f4ef 94be f506 873f 7ca1 abbe
00000320: db72 cabe 68f1 5f3e 6ac6 debe 24ba d03c
00000330: 36e9 fabe 0a9c fabd aef4 ca3d 2323 133f
00000340: eb4a 34bf c8c5 46bf 7a7e 273e 4420 013f
00000350: 0a79 b03f 837b e3be 9f10 2e3e 5b84 acbe
00000360: 2346 023f 7e37 21bf 7573 ae3e ed47 b63f
00000370: b153 83bf 4e69 dc3d c032 bf3e 7073 9bbf
00000380: 0f57 8d3e 4714 1dbd 66a4 0c3f ce15 4c3f
00000390: 4016 283f 4e2c a1be e8e9 6a3e 42ac 4abc
000003a0: efcf 70be fae0 63be abc8 123e a5bd 84be
000003b0: a5d3 e6bd b0d9 973e 95f3 983e b2d9 8d3e
000003c0: 7eb4 873d 51a3 de3b e14a 053e 59f3 b3be
000003d0: 49b5 d33e 4f29 3d3f f2d1 f9be afde 2c3f
000003e0: 025f e1be 6846 9fbe d60f 07bf eb9f 00bf
000003f0: c7cc 6c3d a92e 413e fc6d 94bd 15c1 053f
-0.20319557 0.281183 0.22644116 -0.3895003 0.04532962 1.1567103 -0.096312046 -1.192866
-0.46913692 0.10423999 -0.3201905 0.42829323 0.22731455 0.4250695 0.12719946 -0.49108604
-0.09309099 0.37664336 0.23370755 0.3309715 -0.41431415 0.50475144 -0.19822864 -0.6246311
0.3229974 -0.08799904 -0.15198584 -0.25545517 0.2903653 -0.5742994 0.6496132 0.23155975
0.04728044 0.12300868 0.31325006 -0.12409075 -0.18746983 -0.01046413 -0.5797963 -1.0005906
-0.48701224 0.46461335 0.41422978 0.5436151 0.95729905 0.40584505 0.05617682 0.5792317
-0.8982932 -0.3319428 0.097665064 -0.8530103 -0.24729168 -0.45421416 1.1415406 -0.4100963
-0.407192 0.2947849 0.13846298 0.24175335 0.22303873 0.36457983 -0.104398474 0.003871441
-0.22378457 0.21514049 -0.2269608 0.006228125 0.48558247 -0.06949753 0.21567176 0.19982694
-0.14455026 -0.6789581 0.7846985 0.71354526 -0.26449105 0.67060107 -0.23904297 -0.49052942
0.22396678 -0.548119 -0.3841006 -0.21186517 0.21638197 0.21210746 0.54195565 0.056948245
0.8120866 -0.7935625 -0.26427314 0.4577779 0.03317637 -0.1293264 0.022011688 0.1922184
0.09326797 0.117982216 -0.3756871 -0.6422584 0.56687593 -0.1940563 1.0842316 0.0034791864
0.24467647 -0.686499 0.11032289 0.32558572 -0.6816189 -0.022552123 0.030608108 -0.30693686
0.37515283 0.30760032 0.36677396 0.12026826 -0.2764458 0.25838912 0.18338396 -0.0050801034
-0.55425054 0.025089942 -0.3792816 -0.9528917 1.0123804 -0.5333477 0.05454581 0.17224088
-0.60072273 -0.42871085 0.35679004 1.0112303 0.22255774 0.36996603 -0.18152578 -0.6139459
0.8889635 -0.034724813 0.16956025 -0.9633559 0.45195243 0.84497315 -0.4678105 0.5704521
0.44187054 -0.22361206 -0.3387957 0.41466567 -0.29558522 -0.30618256 0.08908675 0.19694081
-0.43663496 0.32209772 -0.3272915 -0.33888826 0.020411514 0.31279507 -0.038893133 0.46092775
-0.32160985 0.016124912 -0.19847035 -0.34591162 -0.13264982 -0.1942509 -0.5550675 0.5704019
0.3150941 0.049343627 0.76297003 0.557379 -0.41081873 0.09897418 -0.20589674 -0.2224667
0.7268637 0.18166235 0.19646852 -0.33754292 0.35780662 -0.43175656 0.26708096 -0.15532032
0.21651281 0.46515322 -0.038010683 -0.59434134 0.87073374 -0.63543546 0.4047014 1.0887598
0.62191886 0.4913462 -0.5232096 0.54832876 0.667966 -0.2908932 1.0548998 -0.3352164
-0.39540753 0.21869433 -0.43510753 0.025479384 -0.4900605 -0.12236793 0.0990995 0.5747549
-0.70426816 -0.7764554 0.1635684 0.5043986 1.3786938 -0.4443017 0.16998528 -0.3369473
0.5088827 -0.629753 0.34072462 1.42407 -1.0259916 0.10762273 0.37343407 -1.2144604
0.27605483 -0.038349416 0.5493835 0.7972077 0.6565895 -0.31479114 0.2294079 -0.012370171
-0.2351682 -0.2225379 0.14334361 -0.25925937 -0.11270837 0.2965827 0.29873338 0.2770515
0.06626223 0.006794371 0.13016845 -0.35146597 0.41349247 0.73891157 -0.48792988 0.6752729
-0.44017798 -0.31108403 -0.5275854 -0.50244015 0.05781248 0.18865456 -0.0724754 0.52247745

network_body._body_endoder.seq_layers.0.bias f4 [128]
00000000: caa7 293b 9ad5 363a 3419 813c bb5e 82bb
00000010: 8f98 c83b 4416 32bc dff1 44bc 1253 e5bb
00000020: df40 6e3b 7bc8 5abb e680 02bb 8967 443c
00000030: f05f 00bc 2f65 01bb 1598 8cbb b8d4 1dbb
00000040: 3d4d 38bb 84c7 1d3c 12b5 a5bc 53b1 bfba
00000050: 84fa 14b8 6b42 8b3c 92a1 02bc b07b d6bb
00000060: 6a7f e8ba 968b d6bb b7a2 65bb 6a69 7f3b
00000070: b395 a6ba e381 14bc 361c 9d39 3cf0 b23a
00000080: 5c44 dc3a ea8c ce3b b96b d0bb 4a4c 853b
00000090: 737c db3b a0e4 78bc dee6 8c3a 98a0 2bbc
000000a0: 4dc2 89bb eaa9 91b9 9445 0c3b 1968 463c
000000b0: 23eb 673c bc6f 5bbc b4ac 2abc efa5 e93a
000000c0: 9fa0 bcbb 93dc 60bc dd3b c7bb 0cb1 dfbb
000000d0: caa2 99bb 238a 46ba ef55 3fbc 1bba c9bb
000000e0: 1f9b 0d3b 5ed3 2abb d0f3 933b bb74 1bbb
000000f0: 24f2 493b 96cd eaba 3910 3abc 8d75 8bba
00000100: 7449 16bb fbde 0a3b 7ca8 c93b 281c 11bb
00000110: e314 d8ba 5b23 3ebb 6437 a939 5c38 79bc
00000120: 64c1 593a 4ed7 553b 81e2 2cbc 3e37 17bc
00000130: 26a8 a1bb 4737 793b 67e9 9a3b 9b06 113c
00000140: ab35 993b 0a73 1dbc d98e bf3b f045 7c3b
00000150: 0493 8cbb e30a 063c fa28 893b 8f5c 0fbc
00000160: d073 653b 03b5 71bb 03e8 843b b069 16bc
00000170: a82a 45bb dc89 88bc 49df dcbb 563e 2abb
00000180: e7c1 6b3b aa0a 79bc 380f 1dbb e0d0 aebb
00000190: 3f43 a6bb 6027 d5ba aaff 1bbc 810d 14bc
000001a0: e3d4 02bc b151 4fbc a7db 393a 1a27 5c39
000001b0: be96 92ba 8b6a 27bc 447b c4ba e8a7 bf3b
000001c0: 8650 8bbb d2f4 34bc 8f1c 20bb c799 36bc
000001d0: ce8b 88bb 3c6e c23b 7166 f9bb 8158 393c
000001e0: 035f 83bb 2eff 15bc 1061 353a 125f 4fbb
000001f0: 1012 3d3b b7d3 2738 26c3 583c 3bb7 0ebb
0.0025887364 0.0006974578 0.015759088 -0.003978578 0.006121702 -0.010869566 -0.012020557 -0.006998428
0.0036354584 -0.0033383656 -0.0019913255 0.011987575 -0.007835373 -0.0019744148 -0.0042905905 -0.002408309
-0.002812221 0.009630088 -0.020227943 -0.001462499 -3.551926e-05 0.016999444 -0.007973092 -0.0065455064
-0.0017738168 -0.0065474017 -0.0035039613 0.0038972744 -0.0012709409 -0.0090641705 0.00029966392 0.0013651918
0.0016805041 0.0063034194 -0.006360498 0.0040679323 0.006698185 -0.015191227 0.0010749956 -0.0104753
-0.0042040707 -0.0002778315 0.0021403776 0.01210978 0.014155182 -0.013393339 -0.010417152 0.0017825941
-0.005756452 -0.013724464 -0.0060801343 -0.0068265256 -0.0046885954 -0.00075736846 -0.011678203 -0.0061562187
0.0021607352 -0.0026065926 0.0045151487 -0.00237207 0.0030814493 -0.0017914053 -0.011356407 -0.0010639891
-0.0022931965 0.0021190036 0.006154118 -0.0022142027 -0.0016485717 -0.0029012773 0.0003227546 -0.015211191
0.00083067105 0.0032629552 -0.01055205 -0.009229479 -0.004933375 0.0038027333 0.0047275308 0.0088516725
0.004675587 -0.009609947 0.005845886 0.0038493834 -0.0042899866 0.0081813065 0.004185793 -0.008750095
0.0035011657 -0.0036881573 0.0040559783 -0.009180471 -0.003008524 -0.016667299 -0.006740485 -0.0025977097
0.003597373 -0.015200296 -0.002396537 -0.0053349584 -0.0050739343 -0.0016262345 -0.009521404 -0.009036423
-0.007985326 -0.012653754 0.00070899207 0.00020995401 -0.0011183841 -0.010218273 -0.0014990349 0.0058488734
-0.0042515425 -0.011044698 -0.0024431085 -0.011145062 -0.0041670566 0.005933551 -0.007611089 0.011312605
-0.004009129 -0.009155078 0.00069190655 -0.003164236 0.0028849877 4.0013078e-05 0.013230121 -0.0021776694

network_body._body_endoder.seq_layers.2.weight f4 [128, 128]
00000000: ee99 843d d14d 21bd ee2a ae3c f450 45bd
00000010: c1a2 953e f8a4 3cbe fc06 bc3d 0ab2 723c
00000020: b053 dabc bb75 193d fa15 a7bd fd49 7abc
00000030: 60e6 94bd 3314 4a3d 4077 f039 2081 31be
00000040: 9fd2 b0bd 4457 a63d deac c3b9 c516 7bbd
00000050: 20fb aabd 4b28 09bd 0bbc 06bd 7c8d 0f3e
00000060: 0735 e7bc 430a d73d c89e 36be ac6d 3abd
00000070: 1765 43bd 29db 44bd 4016 ec3c d1da e23c
00000080: 1ba1 b33d 4adc 8d3d 4698 4b3b 3f89 26be
00000090: 55e5 f53d 7039 cbbd 7a25 14bd 568f 1bbe
000000a0: 1f68 1a3d daae 573c 74d3 133d 2ea7 cb3d
000000b0: b284 5abd bfa7 293c 3ca5 31bd f7ed 363c
000000c0: ad26 073e 1ca3 67bd d8e2 dcbc d7ef 3fbc
000000d0: 55b0 1abd fcac 863d f14f 43bd 8bbf 2cbe
000000e0: a04b 47bd 25e8 1ebe 66d2 21bc af16 513d
000000f0: d21f f83d de53 d83d 1f7c b53d 742d 07bd
00000100: 78ad 9d3c 6ff1 a53c 3393 64bd 0069 a93d
00000110: 0d96 e53d a405 97bd e975 3fbd f9a2 e3bd
00000120: 7cb1 8c3d f3c2 b7bd 6211 133e 43ac 173d
00000130: 9a8b f33d e3fd f03c 35c6 a4bd f409 7e3d
00000140: 5452 ffbc 5712 dd3d ba64 273c d3e5 893c
00000150: 70fe b6bc d72c 53bc 8166 dcbd 4bee 52bd
00000160: 8b2f 2a3d b404 3dbd b153 0cbe 507f 8abb
00000170: 9f8a 143d ed4e 093d 1517 40be 4637 bf3c
00000180: 51a4 d3bd 8c99 17bd 9afc 983b bf41 0f3d
00000190: 6842 2dbd 0e8d 6c3c 21c8 2d3d b80e 373d
000001a0: 1897 cebd cd9c 0cbc d4e8 c6bc d549 ae3c
000001b0: 1000 133e 30e9 26bd c084 eabd 17b6 d53d
000001c0: 1f52 12be b9e5 afbb 01c6 e33d 34c5 a0bd
000001d0: 29f4 623d c549 09bd 3c84 d03d a1cf 1d3c
000001e0: a499 783d 12b7 00bd 17f9 b9bd 0fba b6bd
000001f0: d8eb 623c 3888 9abc fe6b d0bd 3268 9e3d
00000200: e18a ecbc a3ab cd3b a36e 323c 62f4 6a3e
00000210: d364 4cbe 150c 693c 598c 10bd f344 ba3d
00000220: 2f9b aebc c5d7 cb3d 6d55 1f3a cc1e da3d
00000230: 84e6 bd3d 9965 fcbd 3d77 93bd d384 9cbd
00000240: b611 68bd 3a8f 7bbc dac5 04be aeb3 f6bc
00000250: 2f83 bb3d f2f4 11be b563 623d a44f fdbd
00000260: dbaf a0bd 3610 8b3d 6e77 4fbd f40b dd3b
00000270: 24a7 26bd d797 aebd 203f 093d 6519 5a3d
00000280: 986f e03c d67f 023d 045c 89bc 3ba5 62bd
00000290: f914 803d ba28 543d 72ca 453d 3303 f33c
000002a0: 9b5c 7f3d 65b1 713e 99b7 323b d9fb f83d
000002b0: 8ed9 7c3d 4d6d c6bd eda3 6fbc 53cf be3d
000002c0: e442 063d eea2 3ebe 17ed 843d 8d9a d63d
000002d0: 2c4a 633d f02f 843d a647 2a3e af04 31bc
000002e0: bba0 963d 0931 b13d b7bb fabd 5e51 cebd
000002f0: 1b7f dd3c 35ae b5bd b440 e23d 6be3 d6bb
00000300: 4307 333e bbb1 95bd 07ab 0abe 11e8 b43d
00000310: 96c0 223e 630d acbd ba85 83bd 7285 c5bc
00000320: 9324 b83c 04d8 66bd 8e86 073d b0b8 603d
00000330: dff9 b0bd 853f 1dbb 6e4e 8abd eaa5 303d
00000340: 8baf 043c 00de 093e cd1d 113e 4eda 1d3e
00000350: 6677 4bbd 2d1e 20bb ec1b 203e c994 1cbd
00000360: de8d 963d 5bc6 fa3d 71ff b6bd 6f26 04bd
00000370: 0666 9ebc 8470 d33d e9ee 043b 97ff 51bd
00000380: e711 70bd be80 73bd 92d0 4b3d 4121 f7bd
00000390: ae6e 69bd 346e a83d 53e3 bcbc 54e9 5cbd
000003a0: f8fe e5bd 30f8 103d 7314 8ebd 6971 7e3d
000003b0: 0533 a73d 82e4 aa3c c0ba f9bc 464c 8f3d
000003c0: cca4 943d fd75 a5bc 21f8 79bd 52d4 fabc
000003d0: a037 983d a152 d53c add8 cabd a877 033d
000003e0: 811e 1e3c bf91 40bc 0b77 903a b597 5ebd
000003f0: 0d03 1c3c d8b8 01bd 0115 d6bd f890 c7bd
0.06474672 -0.039380852 0.021260705 -0.048172906 0.29225734 -0.18422306 0.0918102 0.014812956
-0.026651233 0.037465792 -0.081584886 -0.015276429 -0.07270503 0.04933567 0.00045865215 -0.17334414
-0.08633923 0.08122113 -0.00037322094 -0.06130101 -0.083486795 -0.033485692 -0.032894175 0.14018816
-0.028223528 0.10500004 -0.17834008 -0.045514748 -0.04770383 -0.04806057 0.028819203 0.02769223
0.08770963 0.069267824 0.0031066104 -0.16263293 0.12006632 -0.09923065 -0.036168553 -0.15191397
0.037696954 0.013164246 0.03609033 0.09943996 -0.053349204 0.010354935 -0.04337047 0.011165134
0.13198347 -0.056552038 -0.026963636 -0.011714897 -0.03776582 0.06575963 -0.04768366 -0.16869943
-0.048656106 -0.15518244 -0.009876823 0.051047023 0.12115444 0.105628714 0.08861565 -0.03300233
0.019247755 0.020256726 -0.055804443 0.0827198 0.112102605 -0.07374123 -0.046743307 -0.11115069
0.0686979 -0.089727305 0.143621 0.037029516 0.11891861 0.029417938 -0.080456175 0.06202121
-0.031167187 0.10794514 0.010216886 0.016833222 -0.022338122 -0.012889109 -0.107617386 -0.051496785
0.041549247 -0.046147063 -0.137038 -0.0042266026 0.036265012 0.033522535 -0.18758805 0.023341786
-0.10334075 -0.037011668 0.0046687843 0.03497481 -0.042299658 0.014437927 0.042427186 0.04469177
-0.100874126 -0.008582306 -0.024280943 0.02127544 0.14355493 -0.04074973 -0.11451101 0.104351215
-0.14289139 -0.0053679612 0.111217506 -0.078501135 0.05540863 -0.033517618 0.10181472 0.009632022
0.060693398 -0.03142459 -0.09080713 -0.089222066 0.013850175 -0.018863782 -0.10176848 0.077347174
-0.028874816 0.006276564 0.010890636 0.22944787 -0.19960336 0.014224072 -0.035290096 0.09095182
-0.021314232 0.09953264 0.0006078098 0.10650405 0.09272483 -0.12324066 -0.07200477 -0.07642522
-0.056657515 -0.015353972 -0.129661 -0.030114975 0.09155881 -0.14253595 0.05527087 -0.12368706
-0.07846042 0.06790201 -0.050651006 0.0067458097 -0.04068674 -0.08525055 0.033507466 0.053246874
0.027396962 0.031860195 -0.01676751 -0.055333357 0.06254 0.051796652 0.04828877 0.029664611
0.062344175 0.23602827 0.0027270077 0.12157411 0.061730914 -0.09688816 -0.014626485 0.09316888
0.032778636 -0.1861684 0.06490534 0.10478697 0.055490658 0.06454456 0.16628894 -0.010804339
0.07354876 0.08651931 -0.12242835 -0.10074113 0.027038148 -0.08871118 0.110474974 -0.006557872
0.17483239 -0.0730929 -0.13541804 0.08833326 0.15893778 -0.08400991 -0.06421991 -0.024111483
0.022478377 -0.056358352 0.033087306 0.05486363 -0.08641409 -0.002399416 -0.067532405 0.043126978
0.008098493 0.13463593 0.14171524 0.15415308 -0.049674414 -0.0024432049 0.15635651 -0.03822783
0.07351278 0.122448646 -0.0893544 -0.032263216 -0.019335758 0.10324195 0.0020284003 -0.05126914
-0.058610823 -0.05944895 0.049759455 -0.120668896 -0.056990318 0.082241446 -0.023057615 -0.053933457
-0.11230272 0.03539294 -0.06937494 0.062119875 0.08164028 0.020860914 -0.030484557 0.0699697
0.07257995 -0.020197863 -0.06102765 -0.03061882 0.074324846 0.026040377 -0.09904609 0.032096535
0.009650827 -0.011753499 0.0011021806 -0.054343898 0.009522212 -0.03167042 -0.10453225 -0.097444475

network_body._body_endoder.seq_layers.2.bias f4 [128]
00000000: 0da3 693c 7e3c 17bc 0a78 6c3a 5edd 80bb
00000010: 01a7 06bc f372 a63b e2a3 9039 35e6 723b
00000020: c09d 92bb 9a86 193b e71c b8b9 9856 8c3b
00000030: ca02 b1ba c84c b339 0a76 0339 dde9 e9bb
00000040: f911 a43b 4418 86bb 29a0 1bbc 1c5c f23a
00000050: 78df 143c 23e2 e3bb 07c0 253c bd98 13bb
00000060: d14d beba 2484 28bb e273 39bc 4648 d53b
00000070: 0595 993b ca41 22ba 2f9b a03b 819f 23bc
00000080: 87d0 8639 7f37 fb3b 2d12 20bc 1aba d9ba
00000090: 333a 15bc 78e9 0d3c d6ab 41bb 42b4 efbb
000000a0: b24f e83a 4be9 ff3a 8195 aabb c281 0dbc
000000b0: c7ed ca3a 8cf8 ffbb 13e4 193c 872c e3bb
000000c0: bb3d 593b 2b41 0dbb 05f3 17bc 42ff a6ba
000000d0: c13e a8bb 258b 9b3a d6c9 97bb a619 22bc
000000e0: 9b0b cd3b f7d1 3dbc a6fa 5a3c c98e 28bb
000000f0: 4b70 d3bb e757 d83a 2f4e c8ba d7d1 15bc
00000100: bb67 45ba 3042 2dbc f2f0 c9bb 02b4 1e3b
00000110: 8bd4 08bc 6caa c53b bd1b 1cbb a890 593b
00000120: b2fd 73bb d1da 403c 922a 45bb 344a f23b
00000130: c4e0 e1bb 3a0e 1f3b 95e6 c0bb bbea b4bb
00000140: c9ff 04bb 30fb 4bbb c951 5eb8 0dbd 203c
00000150: d5eb cfbb fde4 b9bb 6fc0 8e3b 02e4 b8bb
00000160: ecf8 1bbc d8fa 7e3c a1b4 f53b 4454 89bb
00000170: e404 9bbb cbf3 e2bb 7454 efbb 3502 dcbb
00000180: 872c 14bc bf3e e8bb 9a2b 26bb 63ea ffba
00000190: 6099 07bb 5229 35bb 03b3 3f3b d1b8 b5bb
000001a0: 2802 b6bb eebb ecbb 1822 5fbc 553e 0fbc
000001b0: 6160 cd3b aa64 693b 51e2 38ba 918b 00bb
000001c0: 200a 99ba cb7b 11ba 9297 4a3c b51c efba
000001d0: ef08 94bb 8547 a0bb c98e 203a 10c1 4f3c
000001e0: 08e2 3c3b 4ada 813a 00d3 0f3b b740 65ba
000001f0: 50be 4d3b d488 a8bb 69bc 843b ceab a03b
0.014260066 -0.009230731 0.0009020573 -0.003932639 -0.008218528 0.005079621 0.00027587923 0.0037063484
-0.0044743717 0.0023426176 -0.0003511675 0.0042827837 -0.001350486 0.00034198747 0.00012537107 -0.0071384744
0.0050070253 -0.004092248 -0.009498634 0.0018490585 0.009086482 -0.006954448 0.010116584 -0.002252146
-0.0014519041 -0.0025713528 -0.0113191325 0.00650886 0.004686954 -0.0006189613 0.004901312 -0.009986759
0.00025713837 0.0076665278 -0.009769958 -0.0016611249 -0.009108114 0.00866162 -0.0029551885 -0.0073151896
0.0017723946 0.0019524483 -0.0052058105 -0.008636894 0.001548224 -0.0078116115 0.009392756 -0.0069327983
0.0033148366 -0.0021553736 -0.009274249 -0.0012740868 -0.005134434 0.001186703 -0.004632215 -0.00989381
0.006257487 -0.011585704 0.013365423 -0.0025719872 -0.0064525953 0.0016505689 -0.001528209 -0.009144268
-0.00075304107 -0.010574862 -0.006162756 0.002421618 -0.008351455 0.0060322788 -0.0023820244 0.0033197794
-0.0037230072 0.01177092 -0.0030085188 0.0073940996 -0.006893249 0.0024269954 -0.0058868625 -0.005521146
-0.0020294061 -0.0031125061 -5.3005093e-05 0.009810698 -0.006345252 -0.0056730495 0.004356436 -0.005642415
-0.009519797 0.0155627355 0.0074983393 -0.0041909534 -0.0047308076 -0.006926035 -0.007303769 -0.0067141303
-0.009043819 -0.007087558 -0.0025355578 -0.0019524809 -0.0020690784 -0.0027643037 0.0029250986 -0.0055457135
-0.0055544563 -0.0072245514 -0.013618968 -0.008742888 0.006267593 0.003561298 -0.0007052767 -0.0019614438
-0.0011675991 -0.00055497576 0.012365239 -0.0018242808 -0.0045176665 -0.0048913383 0.0006124792 0.012680307
0.0028821249 0.0009906974 0.0021945834 -0.00087453 0.0031393953 -0.0051432643 0.0040507806 0.004903293

action_model._continuous_distribution.log_sigma f4 [1, 4]
00000000: 088e d7bb e616 56bc 7c9f d33b f2a0 813b
-0.0065782107 -0.013066983 0.006458221 0.0039559538

action_model._continuous_distribution.mu.weight f4 [4, 128]
00000000: e58d 1e3d f702 933b 734b 003c a551 61bc
00000010: 35cd 373b fe69 c7bc 91db 593c fa65 bfbb
00000020: decf 523c 1d0a 6bbc 65ef bf39 e805 203c
00000030: 732f 7c3b 8fdb 68bb e7e8 cdbb 3706 e4bb
00000040: dabb 3e3c c863 80bc a7c6 2c3c 51c2 ef3b
00000050: 3e9e 0c3c 12e3 81bc fc1a ebbb 7d60 ef3b
00000060: 5f4e 0f3b 9eb0 55bc 7f10 6f3c 5a8e b6ba
00000070: 8fef 52bc 331e 053c 805a 13bd 773f a0bc
00000080: 9f03 393c 13f9 e0bc a147 833c facc 95bc
00000090: 8b72 d9bc 2a4c 603c 6c0c a6bb 665d 213c
000000a0: 5353 a83b aa9e 403c 8717 613b 6bcc 2bbd
000000b0: 94dc bf3c f7f0 7dbc b80e afbc 0a0b 1b39
000000c0: 32f2 79bc ab09 b6bc f641 0b3b be7e d93c
000000d0: a491 313c 6840 04bc ed8d 28bc 2e83 0e3c
000000e0: e49f 9a3b 2000 8e3c c202 8ebb feb6 703c
000000f0: be32 f43b 9f10 e3bc a2a3 dd3b 5ba5 76bb
00000100: 3f24 563c 6513 37bc 1c77 12bc e1c0 82bc
00000110: 6983 b1bb a335 96bb a7d9 f8bb 1a6d c03c
00000120: 493a 6bbc 3e22 85bc dad8 18bb 8772 a0bb
00000130: e9d7 c33c be64 733b c712 2a3c 0d13 9fbc
00000140: cd36 483c bacd eb3c 5232 473c abab 00bd
00000150: c0cb 313d 4f2e ccb9 7939 f1bb e05d 01bc
00000160: 69cd 77bc 6d45 ec3c 2389 303b e9d4 36bc
00000170: 908a a33c d2e4 e03b 3f71 063b fe94 1b3c
00000180: 3047 f5bb 1faf 053c b1ef 133d c383 233c
00000190: 7359 d6bc 59ac 0d3d 16c5 893c 6d6a 7fbc
000001a0: 5209 4e3a 0d5b b03c e38d f83b 8749 acbc
000001b0: 353d c4ba 14df 4fbd 4a4c 17bc 4209 0fbc
000001c0: 9af1 5dbc d39d f6bb 3bfd ea3b 7364 94ba
000001d0: 78cb 88bb 005b 8a3c a1b5 223b 02b2 70ba
000001e0: ac74 143d 766e fbbc 6a2b 85bb fc18 d23c
000001f0: 8ebf 97bc 5e74 8b3c b9a1 af3c 45e9 413b
00000200: f999 2e3c a1cf de3b ab68 9f3c 5ac0 173b
00000210: ab4d 8e3c 4876 95bc 526a 053c f659 d53c
00000220: a378 b43c 94ad 04bd bcde 9cbc c0d6 5ebc
00000230: 6238 e03c 6b3d f23c 55dd 90bc 2de5 62bc
00000240: a443 d2bb a87d 69bb 8259 deb8 dce9 a2bc
00000250: 7dd4 35bc c96e ff3b 21d4 363c 9725 01bc
00000260: 5091 e2bc eef6 0cbb eb0f 093c 06f9 ccba
00000270: 5f5c 6e3a ab62 95bc 5449 a5ba d003 bebb
00000280: c897 35bc 6b74 cfbc e9c7 0c3c 2c6c 113b
00000290: 6496 153d c331 d1bc 8908 8fbc 90f1 bb3c
000002a0: 0d48 c53c 1f5a 8cbb 02a7 443c 7e5b 9fbc
000002b0: edb4 cdbb ee2b 30bc f4a5 ecbc 738a 12bb
000002c0: 8a89 c63c 92c7 013d 7f97 1c3b b235 a5bb
000002d0: e2ec 1ebd 4d3f c53b 5472 af39 6c95 ebb8
000002e0: 782c 9ebc e714 8c3c 46aa a23c 92b9 ca3b
000002f0: f5c7 21bb db38 6ebb 2e8d d93b 0c5e bd3c
00000300: 09f9 babb 4ca8 3abb 6860 873b 2b0b 793b
00000310: 3c4e ee3c 5e79 72bc 0474 ab3c 4100 34bc
00000320: d7f2 84bb c61e b1bc 5428 6bbc 657f d5bc
00000330: 98a1 5fbb d520 1f3d 82c3 d5bb 410a 463c
00000340: e0db 4cbc 5080 f8bc 917e 42bc 97f2 a8bc
00000350: 8182 00bb aa71 2c3b 63f9 01bd 96ff 5d3c
00000360: 135b 443c 3ccb b8bc 28df 44bc a51e abbc
00000370: f8f2 12b9 74a0 d73b 3268 263c 580f 86bb
00000380: ca95 42bb 457d e63b 42c9 863c 0149 4e3c
00000390: 5be8 9f3c 6f73 5b3d d1b5 85bc a0b9 a4bb
000003a0: aee9 283c 1627 573c a244 fabb 45f1 293a
000003b0: 8df0 053d cbb2 85bb 1bf1 9ebc ecdb be37
000003c0: d859 bb3c 7a5a 1bbc 55c7 2bbd 2171 853c
000003d0: 02c1 4f3c 08cb 8dbc ab4a 393a 464f 34bc
000003e0: 848e 8d3c b749 b9bc fb0b 65bb ce37 43bc
000003f0: dac3 7abc daed aabb 059d 283c 10c2 cc3b
0.03870954 0.0044864374 0.0078304885 -0.013752376 0.0028045897 -0.024342533 0.013296978 -0.005841014
0.012866942 -0.014345673 0.00036608722 0.009767033 0.003848043 -0.0035531258 -0.0062838676 -0.0069587487
0.011641467 -0.01567258 0.010545409 0.0073168655 0.00858265 -0.015855346 -0.0071748476 0.0073052035
0.0021866781 -0.013042597 0.014591335 -0.0013927922 -0.012874498 0.008124876 -0.03597498 -0.019561512
0.011292367 -0.027462518 0.016025366 -0.018286217 -0.026543876 0.013690034 -0.005067399 0.009848928
0.005136886 0.011756578 0.0034346299 -0.041942995 0.02342061 -0.015499345 -0.021369323 0.00014786064
-0.015255498 -0.022221407 0.0021249033 0.026549693 0.010837946 -0.008071996 -0.010287744 0.008698268
0.0047187675 0.017334044 -0.004333825 0.014692066 0.007452338 -0.027717886 0.0067638913 -0.003763518
0.013070165 -0.011174058 -0.008939531 -0.015961112 -0.0054172766 -0.0045840307 -0.0075943056 0.023489524
-0.014357158 -0.01625168 -0.0023322613 -0.004896465 0.023906665 0.0037138904 0.010380453 -0.019418264
0.012220097 0.028784622 0.012157993 -0.031413715 0.0434072 -0.00038944415 -0.0073615876 -0.007895917
-0.015124657 0.028841699 0.0026937209 -0.01115916 0.019963533 0.006863215 0.0020514277 0.009495972
-0.007485293 0.008159428 0.03611726 0.009980145 -0.0261657 0.03458819 0.01681761 -0.015589339
0.0007859665 0.021527791 0.0075852736 -0.021031154 -0.0014971854 -0.050749853 -0.009234497 -0.008730235
-0.013546372 -0.0075261383 0.0071713007 -0.001132144 -0.004174646 0.016889095 0.0024827498 -0.00091817987
0.03624408 -0.03069232 -0.0040640133 0.02564668 -0.018523958 0.017023262 0.02143942 0.0029588502
0.010656827 0.0067996536 0.01945909 0.0023155422 0.01737102 -0.018244877 0.0081430245 0.026043873
0.02203018 -0.0323921 -0.019149177 -0.013601005 0.027370635 0.029570302 -0.017683664 -0.013848585
-0.006416755 -0.0035627875 -0.00010602457 -0.019886903 -0.011098024 0.007795189 0.011158974 -0.007882497
-0.027657181 -0.0021509486 0.008365612 -0.001563818 0.0009092744 -0.018235525 -0.0012610354 -0.0057987943
-0.011083551 -0.025324067 0.008592584 0.002218972 0.036520377 -0.025536424 -0.017460125 0.022942334
0.024082208 -0.004283204 0.012002708 -0.019452807 -0.0062776715 -0.010752661 -0.028887726 -0.0022360354
0.024235506 0.031684466 0.002389401 -0.0050418014 -0.038800128 0.006019509 0.00033463782 -0.00011233505
-0.019308314 0.01709981 0.019856583 0.0061866725 -0.0024685834 -0.0036349806 0.0066391444 0.023116134
-0.005705957 -0.002848166 0.0041313656 0.0038001041 0.02909004 -0.014799444 0.020929344 -0.010986389
-0.004057269 -0.02162112 -0.014352877 -0.026061723 -0.0034123417 0.03884967 -0.0065235505 0.012087406
-0.012503594 -0.030334622 -0.011870996 -0.020623488 -0.0019609036 0.0026312866 -0.031731974 0.013549706
0.011984604 -0.022557847 -0.012016095 -0.020888636 -0.00014014158 0.006580407 0.010156678 -0.0040911846
-0.0029691332 0.0070339763 0.01645339 0.012590648 0.019519975 0.053576883 -0.016322048 -0.005027011
0.01030962 0.013131877 -0.007637576 0.00064827903 0.03270011 -0.0040801517 -0.019402077 2.2752174e-05
0.02286999 -0.0094820205 -0.041938145 0.016289296 0.012680294 -0.017308727 0.00070683163 -0.011005228
0.01727987 -0.022618158 -0.0034949768 -0.01191516 -0.015305484 -0.0052163424 0.010291343 0.00624872

action_model._continuous_distribution.mu.bias f4 [4]
00000000: 46b8 86bb b22f 16bc 7436 a73b 48a1 243c
-0.0041113226 -0.009166645 0.005102927 0.010048218

exp_avg f4 [128, 4]
00000000: b8d6 eb33 68c1 b6b4 b8d6 eb33 b8d6 eb33
00000010: 0a98 31a8 1683 0929 0a98 31a8 0a98 31a8
00000020: 6a3a 0138 4f95 09b9 6a3a 0138 6a3a 0138
00000030: 023b 5434 903e 6fb5 023b 5434 023b 5434
00000040: 8bfb d936 2b6b fab7 8bfb d936 8bfb d936
00000050: 7f7b 01ae c0ba ec2e 7f7b 01ae 7f7b 01ae
00000060: f613 f5b9 60bf 6fba f613 f5b9 f613 f5b9
00000070: 2f14 073a f06e 60ba 2f14 073a 2f14 073a
00000080: 48df a438 389d 02ba 48df a438 48df a438
00000090: a0b2 49b6 76a3 9c37 a0b2 49b6 a0b2 49b6
000000a0: eca6 96b5 1fd1 ab36 eca6 96b5 eca6 96b5
000000b0: 3262 f638 4af4 0fba 3262 f638 3262 f638
000000c0: 3619 bd3a 8655 47bc 3619 bd3a 3619 bd3a
000000d0: 211a b0ba 3c41 313c 211a b0ba 211a b0ba
000000e0: 7786 13b5 d06c 6135 7786 13b5 7786 13b5
000000f0: 898a af35 ce28 cdb6 898a af35 898a af35
00000100: 1c5f 1ab6 46c0 5837 1c5f 1ab6 1c5f 1ab6
00000110: 6955 6fba fc10 bb3b 6955 6fba 6955 6fba
00000120: be5c 02ba d2ff 413b be5c 02ba be5c 02ba
00000130: a325 932d 0bec 91ae a325 932d a325 932d
00000140: 0e4a 10bb 3f4e 7f3c 0e4a 10bb 0e4a 10bb
00000150: fae7 9039 012a f7ba fae7 9039 fae7 9039
00000160: 3eb2 57ba 18de 193c 3eb2 57ba 3eb2 57ba
00000170: 7e81 07bb de36 843c 7e81 07bb 7e81 07bb
00000180: bc20 0cb6 2c41 5937 bc20 0cb6 bc20 0cb6
00000190: edd1 edba 2b44 853c edd1 edba edd1 edba
000001a0: 0dec 6cba b909 d23b 0dec 6cba 0dec 6cba
000001b0: ff8b 9538 7ef7 ffb9 ff8b 9538 ff8b 9538
000001c0: 9f32 8136 b8c9 f6b7 9f32 8136 9f32 8136
000001d0: 483d e735 6b8b 33b7 483d e735 483d e735
000001e0: 883b 7db5 033f 0137 883b 7db5 883b 7db5
000001f0: f82b 47ba ef68 013c f82b 47ba f82b 47ba
00000200: 4297 c0ba 5e07 523c 4297 c0ba 4297 c0ba
00000210: a584 0ab3 77a5 0234 a584 0ab3 a584 0ab3
00000220: 468d baba 0131 113c 468d baba 468d baba
00000230: 46ca b731 8baa 86b2 46ca b731 46ca b731
00000240: 901f 3c39 cc8b 9a3b 901f 3c39 901f 3c39
00000250: 7029 1f3a 3dc7 69bb 7029 1f3a 7029 1f3a
00000260: c4e6 9732 50e9 a9b3 c4e6 9732 c4e6 9732
00000270: 45f7 b936 2758 e7b7 45f7 b936 45f7 b936
00000280: 65ad 42b8 1c6d 9f39 65ad 42b8 65ad 42b8
00000290: 7af4 bd39 f268 85bb 7af4 bd39 7af4 bd39
000002a0: 427d fa3a 8eeb 89bc 427d fa3a 427d fa3a
000002b0: cbf0 6235 b6b4 2bb7 cbf0 6235 cbf0 6235
000002c0: 47e4 9938 7538 09ba 47e4 9938 47e4 9938
000002d0: 1f77 2f3b 90ba 9dbc 1f77 2f3b 1f77 2f3b
000002e0: 3faa 24b2 3e63 4c33 3faa 24b2 3faa 24b2
000002f0: 3208 0a3b 317b 52bc 3208 0a3b 3208 0a3b
00000300: cb4e 6435 414e 8db6 cb4e 6435 cb4e 6435
00000310: af45 99ba 005c cd3b af45 99ba af45 99ba
00000320: 3f50 cb34 94e5 03b6 3f50 cb34 3f50 cb34
00000330: d0fd 8d3b 1c18 07bd d0fd 8d3b d0fd 8d3b
00000340: 3e8d 533a deb6 a8bb 3e8d 533a 3e8d 533a
00000350: a08d 113a 40f6 22ba a08d 113a a08d 113a
00000360: 30a4 f8b9 cad4 8b3b 30a4 f8b9 30a4 f8b9
00000370: 6f2f 7eb3 f895 a634 6f2f 7eb3 6f2f 7eb3
00000380: b560 0a3b e116 65bc b560 0a3b b560 0a3b
00000390: c645 e9ba dec7 6d3c c645 e9ba c645 e9ba
000003a0: 2292 ae3a e733 0cbc 2292 ae3a 2292 ae3a
000003b0: c36c aeb7 1a5a de38 c36c aeb7 c36c aeb7
000003c0: c5ee ceb9 839c 383b c5ee ceb9 c5ee ceb9
000003d0: 260c afb1 404a 8c32 260c afb1 260c afb1
000003e0: b87d e938 7f71 afba b87d e938 b87d e938
000003f0: 1926 fbb8 6d13 4b3a 1926 fbb8 1926 fbb8
1.09820974e-07 -3.4040863e-07 1.09820974e-07 1.09820974e-07 -9.858442e-15 3.053381e-14 -9.858442e-15 -9.858442e-15
3.08104e-05 -0.0001312096 3.08104e-05 3.08104e-05 1.9765505e-07 -8.912548e-07 1.9765505e-07 1.9765505e-07
6.4963874e-06 -2.9852226e-05 6.4963874e-06 6.4963874e-06 -2.944089e-11 1.0765211e-10 -2.944089e-11 -2.944089e-11
-0.00046744914 -0.00091456436 -0.00046744914 -0.00046744914 0.0005152849 -0.0008561453 0.0005152849 0.0005152849
7.861719e-05 -0.0004982534 7.861719e-05 7.861719e-05 -3.0055307e-06 1.8672767e-05 -3.0055307e-06 -3.0055307e-06
-1.1224452e-06 5.120542e-06 -1.1224452e-06 -1.1224452e-06 0.000117484844 -0.0005491419 0.000117484844 0.000117484844
0.0014427069 -0.0121663865 0.0014427069 0.0014427069 -0.0013435521 0.010818776 -0.0013435521 -0.0013435521
-5.495744e-07 8.3977375e-07 -5.495744e-07 -5.495744e-07 1.3078835e-06 -6.1142264e-06 1.3078835e-06 1.3078835e-06
-2.300315e-06 1.291937e-05 -2.300315e-06 -2.300315e-06 -0.00091298536 0.005708812 -0.00091298536 -0.00091298536
-0.0004972926 0.0029601944 -0.0004972926 -0.0004972926 1.672868e-11 -6.635766e-11 1.672868e-11 1.672868e-11
-0.0022016796 0.01558262 -0.0022016796 -0.0022016796 0.00027638656 -0.0018857123 0.00027638656 0.00027638656
-0.0008228159 0.00939133 -0.0008228159 -0.0008228159 -0.0020676549 0.016139444 -0.0020676549 -0.0020676549
-2.088068e-06 1.2949382e-05 -2.088068e-06 -2.088068e-06 -0.0018144228 0.016267857 -0.0018144228 -0.0018144228
-0.000903786 0.0064098504 -0.000903786 -0.000903786 7.13095e-05 -0.00048821786 7.13095e-05 7.13095e-05
3.8503927e-06 -2.9419418e-05 3.8503927e-06 3.8503927e-06 1.7228676e-06 -1.0701692e-05 1.7228676e-06 1.7228676e-06
-9.4336474e-07 7.70367e-06 -9.4336474e-07 -9.4336474e-07 -0.00075977994 0.007898553 -0.00075977994 -0.00075977994
-0.0014693516 0.012819139 -0.0014693516 -0.0014693516 -3.225127e-08 1.2167389e-07 -3.225127e-08 -3.225127e-08
-0.0014232777 0.008861781 -0.0014232777 -0.0014232777 5.348997e-09 -1.5677207e-08 5.348997e-09 5.348997e-09
0.00017940835 0.004716372 0.00017940835 0.00017940835 0.00060715433 -0.0035671734 0.00060715433 0.00060715433
1.7683654e-08 -7.912115e-08 1.7683654e-08 1.7683654e-08 5.5422156e-06 -2.7578395e-05 5.5422156e-06 5.5422156e-06
-4.641469e-05 0.00030408136 -4.641469e-05 -4.641469e-05 0.00036231038 -0.0040713483 0.00036231038 0.00036231038
0.0019110816 -0.016835954 0.0019110816 0.0019110816 8.454196e-07 -1.0234469e-05 8.454196e-07 8.454196e-07
7.3381285e-05 -0.0005234548 7.3381285e-05 7.3381285e-05 0.0026773883 -0.019253999 0.0026773883 0.0026773883
-9.584766e-09 4.758771e-08 -9.584766e-09 -9.584766e-09 0.0021062014 -0.012846754 0.0021062014 0.0021062014
8.505128e-07 -4.2112374e-06 8.505128e-07 8.505128e-07 -0.0011693741 0.006267071 -0.0011693741 -0.0011693741
3.7870083e-07 -1.9654153e-06 3.7870083e-07 3.7870083e-07 0.0043332353 -0.032981977 0.0043332353 0.0043332353
0.0008070058 -0.0051487526 0.0008070058 0.0008070058 0.0005552415 -0.00062165037 0.0005552415 0.0005552415
-0.00047424575 0.00426731 -0.00047424575 -0.00047424575 -5.9182124e-08 3.1029026e-07 -5.9182124e-08 -5.9182124e-08
0.002111477 -0.013982506 0.002111477 0.002111477 -0.0017797283 0.014512984 -0.0017797283 -0.0017797283
0.0013318697 -0.008557296 0.0013318697 0.0013318697 -2.0793063e-05 0.000106025676 -2.0793063e-05 -2.0793063e-05
-0.0003946928 0.002816946 -0.0003946928 -0.0003946928 -5.0945514e-09 1.633191e-08 -5.0945514e-09 -5.0945514e-09
0.00011133723 -0.0013385265 0.00011133723 0.00011133723 -0.00011975709 0.000774673 -0.00011975709 -0.00011975709

exp_avg_sq f4 [128, 4]
00000000: fde1 5d3c 9732 803e 5b5b 2f36 5b5b 2f36
00000010: 129e 043d 9db2 573f a13b 8a36 a13b 8a36
00000020: 51ed 753c 2a69 a43f bfd7 9536 bfd7 9536
00000030: b718 323b c93b c13d fa54 d034 fa54 d034
00000040: 95a7 973c 2f18 2e3f e9c9 3d36 e9c9 3d36
00000050: 0546 273c 68e3 053f 27b6 fa35 27b6 fa35
00000060: bbd8 b937 e799 593b 2b93 3938 2b93 3938
00000070: 069e f037 0d28 883b 3950 7238 3950 7238
00000080: ff45 2b3c db44 e83e 12f4 0c36 12f4 0c36
00000090: f647 b43a 42dd 1d3d f7c0 d334 f7c0 d334
000000a0: 3076 903c 62a8 253f c7a9 3536 c7a9 3536
000000b0: 0588 233d 35c7 a73f 24d4 5a36 24d4 5a36
000000c0: 0e4b 9339 79d8 9a3a 156c 1337 156c 1337
000000d0: b65a 6439 7248 823a 0f34 7437 0f34 7437
000000e0: 2ac0 893c 5f9f 073f 4191 1d36 4191 1d36
000000f0: 67e6 523c ba59 db3e 9da2 b635 9da2 b635
00000100: eba9 243d e69b 8f3f e261 7636 e261 7636
00000110: 7387 483b f59d ac3d 6943 d436 6943 d436
00000120: 740f 7f37 50b7 2d3a 0805 1337 0805 1337
00000130: d5b3 123c e423 8c3e e098 0b35 e098 0b35
00000140: bf0b a237 96d9 4d3b 6086 3238 6086 3238
00000150: d9dd 643c 1ebe d73e 662d 0b36 662d 0b36
00000160: 9036 3d37 ea00 1d3b 34a3 0638 34a3 0638
00000170: 0694 2137 8333 b53a eeb8 a037 eeb8 a037
00000180: 711a 923c 10b2 c13e 4e27 3836 4e27 3836
00000190: b514 d337 a96b 8c3b b5ef 6d38 b5ef 6d38
000001a0: 688b 1c36 de25 3f3a 2a9b 1237 2a9b 1237
000001b0: 68f3 0b3c ea15 2c3e b052 a436 b052 a436
000001c0: 187d ba3c 1ad5 0c3f f0d7 1736 f0d7 1736
000001d0: 93aa eb3b c1e1 9b3e 3d84 8b35 3d84 8b35
000001e0: 338b 743b c930 543d 0eea 6535 0eea 6535
000001f0: f7fa 1e37 2502 ee3a 27ca c937 27ca c937
00000200: a04d a038 3510 cd3b 0a0f a438 0a0f a438
00000210: f2ab 003c c161 443e 4d84 bb35 4d84 bb35
00000220: 01c8 863b 3e7a 2d3e 0885 ed36 0885 ed36
00000230: a577 d23c 1d8e 413f 2cdd e935 2cdd e935
00000240: 3b8e 4338 a8a1 d63b c4ad d838 c4ad d838
00000250: fd51 8e38 208c 043a 0b82 d136 0b82 d136
00000260: cec2 8f3c 89d4 b83e 05d8 5236 05d8 5236
00000270: 6375 793b c7d5 4e3e 3611 8c35 3611 8c35
00000280: b636 613b e0e5 e83d 2f8f e735 2f8f e735
00000290: c712 3c39 2e85 ab3a 3d4c aa37 3d4c aa37
000002a0: d871 133b 9b43 363e 6575 6438 6575 6438
000002b0: 6960 943b 9df6 a43e 5f96 be35 5f96 be35
000002c0: e647 313c 2d3e c43e 02fc 2b35 02fc 2b35
000002d0: 8c58 2e37 e0ba 1b3b a238 e337 a238 e337
000002e0: 51bd fc3b 0488 953e 19ac 0c35 19ac 0c35
000002f0: 5179 bb37 aacd 3f3b 76c9 2f38 76c9 2f38
00000300: af8d 683b 1970 cd3d 1227 7634 1227 7634
00000310: 2977 8237 85a0 253b 8498 1538 8498 1538
00000320: 8c0e ab3b 8cc7 353e 4cd8 8a35 4cd8 8a35
00000330: e5fe 563c ebe3 2f3e d834 7038 d834 7038
00000340: fe1f b039 986f 063b 1124 d137 1124 d137
00000350: 56e7 5937 0858 053b f9f4 f537 f9f4 f537
00000360: b677 5737 a813 1e3b b6f2 ff37 b6f2 ff37
00000370: 6b2c 8e3c 22c2 4b3f 403b 9336 403b 9336
00000380: 2e8f 033b 7bfd 513d 7e74 5a38 7e74 5a38
00000390: 29ad 8137 69c7 233b fa66 0d38 fa66 0d38
000003a0: 5336 9439 fda7 7d3a f44c 9937 f44c 9937
000003b0: 4f08 633c 25cf 003f f3bb 5736 f3bb 5736
000003c0: f79f bb3c f759 1c3f df26 6e35 df26 6e35
000003d0: 21f5 873c ff40 193f 6f39 a935 6f39 a935
000003e0: 2454 7238 64ac 9739 9704 9336 9704 9336
000003f0: 55d2 e53b c4ab 573e 3256 ac35 3256 ac35
0.013542649 0.25038597 2.6130208e-06 2.6130208e-06 0.03237731 0.8425692 4.119662e-06 4.119662e-06
0.015010194 1.2844594 4.465662e-06 4.465662e-06 0.0027175376 0.09435231 3.8804848e-07 3.8804848e-07
0.018512527 0.6800565 2.8280722e-06 2.8280722e-06 0.010209565 0.5230012 1.8679465e-06 1.8679465e-06
2.2154642e-05 0.0033203305 4.4244498e-05 4.4244498e-05 2.8683815e-05 0.004155165 5.777201e-05 5.777201e-05
0.0104537 0.45365033 2.1003693e-06 2.1003693e-06 0.0013754356 0.038541086 3.9442213e-07 3.9442213e-07
0.017634481 0.64710057 2.7069925e-06 2.7069925e-06 0.03992464 1.3107668 3.2608013e-06 3.2608013e-06
0.00028093945 0.0011813781 8.787048e-06 8.787048e-06 0.00021777567 0.0009939803 1.4555654e-05 1.4555654e-05
0.016815264 0.52977556 2.3479372e-06 2.3479372e-06 0.012872315 0.42841893 1.3607383e-06 1.3607383e-06
0.04020111 1.1219451 3.6713832e-06 3.6713832e-06 0.0030598312 0.084285654 6.32594e-06 6.32594e-06
1.5202782e-05 0.0006626742 8.763054e-06 8.763054e-06 0.008954008 0.27371132 5.2004e-07 5.2004e-07
1.9317375e-05 0.003141021 4.2563654e-05 4.2563654e-05 0.013968908 0.42137235 2.073904e-06 2.073904e-06
1.1277982e-05 0.0023956844 3.2100084e-05 3.2100084e-05 9.630812e-06 0.0013824556 1.9159601e-05 1.9159601e-05
0.017834874 0.37831163 2.7441015e-06 2.7441015e-06 2.5162803e-05 0.004285295 5.6728448e-05 5.6728448e-05
2.3326957e-06 0.00072917144 8.738405e-06 8.738405e-06 0.008541919 0.16805235 4.897207e-06 4.897207e-06
0.022764727 0.5501267 2.2626446e-06 2.2626446e-06 0.007191965 0.30445674 1.0394793e-06 1.0394793e-06
0.0037314415 0.051804338 8.564974e-07 8.564974e-07 9.475966e-06 0.0018158598 2.4055202e-05 2.4055202e-05
7.643853e-05 0.0062580355 7.822931e-05 7.822931e-05 0.007853495 0.19177915 1.397109e-06 1.397109e-06
0.004113198 0.16941163 7.0786373e-06 7.0786373e-06 0.025691817 0.7560747 1.7424222e-06 1.7424222e-06
4.6624085e-05 0.0065500326 0.00010332049 0.00010332049 6.786359e-05 0.00050562806 6.2438244e-06 6.2438244e-06
0.017548945 0.3609965 3.1418178e-06 3.1418178e-06 0.0038064353 0.20198737 1.0435822e-06 1.0435822e-06
0.0034364886 0.1137197 1.7252513e-06 1.7252513e-06 0.00017936072 0.0013085955 2.030108e-05 2.030108e-05
0.0022498276 0.17799227 5.446877e-05 5.446877e-05 0.0045280945 0.322194 1.4199867e-06 1.4199867e-06
0.010820365 0.38328686 6.4069184e-07 6.4069184e-07 1.0391825e-05 0.002376251 2.708688e-05 2.708688e-05
0.007712998 0.29205334 5.24045e-07 5.24045e-07 2.234863e-05 0.0029266872 4.1910876e-05 4.1910876e-05
0.003548484 0.100311466 2.2924749e-07 2.2924749e-07 1.5552696e-05 0.002527268 3.566641e-05 3.566641e-05
0.00522024 0.17751902 1.0344752e-06 1.0344752e-06 0.013122295 0.17176788 5.7269674e-05 5.7269674e-05
0.00033593172 0.0020513292 2.4931536e-05 2.4931536e-05 1.298807e-05 0.002034666 2.932035e-05 2.932035e-05
1.2842871e-05 0.0024120603 3.051139e-05 3.051139e-05 0.017355165 0.795931 4.387839e-06 4.387839e-06
0.0020074355 0.05126713 5.2083742e-05 5.2083742e-05 1.5458632e-05 0.0024990684 3.3712924e-05 3.3712924e-05
0.00028269234 0.0009676216 1.8274855e-05 1.8274855e-05 0.013856961 0.5031608 3.2146897e-06 3.2146897e-06
0.022903426 0.61074775 8.8718474e-07 8.8718474e-07 0.016596379 0.598648 1.2608197e-06 1.2608197e-06
5.777566e-05 0.00028929405 4.3814757e-06 4.3814757e-06 0.007013599 0.21061617 1.2840085e-06 1.2840085e-06

exp_avg f4 [128]
00000000: c5ab bc32 3c13 0ea7 dac3 ce36 d0c8 2933
00000010: d562 ae35 ff2b cfac ec0f c4b8 4420 d838
00000020: d2e5 8337 b45b 21b5 140b 71b4 591b c537
00000030: 6047 9739 b3e1 8cb9 5c0a ecb3 d46e 8c34
00000040: 92fe f6b4 8877 3fb9 6394 d0b8 6d6f 6b2c
00000050: e0dc e6b9 91d9 6738 998e 2cb9 2ecf d8b9
00000060: 6134 e0b4 8a41 beb9 a289 3db9 6446 6f37
00000070: 6ab7 4e35 d8fd b834 0796 4ab4 6256 1fb9
00000080: 9912 9ab9 08a1 ddb1 d13d 95b9 3c08 9330
00000090: a07f 1638 b2a8 fe38 d40a 7331 d1c5 9435
000000a0: eabd 1bb7 cdf6 9738 3764 c839 808d 3534
000000b0: 0f3a 7637 4b5f 0c3a 64bb 03b1 e6d9 dc39
000000c0: 70a5 3634 4d3c 75b9 9aa6 a233 b62f 633a
000000d0: ca3d 2939 98e2 e838 bfe9 c6b8 2359 4bb2
000000e0: 8567 dd39 369e bab9 1da8 8b39 368a 8bb6
000000f0: d08b a5b8 b409 8cb0 e4ca ba37 48eb c8b7
00000100: 32e4 ecb8 77f2 27b7 8bbe 52ba a2f1 ab3a
00000110: 1532 d334 ae45 b2b9 64ec d832 dca9 b239
00000120: 00e1 2839 358e c838 a0a4 cb39 7cb7 c6b9
00000130: 5caf 0d37 c61f 0834 2e8a 523a bd8c 9db9
00000140: 5c6b 4e38 c52a 2e39 8421 b331 205d 97b7
00000150: 64f7 643a be92 1c32 4457 c937 3af9 ee39
00000160: e93f 1db9 9159 56b7 cf9d 003a fc9f 44ba
00000170: abe5 41ba 3472 45b9 81c7 a838 4d25 4232
00000180: e00f 6737 b780 c239 726a 32ba baeb 3e39
00000190: 7459 e12d 8a7d c339 44d7 1038 98aa 8539
000001a0: c10a 0731 34bf b239 4570 2d34 4c1b 3f32
000001b0: 98f7 02ba f8f3 5f39 1e05 5f31 f256 b833
000001c0: 9c68 a535 2d73 053a 0dd9 a9ba 50f8 b536
000001d0: 18a4 d8b9 a831 f1b9 d3ab 4c39 a6b0 0db8
000001e0: 1461 2e39 62c7 20b5 1843 b234 64ac fdb5
000001f0: 4a55 bcb9 0f26 c835 ce77 f237 c640 05b2
2.1964192e-08 -1.9716886e-15 6.1620785e-06 3.9531017e-08 1.2992774e-06 -5.8881784e-12 -9.348974e-05 0.000103056926
1.5723435e-05 -6.011062e-07 -2.2448904e-07 2.3496965e-05 0.00028854143 -0.0002687104 -1.0991491e-07 2.615767e-07
-4.6006295e-07 -0.00018259708 -9.945852e-05 3.3457362e-12 -0.00044033583 5.5277316e-05 -0.0001645632 -0.0004135309
-4.1761362e-07 -0.00036288454 -0.00018075717 1.4261899e-05 7.700788e-07 3.4457366e-07 -1.8867296e-07 -0.00015195602
-0.00029387025 -6.4502537e-09 -0.0002846555 1.0697998e-09 3.5881647e-05 0.00012143086 3.536731e-09 1.1084431e-06
-9.282938e-06 7.246211e-05 0.00038221639 1.6908416e-07 1.467626e-05 0.0005354776 -1.9169528e-09 0.00042124017
1.7010257e-07 -0.00023387485 7.5740175e-08 0.0008666472 0.00016140114 0.000111048284 -9.484914e-05 -1.18364225e-08
0.00042229533 -0.0003559456 0.000266374 -4.1586127e-06 -7.893855e-05 -1.0189098e-09 2.2267406e-05 -2.395142e-05
-0.000112958616 -1.0010429e-05 -0.00080392574 0.0013118277 3.9338252e-07 -0.0003400272 2.5253208e-08 0.0003407736
0.00016105548 9.563231e-05 0.00038841832 -0.0003790221 8.445084e-06 1.2677546e-07 0.00080314546 -0.00030050232
4.9214214e-05 0.00016609866 5.213396e-09 -1.8043967e-05 0.0008734374 9.11376e-09 2.4001703e-05 0.00045580586
-0.00014996495 -1.2776248e-05 0.0004906328 -0.0007500646 -0.0007396589 -0.00018829928 8.048025e-05 1.1300767e-08
1.3772369e-05 0.00037098464 -0.0006806023 0.00018207627 2.5619264e-11 0.00037286832 3.4532757e-05 0.0002549484
1.9651198e-09 0.00034093263 1.6152724e-07 1.112387e-08 -0.0004996001 0.00021357823 3.245368e-09 8.583983e-08
1.2323903e-06 0.000509071 -0.0012958363 5.4231277e-06 -0.0004132099 -0.000460041 0.00019518966 -3.3781536e-05
0.00016630098 -5.9894785e-07 3.32039e-07 -1.8900141e-06 -0.000359217 1.4912238e-06 2.8904436e-05 -7.756347e-09

exp_avg_sq f4 [128]
00000000: 0775 e033 2bf0 3034 8fcc 3f34 1555 8532
00000010: 1eee f233 9274 a033 3389 ed35 a514 1b36
00000020: 8d6b b433 ab85 8732 5c87 e833 eb0c 0c34
00000030: 52b3 bc34 3e4a 1c35 9eaf c933 c5c5 6933
00000040: 46af 1d34 38d9 8734 632f bc34 38af b232
00000050: f782 e435 af25 b233 fb55 ac35 70b9 4d35
00000060: 87b7 eb33 7d47 1836 eba7 bb34 5f55 5234
00000070: fc5b c233 d094 3233 2b25 1333 3325 8135
00000080: c0fe 5136 7a05 7033 3703 9834 4dac 9533
00000090: 9fac 8a36 c715 8634 a4f0 0634 3349 3333
000000a0: aa32 9433 2dfb 5935 a336 1236 bff3 7333
000000b0: c323 dc32 ef6b 9135 680f b432 e601 e135
000000c0: bd89 1d32 8f7b bf35 b7b8 3133 62bb 1936
000000d0: a2d9 8535 9369 9d35 89ce a335 d774 3c34
000000e0: a8cf 0b36 acfe b435 9239 4435 e711 0a34
000000f0: d26a 1833 709b 5833 d62e 3c34 5097 5c33
00000100: f990 1434 17f7 f632 af10 1537 6eb0 f236
00000110: 2c09 7633 59bc 8236 3bf6 b032 c067 ca35
00000120: 10b9 7235 d8f3 6335 54b2 8935 b1b6 0f36
00000130: ebff 2234 8cd8 9932 d830 1936 22e8 1e35
00000140: 3333 4036 0aed b435 837a fb32 b016 7d36
00000150: aab8 f035 d3ff 2d34 378b 7733 9cf3 aa35
00000160: 7edd 1035 6980 a833 c3b7 0836 ac07 d735
00000170: 2203 1236 9c53 e535 6b6f 0b36 5c56 7633
00000180: 7a27 2236 f2f2 5f35 eac4 6736 bf49 e335
00000190: cb55 2e34 cb92 2436 db56 1636 7cd3 c235
000001a0: 2003 f632 d104 e634 2d63 8234 db32 6933
000001b0: 7bfd 8236 5521 3735 e604 a833 a1f4 f133
000001c0: 5ab6 5a34 e605 ca35 c0e7 6d36 83da f935
000001d0: bc63 9635 af8f 1236 6998 b535 7022 d334
000001e0: a2e5 a935 38ce d033 094e 4434 aeb3 3e34
000001f0: 16d6 d535 49db 1f33 87cc 3933 4a60 c533
1.04521e-07 1.647865e-07 1.7862679e-07 1.5521929e-08 1.13123164e-07 7.4717846e-08 1.7697806e-06 2.3108817e-06
8.4014665e-08 1.5776854e-08 1.08279636e-07 1.3043216e-07 3.5148202e-07 5.8222565e-07 9.3917365e-08 5.442941e-08
1.4685529e-07 2.5303757e-07 3.5052207e-07 2.0801608e-08 1.702544e-06 8.2956255e-08 1.2840022e-06 7.66383e-07
1.0976424e-07 2.2691377e-06 3.495364e-07 1.9588832e-07 9.050561e-08 4.15792e-08 3.425991e-08 9.622075e-07
3.129171e-06 5.5884335e-08 2.8314545e-07 6.9696945e-08 4.1328162e-06 2.497529e-07 1.2567267e-07 4.174326e-08
6.901003e-08 8.120431e-07 2.1787498e-06 5.6799532e-08 2.5627633e-08 1.0834755e-06 2.0961764e-08 1.6764359e-06
9.169921e-09 1.4266569e-06 4.137902e-08 2.2907848e-06 9.972612e-07 1.1728138e-06 1.2204556e-06 1.755137e-07
2.0833486e-06 1.3485164e-06 7.3099466e-07 1.2858764e-07 3.548741e-08 5.043279e-08 1.7525903e-07 5.136036e-08
1.3836315e-07 2.8750533e-08 8.8849765e-06 7.232701e-06 5.728468e-08 3.8962285e-06 2.060107e-08 1.5080368e-06
9.0421327e-07 8.491893e-07 1.0259196e-06 2.1415e-06 1.5180528e-07 1.7910018e-08 2.2827207e-06 5.9197384e-07
2.8640031e-06 1.3480033e-06 2.9275958e-08 3.7713144e-06 1.7935138e-06 1.6204949e-07 5.7635784e-08 1.2736887e-06
5.3966494e-07 7.846467e-08 2.0372543e-06 1.6020981e-06 2.175752e-06 1.7086163e-06 2.0777468e-06 5.735488e-08
2.416286e-06 8.3427506e-07 3.4536301e-06 1.6934281e-06 1.6236224e-07 2.452335e-06 2.2402298e-06 1.4515676e-06
2.863959e-08 4.2844343e-07 2.4286547e-07 5.4295793e-08 3.903811e-06 6.8221317e-07 7.824001e-08 1.1266935e-07
2.0369171e-07 1.505189e-06 3.5450648e-06 1.8615541e-06 1.1204897e-06 2.183933e-06 1.3529908e-06 3.932687e-07
1.2658313e-06 9.723266e-08 1.8282311e-07 1.7760496e-07 1.5932044e-06 3.721951e-08 4.3259686e-08 9.191042e-08
