old_ppo/PoI/PoI-35660.pt (torch, 438243 bytes, 36 tensors)

network_body._body_endoder.seq_layers.0.weight f4 [128, 4]
000000 d2 b6 33 bf 41 2a cc be 23 90 ef 3d 39 97 c9 bd
       -0.70200837 -0.39875987 0.11697414 -0.098432966
000010 b6 eb 1b bf ba 1f 0a 3f 58 d1 fc bd 1c 22 4f be
       -0.6090654 0.5395466 -0.12344617 -0.20227855
000020 9e bd 5c bd b3 66 77 bd e4 e7 76 3e e0 9b f1 3e
       -0.05389177 -0.060400676 0.24111897 0.47189236
000030 d8 12 48 bf cd e2 c5 be 81 a9 9a be d5 c5 24 bf
       -0.78153753 -0.38649598 -0.30207446 -0.6436437
000040 ea c2 6b 3e 74 25 bd 3e f6 40 31 3f 20 fa 57 bf
       0.23023573 0.36942637 0.6923975 -0.84366035
000050 1f 9e 2f bf 23 81 06 3f 41 af 8b 3d 74 59 ef be
       -0.6860065 0.52540797 0.068205364 -0.46747935
000060 9a e4 bb be bf 60 64 bf 3d 18 12 bb cf 33 72 bf
       -0.36697847 -0.8921012 -0.002229228 -0.94610304
000070 23 83 8e bf 30 8f 34 bf bd c7 c3 be fb 9d 6d 3f
       -1.113377 -0.70530987 -0.38238326 0.92819184
000080 32 85 97 be 88 a6 8f 3e bd 5d 9e 3e da 5d 29 bf
       -0.29593807 0.2805674 0.30930892 -0.6615883
000090 e1 e3 a5 bc cd 4b be 3e 58 7b 89 be 40 22 4a 3d
       -0.020250263 0.37167206 -0.26851916 0.04934907
0000a0 ad df ff 3e 7b 4d 89 be 32 54 08 bf 6e 32 1d bf
       0.4997534 -0.26816925 -0.5325347 -0.61405075
0000b0 5c 18 93 3d d9 f5 60 3f 87 a0 ef be aa 5a da bc
       0.071823806 0.87875134 -0.4680216 -0.02665456
0000c0 0c 7b cc be 24 66 49 3f f6 48 43 bf d7 6c ee be
       -0.39937627 0.7867148 -0.76283205 -0.46567413
0000d0 36 f0 fd 3e 40 5a 10 3f 01 1b de be 37 01 e2 3e
       0.4959733 0.5638771 -0.43379977 0.44141552
0000e0 d5 c4 cb 3e 6e 7b 4f bb 03 66 1c bf d3 fe ae bd
       0.39798608 -0.0031659263 -0.6109316 -0.085446976
0000f0 2f 96 07 bf a1 e3 e1 bd f9 3d 5b bf 01 97 b5 be
       -0.52963537 -0.11029745 -0.8564144 -0.3546677
000100 1d 78 31 3f c7 87 04 bf 6d ee 1a bc 8d 87 45 3e
       0.69323903 -0.5176968 -0.009456259 0.1928999
000110 37 e9 d8 3c 19 9c 02 be 22 f1 3b 3c d8 88 72 3f
       0.026478393 -0.12754859 0.011471065 0.94740057
000120 d8 1f fc be 23 db 0b 3e 28 94 78 bf 34 7f 4b bf
       -0.49243045 0.13657813 -0.9710107 -0.7949097
000130 82 88 04 3f 91 ab b9 3c 7e 94 b2 3e dd 06 b7 be
       0.51770794 0.022664817 0.34878916 -0.35747424
000140 d0 17 87 3e 08 37 7b bf 25 41 90 3e 19 dd 9a 3d
       0.26385355 -0.98130846 0.281747 0.07561702
000150 1d 10 01 bd fb 50 1a be fa 70 d5 bd 8a f9 cc 3e
       -0.031509507 -0.15069954 -0.10421939 0.40034133
000160 15 c0 f9 bd b7 87 ba 3e 55 5d 9b 3e 8a c3 20 bf
       -0.1219484 0.36431667 0.30344644 -0.6279837
000170 0c 2a ab 3d cb af 81 bf 35 c8 7a 3a 2f 66 be bf
       0.08357629 -1.0131773 0.00095665763 -1.4874934
000180 d7 8f 9e be f5 9b b2 be 5e 4b 81 3e 09 d2 31 be
       -0.30969116 -0.3488461 0.25252813 -0.17365278
000190 0a 78 7c be 1d 5f 85 be 64 fb 7c bf db b7 ae be
       -0.24655166 -0.26049128 -0.9882109 -0.34124646
0001a0 f5 55 9b bd 88 05 6a 3e b4 75 ef bc 3b 50 08 3e
       -0.075847544 0.22853673 -0.02923093 0.13311855
0001b0 de 7a db be 41 46 ad be 64 af 70 bf 79 30 91 be
       -0.42867178 -0.33842662 -0.94017625 -0.28357294
0001c0 a2 bc 42 bf 9a cf 4c 3e ec 8f e2 be 8e 04 ab be
       -0.7606908 0.20001069 -0.4425043 -0.33401912
0001d0 06 0a dd bd 05 b0 c9 be ab 53 9f 3e 39 97 84 3e
       -0.107929274 -0.39392105 0.3111852 0.25896624
0001e0 f4 38 c5 be cb 85 9e be 8a 92 6e be 79 65 8c bb
       -0.38520014 -0.3096145 -0.23298088 -0.0042845574
0001f0 c7 e6 c3 3e 25 ae b0 3f c4 af f5 3d 2f 24 16 3f
       0.38262007 1.3803145 0.11996415 0.5864896
000200 d6 eb 12 be 84 e5 c0 bf 06 36 05 bf 96 c4 22 bf
       -0.14347777 -1.5070043 -0.5203556 -0.63581216
000210 29 42 86 bd e0 bf 34 bf d0 60 1b 3f d0 76 31 3f
       -0.06555588 -0.7060528 0.606946 0.6932192
000220 6b 64 e3 3e 00 8d 1d 3e 3a be 13 bf 07 2d 28 bf
       0.4441255 0.15385818 -0.5771214 -0.65693706
000230 42 d8 b5 3c db 99 9f 3b 63 64 e8 be 23 83 77 3e
       0.022197846 0.004870636 -0.4538909 0.24171118
000240 c9 33 e0 bd 74 98 2d 3d 98 d8 77 3e 24 4e f7 3e
       -0.10947377 0.04238172 0.24203718 0.48301804
000250 50 2b dc 3c 4e e2 41 be 28 43 7f bd a8 fd d9 bd
       0.026876122 -0.18933985 -0.062319905 -0.10644084
000260 63 10 79 3e 2c ea bd 3e 43 bd 59 bf b2 13 01 bf
       0.24322657 0.3709272 -0.85054415 -0.5042068
000270 1a b4 95 3e 99 31 25 3f 07 bb 0a 3e 0c 5b c1 be
       0.2923897 0.64528805 0.13547908 -0.37764776
000280 36 bb 94 3f a0 50 1b 3f ff 0c 26 bf e2 09 6e 3e
       1.1619632 0.606699 -0.6486358 0.23245957
000290 51 69 16 3e 32 1f 7c be 91 88 df 3e c9 53 b8 be
       0.14688613 -0.24621275 0.4365888 -0.36001423
0002a0 91 a7 8f be 21 4e 5d be b6 ef 16 ba 0e 30 ba 3d
       -0.2805753 -0.21611835 -0.00057577656 0.09091197
0002b0 1d d6 50 3c a8 2e d9 3e f3 0c 1f be 2e 1f 4e 3e
       0.012746361 0.42418408 -0.15532283 0.20129082
0002c0 75 31 9a be 18 3b ca 3e da 58 27 3f 90 1f bf bd
       -0.30115858 0.3949821 0.6536995 -0.09332192
0002d0 19 c6 2b bf b5 b6 22 bf 2c 16 c2 3e 09 2a 26 3f
       -0.6709915 -0.6356004 0.3790754 0.6490789
0002e0 0d 31 2a bf a4 bd 8e 3e dc fa 0f 3f 7a 0c 19 3d
       -0.66481096 0.2787906 0.56242156 0.037365414
0002f0 d8 6e ab be c0 5c 5f 3d 6f 4e c1 be ea eb 3a 3e
       -0.33483005 0.054531813 -0.37755153 0.18254057
000300 51 e0 a1 3e a2 db 18 3f 05 cf 74 3f 4e 7f 82 3d
       0.31616452 0.59710133 0.95628387 0.06371938
000310 4f 37 f5 3e 74 23 35 be 88 1e 13 3f 92 a4 47 3f
       0.4789376 -0.17689306 0.5746846 0.7798549
000320 c5 5d a1 be 9a 9e 1b bf 83 60 eb be 8d 43 28 bf
       -0.31516853 -0.6078888 -0.4597207 -0.65728074
000330 99 3d 43 bf 11 af d4 3e 29 e3 86 bc 87 84 8b be
       -0.76265866 0.41539815 -0.01646574 -0.27249548
000340 d1 d6 45 bf 1d 8e a8 3d ec 66 bb 3e 78 87 6b 3f
       -0.7728091 0.08230231 0.3660196 0.92003584
000350 22 96 48 bd 66 06 95 be e3 e8 96 be c3 fe 61 3e
       -0.048971303 -0.29106444 -0.29474553 0.2206984
000360 d2 8e 5c 3d 55 97 d8 be 8d 11 4f 3f 7d de 00 bf
       0.05384714 -0.42302957 0.80886155 -0.5033949
000370 59 d7 2f bf 00 84 b6 bb 03 ed 24 be cb 25 40 3d
       -0.6868797 -0.005569935 -0.16106038 0.046911042
000380 3d 7c fc 3e 84 15 73 be a5 cb 57 3f ed 09 42 be
       0.49313536 -0.23738676 0.8429511 -0.18949099
000390 0d c3 87 bf 70 bf 3e 3e 19 7f 16 be d8 2a b2 bd
       -1.06064 0.18627715 -0.14696921 -0.08699578
0003a0 a6 39 8e bd 8c 63 5e bf 0b 65 a7 bd b3 75 0a 3f
       -0.06944589 -0.86870646 -0.08173569 0.54085845
0003b0 fd ee c2 3e c2 9d be 3c 74 bc 05 be 49 25 0c be
       0.3807296 0.023268584 -0.1306017 -0.13686098
0003c0 74 1a 47 3d fa 0e 90 3e 0d eb ac be d3 c3 06 be
       0.048609212 0.28136426 -0.3377308 -0.13160639
0003d0 53 cf 8d 3d 53 ce 61 be 22 e0 84 3f a9 79 cb 3e
       0.069243096 -0.22051363 1.03809 0.39741257
0003e0 84 4a 0d 3f c5 6e 0e 3f b2 05 0e be cd 59 15 3f
       0.55191827 0.5563777 -0.1386936 0.5834015
0003f0 cb 09 b8 3e cd e5 8e be 00 31 76 bf 16 ba a4 3e
       0.3594497 -0.279097 -0.9616852 0.32173222

network_body._body_endoder.seq_layers.0.bias f4 [128]
000000 d8 f8 57 3a bb 67 1f bc 5f 86 9b 3c 9d 2b ed bc
       0.000823868 -0.009729321 0.018984972 -0.02895146
000010 04 4e bf bc d3 87 79 bb a2 78 ee 3b ac 9c 65 3c
       -0.02335263 -0.0038075342 0.007277564 0.014014404
000020 d0 d9 49 bc e4 be 4f bc 86 5a b1 3c 3b c5 2c bc
       -0.012319997 -0.012679789 0.02164961 -0.01054507
000030 82 fe 16 bd 76 1b 72 bd b2 e5 34 bb b6 9e 34 bc
       -0.03686381 -0.05910822 -0.002760273 -0.011024168
000040 12 42 18 3d da f1 f7 bd 0c 57 05 bd 61 89 3c bc
       0.037172385 -0.121066764 -0.032553717 -0.011507363
000050 ee a8 bd bd f5 5a 4c 3c 20 08 68 bd 3c 9b 1c 3c
       -0.092607364 0.012472858 -0.056648374 0.009558495
000060 d0 ca 08 bd 1a e7 e8 bc 64 05 2a 3c 73 12 f4 bc
       -0.033396542 -0.02843051 0.010377262 -0.029793954
000070 0f 88 6d bc 07 38 52 3d 10 87 a8 3c 2f 82 d5 3c
       -0.014497771 0.051322963 0.020572215 0.026063053
000080 4e c9 7f bd 79 db 52 3a 37 6d c8 bc 0f 71 bd 3c
       -0.06244784 0.0008043568 -0.02446614 0.0231252
000090 9e 66 e0 3c 6e cd 2b 3c 3d 21 4e bd 83 ba da 3a
       0.027392682 0.01048599 -0.050324667 0.0016687665
0000a0 1a fc 32 bd 07 43 68 bd d8 50 b6 bb 23 5a cb bc
       -0.043697454 -0.056704547 -0.0055638365 -0.024823254
0000b0 da 9b 92 3c 62 d9 9d ba 28 45 1b 3c d6 7e 45 bd
       0.017896581 -0.0012042935 0.009476937 -0.048216663
0000c0 51 19 ad 3b 40 29 24 3c 66 e2 44 39 21 93 be bb
       0.005282559 0.0100196 0.00018776357 -0.005815879
0000d0 d7 5c d1 3c fc a7 bd 3c 29 08 1d bd 1a 18 55 bd
       0.025556965 0.02315139 -0.03833786 -0.05202494
0000e0 63 bb 7e 3b 10 c6 1e bd e1 4c 69 3c 01 df 9c bc
       0.0038869015 -0.038763106 0.014239521 -0.019149305
0000f0 99 66 bf bb 69 8d e0 3b a8 22 84 bd 29 ad 94 bc
       -0.005841088 0.006852795 -0.06451923 -0.018148975
000100 04 70 1b bd e8 0b 23 bd ad f3 5f bc 35 4b 8a 3d
       -0.037948623 -0.039806277 -0.013668937 0.06752626
000110 b6 73 46 bd 71 84 19 3b e2 c4 d3 3a 4a 9b 5c 3c
       -0.048450194 0.0023424888 0.0016156698 0.013464758
000120 da 11 07 3c 8a 59 16 bd cf 89 e8 bc be 98 0b 38
       0.008244002 -0.036706485 -0.028386025 3.3282435e-05
000130 e5 c5 e1 3c 1e 44 1b 3d 93 3d 8f bd c2 6c 25 3d
       0.027560184 0.03790676 -0.06994166 0.040386923
000140 62 e9 8e bd a5 2b 2c 3c f5 d6 03 bd 04 52 58 bc
       -0.06978108 0.010508453 -0.03218742 -0.013203148
000150 43 c1 31 bc 14 79 8e bd d4 2c d6 bc c0 48 ec bc
       -0.0108493 -0.069566876 -0.026144423 -0.028843284
000160 22 49 cf bc eb 41 da 3b 89 cc 53 bc ea 85 08 bd
       -0.025303427 0.00666069 -0.012927183 -0.033330835
000170 c4 14 0d bb 82 b3 a6 bc 9c 14 9e bb 53 6c 4d bc
       -0.002152727 -0.020349268 -0.004824234 -0.012538034
000180 15 19 4a bc b3 83 c1 bc 67 de 54 bc 5d 78 c6 bc
       -0.012335082 -0.02362237 -0.012992478 -0.024227316
000190 d0 6a 8d 3c 54 3a 2a bd ed 0f 72 bd 9b a8 3c bd
       0.017262846 -0.041559532 -0.05909722 -0.046059232
0001a0 a5 33 96 bc 85 dd 2c 3c 31 84 25 bd 60 33 e8 bc
       -0.018335173 0.010550861 -0.04040927 -0.02834481
0001b0 fb f2 68 bc 8d 6d ff 3c 71 9f e3 bc 28 64 a5 bb
       -0.014218087 0.031180168 -0.027785989 -0.00504734
0001c0 7b 18 47 3c aa e2 13 bd c3 04 6d 3c a5 cc 5e bd
       0.012151833 -0.036104836 0.014466467 -0.054394383
0001d0 fe 4d 01 bc c3 8a 4f bd 7a 69 77 3c a3 a9 56 bd
       -0.00789213 -0.050669443 0.015100831 -0.052407872
0001e0 f4 e7 aa bd 60 e7 e8 ba 08 f3 c3 3c b8 eb 9a bc
       -0.08345023 -0.001776915 0.023919597 -0.018911228
0001f0 a1 f8 06 bd 2d f6 93 bd 4d 12 1c bd 5f 95 40 bd
       -0.032951955 -0.07224689 -0.03810339 -0.04701745

network_body._body_endoder.seq_layers.2.weight f4 [128, 128]
000000 0e 63 14 3e 5b 2b 94 3c 8c 57 b0 bd e7 d0 82 bc
       0.14490911 0.01808708 -0.08610448 -0.015968753
000010 40 0d 1c bd 8e 98 8d 3d 50 ee 07 bd de 33 6d 3d
       -0.038098574 0.06913863 -0.033186257 0.057910793
000020 29 51 cd 3d af b4 05 bc 4a 8f b7 3d 80 92 cf bd
       0.10025246 -0.008160754 0.08962877 -0.101353645
000030 95 b1 18 bd 0a 57 f3 3d d0 1a 5c be f7 5c a7 3d
       -0.03727873 0.11881836 -0.21494603 0.081720285
000040 11 23 5e bd 92 f0 83 3d 29 94 39 3d 74 48 6c 3b
       -0.05423266 0.064423695 0.045307312 0.0036053928
000050 f8 7f 0c bd 1b e4 8c bc e3 8c cc 3c 45 88 ef 3c
       -0.034301728 -0.017198613 0.024969524 0.029239783
000060 9e b0 92 bc 47 8a 53 3e 24 33 10 bd 8a 46 c2 bd
       -0.017906483 0.20658217 -0.03520502 -0.094861105
000070 2d da 9b 3c 77 47 d6 bc 9a a1 a3 3d 10 b4 63 bc
       0.019024933 -0.026157124 0.079898074 -0.013897911
000080 a0 95 ed 3d 17 fb 8e 3d 3a 89 a8 3d a2 8b 85 bd
       0.11600804 0.06981485 0.08229299 -0.065207735
000090 6c 23 71 3d 73 20 4b bd d8 3d be bd 1c 3a 74 3d
       0.05887167 -0.049591493 -0.092891395 0.05962573
0000a0 88 7a 9c bd e3 ce 9f 3c 87 4f 7a bc ca 65 25 be
       -0.076405585 0.019507831 -0.01527775 -0.1615211
0000b0 1c e6 30 be 07 e3 00 3e 35 ed a3 3d 3e 6a 52 3e
       -0.1727528 0.12586604 0.08004228 0.2054834
0000c0 26 97 07 bd 15 7f 94 3c ad 74 4d 3d 39 ce 4f 3e
       -0.03310313 0.018127004 0.0501601 0.20293511
0000d0 46 68 e5 3d de 0e f2 3d cb a0 15 3e 24 5f 16 bd
       0.11201529 0.11819242 0.14612119 -0.036711827
0000e0 6f 60 65 bd b7 8b 73 3d d4 d3 4a bd 7f 39 25 bd
       -0.05600017 0.059459414 -0.04951842 -0.040338036
0000f0 c8 c0 48 3c d8 81 0c bb 98 33 4e bc e4 5b 15 3d
       0.012252994 -0.0021439698 -0.012585543 0.036464587
000100 07 9c d6 bd 1b 02 3b be 53 6d 5c 3d 1e c0 15 3d
       -0.104789786 -0.18262522 0.053815197 0.03656017
000110 0d bf 34 3e 63 bd 18 3e 41 64 ed 3d ab 80 f3 bc
       0.17651005 0.14915995 0.115913875 -0.02972444
000120 d4 38 26 be 49 e5 ae bd b3 07 45 3b bd cd b8 3c
       -0.16232616 -0.085398264 0.0030064404 0.022559041
000130 43 63 c7 bd 6d 9b 7e 3c be 41 a7 bc f6 e6 36 bb
       -0.097357295 0.015539986 -0.02041709 -0.002790866
000140 ff c6 0c bd 25 83 9b bd 27 7d e7 3d a7 94 0f bd
       -0.034369465 -0.07593373 0.11303168 -0.035053875
000150 08 47 bb bd a8 de 46 bd 58 7e 96 3b 06 67 2c be
       -0.091444075 -0.048552185 0.004592698 -0.16836175
000160 96 5f 27 3e 48 17 c9 bd c2 58 aa bb 21 59 6c bd
       0.16345057 -0.09818894 -0.005198569 -0.057702187
000170 14 19 9f bd 95 ce c5 3c 88 e4 43 bd b3 e8 34 3d
       -0.07768455 0.024146358 -0.047825366 0.04416723
000180 29 95 88 bd ff 40 96 3d 3a be 58 3e 16 c7 87 3d
       -0.06669075 0.07336616 0.21166316 0.066297695
000190 2e c6 05 be bd 82 1f 3d 3b ad 24 bd b7 b6 1e bd
       -0.13063881 0.03894304 -0.040204268 -0.03874847
0001a0 19 ac 77 be e6 45 17 3d 41 9b 28 be 72 40 43 bd
       -0.24186744 0.036931895 -0.16465475 -0.04766888
0001b0 bf e9 ce bc 57 c9 32 3d d2 e9 8f 3d 34 bc b2 3d
       -0.025257943 0.043649044 0.070270196 0.08727303
0001c0 3f dc 86 3d d0 a3 11 3e 8d 37 cd 3d c4 6f 43 3b
       0.06584977 0.14222646 0.10020361 0.0029821256
0001d0 56 8f 1d be 97 cd fb 3d 2b 54 09 be 89 56 62 bd
       -0.1538671 0.122950725 -0.13411014 -0.055258308
0001e0 b3 f6 70 bd 9d 5a 47 bd 05 40 6f bd 6b b8 d7 3b
       -0.05882902 -0.0486704 -0.058410663 0.0065832636
0001f0 17 9e f7 bd 8d 63 57 3d 2e 25 88 3d 51 17 63 bc
       -0.120907 0.052585173 0.066477165 -0.0138605395
000200 86 28 ea bc b8 b6 1e 3d 15 64 32 3d e1 2a 09 bd
       -0.028583776 0.038748473 0.043552477 -0.033488158
000210 91 e6 b8 3c 12 6c 28 bd b5 65 29 3d 1a a8 a6 bb
       0.02257088 -0.04111869 0.04135676 -0.0050859572
000220 f3 c1 72 3d 01 65 b5 bd aa b9 d8 bd 20 23 14 3d
       0.059266996 -0.088571556 -0.105822876 0.03616631
000230 9d 5c 02 be dc b9 88 3c b6 dd 58 be 4b 46 98 3d
       -0.12730642 0.016690187 -0.21178326 0.07435282
000240 28 a3 1e be 39 9b 9d 3d 63 c6 61 be a1 39 8c bd
       -0.15491927 0.07695622 -0.22048335 -0.06846929
000250 eb a8 d2 bd b2 a9 5d bd b0 9d 46 be 5a 83 e5 bd
       -0.10286125 -0.054116912 -0.1939609 -0.11206694
000260 dc 51 3e 3e 48 e1 59 3d 74 67 5e 3d c7 5a ac bd
       0.18585914 0.05319336 0.05429788 -0.08415752
000270 b9 a2 50 be 0a f8 db bd 79 41 f0 3d 0f 7c 58 3c
       -0.20374574 -0.10740669 0.11731238 0.013213172
000280 2c c9 75 bd af 0e d0 bd 32 80 fb bd cc 68 06 3d
       -0.060006306 -0.10159051 -0.12280311 0.032814786
000290 70 6f 07 3d cf f7 eb bc a5 f7 62 3d 12 ee 02 be
       0.03306526 -0.028804688 0.055411953 -0.12786129
0002a0 61 44 af 3d 12 67 1f 3b 3d b3 85 3d ff ac 35 3d
       0.08557964 0.002432291 0.065283276 0.044354435
0002b0 b5 4d a6 bd 9c 6a d3 bd a2 a8 6a bc 24 9d d5 bd
       -0.0812029 -0.103230685 -0.014322432 -0.10430363
0002c0 79 13 d9 bd 75 bf 9a bd 5a 7d 8c 3c 67 bc 1a be
       -0.10599417 -0.07556049 0.017149616 -0.15110932
0002d0 9e 28 79 be b6 40 2d 3c 9b 78 6c bc c4 a4 c7 bd
       -0.243319 0.01057451 -0.014433051 -0.097482234
0002e0 b1 e3 68 3d 77 d1 69 bd 93 b5 89 3d 2e 3e 5b 3d
       0.05685777 -0.057084527 0.06724086 0.053526096
0002f0 72 38 a2 3d 03 2c e3 3d 22 7c 91 3d d2 51 36 3c
       0.07920922 0.11092379 0.071037546 0.011127906
000300 08 68 37 3e ca 8b 22 be f8 6b 6c bd d8 c8 5e 3d
       0.17910779 -0.15873638 -0.057720155 0.05439076
000310 3a dd ef 3d d3 96 9a 3d b1 89 ca 3c f6 3e 1e 3c
       0.117121175 0.07548299 0.02472386 0.009658566
000320 bd bb cc 3d de 7b 68 3c 26 c0 3e bd 23 86 fa 3d
       0.09996746 0.0141896885 -0.046569966 0.12232616
000330 02 e5 5a 3d a6 77 d2 bd 95 b4 cd bb 48 04 2b bd
       0.053441055 -0.102767274 -0.0062776306 -0.04175213
000340 8b b0 86 3d 13 f0 20 3d f2 27 e2 bb c4 b1 31 3d
       0.06576642 0.039291453 -0.0069017345 0.04338242
000350 3d 8b c0 bd 18 13 e8 3d a9 64 a7 bd ef 5d 89 bd
       -0.094015576 0.11331767 -0.08173496 -0.067073695
000360 d1 93 bf bd f9 1c c8 3d c8 f8 9d bd fe ab 8e bd
       -0.093543656 0.09771151 -0.07713467 -0.06966399
000370 eb 22 7a bd 80 b6 c0 bd 36 08 bc 3d ad 47 05 3e
       -0.061068457 -0.09409809 0.091812536 0.13015623
000380 82 b0 9e 3d a9 c2 2c bd af 63 87 3d c6 52 28 bd
       0.0774851 -0.04217783 0.0661081 -0.041094564
000390 7b 55 7a bc 5c 08 e7 bd ca 60 3e bb 5d 46 6e 3d
       -0.015279169 -0.11280891 -0.002904939 0.058172572
0003a0 5f 24 c7 bd ef 39 e1 3d 05 89 07 bd 50 54 20 bd
       -0.09723734 0.10997378 -0.033089656 -0.039142907
0003b0 4b e7 da bc b9 58 ba bd b3 44 65 3b 82 0a e3 3b
       -0.026721617 -0.09098954 0.0034983575 0.006928743
0003c0 70 12 8b bd 41 98 03 3e 04 a5 be bc 2b e2 25 3d
       -0.06790626 0.12851049 -0.023272045 0.040498894
0003d0 36 f3 0f bd f1 33 13 3d bc 6d 94 3d 07 43 25 3c
       -0.035144053 0.035938207 0.07247493 0.010086781
0003e0 b2 3e 3f 3e dd ca c0 3d ea ef 34 be ac 54 02 bd
       0.1867626 0.09413693 -0.17669645 -0.03181903
0003f0 a3 9e 3f be 9b 9e 53 3c 99 77 07 be ae f2 6e 3d
       -0.18712859 0.012916232 -0.13229217 0.058336906

network_body._body_endoder.seq_layers.2.bias f4 [128]
000000 01 83 09 3d 39 14 8e bd 1d 8b a6 3c 5f 5c 80 bc
       0.0335722 -0.06937451 0.020330006 -0.015669046
000010 a7 ea e8 3c 35 d2 91 3c 6e ad 8c 3c 94 e1 31 bc
       0.028432203 0.01780043 0.017172541 -0.010857005
000020 23 ab f0 bc d1 ea ed 3c 63 a9 00 bd 36 8e ff bc
       -0.02937848 0.029042633 -0.03141154 -0.031195741
000030 70 25 a3 bc 5e 17 31 3d 72 bc b1 bc d7 1e 49 bc
       -0.019915313 0.043235175 -0.021696303 -0.012275419
000040 41 84 2b bd a9 9a 38 3c 0c eb 67 3c 26 96 30 3c
       -0.041874174 0.011267343 0.014155161 0.010777986
000050 d5 8a 72 bc fb 59 bb bc 43 24 0f 3c ea 0e 16 bd
       -0.014803608 -0.022870054 0.008736673 -0.036635317
000060 86 9c 22 bd 93 38 65 bd e5 ca 9c bc 15 da 51 3c
       -0.039700054 -0.055962157 -0.019139716 0.012808342
000070 08 de 07 bd cc e0 07 3c 22 91 14 bc 5b 9e 9c 3b
       -0.03317073 0.008293342 -0.0090678055 0.0047796196
000080 39 a1 06 bc fa ef c4 bc c5 f5 14 bc 89 fc 2d bd
       -0.008217149 -0.024040211 -0.009091799 -0.042477164
000090 49 b3 d4 bb 75 39 58 bc 48 77 0b 3c 71 c3 59 3c
       -0.006491099 -0.013197293 0.008512326 0.013291226
0000a0 8d 8c 9a 3a 5d 7b eb bb 4e 2d 00 3d ac 8b 5e 3a
       0.0011791155 -0.007186337 0.031293206 0.00084894407
0000b0 ca 49 2e bd d1 6f 19 3d 20 a3 e8 bc 44 87 85 bc
       -0.04255084 0.037460152 -0.028398097 -0.016299851
0000c0 99 bf 65 3c a6 33 1d 3d 2b c0 ca 3c 50 17 29 bd
       0.014022731 0.038379334 0.024749836 -0.041282
0000d0 e4 dd 45 3d e7 fd 47 bd c9 47 e8 bb 15 d0 c4 3c
       0.048307315 -0.048826125 -0.0070886356 0.024025002
0000e0 42 67 41 bd a6 53 51 bc e8 d1 9c ba 7f 37 66 3c
       -0.047217615 -0.012776291 -0.0011964412 0.014051317
0000f0 68 76 e3 bc ed 3e 16 bd d0 b3 26 bd 61 6f bd 3c
       -0.027766421 -0.036681104 -0.040698826 0.023124399
000100 0c 6d 27 bd f0 86 08 bc 7c 1c 43 bd bc 08 89 bc
       -0.04087548 -0.008332953 -0.047634587 -0.016727798
000110 c7 04 75 3c 3c 02 f8 bc 7c f5 1c bd 96 40 6b bc
       0.014954752 -0.030274503 -0.03832005 -0.01435866
000120 46 0a 1d 3c 5c ad 95 bc dd 48 84 3b e0 89 81 bc
       0.009584969 -0.01827114 0.0040370063 -0.015812814
000130 ff 9f f6 3c f2 07 c5 3b 64 d1 be 3c 2b 14 99 3b
       0.030105589 0.00601291 0.023293205 0.0046715937
000140 0f 8c f4 bc 7e 08 ce 3c 2a c6 25 bb 27 d2 7d bc
       -0.029851941 0.025150534 -0.0025295117 -0.015491999
000150 45 ec f1 bc 1b b0 e9 bc f2 d0 0d bd c0 9f 29 bd
       -0.029531607 -0.028526356 -0.034623094 -0.041412115
000160 d0 9c 98 bc 52 42 9a 3b a1 f6 af 3c 03 cf 2c bd
       -0.018629462 0.004707613 0.021479907 -0.04218961
000170 8e 3b 9e 3c de f1 c1 3c f9 33 b7 bc 4a d3 11 3d
       0.019315507 0.023674902 -0.02236365 0.03560189
000180 11 4f 73 3c 1b a9 0a bd 81 21 c7 bc b2 a3 ed bc
       0.014850394 -0.033852678 -0.024307968 -0.02900872
000190 96 7d a9 3b f9 5f 1c bc 7a 28 d8 bc 79 03 fb bc
       0.0051724417 -0.009544366 -0.026386488 -0.030641304
0001a0 bf 3a 4d 3c 3e e6 4d bc e5 d4 71 bc ef 85 28 3a
       0.012526213 -0.012567101 -0.014760231 0.0006428649
0001b0 5e a9 66 bc 34 28 55 bd e2 4c 95 bc bf fb ee bc
       -0.014078466 -0.052040294 -0.018225137 -0.029172776
0001c0 68 9d 8e bc d0 07 24 bc e3 d5 d6 bc 6d f5 f0 3c
       -0.017409042 -0.010011628 -0.026225036 0.029413903
0001d0 11 c4 ab 3c 53 ba e2 ba 9a 2b fa 3c 0f 65 48 bc
       0.020967515 -0.0017297961 0.030538369 -0.0122311255
0001e0 d9 2e 81 bd 72 1a a1 bc 87 74 11 3d e7 ba ca bc
       -0.063077636 -0.01966593 0.03551152 -0.024747325
0001f0 67 a3 0e bd cc c0 4d bc 75 da d8 3b 2b 70 1e 3c
       -0.0348238 -0.012558173 0.006617839 0.009670298

action_model._continuous_distribution.log_sigma f4 [1, 4]
000000 8a 97 9a bd 23 b3 b0 bd 36 81 02 bd f7 b1 24 be
       -0.07548435 -0.086279176 -0.031861506 -0.16083513

action_model._continuous_distribution.mu.weight f4 [4, 128]
000000 8e 0b 16 3c b7 e9 12 3d 70 b4 6e 3d 7f 24 02 bc
       0.009158028 0.03586742 0.058277547 -0.007943272
000010 b1 45 85 bc 19 c9 99 3c 4e 32 57 bd 54 9d 5a bd
       -0.016268583 0.018772649 -0.05253821 -0.053372696
000020 c4 45 81 3d b8 81 05 3c c2 5d 54 bb b3 e7 20 3d
       0.06312135 0.008148603 -0.0032404517 0.039283466
000030 29 1e 4d ba 0c 22 f3 bc 2e d5 fd 38 7b 1f 6c bc
       -0.00078246236 -0.02967932 0.00012103688 -0.014411802
000040 4b a8 91 bb 66 ca 45 bc df 8e 1b 3c 96 71 ba bb
       -0.004445111 -0.012072181 0.009494512 -0.00568981
000050 54 8a b0 ba cf 33 33 3d 95 cd 49 3c cd 5d e8 bb
       -0.0013468959 0.04375058 0.012317081 -0.00709126
000060 c2 b2 9d bc c4 2c 90 bc 8b 21 5f bd 69 2b da 3b
       -0.019250277 -0.01759947 -0.05447535 0.006658007
000070 c2 3b e6 3a b9 b7 3d bc 4d 54 5b bc 42 b8 01 3d
       0.0017565417 -0.011579447 -0.013386798 0.031669863
000080 18 78 44 bd 85 98 96 bc 37 3e 0c 3c e4 9b 93 3b
       -0.047966093 -0.018383274 0.008559755 0.0045046676
000090 74 c2 28 3d 55 6f 2f bd 40 30 bc 3c b2 c6 dd 3c
       0.04120107 -0.042830784 0.022972226 0.027072284
0000a0 a6 fe 6a bd 1d 34 8c 3d 52 9b 39 3c 65 45 99 bc
       -0.057371758 0.06845877 0.011328535 -0.018709848
0000b0 d9 7b fa 3b ed 6d a0 3b 90 cb ea bc 63 7b 2d bd
       0.0076441583 0.0048959167 -0.02866152 -0.042354
0000c0 ca 9f d4 3c 06 18 3a bc df 12 2b bd b7 62 b5 bc
       0.0259551 -0.011358267 -0.041766044 -0.022141797
0000d0 0a fa a0 3c b0 b6 04 bd 90 69 a9 3c 26 3a 40 bd
       0.019650478 -0.032400787 0.020680219 -0.046930455
0000e0 b3 5e 32 bd d8 e7 34 3c d3 75 47 3c 43 13 20 bd
       -0.043547343 0.011041604 0.012174088 -0.03908087
0000f0 01 f0 24 3d fc dd a2 bc 7f 82 1d bd 8d a1 a0 bc
       0.040267948 -0.019881241 -0.03845453 -0.019608283
000100 73 a9 20 bc b1 08 00 bc 49 28 be 3c b2 24 d6 bb
       -0.009806025 -0.007814572 0.023212569 -0.006535136
000110 1a ce 2b bd c3 a7 aa bb 27 f7 88 bc e9 bb 25 bd
       -0.0419446 -0.005207987 -0.016719414 -0.04046241
000120 4d 54 82 bd 04 73 ac 3c f4 95 8a 3c fd a8 01 3d
       -0.06363735 0.021050937 0.016917206 0.0316553
000130 a1 37 8a bb db 03 09 3c f9 82 b4 3b 74 af e2 bc
       -0.0042180573 0.008362736 0.005508777 -0.027671553
000140 0b d1 ef 3b 27 91 80 3d f1 e9 53 bc 03 2c 32 3d
       0.007318621 0.062776856 -0.012934194 0.043499004
000150 f5 b4 7c bb ef c0 48 3c b4 6d 58 bd d9 68 48 3c
       -0.0038560007 0.01225303 -0.052838996 0.012232029
000160 fc e2 a8 bc ad 28 78 3c a3 86 b0 3b 8b 12 1f 3c
       -0.020616047 0.015146417 0.0053871437 0.009709011
000170 09 30 49 bd 4b 28 06 3b 2c 68 4d bd 1d a7 6b 3d
       -0.049118076 0.0020470794 -0.050148174 0.05753242
000180 94 15 b9 bb cf b0 26 3d 38 8f 81 bc 95 8e 60 bd
       -0.0056483243 0.04069596 -0.015815362 -0.054823477
000190 9a b3 09 bd 66 52 fe 3c 1b cf d7 3b 4e 75 11 3c
       -0.033618547 0.03104515 0.006585968 0.008878065
0001a0 69 b1 2a 3c d2 5a b4 ba e7 a2 c1 bc f6 bd 11 bd
       0.010418274 -0.0013759977 -0.023637248 -0.03558155
0001b0 17 86 ae 3c 0a 58 b5 bc 3c 9d 57 bc be 93 18 bc
       0.021304173 -0.022136707 -0.013160046 -0.009312568
0001c0 f6 12 1a bc c4 b0 d9 bc 37 2a 18 bd 5c 97 79 b7
       -0.009403935 -0.026573546 -0.037149634 -1.4876798e-05
0001d0 e2 34 2c 3c e1 b1 9b 3a 70 fb 56 3c c4 a4 dc bc
       0.010510655 0.0011878574 0.013121471 -0.026934035
0001e0 fd a1 22 3c fb fa 13 bd 5e 7a c1 bb 02 51 23 3d
       0.009926316 -0.036128026 -0.00590448 0.039872177
0001f0 f7 35 a2 3c f4 ef 1d bd 85 2b d3 bc 9b 14 cf 3c
       0.019801123 -0.038558915 -0.025777588 0.02527838
000200 cc ca e7 bc b9 14 57 3c 83 2d 33 bc 4a 4c 6e 3d
       -0.028294943 0.013127499 -0.010936144 0.058178224
000210 e6 39 85 bd c8 40 e2 3b 2f 45 22 bd bd 56 f5 3c
       -0.06505184 0.006904695 -0.03961676 0.029948587
000220 72 b0 ca bc bf c5 ae 3c 9b 5e 01 3d 3d 4a 0b bd
       -0.024742339 0.021334527 0.031584363 -0.034006346
000230 72 92 94 bc 14 2e 9c 3b 79 00 f8 3c 79 9c e8 ba
       -0.018136237 0.004766235 0.030273663 -0.0017746828
000240 59 3b 21 bb 0a 9c de bc f3 6c 16 bc 66 51 55 3b
       -0.0024602024 -0.027174015 -0.009181249 0.0032549738
000250 ed 25 a4 bc af 5e 81 bc 45 5d d4 bc 0a 37 86 bc
       -0.020037616 -0.015792219 -0.02592338 -0.016383667
000260 10 d9 00 3d b3 5f 03 3c 35 46 d6 b9 91 95 89 bc
       0.031457007 0.008018422 -0.0004086957 -0.016794952
000270 da 63 16 3c 54 df 30 3d 8e 31 63 bd 67 60 c2 bc
       0.00917908 0.043181732 -0.05546718 -0.023727609
000280 b4 fc 91 bb 58 a4 ce 3b 4d 8a 6c 3c 52 38 db 3c
       -0.0044551734 0.0063062124 0.01443727 0.026760254
000290 3e aa fd bc af fa c0 3c 5f a9 e4 3c 16 31 8e bc
       -0.030964967 0.023557035 0.027912794 -0.01735739
0002a0 bc 31 22 bc 7a 97 4e bc 3f 68 5e bc b3 1d 20 bc
       -0.009899553 -0.012609357 -0.013574659 -0.009772706
0002b0 21 4e 27 3d c3 5e 24 bd 20 66 85 bc 33 df 98 bc
       0.040845994 -0.040129434 -0.016284049 -0.018661117
0002c0 5b f9 6a bd 3d 42 7d bd 55 e9 b1 bc 0b 5d 84 3a
       -0.05736671 -0.061830748 -0.021717707 0.001009853
0002d0 50 24 93 bd fa 9f c2 3b 14 8f 96 bc 15 37 0d bd
       -0.071846604 0.005939481 -0.018378772 -0.03447636
0002e0 3e 10 a7 3c 59 cd 69 bc 9e 64 75 bb 97 41 c2 bc
       0.020393487 -0.01427015 -0.0037444006 -0.023712916
0002f0 c4 3c cc bc 9d 8b bc 3c 0b bd b5 bb 15 c1 e5 ba
       -0.024931319 0.023015792 -0.0055462173 -0.0017528856
000300 7e b7 06 3c 1c 44 8b bc 5c 4d 07 3d a7 c4 e6 bc
       0.008222459 -0.01700025 0.03303276 -0.028169943
000310 3f d1 06 bd 82 c1 2f 3d ed 48 c9 3c ec ba 7b bc
       -0.032914396 0.042909153 0.024570907 -0.01536439
000320 07 b1 0b ba 75 81 85 bb 7d 5f c4 bc 38 06 cd 3d
       -0.00053288083 -0.0040742704 -0.023971314 0.10010952
000330 ab 14 65 bd b8 76 8a bc 0f 17 30 bd ba 7a 0b bd
       -0.055927914 -0.016902313 -0.04299074 -0.034052588
000340 21 9b 00 bd 9b dd 35 3d 49 e5 b5 3c 90 96 2a 3b
       -0.031397942 0.044400793 0.022204058 0.0026029684
000350 53 a0 9a bb b6 fc 45 3d dc 3f b9 3c 51 4f 7e bc
       -0.004718819 0.048336707 0.022613458 -0.01552184
000360 88 e5 27 bc 96 a6 fc bc 64 3f 90 bc 09 b9 c2 3c
       -0.010247596 -0.030841153 -0.017608352 0.023769872
000370 84 61 eb 3b 43 22 c0 bc 36 ba d9 3c 8f e7 c5 bb
       0.0071832556 -0.023453837 0.02657805 -0.006039567
000380 56 01 5e bc ea 83 32 3c 44 8d 4f 3b 5c f6 3d 3a
       -0.013550123 0.010895709 0.0031669894 0.0007246488
000390 f6 c1 07 3b da 45 b2 bb 22 5c 06 ba 3c 68 aa 3c
       0.0020714975 -0.005440456 -0.0005125423 0.020801656
0003a0 e9 4d 16 3c 8b d4 ab 3a 48 57 eb bc 11 a3 41 bd
       0.009173849 0.0013109607 -0.028728142 -0.047274653
0003b0 c5 ce 33 3d 34 27 ce 3c 66 d3 1d 3d ce c8 0d 3c
       0.043898363 0.025165178 0.038531683 0.008653833
0003c0 9b 3e 38 3c f3 5f 11 3d 58 a0 dc ba c7 1e 6a bd
       0.011245395 0.035491895 -0.0016832454 -0.057158258
0003d0 f9 48 d8 bc 06 17 b0 3c fc 74 a7 bc 35 3b df bb
       -0.026401984 0.021495353 -0.020441525 -0.006812478
0003e0 ad 8a ef 3c 0a 2e ab 3c db 65 84 bd af f1 f2 3b
       0.02924093 0.020895977 -0.0646474 0.007414065
0003f0 fa 51 e8 bb 0c 5b 0b 38 2b 86 20 ba 3e c7 24 3d
       -0.0070898505 3.3224977e-05 -0.0006123508 0.040229075

action_model._continuous_distribution.mu.bias f4 [4]
000000 db f2 ef bb 84 78 1d bd a2 82 4d 3c c5 34 04 3b
       -0.007322652 -0.03844501 0.012543352 0.0020173055

exp_avg f4 [128, 4]
000000 78 53 c5 39 6a f0 cc ba 28 2b 9b b9 b8 80 a2 ba
       0.00037636957 -0.0015635614 -0.00029596058 -0.001239798
000010 b2 1f 19 3a e0 e3 4c bb e6 da 10 3b 76 9e 99 ba
       0.000584121 -0.0031263754 0.002210313 -0.0011720199
000020 f0 b6 86 39 6f a6 72 ba cc c9 7a 3a af 44 c2 ba
       0.0002569477 -0.0009256368 0.0009566813 -0.0014821495
000030 f6 e9 d1 3a 59 96 a9 ba 1b 26 30 3a 9c 7c 04 bb
       0.001601516 -0.0012938484 0.00067195453 -0.0020215875
000040 5e 34 72 ba aa 7a dd 3a 8e ff f8 b9 8a f0 b8 3a
       -0.00092393707 0.0016897519 -0.0004749265 0.0014109772
000050 f6 b5 07 3b 1a 97 46 bb 42 b2 2c 3b dd 12 44 bb
       0.0020707822 -0.0030302466 0.0026351367 -0.002991847
000060 82 3e ac b9 3e c6 47 ba 29 d1 07 3b 9c 60 b9 3a
       -0.00032852968 -0.0007620788 0.0020724034 0.0014143172
000070 cd 3a d0 b9 42 e8 e7 b9 47 84 7a ba 0c 67 07 ba
       -0.00039716662 -0.000442328 -0.0009556454 -0.00051651965
000080 28 dd 31 3a c0 17 0f bb b8 dc 8b 3a 14 0f 9c 3a
       0.0006784969 -0.0021834224 0.0010670638 0.0011906349
000090 84 b6 73 3a fc fc 1e ba 0a 77 82 39 87 60 95 3a
       0.00092969113 -0.0006064919 0.00024884223 0.0011396565
0000a0 3e d6 21 bb c0 54 ae 3a 6d c9 2f 3a 0a 4c 17 3a
       -0.0024694349 0.0013300404 0.0006705735 0.00057715236
0000b0 a9 fd 0e 3a 53 3e 43 bb 4e e4 c7 3a 8a ea bc 39
       0.00054546684 -0.0029791787 0.0015250535 0.000360329
0000c0 5a 73 eb 3a f0 72 3b bb 78 0d 95 3a b8 df 12 bb
       0.0017963455 -0.0028602444 0.0011371812 -0.0022411179
0000d0 37 6d 82 ba 1f d3 72 bb 14 fe a0 39 f6 40 ad 3a
       -0.0009950761 -0.0037052108 0.0003070688 0.0013218212
0000e0 d8 77 95 ba 24 f0 e9 3a 3f 95 9a ba 9b 06 21 ba
       -0.0011403514 0.0017848057 -0.0011793746 -0.0006142647
0000f0 5a de 98 3a cc 0d c6 ba 80 fa 9a ba 3e 03 2e 3a
       0.0011662946 -0.0015110313 -0.0011823922 0.00066380564
000100 ab 4f 2b bb d2 43 bf 3a b5 30 bd 3a 7a 2a 74 ba
       -0.0026140015 0.0014592356 0.0014434071 -0.0009314191
000110 ec c3 8b b9 de 48 f5 39 56 83 13 ba 40 fb 14 b8
       -0.0002665812 0.00046784332 -0.00056271756 -3.5519945e-05
000120 a8 c4 4d 3a ba c7 23 bb d9 e6 a3 3a bf df 91 ba
       0.00078494335 -0.0024990872 0.0012504711 -0.0011129304
000130 01 5c fa 3a 17 8f 8a 3a 18 6e 03 bb 15 5b 0d bb
       0.0019100906 0.0010571209 -0.0020054635 -0.0021569182
000140 fd 18 48 39 1e 81 6f b9 45 a9 81 39 c4 18 e7 b9
       0.00019082795 -0.00022840916 0.00024730913 -0.00044078205
000150 74 cf 27 ba 92 22 e1 39 9c 3e 43 bb 70 de a1 b9
       -0.00064014574 0.000429411 -0.0029791957 -0.00030874042
000160 70 ff b6 3a 16 8a 66 bb 80 2b c6 38 fe 97 d2 b9
       0.0013961624 -0.003517752 9.449478e-05 -0.00040167564
000170 f1 f6 c0 39 2e 0e e4 ba af de 69 3b a4 2e 9a 39
       0.0003680508 -0.0017399245 0.0035685708 0.0002940792
000180 a2 a6 7c 3a cf 10 4e 3a 86 75 3a 3b 35 f8 06 bb
       0.00096378673 0.0007860781 0.0028451397 -0.002059472
000190 89 c2 1d ba 74 6f 9a b9 a0 69 91 ba ba 55 95 3a
       -0.00060180627 -0.00029456208 -0.0011094101 0.0011393346
0001a0 78 8a e5 b9 0a 5b 1c ba 99 48 63 3a 07 e6 77 3a
       -0.0004378145 -0.00059644936 0.00086701807 0.0009456579
0001b0 5c a2 60 38 bf 8a 00 ba b3 c4 c4 39 09 54 d9 3a
       5.355697e-05 -0.0004903487 0.00037530586 0.001658083
0001c0 ae 06 67 3a 65 db 11 bb 6e e8 b6 3a 07 44 2c bb
       0.0008812946 -0.0022256013 0.0013954767 -0.0026285665
0001d0 37 d4 38 b9 9c 40 7d 38 2a fc 03 3a ea 87 fa b9
       -0.00017626664 6.0380073e-05 0.0005034829 -0.0004778498
0001e0 d5 ff 09 3b 6a a8 dc b9 79 b7 55 bb 10 02 a5 b9
       0.0021057029 -0.00042087148 -0.003261058 -0.0003147279
0001f0 40 84 e8 38 f9 b8 a6 bb e2 9c 9d 3a 47 10 af 3b
       0.000110872556 -0.0050879684 0.0012024904 0.0053425166
000200 ac eb bd 39 6b 9c a2 ba c0 b3 01 3b 84 21 8a b8
       0.00036224478 -0.0012406235 0.0019790977 -6.5865956e-05
000210 e6 72 c1 3a 98 e0 21 38 e4 79 eb 38 b7 18 fc b9
       0.0014758974 3.859456e-05 0.00011228377 -0.000480836
000220 a3 cb 0b ba ab c8 eb ba a2 d7 cd 39 31 34 6b ba
       -0.00053327734 -0.0017988881 0.00039261306 -0.00089723157
000230 e4 d6 01 3a 3a 79 3d 3b 7a b2 fa b9 24 2f ae b9
       0.00049529807 0.0028911368 -0.0004781669 -0.0003322299
000240 0a 69 d1 39 50 0a 8f ba e0 a9 ad b6 59 2e ae b9
       0.00039941847 -0.0010913108 -5.175578e-06 -0.00033222398
000250 78 ef f4 ba cb 36 d1 3a 1b 84 82 ba 96 2b 1e ba
       -0.001868709 0.0015961764 -0.0009957583 -0.00060337165
000260 dc 8c 82 39 d8 06 39 ba 26 44 91 3a 31 cf 8a ba
       0.0002490048 -0.000705821 0.0011082932 -0.0010590312
000270 78 22 d4 b8 a2 5d b3 bb fd 20 bf ba b4 b4 7b b9
       -0.00010115368 -0.0054738084 -0.0014581975 -0.00024004543
000280 7d 6f 31 3a 24 1c a0 b8 3c 83 32 3a 90 ec 37 b9
       0.0006768627 -7.634636e-05 0.00068097166 -0.00017540366
000290 d9 1d e6 3a f4 f0 08 3a 4b 33 15 3a c5 91 d7 ba
       0.0017556503 0.0005223893 0.0005691542 -0.0016446641
0002a0 96 4d 28 3a c9 97 29 ba 4c 0e 95 ba e4 3d c7 39
       0.00064202526 -0.0006469456 -0.0011372059 0.0003800235
0002b0 45 ac 00 3a 42 26 65 b9 b4 89 de 3a 88 75 34 39
       0.00049084827 -0.00021853394 0.0016978295 0.00017209921
0002c0 e8 82 1f bb b5 2e ea 39 fc 94 6d bb be ef 3a 3b
       -0.00243395 0.00044666757 -0.0036252132 0.0028524245
0002d0 96 f1 71 3a 88 1e 64 ba d9 5a cc ba 04 ce 9c 39
       0.00092294195 -0.0008702059 -0.001559104 0.00029908132
0002e0 83 24 9c 3a 6a 2c f3 ba 45 18 02 3b 49 c2 ff ba
       0.0011912737 -0.0018552665 0.0019850892 -0.0019512858
0002f0 c0 d6 00 38 ed a7 df ba d0 11 37 b8 a4 b3 49 3b
       3.071758e-05 -0.0017063596 -4.364719e-05 0.003077724
000300 e2 9f 81 3a ef ae a9 ba bc cb 4a ba 5f 57 be ba
       0.0009889568 -0.0012945811 -0.0007736047 -0.0014521888
000310 a6 9c 26 bb 75 19 b2 3a 6e 85 28 ba ae e9 22 3a
       -0.002542296 0.0013587909 -0.0006428574 0.00062146306
000320 70 82 20 ba be a2 8b 39 b2 3c 7c b9 28 f2 f1 b8
       -0.00061229523 0.00026633398 -0.00024055204 -0.000115368806
000330 f6 5f ca 3a aa 08 93 bb 99 28 59 3b a2 06 e1 b9
       0.0015439976 -0.004487117 0.003313577 -0.00042920286
000340 91 55 81 3a b0 1d b6 ba fa 53 0e bb 26 51 86 3a
       0.000986742 -0.0013894346 -0.0021717534 0.0010247573
000350 a2 a8 93 ba 32 6d 88 39 8e 61 50 ba b4 f4 15 39
       -0.0011265466 0.00026021298 -0.0007949107 0.00014300906
000360 b8 b4 c3 ba ee 56 4d 3a 64 03 a0 3a 0f e5 19 ba
       -0.0014931178 0.0007833083 0.0012208042 -0.0005870619
000370 31 85 35 3a fd 59 38 b9 a2 6d f4 39 20 d4 ed b9
       0.0006924449 -0.0001758113 0.0004662099 -0.00045362208
000380 47 e0 14 3a 01 a8 ee 38 b0 3f b4 b8 df b7 32 ba
       0.0005679172 0.000113800175 -8.5949316e-05 -0.000681756
000390 94 68 3a 3a 9c c1 02 39 2a bf f1 ba ec 82 ab b9
       0.000711092 0.00012469891 -0.0018443812 -0.00032713206
0003a0 66 cb 28 ba a8 8b 27 38 58 a1 b0 b8 00 ae f4 38
       -0.0006439 3.9945968e-05 -8.4223866e-05 0.00011667237
0003b0 6d 06 e0 39 13 fd 8c 3a 37 e5 6f ba c4 92 2e ba
       0.00042729397 0.0010756574 -0.0009151282 -0.0006659443
0003c0 ff f0 18 3a 8e 06 d3 ba 64 3f dd 3a 4e 52 0a ba
       0.0005834251 -0.0016099976 0.0016879854 -0.00052765466
0003d0 2b 8a 40 ba c7 8c 88 ba d6 82 9a ba 73 5b 70 3a
       -0.00073448074 -0.0010417931 -0.001178826 0.00091689004
0003e0 56 66 ff 38 a1 04 6f 3a 19 93 ee 39 32 72 f2 ba
       0.00012178409 0.0009117816 0.00045504494 -0.0018497168
0003f0 62 4f 10 bb 96 83 19 3b 34 27 b0 b9 9e 92 8c 3a
       -0.0022019972 0.0023424379 -0.00033598545 0.0010724848

exp_avg_sq f4 [128, 4]
000000 ff e0 11 39 89 c6 e5 38 19 e9 64 39 e6 dc 36 39
       0.00013912095 0.00010956551 0.0002183061 0.00017439164
000010 12 9a 3d 39 94 a0 a9 39 01 ff d3 39 c4 23 a1 39
       0.0001808184 0.00032353832 0.0004043505 0.0003073496
000020 53 8f 4c 39 a3 ac 51 39 5b 57 97 39 e6 51 af 39
       0.00019508348 0.00019996105 0.0002886605 0.0003343962
000030 63 96 ac 38 0a 7d d9 38 08 22 47 39 36 1a 17 39
       8.229611e-05 0.00010370657 0.00018990797 0.00014410247
000040 14 e2 a3 38 67 84 a1 38 77 4b c1 38 35 ca b6 38
       7.814556e-05 7.70174e-05 9.2170136e-05 8.7161e-05
000050 27 33 53 39 2b e2 9c 39 2e 7c da 39 a1 bc 96 39
       0.00020141584 0.00029923147 0.0004167272 0.0002875077
000060 ab 88 93 38 84 e3 8a 38 04 50 d2 38 cf cf dc 38
       7.0349626e-05 6.622731e-05 0.000100284844 0.00010529125
000070 15 87 d7 38 da 5d e3 38 7f 18 48 39 ec a6 5c 39
       0.0001027716 0.00010841685 0.00019082612 0.00021043018
000080 2e 22 81 38 67 8e 94 38 8e a2 ca 38 a0 fa bc 38
       6.157566e-05 7.0837144e-05 9.662389e-05 9.011221e-05
000090 ee a5 06 39 d2 d8 f2 38 b0 b4 0b 39 79 9c 12 39
       0.0001284105 0.00011579845 0.00013323384 0.00013981936
0000a0 37 9a 83 39 92 bd 37 39 a3 1b 87 39 01 83 6c 39
       0.00025101166 0.0001752286 0.00025769798 0.00022555517
0000b0 7b e5 cb 39 70 08 f2 39 28 3f e5 39 60 58 da 39
       0.00038890154 0.00046164123 0.0004372534 0.00041646045
0000c0 30 9f 8b 39 d1 51 c3 39 52 58 e3 39 cc f9 c4 39
       0.0002663075 0.00037254256 0.00043362618 0.00037570146
0000d0 35 eb 52 39 3d 9c 30 39 9b 4c 8a 39 56 f9 a3 39
       0.00020114782 0.00016842871 0.00026378487 0.00031275552
0000e0 d1 01 3c 39 0b ed 1b 39 db 29 62 39 c2 d9 37 39
       0.00017929754 0.00014870257 0.00021568632 0.00017533361
0000f0 2a ec 9d 38 8a 2b ce 38 c5 3b 1b 39 d3 e2 09 39
       7.5303324e-05 9.830955e-05 0.00014804218 0.00013149837
000100 df 25 15 3a 29 dd a8 39 c1 65 ea 39 f4 61 05 3a
       0.0005689542 0.00032208234 0.0004470777 0.00050881435
000110 20 6d f4 38 31 45 34 38 db 3f a5 38 bb 5a c8 38
       0.00011655153 4.2979784e-05 7.879707e-05 9.553643e-05
000120 97 2e 01 39 41 01 03 39 a0 ae 45 39 a8 db 13 39
       0.00012319755 0.000124936 0.00018852437 0.00014100841
000130 71 41 93 39 db 24 72 39 68 18 b4 39 d1 f3 9d 39
       0.00028086783 0.00023092648 0.0003435046 0.0003012703
000140 69 ea 28 38 97 df f9 37 c4 6a 1e 38 8e f6 0c 38
       4.0272633e-05 2.978723e-05 3.776957e-05 3.3608223e-05
000150 5d 27 6d 39 5e 7f 2d 39 ff 0b 8e 39 8c fb 97 39
       0.00022616745 0.00016546014 0.00027093288 0.0002898838
000160 77 8d b1 38 5a 65 09 39 cb a4 10 39 62 61 ea 38
       8.4663676e-05 0.00013103095 0.000137943 0.000111761285
000170 ca d9 35 39 67 9a 31 39 cd 01 66 39 7a 6f 4f 39
       0.00017342638 0.00016937555 0.0002193518 0.00019782587
000180 56 fd bb 38 3b 89 e3 38 28 74 08 39 02 32 1f 39
       8.964042e-05 0.00010849765 0.00013013242 0.00015182051
000190 f7 dd e0 38 35 d4 c4 38 64 f9 17 39 bc b9 f7 38
       0.000107224965 9.385535e-05 0.00014493387 0.000118124735
0001a0 83 ab c7 38 e3 5f d3 38 8b f4 db 38 df 32 e5 38
       9.521006e-05 0.00010079124 0.000104882834 0.000109290464
0001b0 56 c0 4e 38 25 41 51 38 79 fa 4f 38 8d e9 51 38
       4.9293354e-05 4.9890154e-05 4.9585917e-05 5.0046994e-05
0001c0 a1 f6 0d 39 b5 0f 43 39 f6 ce 8d 39 19 75 63 39
       0.00013538684 0.000186025 0.00027047814 0.00021692029
0001d0 d1 15 91 38 9d 19 95 38 4b 40 b1 38 d1 88 f7 38
       6.9182024e-05 7.1096445e-05 8.451993e-05 0.00011803362
0001e0 2e 21 84 39 76 e1 9d 39 8c 64 23 3a 80 a5 03 3a
       0.00025201723 0.00030113355 0.0006232939 0.0005021915
0001f0 7e d1 ab 3a 03 46 60 3a 68 c1 af 3a 5a 6c a2 3a
       0.0013108698 0.00085553544 0.001340908 0.001239191
000200 39 9b 05 39 1f 7c f8 38 99 3f 12 39 5c a9 e9 38
       0.00012741693 0.00011848681 0.00013947337 0.000111418514
000210 41 fe 5d 39 47 e0 5a 39 61 89 85 39 7c 90 a4 39
       0.0002117092 0.0002087365 0.00025470092 0.00031388167
000220 78 29 6c 39 e6 d7 f9 38 8d 15 36 39 9b e1 12 39
       0.00022522162 0.000119134595 0.00017364901 0.0001400769
000230 78 4e 86 39 eb 17 a6 39 f9 27 a1 39 8a af 9c 39
       0.00025616935 0.00031679808 0.00030738095 0.00029885425
000240 6e 25 04 39 1f 01 27 39 5a 1f 54 39 21 53 28 39
       0.00012602445 0.00015926779 0.00020229575 0.00016052696
000250 a5 5d fa 38 0b 3a f6 38 a0 25 f5 38 6b 12 d1 38
       0.000119383716 0.000117410054 0.000116895186 9.969327e-05
000260 09 de a2 38 cc de b8 38 8c 67 19 39 9b 9d d4 38
       7.766119e-05 8.815303e-05 0.00014629791 0.00010138304
000270 a9 c3 f3 39 aa c5 14 3a af 86 0e 3a ef d8 f4 39
       0.0004649435 0.0005675206 0.00054369395 0.00046700935
000280 09 8b 21 39 d4 89 0f 39 a2 e0 49 39 e1 16 50 39
       0.00015405951 0.00013688888 0.00019252536 0.00019844949
000290 5a 20 43 39 65 6b 1b 39 6d b9 69 39 ed 59 39 39
       0.00018608701 0.0001482196 0.00022289688 0.00017676475
0002a0 f7 07 e7 38 96 4e 14 39 6a 27 62 39 80 fb 38 39
       0.00011016422 0.00014143655 0.00021567722 0.00017641298
0002b0 8c ac 3c 39 ca 8c c2 38 0a 8f 1c 39 7b 99 27 39
       0.00017993356 9.276865e-05 0.00014930606 0.00015983537
0002c0 36 2b b8 39 28 8c 93 39 a7 91 e2 39 d5 d1 c5 39
       0.0003512741 0.0002814245 0.000432146 0.00037731105
0002d0 8d 30 37 39 ad 1b 38 39 2e ad ab 39 f1 a6 d5 39
       0.00017470327 0.00017557917 0.0003274469 0.00040750907
0002e0 80 91 38 39 95 31 64 39 91 05 97 39 28 69 7a 39
       0.0001760181 0.00021762245 0.00028805112 0.00023881032
0002f0 df 98 58 38 33 13 9a 38 b1 e5 e8 38 2f 43 b9 38
       5.1640785e-05 7.3468684e-05 0.000111054054 8.834001e-05
000300 7f b2 12 3a f5 71 ca 39 2c b7 13 3a 47 af 10 3a
       0.0005596056 0.00038613347 0.00056349 0.00055192824
000310 4f d1 5f 39 70 4d 36 39 65 fd 7f 39 24 98 6f 39
       0.00021344911 0.0001738572 0.00024413092 0.00022849493
000320 c3 04 35 39 8f f5 2b 39 97 b2 67 39 e1 e7 47 39
       0.00017263279 0.00016399309 0.00022096407 0.000190645
000330 03 69 c2 39 3f 6c 1c 3a 1f a4 43 3a 18 6f 11 3a
       0.00037080803 0.00059670577 0.00074631156 0.00055478653
000340 2d bc 86 39 f4 f9 9a 39 e2 40 f5 39 9d 96 d2 39
       0.00025698674 0.00029559399 0.00046778383 0.00040166537
000350 02 49 01 39 3c 5d 10 39 7f 0e 4e 39 6f 70 54 39
       0.00012329596 0.00013767643 0.00019651091 0.0002025978
000360 86 03 ca 39 79 22 9c 39 58 32 c7 39 00 18 c3 39
       0.00038531068 0.00029780323 0.00037993747 0.0003721118
000370 1d 16 fe 38 29 c5 fb 38 4d 9a 79 39 29 c9 37 39
       0.00012115783 0.000120053366 0.00023803972 0.00017527178
000380 48 a0 f8 38 ea a6 96 38 bc a8 a6 38 85 32 b3 38
       0.00011855416 7.1836475e-05 7.946926e-05 8.544795e-05
000390 32 51 19 39 bc c6 d8 38 c9 00 8c 39 06 fa 77 39
       0.00014621465 0.000103367 0.00026703466 0.00023648897
0003a0 7c b6 06 39 2b 3a fe 38 75 97 46 39 bb b6 3b 39
       0.00012847217 0.000121224984 0.00018939174 0.00017901782
0003b0 52 9f 6b 39 8a 2e 0a 39 55 9b 21 39 68 7e 21 39
       0.00022470698 0.00013178043 0.00015412022 0.00015401246
0003c0 81 20 fe 38 f9 27 cf 38 1b 67 12 39 50 2c 09 39
       0.00012117718 9.877975e-05 0.00013962055 0.00013081846
0003d0 97 9a b5 39 d1 87 cf 39 3f 68 da 39 21 aa 0b 3a
       0.0003463819 0.00039583308 0.0004165787 0.00053277804
0003e0 22 15 c6 38 23 db b0 38 16 f7 a2 38 b9 d6 b4 38
       9.445312e-05 8.4331514e-05 7.770785e-05 8.623064e-05
0003f0 b3 18 7a 39 df e0 2a 39 4c d3 a4 39 66 c7 a2 39
       0.00023851059 0.00016296234 0.00031437946 0.0003104761

exp_avg f4 [128]
000000 ba 30 49 39 ba 29 9c b9 3a 7e b7 b9 00 45 71 38
       0.00019187006 -0.00029785727 -0.00034998526 5.752314e-05
000010 1e 3b 97 b9 8c f3 93 b9 a4 cd e5 b8 75 a6 e8 b8
       -0.0002884501 -0.00028219481 -0.000109578745 -0.00011093627
000020 e4 1a af b8 e8 32 55 b8 81 56 90 38 55 93 11 b9
       -8.349659e-05 -5.0830567e-05 6.882568e-05 -0.00013883163
000030 70 83 84 b8 55 58 f4 38 b2 86 91 38 22 c0 7e 38
       -6.3187326e-05 0.0001165128 6.939228e-05 6.0737257e-05
000040 f2 28 c2 b9 38 3f 0b 39 c2 e4 5c b9 51 0f e3 39
       -0.0003703307 0.00013279624 -0.00021066054 0.00043308226
000050 9b 00 3d 38 2d 80 59 39 5a 74 2f 39 c2 a8 36 39
       4.5061675e-05 0.00020742482 0.00016732645 0.0001741974
000060 22 1a 16 3a b0 77 81 38 b1 11 45 b9 28 0e aa b8
       0.000572594 6.173493e-05 -0.00018793975 -8.1088685e-05
000070 00 db c3 b8 0a fb b2 38 f0 2a 84 39 ec 7a 41 ba
       -9.3391165e-05 8.534461e-05 0.00025208993 -0.00073806825
000080 0c 5e ee 36 c3 e4 ee b8 a2 54 58 b7 a4 0b 3f 39
       7.103901e-06 -0.000113913346 -1.2894308e-05 0.00018219516
000090 28 c0 05 b9 26 4c 0c b9 8a 47 21 b9 e2 ce 51 b9
       -0.00012755452 -0.00013379808 -0.00015380807 -0.00020008863
0000a0 9f b5 1d 39 a8 df c0 39 60 81 24 b7 ea 37 ce b8
       0.00015040346 0.0003678773 -9.805284e-06 -9.83326e-05
0000b0 79 ff 29 ba b0 18 46 b8 29 57 9e b9 18 bf b0 38
       -0.0006484907 -4.722987e-05 -0.00030201048 8.427928e-05
0000c0 60 5f 0b b9 94 d7 04 ba 74 7f e0 38 be 90 fa b9
       -0.00013291603 -0.0005067524 0.00010704892 -0.00047791557
0000d0 c0 a9 ba b6 42 d0 e4 b8 c7 e3 2f 39 f0 c9 07 b9
       -5.5629935e-06 -0.00010910678 0.00016774154 -0.00012949831
0000e0 5d 7a 26 39 c5 f9 04 39 74 83 20 38 8e 45 46 39
       0.00015876578 0.00012681547 3.8269398e-05 0.00018908663
0000f0 72 e4 7f b9 8b 20 03 ba f9 da ce b8 31 7b 0b 39
       -0.00024403798 -0.00050021027 -9.863632e-05 0.00013301965
000100 b7 c8 72 b9 92 58 aa b8 d4 e4 50 b9 38 90 72 b7
       -0.0002315369 -8.122729e-05 -0.00019921671 -1.4457903e-05
000110 a4 74 7a b9 6b 72 47 38 a5 f0 1a 39 f8 01 05 b8
       -0.0002388531 4.7551857e-05 0.00014776232 -3.1711505e-05
000120 b4 12 9b b9 e0 ad a3 36 4f 75 c6 38 e8 a5 5f b8
       -0.0002957784 4.8780203e-06 9.463226e-05 -5.3321855e-05
000130 c9 35 0c ba 61 2f 01 b9 16 ed ea b8 af 76 c8 b9
       -0.0005348591 -0.00012320049 -0.0001120215 -0.000382354
000140 90 4e a3 b7 0b 26 3d 38 14 ad ec 37 e8 75 a0 37
       -1.9467698e-05 4.509654e-05 2.8213988e-05 1.912839e-05
000150 ad cb 80 b9 68 9d 81 39 ba b7 0b b9 58 32 7d b8
       -0.00024565813 0.00024722074 -0.00013324516 -6.0366787e-05
000160 82 14 3c 39 fe 89 b4 b9 54 f3 dd 38 c0 bd 3f 36
       0.00017936717 -0.00034435088 0.000105834246 2.8571667e-06
000170 6b 7f 23 38 ac 2b a2 39 c0 ee c6 38 e0 f0 e2 39
       3.8980896e-05 0.00030931586 9.4858464e-05 0.00043285545
000180 62 2b bb b9 38 ec 0c b9 36 62 0d 3a 2c c4 87 39
       -0.00035699742 -0.00013439439 0.0005393358 0.00025895366
000190 f6 42 55 b9 4a 2b a6 b9 91 aa 81 b9 eb 20 1a 3a
       -0.00020338208 -0.0003169424 -0.0002473188 0.0005879539
0001a0 43 af 9a 39 82 ab e1 38 9e 25 81 b8 5f 35 5a 39
       0.0002950375 0.00010760782 -6.158206e-05 0.00020809982
0001b0 62 66 cb 39 15 1e 68 39 d8 75 97 b9 c2 9a e3 38
       0.00038795458 0.0002213645 -0.00028888765 0.000108530294
0001c0 08 92 13 39 90 6b bb 38 92 1e 18 b9 a8 b3 37 37
       0.00014073413 8.93689e-05 -0.00014507238 1.09494795e-05
0001d0 f0 22 a6 b9 20 be 89 b8 96 b9 87 39 86 cd 02 b8
       -0.00031688018 -6.5680826e-05 0.0002588748 -3.1185824e-05
0001e0 a1 90 24 b9 24 d5 84 b9 fc 10 01 3a 8d 9a 11 3a
       -0.00015694137 -0.00025335804 0.00049234903 0.0005554341
0001f0 1e 36 b5 b7 62 d7 4c 39 22 72 75 39 93 0c 60 39
       -2.1602082e-05 0.00019535192 0.00023407539 0.00021366989
