old_ppo/PoI/PoI-8448.pt (torch, 438180 bytes, 36 tensors)

network_body._body_endoder.seq_layers.0.weight f4 [128, 4]
00000000: 63f1 e3be c5aa c73e f6cf debe f5a7 fdbd
00000010: 3342 f43d c079 943e 3ff8 22bf d597 e93d
00000020: f703 45bd f926 7e3c 7889 57be fab8 16bf
00000030: 523d 823e 0ab1 18bf b13f 05bf e3aa 8e3d
00000040: 2ae8 15bf eb84 01bf b8a5 f83e f755 12bf
00000050: 2a87 a13c c277 c4be fd1e 5abe db50 a4be
00000060: cac2 66bf 79df 27bf 9232 cd3e 9a5d 2ebb
00000070: 97bc 9abe 996d 7f3e c8ed eabe 2278 393e
00000080: 9584 f9be 6880 0e3e b432 bfbe cc03 aabd
00000090: 79e5 cb3e 514a 063f e922 ff3e 2411 3f3d
000000a0: 3130 afbd 0557 bdbe 31e6 a4be a390 823e
000000b0: e5d7 593e 6cc6 a7be cc86 bdbd 0480 ddbd
000000c0: 43d6 103e 8c37 333f f6e6 b83e 90cf e8be
000000d0: 3ef5 46bc 3f0b 223d 3043 b1be 6e1c a0bf
000000e0: d5c4 3e3e f46c 98be 27aa e13d 4fca 3abe
000000f0: 1944 eb3e f038 3b3f 9e2d debe ed0e 0fbe
00000100: 29f1 c8bb 1c07 5fbe 708a 143f 5ce5 023f
00000110: a76c 4cbe 1190 fd3e 34fd 5fbf 0b53 0f3f
00000120: f042 fabe d5b0 33bf e790 f9bd 0e15 55be
00000130: cd54 bdbe 50fb f7be ac22 b2be 6ea5 0dbf
00000140: 9ce5 7e3e d1e6 253f 2104 a9bf 4dbf f6be
00000150: f50c b93e 16ab 01bf ddc7 763f 4f21 c83e
00000160: 27e3 eabd 6c42 063f bc73 a63f 0451 10bf
00000170: b629 083f 6cdf 143f a469 8bbe afef 153f
00000180: da4e 7c3e cda2 513d 310a d3bc 52b7 163f
00000190: 7491 95b9 8311 633d 5545 9ebe d1f8 9bbe
000001a0: ca57 61bd 61a4 9abc 2ed4 1ebf 57cb 953e
000001b0: 3b6d 39bf fda6 4e3f 33f4 14bd 0a5c 003f
000001c0: 337b 1c3f 25cf 153d 3219 943e dd12 66bf
000001d0: e3a6 d13e 6572 98be 2b58 cf3e 6d9e 72bd
000001e0: 1644 733e 123e b4bc 11ad f93d 219b d33e
000001f0: b810 af3e 50c9 febe 0df7 803e 52c1 81bf
00000200: d5a5 92bf ed94 d9be 68ab a2be 5571 47bf
00000210: f558 0dbf 6379 eb3c ac9c e63e 129c 533e
00000220: b20e 6ebe ae87 97be f334 4f3e 3100 af3c
00000230: ac2a 833f 7608 cc3e 4aac 41bf 805f a4be
00000240: 750a e2be d7a5 813f 1fce 713f 91c1 17bf
00000250: e717 3e3e d9d4 06bf 9315 0abc f944 a3bd
00000260: 6f54 983e 5b70 073f 623f 3c3e 471e cc3e
00000270: c427 473e 6c74 803e 803d 193d 3cc6 a3bc
00000280: 201b a6be 12fc 103e cea0 c23d 0790 b3be
00000290: 3696 55be 7adb 68bf 3390 2cbf 38d0 bcbe
000002a0: 5c33 c23d 68e7 c73e 289c 57bf 7608 543f
000002b0: 63cc 53be 7747 9e3c 1c2f 08bf 8ddc c83e
000002c0: 0ad5 fe3d 0962 aa3e dfb4 25be 6b15 2abf
000002d0: 36c5 9ebe 8050 c9be 869a 083f 5833 a13e
000002e0: 1382 bc3e 2c7b 933e 19d4 953e bdab bb3e
000002f0: 4702 b53e 07a5 673e 646b 03be 79a2 c33e
00000300: ecc0 7dbe 4882 e5be 890f 31bf 63ec 97bf
00000310: c880 17be 972f 923d 39a0 bdbe 3940 883e
00000320: 2bff f73e f566 11bf 400b 103f bcf0 8cbd
00000330: ef12 e5be 2089 36be 59d8 01bf 3b53 b93e
00000340: 85eb ea3e 3e7a c23e 1258 7c3c cdf1 3b3f
00000350: f6b5 12bf cf89 923d 53e4 9f3e b669 dd3c
00000360: 95a8 093f 3e9e 1bbe e7b1 0ebe 8cce c83e
00000370: b6e9 24bc ebfc a73e 3b18 4a3f fc79 82be
00000380: c667 253d fb6d 0fbf 8398 9d3c 6db8 693e
00000390: 99df d7be 5ce0 16bf 2741 34be 7885 583f
000003a0: 0ff4 9bbe 913e 7b3f 48b5 2ebf 74be 1a3f
000003b0: 14c4 e63b ac43 21be b68d 68bf b7ee a83d
000003c0: 223d dcbf 3b69 eb3e 8589 0e3e eafe 81bf
000003d0: 1d14 c6bc e017 89bf cc8b 52be 1771 afbe
000003e0: 08f9 b8be e339 073e aadd 27bd d4a3 9e3d
000003f0: 8a03 dbbe 89b3 6e3e d302 fe3d 202e 81be
-0.445201 0.38997474 -0.43518037 -0.12385551 0.11926689 0.28999138 -0.63660043 0.11405913
-0.048099484 0.0155122215 -0.21048534 -0.58876 0.2543741 -0.5964514 -0.5205031 0.06966188
-0.5855738 -0.5059344 0.48563933 -0.5716242 0.019717772 -0.38372618 -0.21300884 -0.32092938
-0.90140975 -0.6557537 0.40077645 -0.0026606084 -0.30222008 0.24944152 -0.45884538 0.18112233
-0.48733965 0.1391617 -0.3734337 -0.083015054 0.3982351 0.5245715 0.49831322 0.046647206
-0.08554114 -0.36980453 -0.32206872 0.25500974 0.21273763 -0.3276857 -0.09254226 -0.10815433
0.14144234 0.7000663 0.3611371 -0.45470858 -0.012143431 0.039561506 -0.34621572 -1.2508676
0.18629773 -0.29770625 0.11018782 -0.18241237 0.45950392 0.73133755 -0.43394178 -0.13970537
-0.006132264 -0.21780056 0.5802374 0.51131225 -0.19963323 0.49523976 -0.8749573 0.5598609
-0.48879194 -0.701917 -0.12185841 -0.20808813 -0.3697876 -0.48433924 -0.34792078 -0.5533055
0.24892277 0.6480532 -1.3204385 -0.48192826 0.36142698 -0.5065168 0.9639872 0.39087912
-0.11469107 0.524451 1.3004069 -0.5637362 0.53188646 0.58153415 -0.27229035 0.58568853
0.24639454 0.05118065 -0.025761696 0.58873475 -0.00028527866 0.055436622 -0.3091227 -0.3046327
-0.055015363 -0.01887721 -0.6204251 0.29256698 -0.724323 0.80723554 -0.0363657 0.5014044
0.6112549 0.0365745 0.28925472 -0.89872533 0.40947637 -0.29774776 0.40496954 -0.059233118
0.23756441 -0.022002254 0.12191213 0.4132929 0.34192443 -0.49762964 0.25188485 -1.0137122
-1.1456858 -0.42496434 -0.31771398 -0.77907306 -0.5521386 0.028744405 0.45041406 0.20665005
-0.23247793 -0.29595703 0.20235042 0.021362396 1.0247397 0.39850205 -0.7565352 -0.3210411
-0.44148603 1.0128735 0.9445514 -0.59279734 0.18563806 -0.5266853 -0.008427995 -0.0797214
0.29751918 0.52905816 0.18383554 0.3986685 0.19448763 0.25088823 0.037412167 -0.019991986
-0.3244257 0.14158657 0.09503327 -0.35070822 -0.20858082 -0.90959895 -0.6740753 -0.36877608
0.09482452 0.39043736 -0.8422265 0.8282541 -0.20683436 0.019321186 -0.53196883 0.39230767
0.12442978 0.3327792 -0.16182278 -0.6643893 -0.31009835 -0.3931923 0.53360784 0.31484485
0.3681799 0.2880491 0.2926338 0.36654463 0.353533 0.22621547 -0.12833935 0.38209894
-0.24780625 -0.4482596 -0.6916433 -1.1869015 -0.1479522 0.07137983 -0.37036303 0.26611498
0.48436865 -0.56797725 0.56267166 -0.06881854 -0.44741008 -0.17825747 -0.50720745 0.36196312
0.45882812 0.37983888 0.015401857 0.73415834 -0.573089 0.07155191 0.31228885 0.027027946
0.5377286 -0.15197083 -0.13935052 0.39220083 -0.010065487 0.3281015 0.7894322 -0.25483692
0.04038217 -0.5602719 0.019237762 0.22824259 -0.4216278 -0.58936095 -0.17602979 0.8457866
-0.3045964 0.98142344 -0.68245363 0.6044686 0.0070424173 -0.15748471 -0.90841234 0.08248656
-1.7206156 0.45978722 0.13919647 -1.0155919 -0.024179513 -1.0710411 -0.20561141 -0.34265968
-0.36127496 0.13205676 -0.04098288 0.077460915 -0.42776138 0.23310675 0.124028824 -0.25230503

network_body._body_endoder.seq_layers.0.bias f4 [128]
00000000: 90bb 59bc 12d8 153b 5381 603a 3309 edba
00000010: e641 d2ba 3525 9f3b 7207 a1bc e1c4 df3b
00000020: ac93 28bb 5f71 aebc 0084 27bc d092 1c3b
00000030: e31f 833c 6d6d 6cbc ad0d 483b dc10 ab3b
00000040: 0afc 1abb edc3 94bc fd10 543b 1bc5 3fbc
00000050: 865e 963b c061 a8bc ce59 bdbb 9a61 c2bb
00000060: db9c 4cbc d1ab 37bb 0712 7cbc fd55 b3bb
00000070: 6659 913a 362f 0abc e702 30bc ffce 61bb
00000080: eb4b a3bc 86ae 85bc 7b1f abba 7fa5 a9bb
00000090: 33d2 40ba 1d12 b13a 51c3 eebb ac91 1fbc
000000a0: 4f9c bcb8 ca7a 95bb 99de 873c c140 e0ba
000000b0: ef25 ebbb 4d73 96bc d321 84bc 1225 87bc
000000c0: 3b30 393c 4783 ad3b 7cc7 5cbc 28db 253c
000000d0: dd4d 53bc 488d 343b a9ce cd3b 6c48 6d3a
000000e0: a413 18bc e095 9eba eb83 9cbb be67 933b
000000f0: c51c e4bb 1f94 bd3b c44f 5dbc aeb4 0cbc
00000100: b3f2 5cbb a685 21bc 09ec f9bb ed50 42bb
00000110: a1c8 d33b 534c 58bb 025b 283b dd92 323c
00000120: 44bb cdbc 5863 b7bb 288d 99bc 7727 1bbc
00000130: 2376 17bc c0f1 713a 5a2a 9dbb 8455 debb
00000140: b833 403a becd 2bbc f6ce 1ebb 555d 303b
00000150: 6ec4 543c e25e 60bc 7424 ae3b 966d e0bb
00000160: 5f0e 6abb 5358 303a 1eff 4d3b d05e b13b
00000170: 9c2e bf3b 0f0f cdbb 1eb1 91bc 4c2e 45bc
00000180: 3f80 60bc 3b13 713b 2dc0 92bb 1181 9dbb
00000190: c14a d1bb 7c3a 8e39 632a d43c 7725 d9ba
000001a0: ff39 9dbb 9dd2 4c3c 3d1b 8f3b 19f3 47bc
000001b0: 9548 3dbc c729 163c ca9d 2abc 803c 293c
000001c0: 6dd8 9ebb d3ec a8bc 6b69 15bc b3ee cc3c
000001d0: eb59 bcbc 0752 053d f61b d4bc 980f 94bc
000001e0: ab19 04bc 7c02 bcbc 564c b2ba 8995 29bc
000001f0: 2d19 8cbc e456 343c 60c8 3abc 9015 6dbc
-0.013289347 0.0022864384 0.00085641927 -0.0018084407 -0.0016041368 0.0048567303 -0.01965687 0.0068288897
-0.0025722785 -0.021294294 -0.010224342 0.0023891218 0.016006416 -0.014430386 0.003052573 0.0052205157
-0.0023648762 -0.018159831 0.0032358759 -0.011704708 0.004588905 -0.020554423 -0.005778528 -0.005932045
-0.012488569 -0.0028025995 -0.015385157 -0.005472897 0.0011089265 -0.0084341075 -0.0107428795 -0.0034455655
-0.019933661 -0.01631857 -0.0013055647 -0.0051771994 -0.0007355541 0.0013509426 -0.007286467 -0.009739321
-8.993653e-05 -0.0045617567 0.016585635 -0.0017109142 -0.007176153 -0.018365527 -0.01612941 -0.016497169
0.011303003 0.0052951905 -0.013475295 0.010123052 -0.012896982 0.002755003 0.0062807393 0.0009051624
-0.009282026 -0.001209911 -0.004776468 0.004498451 -0.0069614374 0.0057854797 -0.013507787 -0.008587999
-0.0033713996 -0.009858524 -0.0076270145 -0.0029650286 0.006463126 -0.0033004477 0.002568901 0.010899273
-0.02511371 -0.0055965595 -0.018744066 -0.009469858 -0.009244475 0.0009229444 -0.0047963085 -0.0067850966
0.00073319254 -0.0104860645 -0.0024232245 0.00269111 0.012986286 -0.013694497 0.005314404 -0.006849001
-0.0035714132 0.00067270285 0.003143258 0.005412914 0.0058344137 -0.0062578986 -0.017784651 -0.012034964
-0.013702451 0.0036785144 -0.0044784755 -0.0048066457 -0.006387085 0.00027127925 0.025899118 -0.0016566952
-0.0047981734 0.012501386 0.0043672607 -0.012203955 -0.011552949 0.009165234 -0.010413596 0.010329366
-0.0048475773 -0.02062074 -0.009119372 0.025016164 -0.022992095 0.03254893 -0.025892239 -0.018073842
-0.00806276 -0.022950403 -0.0013603072 -0.010350593 -0.017101848 0.011007044 -0.011400312 -0.014470473

network_body._body_endoder.seq_layers.2.weight f4 [128, 128]
00000000: f1bf de3c 4a5c 4c3d 59bc ef3d b499 d2bb
00000010: 66e2 0fbc 545d 283e 9fab 353b bca6 5b3d
00000020: 3fc7 8b3d aab8 ec3b 936d d33d 5241 083e
00000030: 14db 99bb d6f9 1abe b015 b3bc 958e abbc
00000040: dd81 693c ba8a 6b3d aafc e1bd 0d61 05bd
00000050: ca17 3b3c 5b1e 1cbc 9703 0d3d c2fb ca3b
00000060: 9e51 153d c65a 65bd 1954 b63c 34cd 883a
00000070: fc13 76bd c47b e23d 5f6b 8cbc 5d11 0dbd
00000080: 2249 14bd 75b2 e2bd c55f a43d 3e6a 77bc
00000090: a118 093d 4ade 91ba 484a c23d c2a3 2f3d
000000a0: 9931 a6bd 2609 d2bd 935f fd3d af75 b63c
000000b0: 5189 91bc 4a13 68bd b788 44bc c707 e23c
000000c0: a7f3 04bd 43b7 b13d 00a0 cfbd b865 b5bc
000000d0: 362b 843d 085e 1d3e 62ae 983d 1af4 253b
000000e0: 4e1b dabd 279f 823c 7860 1cbe 8273 01be
000000f0: a7ad 52bd e401 113c 3557 69bd 87c8 ac3d
00000100: 1be2 443d b198 213d ea55 89bc 4fb1 833d
00000110: 7375 9dbc d470 063d ca37 a8bd 51b5 ea3d
00000120: f3bc f83d c936 ea3d 45f2 f13d 313f 3f3c
00000130: f611 393d ad34 c0bd 8bd6 4bbe 270d f6bd
00000140: b68f fe3d 78d6 283e aca7 38bd 7927 bcbd
00000150: ce44 f23c a354 3a3d 5bdf 633d e2c8 26be
00000160: 82eb 5cbe 0f77 fdbd 9f70 c3bc 93cd 653d
00000170: 70e8 34be 9547 ccbd 3e44 0a3b 7974 023e
00000180: 6401 dcbd ffa5 a4bd aa64 c0bc fab5 61bd
00000190: b301 203e 0b4f 433d 2aa6 163d dbe6 8a3d
000001a0: 7889 15be c247 7d3d 0d9b c63d 0ef8 57bc
000001b0: f5eb ecbc 223a aebd 0dbc 17be 7799 09bd
000001c0: 28a5 dc3d 2738 03be b652 31bd f29e 9fbd
000001d0: f90e b63d a182 cc3d 69e9 eebd 8765 dabd
000001e0: a808 ea3d af4a 9abb 86ae 0bbd fe5e 8d3d
000001f0: 0957 e7bc 21c8 c8bd 2906 a63d b6f7 b53d
00000200: ee7b 4c3d df5c 42bd f7a7 c6bc 28eb 393d
00000210: 01b4 c03d e084 5c3d 7fb7 37be 916f e83c
00000220: 0d4e debb 84e6 9ebd 747e b2bd 7997 04ba
00000230: db9d 253d 113c 12be 99ef a13b 62d0 7ebd
00000240: 6947 c23b 56ad 673d 09ab 93bd 2dca dabc
00000250: 8421 c5bc 90f3 26bd f309 07bd 3f66 f0bd
00000260: 78b1 073e a5c2 8fbc 4fff 9d3c 64d9 cfbd
00000270: daa5 6f3d cc7e fcbd 8645 dc3d 4676 4bbd
00000280: 8c08 083e c11d fcbd a631 093d 7d93 23be
00000290: ed52 923d 6026 1d3e d205 a63c fff8 de3d
000002a0: 4c95 3f3c 0f2d c23d 0254 18bd 78bd 36bd
000002b0: 3aad cc3d e682 bfbd b929 b3bd 8af1 92bd
000002c0: d1d5 ba3d b8db 913d fea7 81bd 6b13 dabc
000002d0: d593 0d3d 98c2 c73d eaf4 9abd 5cc2 43be
000002e0: 8ef7 aebd fa83 6bbe 1c24 45bc 3d72 753d
000002f0: cd5b fabd 80a2 8c3d 7488 1cbe 292d 0bbe
00000300: 5ac4 27bd f059 543e fbf1 f73c 3bda 73bd
00000310: beb1 f4bd ca1c 2cbd d653 ce3d c898 bb3b
00000320: 9b64 99bc c69b 803d 9cc9 e2bc 33b6 713d
00000330: 9d40 df3c 327c 49bc 9a23 bc3d e92f a53d
00000340: 32e9 89bc f4e5 bd3b 43f9 9abd eae4 a23d
00000350: b8a9 1fbe 9471 a2bd 459d 1f3e c016 f8bd
00000360: 4f2e 9e3d cb7f 46be cd57 523d 6378 d2bd
00000370: 9a1a 1bbe 5132 0c3e 22c5 eb3c 5366 b83d
00000380: 5b34 9cbd 3e06 4e3d ebbb b6bc 8208 c53d
00000390: 9f4a 8dbd 39cd e7bd d56e 2d3e 4833 503d
000003a0: c924 51bd dba4 863d 03f1 9f3c 9ebb a43d
000003b0: 9dc5 2dbc f267 af3d f849 e9bc 3956 35bd
000003c0: f253 84bb ccf0 d6bc b849 993c ab4b f9ba
000003d0: c024 21bd cdb5 e8bc 58a3 973d e436 9e3a
000003e0: b4fb 6b3c a67d 87bd 30b4 95bd 77bb 053d
000003f0: 1472 a7bd f156 0dbe 2448 94bd d583 51bd
0.027191134 0.0498927 0.11705846 -0.0064270142 -0.008782005 0.16441852 0.0027720702 0.053625807
0.068251126 0.007224162 0.10323634 0.13306168 -0.0046953056 -0.15134367 -0.021860927 -0.020942012
0.014252153 0.057505347 -0.1103452 -0.032563258 0.011419246 -0.009528722 0.03442725 0.0061945627
0.03645479 -0.05599477 0.022256898 0.0010437132 -0.060077652 0.11058763 -0.017141042 -0.034440387
-0.036202557 -0.11069194 0.08026079 -0.015101014 0.033470754 -0.0011128869 0.09486824 0.04288078
-0.08114929 -0.10255651 0.12371745 0.022272913 -0.017765673 -0.05665902 -0.011995486 0.0275916
-0.032458927 0.086775325 -0.101379395 -0.02214323 0.06453554 0.15367901 0.07455136 0.0025322498
-0.10649739 0.01594503 -0.15271175 -0.12641719 -0.05143514 0.008850548 -0.056967933 0.08436685
0.048067193 0.03945226 -0.0167646 0.06430303 -0.019221043 0.032822445 -0.08213766 0.114603646
0.12145414 0.11436231 0.11813787 0.011672781 0.045183145 -0.09385047 -0.1990606 -0.12014227
0.124297544 0.16488063 -0.04508178 -0.09187216 0.029573824 0.045490872 0.05563293 -0.16287568
-0.21574214 -0.12376224 -0.023857413 0.056104254 -0.17666793 -0.09974591 0.0021097804 0.12739743
-0.10742453 -0.08039474 -0.0234855 -0.055105187 0.15625648 0.047682803 0.03677956 0.067823134
-0.14603221 0.06183601 0.09697542 -0.013181699 -0.028921107 -0.08507182 -0.1481783 -0.03359362
0.107736886 -0.12814389 -0.04329177 -0.07793988 0.088895746 0.09985853 -0.11665613 -0.10663896
0.11427432 -0.00470861 -0.034101985 0.06902884 -0.028239744 -0.098037966 0.08106644 0.08885138
0.049922876 -0.04745185 -0.024250014 0.045390278 0.09409333 0.053837657 -0.17941092 0.028373512
-0.0067842067 -0.07758811 -0.08715525 -0.00050579716 0.040433746 -0.14280726 0.0049418923 -0.062210448
0.005928923 0.05656179 -0.07210357 -0.026707733 -0.024063833 -0.040759623 -0.032968473 -0.11738252
0.13251293 -0.017548868 0.01928678 -0.10148886 0.058507778 -0.12328872 0.10755448 -0.04967334
0.1328451 -0.123103626 0.033494614 -0.15974231 0.07144723 0.1534667 0.020266447 0.10887336
0.01169331 0.094812505 -0.03718949 -0.044614285 0.09993978 -0.09351139 -0.08748192 -0.07174976
0.091228135 0.07121986 -0.0633087 -0.026620587 0.03456481 0.09753913 -0.07566245 -0.19117111
-0.08543311 -0.22999564 -0.012032535 0.0599234 -0.12224541 0.06866932 -0.15286428 -0.13591446
-0.04095874 0.20737433 0.030266752 -0.059534293 -0.11947964 -0.042019643 0.10074584 0.005725
-0.01872473 0.062797114 -0.027684025 0.05901165 0.02725249 -0.012297677 0.09186478 0.08065779
-0.016834829 0.005795235 -0.07567074 0.07953818 -0.15592086 -0.079318196 0.15587337 -0.12113714
0.077236764 -0.19384687 0.051353265 -0.10276868 -0.15146866 0.13691069 0.028780524 0.09003892
-0.076271735 0.05029892 -0.022306403 0.09620763 -0.068989985 -0.1131844 0.1693681 0.050830156
-0.05106047 0.065744124 0.019524103 0.08043598 -0.010606197 0.08564748 -0.028477654 -0.04427168
-0.0040383274 -0.026237868 0.01871191 -0.0019019743 -0.03934169 -0.028407002 0.07404202 0.0012070802
0.014403272 -0.066157624 -0.07309759 0.032649484 -0.081760556 -0.13802697 -0.07240322 -0.051151115

network_body._body_endoder.seq_layers.2.bias f4 [128]
00000000: da85 23bc bdb1 5abc 6903 68bc 05e6 21bb
00000010: e99f bdbb e057 05bc be91 19bc 85d9 5dbc
00000020: e61c 243a 0906 74bc 1071 ccbb a61b 83b9
00000030: ae1f 3a3a 5131 a8bb a67a a8bb fd93 0cbc
00000040: 20c3 acba 35a2 89ba 2869 c8b8 866a 13bc
00000050: 7a69 1dbc af21 7abc 8e0a 94bb f36a 33bc
00000060: 6b98 1d3b c98d 273b 9a45 3dbb c7b6 7abb
00000070: 8b5f 13bc 4b92 48bc c372 32bc 953c 3db9
00000080: 778a 91bb 8d4e a8bc acf3 4bbc e5da 8abb
00000090: 005a ebba 5d7f c83a d2c0 81bb 5eba 9abc
000000a0: f6a9 7fbb 1efc a63a 1bc5 59bc 38a3 72bc
000000b0: 8135 2bbb f9b0 59bc 5552 cbba 7641 22bc
000000c0: d71f 203b 0ce4 47bb afd1 4dba 80ec 9db9
000000d0: 0aba 8b3b 5eef 933b d8f7 b4bb 9f5d 843b
000000e0: 8a83 16b9 ce2b 30bb c731 6abb 3f3a 9e3a
000000f0: 2e67 07bb 281c 3fbb 1fa7 49bc 8d63 c3bb
00000100: 8162 41bb da57 e0b9 ca87 a5bb 0426 b7bb
00000110: a172 bdbb 539c 87ba 6a00 27bc e95d 57ba
00000120: dbfe 0fbc 18d4 ef3a 3cee 5fbb fbbb 1ebc
00000130: 711a fcba 51c7 01bb cd87 713b 02ca 8a3a
00000140: 7dbb f7bb fd84 4dbc 34f4 60bc 083f 0b3b
00000150: a0b4 c4bb ff70 80b9 a931 7cba 1e7a 113b
00000160: c5a7 183b eeb0 4c3b 9b45 30bc 9e36 c1bb
00000170: 7bfc 9dbb 8cb4 6abb 6114 7cbc 107a 32bc
00000180: 6b26 00bc f998 813b 8584 3eb8 8aa3 52bc
00000190: e058 02bc 8091 2d3b 627e c3bb 5725 10bb
000001a0: 6129 98bb 0bbc 90bb fbba c0bb 92ba 293a
000001b0: 1e4d debb 8321 6239 8e93 7fbc c103 ba3a
000001c0: abea 9b3b 53ae adbb 0f97 f4bb edff 833a
000001d0: d567 fc3b 7bbd 69bb 7ca3 26bb b37b b339
000001e0: 8280 d5bb 3ccf 09bc c9e7 ebbb 24cb 20bc
000001f0: 8ad8 0bbc a44f 83bb 012a 23bc d4f1 c738
-0.009980643 -0.01334804 -0.014160969 -0.0024703753 -0.005786885 -0.008138627 -0.009373127 -0.01354063
0.000626041 -0.014894017 -0.006239064 -0.00025006867 0.00071000576 -0.005132832 -0.005141574 -0.008580205
-0.001318071 -0.0010500612 -9.55633e-05 -0.008997565 -0.009607667 -0.01526682 -0.00451786 -0.010950792
0.0024047147 0.0025566688 -0.0028880597 -0.0038255916 -0.008994947 -0.01224191 -0.010891619 -0.00018047013
-0.004441555 -0.020545268 -0.012448233 -0.00423752 -0.0017955899 0.0015296746 -0.0039597536 -0.018887695
-0.0039011217 0.0012739932 -0.0132916225 -0.014809422 -0.002612442 -0.0132868225 -0.0015512208 -0.009903302
0.002443304 -0.0030500917 -0.00078513747 -0.0003012158 0.004264121 0.004514619 -0.0055227093 0.004039481
-0.00014354117 -0.0026881578 -0.0035735236 0.0012071802 -0.0020660865 -0.002916107 -0.012307911 -0.005962795
-0.0029508176 -0.00042790064 -0.0050515877 -0.0055892486 -0.005781487 -0.0010346271 -0.01019297 -0.0008215593
-0.00878879 0.0018297462 -0.0034169098 -0.009688373 -0.0019233954 -0.001980264 0.0036854625 0.0010588767
-0.007560192 -0.012543914 -0.013730098 0.0021247286 -0.0060029775 -0.0002449825 -0.0009620437 0.0022198032
0.0023293358 0.0031233388 -0.010758783 -0.0058964035 -0.004821358 -0.003581318 -0.015385718 -0.01089336
-0.00782166 0.0039550033 -4.542295e-05 -0.012856374 -0.00795576 0.002648443 -0.0059659937 -0.0021994913
-0.0046436046 -0.0044169477 -0.005881665 0.00064746395 -0.0067840954 0.00021565524 -0.015599145 0.0014191793
0.004758199 -0.005300322 -0.0074642967 0.0010070779 0.0077028074 -0.0035665918 -0.0025427034 0.00034233704
-0.0065155635 -0.008411225 -0.007199262 -0.0098140575 -0.008535514 -0.0040072966 -0.009958745 9.5341034e-05

action_model._continuous_distribution.log_sigma f4 [1, 4]
00000000: c329 b9bc f46c 2fbd ca77 27bd 3778 07bd
-0.022602921 -0.042828515 -0.040885724 -0.03307363

action_model._continuous_distribution.mu.weight f4 [4, 128]
00000000: 6add 413b 42d5 0b3c e933 a33a b5c4 9b3b
00000010: ae4c e4bc 065f 4d3b 275c 8cbc e91b 1fbc
00000020: e989 aa3b 815f c9bc fbbe 8d3a 6042 13bc
00000030: d499 8abb ef12 9abb 8316 3dbc 8749 813c
00000040: 696b 903c de02 d63b 9891 353c d85b 173d
00000050: e072 8dbc 76e0 69bc 4951 c73a 8e2e a13a
00000060: f94e 15bb f5d3 afbc 3d04 f2b8 c10b 00bc
00000070: 59b1 aebc 7931 5ebc 9282 033b 9530 843b
00000080: fc95 23bc 9e7c efbb c6b8 4b3c 4be6 5abc
00000090: 16ba 133a f110 59bc 9e61 78bc 99b2 81bb
000000a0: 0889 ccbb 51e6 fbb8 430c 1d3b 3c35 1f3a
000000b0: 7b28 d03b 5eb1 7f3c d707 4d3d 89c8 c3bc
000000c0: c49b 733c 4298 8b3b 0b29 a9b8 6022 bd38
000000d0: 1316 1a3d a927 7a3b ccec a7bc 3600 24bc
000000e0: 04ca ebbc 02dd 593c 137c eebb 1aac 68b9
000000f0: 2ea8 633c 7237 42b9 fab7 233c 0094 d2ba
00000100: 3701 94ba 6c2d 1eba f64d cd3c 782c 513b
00000110: f1ef d2bb 9630 193b d8bc 4ebc d3b0 bdba
00000120: afb1 b43a a00d 203d 6113 e1bc 099a 36bc
00000130: dffd 073d 02f4 2fb9 62dd 073d 4d1c 853a
00000140: c238 0abd 3fb4 afb9 ae49 ed3c 2de6 063d
00000150: 7e08 8fbb 7f0e 2c3c 8899 0b3c b298 353a
00000160: 6cbd b1bc c142 1d3c 4f02 fa3b 99a0 1e3c
00000170: 38de b0b9 532f 56ba fac6 a23b 2824 86bc
00000180: 440d d0bc 4763 32bd e6c6 07bc ee54 cbbc
00000190: 4a43 523b 8710 a8b7 2d38 c3bc 166c 0ebc
000001a0: dafc 8ebc 154f 29bd f046 a2bc 772d 85bc
000001b0: 5e4b 25bc 861c d53b 44c1 d03b 7ac3 143c
000001c0: b697 43bc bf90 81bc 32e9 663c 970c 023c
000001d0: 5bc9 aa3c 0ea0 503c 25aa b0bc f024 273c
000001e0: 0d9a 9abb 9816 133b 27da 4fbc 2d06 60bc
000001f0: 7183 c7bb b8da 81bc 4097 07bc d786 d2ba
00000200: e74a 39ba 7a90 033c b599 2bba 7069 c0bc
00000210: cbcf 603a 69c5 ad3c adc6 88bc 37d2 213d
00000220: ef9e aebc e38b 80bb 4647 8b3a 2174 5f3a
00000230: 42c7 9e3c 8608 af3b b0c2 42bc 1c59 dcbb
00000240: 9b39 023d 5245 2abc 1126 9bbc d067 bcbb
00000250: 2f25 6c3c 33c5 023c e1fc 84ba 5d80 0abc
00000260: 2e0f 673d fb04 88ba f51e 04ba ea68 7e3b
00000270: 4437 ad3c de88 39bb 5714 1c3c e920 9dbb
00000280: 2011 563c 8c96 0bbb f436 1d3c b0e6 873b
00000290: 8ce2 a3b9 531f 0bbc 8f14 2dbc cb9a 9a3b
000002a0: 6fde a63b a65f 1db9 9be7 acb9 be77 933b
000002b0: c253 673b 5da0 a03c 136e 193d 3e8a 03bc
000002c0: 6aaa 85bc abd9 96bc 6c4d 57b9 6880 1938
000002d0: 2086 2e3b 048c fdba 8151 32bd 1680 7d3c
000002e0: aebc 943c e7ad 5ebc d025 9c3b 0183 0c39
000002f0: 0f65 b4bb b5dc 90b9 1264 633c e1c5 f5bb
00000300: 2c1a bbbb 43aa 933a 13f4 093d afda eabc
00000310: efbb 6c3c b6f1 413b 29ca d03b b9e1 43bb
00000320: c83c 0fbb 8a1e 4a3c 06e5 92bb 0d58 6e3c
00000330: f6b9 a1bb 756f 0d3b 2b38 2fbd e54b 00bc
00000340: c578 12bc 65da 083c 2553 bc3b 6b4a 5b3a
00000350: 9b81 d23c 0453 8cbb d83c 9abc eb3c daba
00000360: 7077 fa3b 0de2 29bc 67cd 52bb 5173 803c
00000370: 63fe 9e3a 6ddf b2bb 88e2 89bb 124b 9ebc
00000380: 91cd edba 2347 67bc 1a5f 7dbc 3f14 55bb
00000390: 4ea9 23ba e9d7 12b9 5910 b0bc 2cd5 a83b
000003a0: 70d9 c63a a0bf 7bb8 be60 b23c 619d b7bc
000003b0: 24f6 4fbb 67a5 6cbd 2a0c 233c fd9b 90bb
000003c0: d5a1 223d 9daa 783a b3fd b63c 9c5b 54bc
000003d0: b28d d6bc 7115 02bc afcd 393c 91e2 fa3a
000003e0: 99dc 38bc 1713 323c faa5 4e3b 5e0f 8b3b
000003f0: 09e3 0c3a 89c4 52bc afb9 64bb 4949 97ba
0.0029581436 0.008534731 0.0012451384 0.004753674 -0.027868595 0.0031337156 -0.017133785 -0.009711244
0.0052044285 -0.024581673 0.0010814363 -0.008987993 -0.0042297635 -0.004701964 -0.011541012 0.01578213
0.017629342 0.0065311035 0.011082076 0.036952823 -0.01726669 -0.014274707 0.001520672 0.00122972
-0.0022782667 -0.021463374 -0.00011540249 -0.007815302 -0.0213248 -0.0135616 0.002006684 0.0040341117
-0.0099844895 -0.0073085567 0.01243419 -0.01336057 0.0005635334 -0.013248668 -0.0151599925 -0.003958058
-0.0062419213 -0.000120115124 0.0023963607 0.0006073301 0.006352482 0.0156062525 0.050056305 -0.023899334
0.01486868 0.004260094 -8.066193e-05 9.018625e-05 0.037618708 0.0038170612 -0.020498656 -0.010009816
-0.028782852 0.013297321 -0.0072779744 -0.00022189357 0.013895078 -0.00018521937 0.009992594 -0.0016065836
-0.0011291866 -0.000603399 0.025061589 0.0031917375 -0.0064372947 0.0023374907 -0.012618266 -0.0014472253
0.0013785864 0.039075494 -0.02747506 -0.011145123 0.033201095 -0.000167802 0.03317011 0.0010155529
-0.033745535 -0.00033512895 0.028965797 0.032934356 -0.004365026 0.010501503 0.008520491 0.00069273554
-0.021696769 0.009598435 0.0076296697 0.009681844 -0.00033734902 -0.0008170504 0.0049675675 -0.016374663
-0.02539695 -0.04355171 -0.008287167 -0.024820771 0.0032083564 -2.0034857e-05 -0.023830498 -0.008692762
-0.017454553 -0.041335184 -0.019809216 -0.01625703 -0.01008877 0.0065036444 0.0063706953 0.009079808
-0.011938026 -0.01581609 0.014093684 0.007937572 0.020847967 0.0127334725 -0.021565506 0.010201678
-0.0047180713 0.0022443887 -0.012686289 -0.013673347 -0.006088667 -0.015851364 -0.008275807 -0.0016061914
-0.0007068351 0.008030051 -0.00065460365 -0.023487777 0.00085758854 0.021212297 -0.016696298 0.039507117
-0.02131602 -0.003922926 0.00106261 0.00085240795 0.019382123 0.0053415922 -0.011887237 -0.00672449
0.031793218 -0.010392504 -0.01893905 -0.00574968 0.014413162 0.007981586 -0.0010146165 -0.008453456
0.05641096 -0.0010377461 -0.00050400133 0.0038819858 0.021144517 -0.002831034 0.009526334 -0.004795183
0.013065606 -0.002129945 0.009595621 0.004147373 -0.00031258573 -0.008491355 -0.010563984 0.00471816
0.005092434 -0.00015008319 -0.00032978956 0.0045003584 0.0035297726 0.019607717 0.03745849 -0.008028565
-0.016316611 -0.018414339 -0.0002053284 3.659763e-05 0.0026630238 -0.0019344096 -0.04353476 0.015472433
0.018156376 -0.013591266 0.00476525 0.00013400243 -0.005505211 -0.0002763026 0.013878839 -0.0075003956
-0.005709907 0.0011265952 0.033680033 -0.02866873 0.014449104 0.0029593534 0.0063717556 -0.002988918
-0.0021856297 0.012336383 -0.004482868 0.01454736 -0.0049354983 0.0021581326 -0.042778175 -0.007830595
-0.0089399265 0.008352851 0.0057472163 0.0008365276 0.025696566 -0.004282357 -0.01882784 -0.0016650235
0.0076436326 -0.010368836 -0.0032165886 0.015679987 0.0012130257 -0.0054587633 -0.004207913 -0.019322906
-0.0018142929 -0.014116081 -0.0154645685 -0.0032513288 -0.0006243185 -0.00014004078 -0.02149217 0.005152365
0.0015171003 -6.0021528e-05 0.021774646 -0.022413911 -0.0031732405 -0.057774927 0.009951631 -0.0044131265
0.039705116 0.00094858726 0.02233777 -0.0129612945 -0.026190612 -0.007939682 0.011340543 0.0019141008
-0.011283063 0.010868809 0.0031532035 0.0042437753 0.0005374407 -0.01286424 -0.0034900715 -0.0011542226

action_model._continuous_distribution.mu.bias f4 [4]
00000000: 3226 0e3c 4f4f c5bb ac18 313c e1ca 2dbb
0.008676099 -0.006021417 0.010809105 -0.002651863

exp_avg f4 [128, 4]
00000000: 0000 0000 0000 0000 d3ce ed37 d3ce ed37
00000010: 0000 0000 0000 0000 ee63 0a38 ee63 0a38
00000020: 0000 0000 0000 0000 7490 7636 7490 7636
00000030: 0000 0000 0000 0000 dc3d 1bb8 dc3d 1bb8
00000040: 0000 0000 0000 0000 b260 7439 b260 7439
00000050: 0000 0000 0000 0000 d67c bc37 d67c bc37
00000060: 0000 0000 0000 0000 e8fb 7a39 e8fb 7a39
00000070: 0000 0000 0000 0000 0fd9 9cb7 0fd9 9cb7
00000080: 0000 0000 0000 0000 85c9 2f38 85c9 2f38
00000090: 0000 0000 0000 0000 5a48 243a 5a48 243a
000000a0: 0000 0000 0000 0000 3559 aab8 3559 aab8
000000b0: 0000 0000 0000 0000 b830 d0b8 b830 d0b8
000000c0: 0000 0000 0000 0000 c82d 9739 c82d 9739
000000d0: 0000 0000 0000 0000 3ff6 3f35 3ff6 3f35
000000e0: 0000 0000 0000 0000 3d59 74b9 3d59 74b9
000000f0: 0000 0000 0000 0000 3967 7fb8 3967 7fb8
00000100: 0000 0000 0000 0000 486f 2eba 486f 2eba
00000110: 0000 0000 0000 0000 6cd0 1d36 6cd0 1d36
00000120: 0000 0000 0000 0000 431e 28b8 431e 28b8
00000130: 0000 0000 0000 0000 c50e 8c37 c50e 8c37
00000140: 0000 0000 0000 0000 f478 4ab4 f478 4ab4
00000150: 0000 0000 0000 0000 1cfe cb39 1cfe cb39
00000160: 0000 0000 0000 0000 266e 953a 266e 953a
00000170: 0000 0000 0000 0000 755b 6039 755b 6039
00000180: 0000 0000 0000 0000 900a eb38 900a eb38
00000190: 0000 0000 0000 0000 6001 1fb7 6001 1fb7
000001a0: 0000 0000 0000 0000 8c6b db37 8c6b db37
000001b0: 0000 0000 0000 0000 1e85 0db9 1e85 0db9
000001c0: 0000 0000 0000 0000 e0e1 7ab8 e0e1 7ab8
000001d0: 0000 0000 0000 0000 3033 023b 3033 023b
000001e0: 0000 0000 0000 0000 1a35 16b9 1a35 16b9
000001f0: 0000 0000 0000 0000 9602 9938 9602 9938
00000200: 0000 0000 0000 0000 c8ad 9035 c8ad 9035
00000210: 0000 0000 0000 0000 d183 22ba d183 22ba
00000220: 0000 0000 0000 0000 cfcc 8639 cfcc 8639
00000230: 0000 0000 0000 0000 51cd 0938 51cd 0938
00000240: 0000 0000 0000 0000 6635 883a 6635 883a
00000250: 0000 0000 0000 0000 e2a6 1f39 e2a6 1f39
00000260: 0000 0000 0000 0000 b041 3738 b041 3738
00000270: 0000 0000 0000 0000 cb5a 28b8 cb5a 28b8
00000280: 0000 0000 0000 0000 79cf 7bad 79cf 7bad
00000290: 0000 0000 0000 0000 2841 01b7 2841 01b7
000002a0: 0000 0000 0000 0000 4e2a 61b9 4e2a 61b9
000002b0: 0000 0000 0000 0000 ff20 1439 ff20 1439
000002c0: 0000 0000 0000 0000 2cf7 0c37 2cf7 0c37
000002d0: 0000 0000 0000 0000 3269 d8b9 3269 d8b9
000002e0: 0000 0000 0000 0000 38c7 d538 38c7 d538
000002f0: 0000 0000 0000 0000 bbe4 c3b8 bbe4 c3b8
00000300: 0000 0000 0000 0000 ffa3 2cb5 ffa3 2cb5
00000310: 0000 0000 0000 0000 bc10 50b7 bc10 50b7
00000320: 0000 0000 0000 0000 2513 34ba 2513 34ba
00000330: 0000 0000 0000 0000 9eb3 d438 9eb3 d438
00000340: 0000 0000 0000 0000 143d afb9 143d afb9
00000350: 0000 0000 0000 0000 f7dc c13a f7dc c13a
00000360: 0000 0000 0000 0000 44cc 2c39 44cc 2c39
00000370: 0000 0000 0000 0000 be16 523a be16 523a
00000380: 0000 0000 0000 0000 ab4f beb8 ab4f beb8
00000390: 0000 0000 0000 0000 6e34 b839 6e34 b839
000003a0: 0000 0000 0000 0000 b7b0 8fb8 b7b0 8fb8
000003b0: 0000 0000 0000 0000 88b8 27b8 88b8 27b8
000003c0: 0000 0000 0000 0000 0072 eab6 0072 eab6
000003d0: 0000 0000 0000 0000 df0e 9d37 df0e 9d37
000003e0: 0000 0000 0000 0000 a0d6 b939 a0d6 b939
000003f0: 0000 0000 0000 0000 172b d538 172b d538
0.0 0.0 2.8348912e-05 2.8348912e-05 0.0 0.0 3.299483e-05 3.299483e-05
0.0 0.0 3.674094e-06 3.674094e-06 0.0 0.0 -3.701249e-05 -3.701249e-05
0.0 0.0 0.00023305675 0.00023305675 0.0 0.0 2.2469478e-05 2.2469478e-05
0.0 0.0 0.000239357 0.000239357 0.0 0.0 -1.8697725e-05 -1.8697725e-05
0.0 0.0 4.191093e-05 4.191093e-05 0.0 0.0 0.0006266885 0.0006266885
0.0 0.0 -8.122848e-05 -8.122848e-05 0.0 0.0 -9.9272875e-05 -9.9272875e-05
0.0 0.0 0.00028835074 0.00028835074 0.0 0.0 7.151138e-07 7.151138e-07
0.0 0.0 -0.00023302897 -0.00023302897 0.0 0.0 -6.089287e-05 -6.089287e-05
0.0 0.0 -0.00066541554 -0.00066541554 0.0 0.0 2.351614e-06 2.351614e-06
0.0 0.0 -4.0082505e-05 -4.0082505e-05 0.0 0.0 1.6696178e-05 1.6696178e-05
0.0 0.0 -1.8856718e-07 -1.8856718e-07 0.0 0.0 0.00038908503 0.00038908503
0.0 0.0 0.0011400625 0.0011400625 0.0 0.0 0.00021396375 0.00021396375
0.0 0.0 0.00011207641 0.00011207641 0.0 0.0 -9.477459e-06 -9.477459e-06
0.0 0.0 2.6156915e-05 2.6156915e-05 0.0 0.0 -0.00013496398 -0.00013496398
0.0 0.0 -5.9815007e-05 -5.9815007e-05 0.0 0.0 0.0019866936 0.0019866936
0.0 0.0 -0.00014324897 -0.00014324897 0.0 0.0 7.29609e-05 7.29609e-05
0.0 0.0 1.0779413e-06 1.0779413e-06 0.0 0.0 -0.0006199452 -0.0006199452
0.0 0.0 0.00025711066 0.00025711066 0.0 0.0 3.285456e-05 3.285456e-05
0.0 0.0 0.001039189 0.001039189 0.0 0.0 0.0001522559 0.0001522559
0.0 0.0 4.3691776e-05 4.3691776e-05 0.0 0.0 -4.013888e-05 -4.013888e-05
0.0 0.0 -1.4313766e-11 -1.4313766e-11 0.0 0.0 -7.70417e-06 -7.70417e-06
0.0 0.0 -0.00021473432 -0.00021473432 0.0 0.0 0.00014126672 0.00014126672
0.0 0.0 8.4021995e-06 8.4021995e-06 0.0 0.0 -0.00041277107 -0.00041277107
0.0 0.0 0.00010193739 0.00010193739 0.0 0.0 -9.340929e-05 -9.340929e-05
0.0 0.0 -6.431364e-07 -6.431364e-07 0.0 0.0 -1.2401662e-05 -1.2401662e-05
0.0 0.0 -0.0006869308 -0.0006869308 0.0 0.0 0.00010142404 0.00010142404
0.0 0.0 -0.00033424108 -0.00033424108 0.0 0.0 0.0014790584 0.0014790584
0.0 0.0 0.00016479293 0.00016479293 0.0 0.0 0.0008014253 0.0008014253
0.0 0.0 -9.074745e-05 -9.074745e-05 0.0 0.0 0.00035134278 0.00035134278
0.0 0.0 -6.851687e-05 -6.851687e-05 0.0 0.0 -3.998776e-05 -3.998776e-05
0.0 0.0 -6.987015e-06 -6.987015e-06 0.0 0.0 1.8722783e-05 1.8722783e-05
0.0 0.0 0.00035445858 0.00035445858 0.0 0.0 0.000101646576 0.000101646576

exp_avg_sq f4 [128, 4]
00000000: 0000 0000 0000 0000 f3f2 f934 f3f2 f934
00000010: 0000 0000 0000 0000 eaa1 4a35 eaa1 4a35
00000020: 0000 0000 0000 0000 5e52 1433 5e52 1433
00000030: 0000 0000 0000 0000 18d6 d334 18d6 d334
00000040: 0000 0000 0000 0000 cc87 b936 cc87 b936
00000050: 0000 0000 0000 0000 c0ab 3035 c0ab 3035
00000060: 0000 0000 0000 0000 928b df37 928b df37
00000070: 0000 0000 0000 0000 3809 5533 3809 5533
00000080: 0000 0000 0000 0000 386b ef34 386b ef34
00000090: 0000 0000 0000 0000 9a72 7938 9a72 7938
000000a0: 0000 0000 0000 0000 187b 8b37 187b 8b37
000000b0: 0000 0000 0000 0000 3122 c334 3122 c334
000000c0: 0000 0000 0000 0000 fa5a 2b36 fa5a 2b36
000000d0: 0000 0000 0000 0000 49d7 8f2f 49d7 8f2f
000000e0: 0000 0000 0000 0000 df93 bc36 df93 bc36
000000f0: 0000 0000 0000 0000 91a2 0d35 91a2 0d35
00000100: 0000 0000 0000 0000 3de1 d238 3de1 d238
00000110: 0000 0000 0000 0000 792a 4933 792a 4933
00000120: 0000 0000 0000 0000 0b29 3c34 0b29 3c34
00000130: 0000 0000 0000 0000 8fc8 3f33 8fc8 3f33
00000140: 0000 0000 0000 0000 44ee e52d 44ee e52d
00000150: 0000 0000 0000 0000 fe20 1039 fe20 1039
00000160: 0000 0000 0000 0000 23ad 8438 23ad 8438
00000170: 0000 0000 0000 0000 e8c5 0638 e8c5 0638
00000180: 0000 0000 0000 0000 1266 1b38 1266 1b38
00000190: 0000 0000 0000 0000 3b1e ae34 3b1e ae34
000001a0: 0000 0000 0000 0000 6559 5c33 6559 5c33
000001b0: 0000 0000 0000 0000 8e35 8d36 8e35 8d36
000001c0: 0000 0000 0000 0000 ffb2 8734 ffb2 8734
000001d0: 0000 0000 0000 0000 1a29 2239 1a29 2239
000001e0: 0000 0000 0000 0000 9011 ff37 9011 ff37
000001f0: 0000 0000 0000 0000 07e1 bb34 07e1 bb34
00000200: 0000 0000 0000 0000 44fe eb31 44fe eb31
00000210: 0000 0000 0000 0000 b461 2738 b461 2738
00000220: 0000 0000 0000 0000 9a9c 2338 9a9c 2338
00000230: 0000 0000 0000 0000 9e0b 4e33 9e0b 4e33
00000240: 0000 0000 0000 0000 0a0d e038 0a0d e038
00000250: 0000 0000 0000 0000 220e 4337 220e 4337
00000260: 0000 0000 0000 0000 b037 8e38 b037 8e38
00000270: 0000 0000 0000 0000 49bf 7d36 49bf 7d36
00000280: 0000 0000 0000 0000 94db d92d 94db d92d
00000290: 0000 0000 0000 0000 b1fe c831 b1fe c831
000002a0: 0000 0000 0000 0000 7ab2 1236 7ab2 1236
000002b0: 0000 0000 0000 0000 625a 2e36 625a 2e36
000002c0: 0000 0000 0000 0000 e993 9f34 e993 9f34
000002d0: 0000 0000 0000 0000 aeda 3339 aeda 3339
000002e0: 0000 0000 0000 0000 0be5 0f38 0be5 0f38
000002f0: 0000 0000 0000 0000 225e 0037 225e 0037
00000300: 0000 0000 0000 0000 e0dc 082e e0dc 082e
00000310: 0000 0000 0000 0000 b5f8 b235 b5f8 b235
00000320: 0000 0000 0000 0000 27c3 8438 27c3 8438
00000330: 0000 0000 0000 0000 0ca3 8535 0ca3 8535
00000340: 0000 0000 0000 0000 afde 9c38 afde 9c38
00000350: 0000 0000 0000 0000 f82d 8439 f82d 8439
00000360: 0000 0000 0000 0000 bc38 8c38 bc38 8c38
00000370: 0000 0000 0000 0000 1747 3a39 1747 3a39
00000380: 0000 0000 0000 0000 bb00 b637 bb00 b637
00000390: 0000 0000 0000 0000 70f8 9139 70f8 9139
000003a0: 0000 0000 0000 0000 47d7 c836 47d7 c836
000003b0: 0000 0000 0000 0000 7c84 1534 7c84 1534
000003c0: 0000 0000 0000 0000 af21 0334 af21 0334
000003d0: 0000 0000 0000 0000 27dc 2835 27dc 2835
000003e0: 0000 0000 0000 0000 77e5 1538 77e5 1538
000003f0: 0000 0000 0000 0000 1192 2636 1192 2636
0.0 0.0 4.6556633e-07 4.6556633e-07 0.0 0.0 7.548648e-07 7.548648e-07
0.0 0.0 3.4533848e-08 3.4533848e-08 0.0 0.0 3.9457586e-07 3.9457586e-07
0.0 0.0 5.5292385e-06 5.5292385e-06 0.0 0.0 6.581504e-07 6.581504e-07
0.0 0.0 2.6648664e-05 2.6648664e-05 0.0 0.0 4.960131e-08 4.960131e-08
0.0 0.0 4.459523e-07 4.459523e-07 0.0 0.0 5.9472957e-05 5.9472957e-05
0.0 0.0 1.6627411e-05 1.6627411e-05 0.0 0.0 3.6346458e-07 3.6346458e-07
0.0 0.0 2.553394e-06 2.553394e-06 0.0 0.0 2.6164518e-10 2.6164518e-10
0.0 0.0 5.620051e-06 5.620051e-06 0.0 0.0 5.276316e-07 5.276316e-07
0.0 0.0 0.00010055534 0.00010055534 0.0 0.0 4.6837588e-08 4.6837588e-08
0.0 0.0 1.7523796e-07 1.7523796e-07 0.0 0.0 4.465306e-08 4.465306e-08
0.0 0.0 2.6140097e-11 2.6140097e-11 0.0 0.0 0.000137452 0.000137452
0.0 0.0 6.3265e-05 6.3265e-05 0.0 0.0 3.2132404e-05 3.2132404e-05
0.0 0.0 3.704994e-05 3.704994e-05 0.0 0.0 3.243202e-07 3.243202e-07
0.0 0.0 5.1304045e-08 5.1304045e-08 0.0 0.0 4.208362e-06 4.208362e-06
0.0 0.0 2.5275946e-07 2.5275946e-07 0.0 0.0 0.00015464835 0.00015464835
0.0 0.0 3.0406547e-05 3.0406547e-05 0.0 0.0 3.4995193e-07 3.4995193e-07
0.0 0.0 6.868307e-09 6.868307e-09 0.0 0.0 3.9906896e-05 3.9906896e-05
0.0 0.0 3.9008075e-05 3.9008075e-05 0.0 0.0 4.797368e-08 4.797368e-08
0.0 0.0 0.00010683581 0.00010683581 0.0 0.0 1.1626196e-05 1.1626196e-05
0.0 0.0 6.78146e-05 6.78146e-05 0.0 0.0 3.781128e-06 3.781128e-06
0.0 0.0 2.4767556e-11 2.4767556e-11 0.0 0.0 5.849721e-09 5.849721e-09
0.0 0.0 2.1859582e-06 2.1859582e-06 0.0 0.0 2.598063e-06 2.598063e-06
0.0 0.0 2.9723677e-07 2.9723677e-07 0.0 0.0 0.00017152235 0.00017152235
0.0 0.0 3.430717e-05 3.430717e-05 0.0 0.0 7.6513115e-06 7.6513115e-06
0.0 0.0 3.1118996e-11 3.1118996e-11 0.0 0.0 1.3334417e-06 1.3334417e-06
0.0 0.0 6.3306004e-05 6.3306004e-05 0.0 0.0 9.956725e-07 9.956725e-07
0.0 0.0 7.480138e-05 7.480138e-05 0.0 0.0 0.0002521125 0.0002521125
0.0 0.0 6.686288e-05 6.686288e-05 0.0 0.0 0.00017764825 0.00017764825
0.0 0.0 2.169643e-05 2.169643e-05 0.0 0.0 0.00027841656 0.00027841656
0.0 0.0 5.985526e-06 5.985526e-06 0.0 0.0 1.3924904e-07 1.3924904e-07
0.0 0.0 1.221258e-07 1.221258e-07 0.0 0.0 6.290524e-07 6.290524e-07
0.0 0.0 3.5738074e-05 3.5738074e-05 0.0 0.0 2.482095e-06 2.482095e-06

exp_avg f4 [128]
00000000: 113f be36 b06c dd36 4840 4535 f062 f8b6
00000010: 8580 4338 3cca 9636 7cc9 4838 e8f4 7ab6
00000020: 39a1 0c37 136d 0339 6a47 88b7 628d a6b7
00000030: d4e2 7138 d491 1934 977a 43b8 9952 4cb7
00000040: 398c 0bb9 9880 fc34 9a7e 06b7 9917 6036
00000050: 56fa 21b3 ae31 a338 a416 6f39 627c 3338
00000060: 6c08 bc37 a868 feb5 3b89 af36 936e e2b7
00000070: b3b4 48b7 e651 d039 fc54 f0b7 f1d0 7437
00000080: 5e7c 6734 1203 02b9 24ae 5738 b67b dc36
00000090: 09ef 5939 5a71 ff37 109b 1237 1caf 06b7
000000a0: c872 49ac a5ce ceb5 d721 34b8 9c01 ed37
000000b0: 5c8b e135 f620 adb8 ac05 ab37 f7b6 9cb7
000000c0: d21c 0ab4 a073 26b6 4f0f 10b9 5129 aa37
000000d0: dc30 8cb8 2d17 9b39 f83c 0a38 2012 2839
000000e0: b83f 98b7 145d 9338 8fe7 65b7 422d 06b7
000000f0: 5c8e bbb5 184b 7b36 acab 9438 e388 aa37
00000100: bc61 f8b6 805a 1e37 6b25 6c38 8f9e c9b9
00000110: 97d2 a1b8 5063 bfb7 ad53 96b6 146d 7db5
00000120: a10e 22b9 bcbd 47b4 1e5a b4b5 80fe 61b5
00000130: b438 3137 d4f8 b435 a205 bab6 6325 20b9
00000140: bc78 3eb5 2cdd 5e34 6264 a738 8179 15b9
00000150: 0757 dc37 0273 0638 68b7 43b7 e62c 61b9
00000160: 61cd 3eb6 17ca 49b9 3164 f5b8 c7d4 24b7
00000170: b833 aeb7 45f6 a037 8979 43b7 6a05 8cb7
00000180: 057c bf35 995f a2b7 1e4d 7e36 c113 a0b5
00000190: c030 3bb7 51cf 11b9 8432 7f36 177e 76b8
000001a0: 1583 9438 b4ea ceb8 a934 1c37 1091 c638
000001b0: 8165 9bb8 0981 9236 563d 7eb7 a453 a7b7
000001c0: 4d46 4139 ad93 41b7 1024 53b7 8019 b0b4
000001d0: 0043 01b9 1293 6fb7 28ba a7b7 85f6 25b9
000001e0: 36f1 74b9 a0fe 1b38 9652 16b8 7531 a9b8
000001f0: facb bbb6 5288 a137 04ec 4236 7494 12b9
5.669783e-06 6.598966e-06 7.348176e-07 -7.402494e-06 4.6611316e-05 4.4938915e-06 4.7871363e-05 -3.7395457e-06
8.382188e-06 0.00012533767 -1.6245718e-05 -1.9854579e-05 5.7670128e-05 1.4302287e-07 -4.6605794e-05 -1.2178579e-05
-0.0001330831 4.7032222e-07 -8.016499e-06 3.3392337e-06 -3.7713413e-08 7.781699e-05 0.0002280125 4.2792766e-05
2.2415268e-05 -1.8954934e-06 5.231382e-06 -2.699279e-05 -1.1963001e-05 0.0003973387 -2.8649803e-05 1.4592181e-05
2.1558796e-07 -0.0001239891 5.1422176e-05 6.570913e-06 0.0002078378 3.0451152e-05 8.738381e-06 -8.027793e-06
-2.8627534e-12 -1.5408338e-06 -4.294686e-05 2.8253351e-05 1.6804365e-06 -8.255422e-05 2.038743e-05 -1.8681849e-05
-1.2862736e-07 -2.480323e-06 -0.00013738613 2.0284819e-05 -6.684821e-05 0.0002958117 3.2958545e-05 0.0001602848
-1.8149483e-05 7.0268434e-05 -1.3703378e-05 -7.99756e-06 -1.3974018e-06 3.7445625e-06 7.089166e-05 2.0329322e-05
-7.4023537e-06 9.438605e-06 5.6301633e-05 -0.00038455843 -7.716304e-05 -2.281522e-05 -4.4800895e-06 -9.4408574e-07
-0.00015454974 -1.8602344e-07 -1.3437273e-06 -8.418938e-07 1.0563224e-05 1.3483464e-06 -5.5438877e-06 -0.00015272717
-7.095621e-07 2.0755823e-07 7.981878e-05 -0.00014255011 2.6266569e-05 3.20552e-05 -1.1665608e-05 -0.00021474398
-2.8431753e-06 -0.00019244138 -0.000117011725 -9.824703e-06 -2.07665e-05 1.9188165e-05 -1.1651203e-05 -1.6691822e-05
1.4266703e-06 -1.9356421e-05 3.7893838e-06 -1.1926678e-06 -1.1157419e-05 -0.00013905509 3.8027365e-06 -5.87684e-05
7.081606e-05 -9.866562e-05 9.3105855e-06 9.468396e-05 -7.4098825e-05 4.3661607e-06 -1.5153861e-05 -1.99469e-05
0.00018432103 -1.153808e-05 -1.25849765e-05 -3.2801108e-07 -0.00012327358 -1.4279753e-05 -1.9994637e-05 -0.00015827462
-0.00023359511 3.7192018e-05 -3.58397e-05 -8.06776e-05 -5.5967803e-06 1.9256175e-05 2.9045632e-06 -0.00013978948

exp_avg_sq f4 [128]
00000000: a9f7 9f32 57af 0133 f8d9 bd30 2393 8732
00000010: ab7a 6d34 9423 e232 ae11 8f35 d457 0831
00000020: 603a 9932 72a5 1f36 2d89 3235 6bc5 7932
00000030: c655 db33 d61d 382d 3861 7134 0c4b b532
00000040: 8ff6 8636 09bf 0031 73d8 f031 987b f530
00000050: d627 932b 1d7c b836 6cd3 2936 6982 ac35
00000060: 17e9 c635 11df 5e32 ee05 0d31 69bf 3434
00000070: edb1 2d32 c890 cf36 813e a335 2e7c 7032
00000080: 1d09 972f a53f d635 4f6c d135 70de 0331
00000090: 9964 8f36 c0ab f934 d009 3636 e765 2234
000000a0: d26d 8b2b 0aa3 802f adc5 bb33 072c df33
000000b0: 6242 4c32 9e36 e636 6c2f b835 824f a434
000000c0: 2a2f af2b 6115 6533 76ef 2936 180e 2b33
000000d0: 41cb 4836 9030 2937 d87b 3336 896f ee36
000000e0: d7f6 6835 99d7 3a37 cf89 8034 f361 bf31
000000f0: 47d9 a731 1424 d832 09de bf35 c135 d533
00000100: ba95 ab31 fab5 0735 0eab 5b34 f02f d536
00000110: e995 0f36 6fc5 0c36 7de2 f931 05b1 9b31
00000120: 4e4d 9a35 80d1 0730 4692 0730 54a6 5736
00000130: cde5 0032 41cf d932 c707 ac32 bd8b 9b36
00000140: 8100 c630 9ffc 1b2f 9d36 aa36 ef2b 8036
00000150: f3f9 1434 d5df ee34 5052 e632 41cd 0536
00000160: e87f 1a30 6b0b 8335 914c 0236 43ff ce32
00000170: a7a0 4932 3dce 5033 8d2c 3332 6db7 ab34
00000180: 550f 9530 c0d9 9634 3fce ac31 c24e 5132
00000190: f56d 0932 2c50 a035 ec45 ef31 a85a e536
000001a0: ade1 7235 0c12 fd34 1b6b 3232 57e6 6f35
000001b0: a1aa 1b36 89af 1e33 42d3 4335 0183 dd35
000001c0: 264c 1e36 f29a 1232 bce7 bf35 c2be 0334
000001d0: 9f63 2136 5ac5 9032 c246 9a35 1bc5 9635
000001e0: 771a 6336 50f3 2236 f82a 1336 0de3 8635
000001f0: 47d4 ef33 2565 1b33 1141 fe30 9a70 1c36
1.8622659e-08 3.0194624e-08 1.381351e-09 1.5782978e-08 2.2116971e-07 2.6326042e-08 1.0659476e-06 1.984053e-09
1.783809e-08 2.3789148e-06 6.6509784e-07 1.4538595e-08 1.0213584e-07 1.0465814e-11 2.2480242e-07 2.11053e-08
4.0222144e-06 1.8735042e-09 7.0095267e-09 1.7861224e-09 1.0456035e-12 5.498076e-06 2.5306026e-06 1.2852953e-06
1.4819988e-06 1.297282e-08 2.052157e-09 1.6833441e-07 1.0110381e-08 6.1859355e-06 1.2162637e-06 1.3998074e-08
2.7473215e-10 1.5962765e-06 1.5603235e-06 1.918945e-09 4.273443e-06 4.650483e-07 2.7125825e-06 1.5124498e-07
9.907025e-13 2.339891e-10 8.743823e-08 1.0392255e-07 1.18894565e-08 6.8608924e-06 1.372287e-06 3.060523e-07
1.2447589e-12 5.333766e-08 2.5322347e-06 3.982686e-08 2.9920632e-06 1.0084492e-05 2.6745165e-06 7.105937e-06
8.6785934e-07 1.1136662e-05 2.3942127e-07 5.569967e-09 4.8850413e-09 2.5162116e-08 1.429523e-06 9.928363e-08
4.993777e-09 5.055623e-07 2.0458194e-07 6.3534753e-06 2.139592e-06 2.0976547e-06 7.2726025e-09 4.5312185e-09
1.1496393e-06 4.941043e-10 4.932058e-10 3.2134312e-06 7.502831e-09 2.5356373e-08 2.0026972e-08 4.6356276e-06
1.4406539e-09 1.4186917e-10 5.0727526e-06 3.819812e-06 1.3874505e-07 4.4493814e-07 2.6812955e-08 1.9938018e-06
5.620664e-10 9.763584e-07 1.9416077e-06 2.4097636e-08 1.1736268e-08 4.8616347e-08 1.0429301e-08 3.1984692e-07
1.0845534e-09 2.809811e-07 5.0293063e-09 1.2183309e-08 7.999451e-09 1.1944262e-06 6.9637647e-09 6.8352856e-06
9.0480427e-07 4.7138053e-07 1.0385317e-08 8.9369627e-07 2.319612e-06 3.694689e-08 7.295058e-07 1.650391e-06
2.358816e-06 8.533549e-09 1.4298053e-06 1.2269723e-07 2.4048857e-06 1.6853551e-08 1.1494487e-06 1.1233236e-06
3.384104e-06 2.4281508e-06 2.1929718e-06 1.0049858e-06 1.1167918e-07 3.618074e-08 1.8499425e-09 2.3311354e-06
