old_ppo/udenNESW.onnx (onnx, 75607 bytes, 6 tensors)

network_body._body_endoder.seq_layers.0.weight f4 [128, 4]
000000 98 5d d3 bd eb 9c 31 bf eb 8b 5f 3f 0b 6a 23 3e
       -0.10320586 -0.6938006 0.8732287 0.15958421
000010 86 71 0d be bd 2a 99 be d2 82 66 be 9f 66 8e 3e
       -0.13812837 -0.2991542 -0.22510841 0.2781267
000020 12 c9 12 bf 04 87 43 be 46 51 bc 3e 90 82 06 bf
       -0.5733806 -0.19094473 0.36780757 -0.5254297
000030 78 6a 29 bd d2 f2 3d bf 00 23 de 3e fa b7 23 bf
       -0.041361302 -0.7419864 0.43386078 -0.639526
000040 8b e3 ef 3d 27 c3 af bd 2a e1 14 bf 2f 7f 05 bf
       0.11713322 -0.08582144 -0.58156073 -0.5214719
000050 cc 49 18 3e b7 4f 2b 3f b0 07 55 bf 60 13 f9 3c
       0.14871901 0.6691851 -0.83214855 0.030404747
000060 3f 48 b5 be dd 00 83 3f db a0 85 3d 3e a9 98 bd
       -0.35406682 1.0234638 0.06524821 -0.074541554
000070 89 21 ca 3e 12 95 ad 3c d0 07 ad 3f c6 01 06 3f
       0.3947871 0.021189246 1.3518009 0.52346456
000080 6b f4 6b bc 37 05 0c be 9d 5b 37 be ba cf 79 bd
       -0.0144015355 -0.13673864 -0.17906041 -0.06098912
000090 24 b0 98 be cd af 19 bd 89 d1 9f bc 79 b1 93 bd
       -0.29821885 -0.037521172 -0.019509094 -0.072115846
0000a0 36 56 20 3c 37 9c e9 bd 21 82 6e be df d2 8f bc
       0.009786179 -0.11406749 -0.23291828 -0.017556606
0000b0 54 4d 3a 3f d3 4c 53 bf 23 f8 0a bf 18 e8 8e be
       0.72774243 -0.825391 -0.54284877 -0.27911448
0000c0 e8 be 21 3f 63 8d ba be a8 21 bd bd f5 9e 72 bf
       0.63181925 -0.36435995 -0.09234935 -0.947738
0000d0 a7 f0 2b 3f 62 1f f0 bb 99 88 ce bc 52 b4 94 be
       0.6716408 -0.00732796 -0.02521162 -0.29043823
0000e0 7f 8a 49 3f e0 de ac be 03 27 69 be e4 2f d8 be
       0.78726953 -0.3376379 -0.22768788 -0.42224038
0000f0 b4 76 53 3e 66 01 1d 3f b7 88 2b bf 85 94 8b 3f
       0.2065075 0.6133026 -0.67005485 1.09047
000100 01 5b d4 3c ea fa 3f bf 72 7e df bc d1 fa e2 be
       0.0259223 -0.7499224 -0.027281974 -0.44331983
000110 de be 20 3e 64 b2 24 bf 4a 25 9e be 63 b8 5e 3b
       0.1569781 -0.643347 -0.30887824 0.0033984415
000120 90 da 7c bf a8 46 4d 3e 63 90 c5 be f6 db 36 3e
       -0.98771 0.20046484 -0.3858672 0.17857346
000130 99 12 11 3c 07 31 10 be 26 b9 56 3e 65 d2 a4 3d
       0.008854532 -0.14081202 0.20969066 0.08047942
000140 76 dd 29 bf 49 e6 8b 3e 90 e2 5e 3e 62 ff 8b 3e
       -0.6635355 0.2732413 0.21766114 0.2734328
000150 5d 95 d2 3d 60 a8 51 be b8 b2 98 3e cb 9c bd be
       0.10282395 -0.20474386 0.29823852 -0.37033686
000160 00 3b dc 3d c2 27 01 3e 19 70 f4 be 9d 86 63 be
       0.10753441 0.12612823 -0.47741774 -0.2221932
000170 9f 4b 5e 3e 3d d7 39 be d9 a8 cb be 60 be bf be
       0.21708535 -0.18148513 -0.39777258 -0.37449932
000180 6b 50 28 3f 33 d0 99 3e 28 ab 5d 3e 89 53 33 bf
       0.6574771 0.30041656 0.21647322 -0.7004934
000190 4c f8 2b bc 5a 2a 4d be 6a c0 49 be 63 b3 2b 3f
       -0.01049621 -0.20035687 -0.19702306 0.670706
0001a0 0f 5c 2a 3d 7f 75 49 bf d4 35 63 3e e2 33 2d bf
       0.0415917 -0.7869491 0.22188503 -0.6765729
0001b0 28 9b 17 bf 8f e2 e0 bd 75 f0 e7 be 62 b8 42 bf
       -0.59221125 -0.109807126 -0.45300642 -0.76062596
0001c0 bb 70 af 3e ce 18 f6 be 57 07 4f 3e ff 92 4a be
       0.34265694 -0.480658 0.20217644 -0.19782637
0001d0 d9 a2 1c bf 51 7f 64 3e b8 f8 17 be 38 ff 55 3e
       -0.61185986 0.22314192 -0.14840972 0.2089814
0001e0 e2 fb 7d bd 82 d6 cb 3b ba 99 a6 be ea 2a 53 bf
       -0.062007792 0.0062206397 -0.3253916 -0.82487357
0001f0 a7 a4 67 3e 39 db b7 3e f1 8a 2a bf fe ef 0e bf
       0.22621404 0.3590944 -0.6661826 -0.5583495
000200 50 2d 47 bc 96 f3 b7 3d e4 91 0b bf 17 69 5f bd
       -0.012156799 0.08982007 -0.54519486 -0.05454358
000210 0d e5 44 3e 13 d8 16 bf 23 dc 72 bf cf ff 4b bf
       0.19228001 -0.58923453 -0.9486715 -0.7968721
000220 2d 68 e7 bd cb 35 8f be 33 ca 45 3f 65 8e 82 3e
       -0.11299167 -0.27970728 0.77261657 0.25499263
000230 b5 b8 41 3c 7b 40 d1 be 63 50 c2 bd 65 16 4f be
       0.011823823 -0.40869507 -0.09487989 -0.20223387
000240 1d 0d 89 3e e0 8f 7c bf 82 26 5b bf 44 b6 06 be
       0.26767817 -0.98657036 -0.85605633 -0.13155466
000250 2e f2 c2 3d 5d 07 22 bf 26 e9 83 3e 44 22 3a bf
       0.09518848 -0.63292485 0.25763816 -0.72708535
000260 4c 7f d7 be 06 1e 06 3e 6d f5 9a bc ec 7a 96 be
       -0.42089307 0.1309739 -0.018915856 -0.29390657
000270 0b f6 27 3f 89 64 52 be 6c d4 33 be e5 e2 22 be
       0.65609807 -0.20546164 -0.17561501 -0.15906866
000280 7f 0f 9a bd a3 c4 fa 3d 7c 7a 10 bf 53 97 9e 3e
       -0.07522487 0.12244537 -0.56436896 0.30974826
000290 39 53 e5 3e fd c7 09 3f 8d 17 13 3f 5f 4f 86 bf
       0.44790056 0.5382078 0.5745781 -1.0492972
0002a0 4c 77 b7 3e 4a da 58 bf fd 7c d7 be e1 ee 89 be
       0.35833204 -0.8470808 -0.42087546 -0.26940063
0002b0 93 4f fc bd 54 ba 4f bf ef d4 05 bf 49 9e 42 3f
       -0.12319865 -0.8114369 -0.52278036 0.76022774
0002c0 9d 38 3b be 34 2c c7 3d 97 55 b9 3e 2b 0d b0 3e
       -0.18283315 0.09725228 0.36198112 0.34385046
0002d0 8e f3 2d bf 41 09 09 3f 63 1c 02 3e f4 47 d2 be
       -0.6794976 0.53529745 0.12706141 -0.4107052
0002e0 cd 73 71 3e 17 d0 86 3e 03 bd 54 bc 3a 33 17 be
       0.2357933 0.26330635 -0.012984517 -0.14765635
0002f0 78 44 2f 3e d1 d9 07 be 9b 0f 84 3f 01 d3 eb 3e
       0.17115963 -0.13266684 1.0317262 0.4605942
000300 15 1c b0 3e 59 99 32 bf ef f7 ec 3e 84 87 6d be
       0.34396425 -0.6976524 0.46282908 -0.23196226
000310 3a 48 2e bf ab 1c a1 3d 7d aa 13 be 0e 93 4a be
       -0.6807896 0.07866796 -0.14420505 -0.1978266
000320 4c e1 11 3e 5f 9e de 3e 28 e8 32 3d b5 2e c7 be
       0.142461 0.43480203 0.043678433 -0.38902822
000330 c4 5a fc 3e c3 17 58 be 47 b3 86 be ac 5e 6e bf
       0.49288 -0.21102814 -0.26308653 -0.9311321
000340 3d a7 52 3d 29 98 4a 3e 08 37 0c bf 10 4d 6e be
       0.051429022 0.19784607 -0.5477147 -0.23271585
000350 b8 8d 0a 3f 0e d9 da be c1 8c 55 bf a2 ce b1 be
       0.54122496 -0.42743725 -0.834179 -0.3472796
000360 ac 30 c9 bd 26 45 ce 3e 4f e6 6e bf 4a bc 18 be
       -0.098237365 0.4028713 -0.93320173 -0.14915577
000370 8c 8e de be 33 c4 47 be 0d 07 9d 3e 48 33 0b 3f
       -0.4346813 -0.19508438 0.30669442 0.54375124
000380 9d d0 f2 bd 58 62 0f 3f 70 d7 e7 be 07 7e 0a bf
       -0.11856196 0.56009436 -0.45281553 -0.5409855
000390 f8 a7 82 3e 20 be 84 be 7f 32 27 be da 1c e7 3e
       0.25518775 -0.25926304 -0.16327856 0.451392
0003a0 d8 80 38 3f 0b cf 86 3e 23 b2 0c bf 1e a1 b3 bc
       0.720716 0.26329836 -0.54959315 -0.021927413
0003b0 4f c3 a5 bd 7b e9 82 be f4 7e 02 3f 6c 69 b6 be
       -0.08093893 -0.25568756 0.50974965 -0.35627306
0003c0 6b 06 6b be 5c b2 cd be 51 d2 8a be 90 68 15 3f
       -0.22951667 -0.4017514 -0.27113584 0.58362675
0003d0 9c a8 08 be 72 6e 83 bd 60 f0 84 be fb b2 e1 3e
       -0.1334557 -0.0641755 -0.25964642 0.44081864
0003e0 23 50 0a be e8 29 21 bf bb e0 33 3f 98 8f f5 3e
       -0.13507132 -0.6295457 0.70264786 0.47961116
0003f0 65 34 32 bf e9 c4 02 bd f0 3d 0b bf e8 6f 1f 3f
       -0.696112 -0.03192607 -0.54391384 0.6228013

network_body._body_endoder.seq_layers.0.bias f4 [128]
000000 b5 0f e2 3b d8 73 77 3e 30 ad 15 3e 53 f6 72 be
       0.006898845 0.24165285 0.14616847 -0.23726778
000010 ff 7d b7 bc 7f 0a 8e bd 47 6d cb bd f8 5a bf bd
       -0.022398947 -0.06935596 -0.099329524 -0.09343523
000020 ea 79 37 3e 45 61 06 bb 62 06 9f 3d ae 23 04 bb
       0.179176 -0.0020504755 0.07764889 -0.0020162868
000030 ce df 49 bb 6c 1b fd bd 7e 37 3f 3d fd 43 ce bd
       -0.0030803564 -0.12358746 0.04668378 -0.100715615
000040 02 d2 48 3e e2 15 c2 3b 1a 91 2d be a7 96 b9 bd
       0.19611362 0.005923019 -0.16949883 -0.09061938
000050 e6 79 98 bd e6 23 aa bd 62 18 90 bd 48 40 12 3e
       -0.07445125 -0.08307628 -0.07035901 0.14282334
000060 05 c0 09 3d d1 05 a8 3d 59 66 07 3d 54 8e 8d 3d
       0.03363039 0.082042344 0.03305659 0.069119126
000070 bf 68 47 bd f4 c2 90 be 07 31 76 3d 99 12 ed 3d
       -0.048683878 -0.28273737 0.06010535 0.11575813
000080 dd b4 5e 3e 3d 4f 8b bd e1 2f fa bc 87 7e 70 3e
       0.21748681 -0.06802223 -0.030540409 0.23485766
000090 3f cf d2 3d 6e 7f ed bd 1a 70 32 bd b8 dd cc bd
       0.10293435 -0.11596571 -0.04356394 -0.10003227
0000a0 08 38 41 be 57 a7 b3 3c 6a 5f 6b 3d 4d f1 b3 3d
       -0.1886903 0.02193038 0.05746404 0.08786259
0000b0 e5 01 2c 3c d9 77 37 bb bd f8 25 bc 79 68 da bd
       0.010498499 -0.0027995019 -0.010130105 -0.10664458
0000c0 75 c4 8b 39 58 26 70 3e 34 04 9e 3d 31 33 bb bc
       0.00026658518 0.23452127 0.077156454 -0.022851558
0000d0 20 f2 30 3e 88 7c d3 bd 5e f0 15 be 5f ee bc 3d
       0.17279863 -0.10326487 -0.14642474 0.09225153
0000e0 e8 5b 53 bc cb 1b 71 be 5d 38 3c bd 73 14 da bc
       -0.01290033 -0.23545758 -0.04595219 -0.02662108
0000f0 9a ca b2 bc 9c d6 4e be f4 9d d0 3d 4a ae c9 bd
       -0.021825124 -0.20199054 0.10186377 -0.09847696
000100 c9 0c 03 be 93 c4 09 bd 6e 49 9a 39 76 08 4a bc
       -0.12797846 -0.033634733 0.00029427878 -0.012331119
000110 f8 e2 07 bd f0 7d e0 bc c9 90 6e 3c 00 3e d3 bd
       -0.03317544 -0.027403802 0.014560887 -0.1031456
000120 be cf 1e be 40 63 03 bd c3 d7 8c 3d 02 96 85 3c
       -0.15508935 -0.032077074 0.06877091 0.01630688
000130 1d b1 e2 3c ad 54 aa bc 94 50 82 3b 13 97 2f bd
       0.027672345 -0.02079233 0.003976891 -0.042868685
000140 f2 9b d4 3c e6 d9 88 bc 9e de e5 bd 1c 2a 49 3d
       0.025953267 -0.016705465 -0.112241015 0.049112424
000150 bd e2 4f 3e cd 85 66 3e bd f3 3e 3e cc de 47 be
       0.20301338 0.22511978 0.18647666 -0.19518584
000160 25 08 6f 3c 74 dd f1 3c f6 0e 23 3e cc f6 c8 3d
       0.014589344 0.029524542 0.15923676 0.09812698
000170 8e 2e 0f be fb 0d 99 3c 7a 83 14 bd e7 29 b6 bd
       -0.13982603 0.018683424 -0.0362582 -0.08894711
000180 a3 5d 82 bd d0 70 d6 bd a5 3e 93 bc 33 66 12 be
       -0.06365516 -0.10470736 -0.017974207 -0.14296798
000190 f8 2b 00 bd 26 fc 1e bc f0 e2 84 3d 9a d0 2b be
       -0.031291932 -0.009703672 0.064885974 -0.16778794
0001a0 be af 9b bd a3 db c7 bd d3 31 f0 bd e9 db 7c 3d
       -0.076018795 -0.09758689 -0.11728253 0.06173316
0001b0 7f 33 38 3c 4d 27 dc bd 41 93 61 be 2d 06 50 3e
       0.011242746 -0.107496835 -0.22028829 0.20314856
0001c0 37 94 a3 3d e6 83 a1 3d d7 d4 12 be be 38 f0 3d
       0.07987254 0.07886486 -0.14339004 0.11729573
0001d0 8c 3b 10 3c 10 93 7b bd 52 34 f1 bc b5 79 a6 3a
       0.00880326 -0.061419547 -0.029443894 0.0012701066
0001e0 e5 0f 10 3e 81 44 c6 3c 7f de 97 3d 59 c2 bb 3c
       0.14068563 0.024202587 0.07415485 0.02291982
0001f0 f0 9d e4 3c d1 72 7d bd 2e 61 9b 3e b0 ac 84 3d
       0.027907342 -0.061877076 0.3034758 0.0647825

network_body._body_endoder.seq_layers.2.weight f4 [128, 128]
000000 e6 4e 7b bc 94 d7 4b bd f7 7d 78 bc 92 a1 3a 3d
       -0.015338635 -0.04976614 -0.015166751 0.04556424
000010 74 14 93 bd 98 0d 3f 3e fd 79 5e 3e 21 1b b9 3d
       -0.071816355 0.1865753 0.21726222 0.090383776
000020 37 12 1a be a5 f8 85 be 59 7d 97 be ca 7d 24 be
       -0.15046011 -0.26166263 -0.2958782 -0.1606361
000030 e4 e4 5c 3d 47 33 93 bd c9 f6 c9 bb af 34 94 3c
       0.053929225 -0.07187515 -0.0061634523 0.018091528
000040 40 f1 ed bc 57 02 ea 3c a3 de 8b bd ea bb 61 bc
       -0.029045701 0.028565569 -0.06829574 -0.013777712
000050 c5 13 94 3d 75 a7 82 3d 02 3c ce bd d5 85 89 bd
       0.07230333 0.06379596 -0.10070039 -0.067149796
000060 50 93 9a 3e 7c 5a 47 be 3a 8a 91 be 3f cf cb bd
       0.30190516 -0.19468111 -0.2842577 -0.099516384
000070 a7 5a 01 be 15 a4 5e bd 63 91 3b be 72 02 cc bc
       -0.12632237 -0.0543557 -0.1831718 -0.02490351
000080 9b af cf bd eb f3 06 3c 71 bf 5c be 5b 5b e5 3d
       -0.10140916 0.0082368655 -0.21557404 0.11199065
000090 2b e1 04 3e 2f 2b 5c bd ee c7 c8 be 73 98 ec bc
       0.1297652 -0.05375212 -0.39215034 -0.028881287
0000a0 ae 17 10 3e 3d ec 79 3e ca 40 b5 3c a1 db c9 bd
       0.14071533 0.24406524 0.02212562 -0.09856344
0000b0 d7 99 da bc 22 c8 8a 3d 55 66 39 3d a0 b5 04 3e
       -0.026684685 0.067764536 0.045263607 0.1295991
0000c0 08 1f 89 bd ec a3 ab bd 10 1a a7 3e 8e 04 eb 3d
       -0.06695372 -0.08380875 0.32637072 0.11475478
0000d0 70 74 0b be 38 7e a6 bd 27 82 9f 3d 71 28 a2 bd
       -0.13618636 -0.08129543 0.077884965 -0.0791787
0000e0 1f 80 6e 3d 3d d0 12 be 2d ca 0c 3e 2e f3 46 bd
       0.058227655 -0.14337249 0.13748999 -0.048571758
0000f0 84 1c b3 bd 5b ea 40 be 93 fe 8f be 36 96 ff bd
       -0.08745673 -0.188394 -0.28123912 -0.12479822
000100 ff 3f c9 bd 3b 94 81 3d b5 30 a6 bd 95 81 8a bd
       -0.098266594 0.06327101 -0.08114759 -0.06762997
000110 40 8f a9 bd 44 85 d3 3d d2 33 81 be 10 90 9c 3d
       -0.08279276 0.10328153 -0.25234848 0.07644665
000120 0d 53 01 3e af d5 f2 3d 51 9d bb 3e 34 59 4b bb
       0.12629338 0.11857163 0.3664346 -0.003102851
000130 08 01 d5 bd ea 9d 2f bd c3 72 9e bd 82 1c 09 be
       -0.10400587 -0.042875208 -0.07736733 -0.13389781
000140 eb f1 25 be 2b ec 07 bd f0 56 26 bc 25 4c 37 be
       -0.16205566 -0.03318421 -0.010152563 -0.1790014
000150 7d b4 8d bb cd 14 3f bd 1a d2 b2 3d 92 af 9f 3c
       -0.0043244944 -0.046650697 0.0873148 0.019492898
000160 d2 60 4f be 15 90 2c be ec b3 2c 3e c9 d8 b3 bc
       -0.20251778 -0.16851838 0.1686551 -0.021953957
000170 ee 0c 9b 3c e2 b7 ba bd 48 3e a7 bd ac 39 30 bd
       0.018927064 -0.09117104 -0.08166176 -0.04302375
000180 53 ad 38 bc d1 8f f2 3d 01 3e bb 3d 9e 85 0a 3e
       -0.011271792 0.11843837 0.09142686 0.13527533
000190 ac fd e3 bd 18 30 d2 bd 2e a5 5f be fb de 82 3c
       -0.111323684 -0.102630794 -0.21840355 0.015975466
0001a0 52 70 9e 3c 67 f3 e0 be 29 0d 6e be 90 ca 7c 3e
       0.019340668 -0.439357 -0.23247208 0.24686646
0001b0 54 d8 e8 3d d8 12 0e bd 59 a7 b5 bd 33 56 fa 3d
       0.11369386 -0.03468594 -0.0886981 0.122234724
0001c0 c6 e6 a0 bd f4 fe cf be 34 59 db 3d 95 69 8b 3c
       -0.078565165 -0.406242 0.107103735 0.017018119
0001d0 2b 08 4f bd fa 86 95 bd 9d 40 1e 3e a6 ab ba 3c
       -0.0505449 -0.07301135 0.15454336 0.022786926
0001e0 d9 7c 9f 3d b9 fc 78 3d 27 44 a0 bd 75 30 1e bd
       0.07787485 0.06078789 -0.07825499 -0.03862043
0001f0 0b 53 60 3c b9 b9 dc bc 92 02 a0 3e 01 1d 91 be
       0.013691674 -0.026944028 0.3125196 -0.2834244
000200 a0 4e 3c bd a9 2a bd bd 8f 38 14 3e 79 5a 1d be
       -0.04597342 -0.092366524 0.144747 -0.15366544
000210 2d bf 39 bc c7 f2 a3 bc f0 a9 82 3d f1 d5 16 be
       -0.011337084 -0.020013226 0.06380069 -0.1473005
000220 29 34 00 3e af f0 54 bc 96 78 ed bc 74 bb d0 bd
       0.12519898 -0.012996837 -0.028988164 -0.10192004
000230 67 d9 63 bd 39 33 25 bd da cc 95 bd 6a 52 f7 bd
       -0.055627253 -0.040332053 -0.07314463 -0.12076266
000240 25 eb 1f 3d 26 fa 98 3c 0d cd 9f 3c cc 7c 6c bd
       0.03904261 0.018673968 0.019506956 -0.057736203
000250 45 14 85 3d 21 34 06 3e 8f 78 ac 3c de 6d 61 bb
       0.06498007 0.13105823 0.02105358 -0.0034397761
000260 55 d2 8b bd 64 89 4e 3e 7e 40 84 bd 73 ad 9b 3d
       -0.06827227 0.20169598 -0.064576134 0.07601442
000270 23 d5 a9 3d 32 54 30 bc 2b a9 e0 3c a4 65 91 be
       0.08292606 -0.010762261 0.027424416 -0.28397858
000280 64 7d da 3d a3 a4 b1 bd 05 52 ef 3b ca 5f 6d 3c
       0.106684476 -0.0867398 0.0073034787 0.01448817
000290 3c 0d c3 3d c6 15 8e 3c e2 db b8 bd ca b6 35 be
       0.09524009 0.017344367 -0.09026314 -0.1774551
0002a0 2d 28 07 3d 8d 2d 09 be 3d f4 1e bd 46 2e 38 bd
       0.0329973 -0.13396282 -0.038807143 -0.044966005
0002b0 c7 5b 36 be 7c dd cf be f3 37 41 be 40 58 bb 3d
       -0.17808448 -0.40598667 -0.18868999 0.09147692
0002c0 56 55 32 bd ea 3a 8f 3d 26 35 ba bc 5e ab c0 bd
       -0.043538414 0.06993659 -0.022730421 -0.09407686
0002d0 9a 87 56 be 3e 19 7c 3d f9 8d 1e 3d 58 7f 3d be
       -0.20950165 0.06154751 0.038709614 -0.18505609
0002e0 9c 66 05 bd 80 0a c5 bd 73 7a 1e bc 87 62 91 bd
       -0.03256856 -0.09621143 -0.009672749 -0.07098871
0002f0 d5 a2 eb bd ac b4 45 3d 3f 2c 49 3d 97 ee d8 bd
       -0.11505667 0.048268005 0.049114462 -0.105923824
000300 f1 ce b5 3c 8f a8 8a 3d 5c 61 28 3c 9a a9 10 be
       0.022193404 0.06770431 0.0102771185 -0.14127198
000310 9a f3 7c 3d 15 71 7c bd 35 01 b6 bd 27 79 83 3c
       0.061755754 -0.06163128 -0.08886949 0.01604898
000320 8c d4 1c bc 5f 4c 22 3c 65 42 b4 3a d1 e0 28 bd
       -0.0095721595 0.009905904 0.0013752697 -0.041230027
000330 ca b6 42 3d 77 38 8a bd 00 89 1e be bb 81 0e 3c
       0.047537602 -0.06749051 -0.15481949 0.008697922
000340 ab 19 0d 3e 4f 96 94 be d1 75 e8 3d b2 48 28 bd
       0.13779323 -0.29020926 0.11350597 -0.041084953
000350 cf 94 ea 3d 2b 11 0f be 2a 20 a3 bd 30 d6 0e be
       0.11454164 -0.13971393 -0.07965119 -0.13948894
000360 a2 1d 50 3d 00 1c c0 3b 42 08 ad bd 6f 00 55 be
       0.05080951 0.005862713 -0.08448841 -0.20800947
000370 41 cd 47 3d ec 64 76 be 3b f4 51 bd cb 62 44 3d
       0.04877973 -0.24061936 -0.051258307 0.04794578
000380 4f e3 f6 3d 9f 59 b9 3d 87 f4 90 3c ad 5b 2b bd
       0.120550744 0.09050297 0.017694725 -0.041835476
000390 9b ab 16 bc 1f fc 2f 3b fc c8 ef 3d 84 d1 39 be
       -0.009196187 0.0026853157 0.117082566 -0.1814633
0003a0 db 98 22 be f8 41 c0 bd ef cc 74 3c 45 dd 7b 3d
       -0.15878622 -0.093875825 0.014941438 0.061490316
0003b0 ce 87 cb bc 46 07 04 be 8c b1 b0 3d c1 5d 23 be
       -0.02484503 -0.128934 0.086276144 -0.15953733
0003c0 a4 76 ce bd 0a fb 4b 3d 4d d7 bb bd e0 8a 4c be
       -0.10081223 0.049799956 -0.09171925 -0.19974852
0003d0 54 d6 86 bd 53 8f 3f be 60 db 9e bd bd 0f f2 3d
       -0.065838486 -0.18707018 -0.07756686 0.11819408
0003e0 50 3a 2a bd 72 ea 4b 3c e2 c7 22 be e7 16 65 bd
       -0.041559517 0.012446033 -0.15896562 -0.055930045
0003f0 83 ab 4b bd d2 cc df bb 50 40 16 3e 4e ae 8f 3c
       -0.049724113 -0.0068298364 0.14672971 0.01753917

network_body._body_endoder.seq_layers.2.bias f4 [128]
000000 cf 0e a3 3d 7c 76 29 bd 1c 9b 02 3d 90 42 39 bd
       0.07961809 -0.04137276 0.031886205 -0.045229495
000010 82 2a 27 bd 6b 47 8c 3d bf e3 d2 bc d3 34 29 bd
       -0.040812023 0.068495594 -0.025743363 -0.041310143
000020 81 71 80 3c 78 71 3e bd 16 32 a6 bd 2f 18 b2 3d
       0.015679123 -0.04649493 -0.08115022 0.08696019
000030 be 54 d8 bc 90 4b 82 bb 25 eb 57 bd b5 62 45 bd
       -0.026407596 -0.003976293 -0.052714486 -0.048189837
000040 f1 f8 14 bd 6d 9d 47 3d 90 3b 67 bc 9e 51 99 bc
       -0.03637022 0.048734117 -0.014113322 -0.018715676
000050 79 b3 0d 3d 0a 13 99 3b 89 51 28 bd f5 f5 d0 bc
       0.034594987 0.004671459 -0.041093383 -0.025507906
000060 2d bd cc 3d 69 31 21 bd 4d 97 97 bd 59 c2 dc bb
       0.0999702 -0.03935376 -0.07401905 -0.0067370352
000070 84 02 c3 bc b4 7d 88 bd c2 0b 5e bd 1c 51 53 bd
       -0.02380491 -0.06664601 -0.054210432 -0.051591024
000080 39 cd d2 bd 3e 03 c5 bc 7c 23 6e bd 4f 91 8e bc
       -0.10293049 -0.024049398 -0.05813931 -0.017403273
000090 fd d4 b6 bc 22 48 ab bd 0a b8 14 bc cc 07 98 bc
       -0.022318358 -0.083633676 -0.009077081 -0.018558405
0000a0 49 b7 a3 bd a0 f7 cd bc 18 66 6b 3c 27 6c ab 3d
       -0.07993943 -0.02514249 0.014367603 0.08370238
0000b0 44 83 36 bc ef 72 ae bd 6a 36 5b bd 8b c4 ce 39
       -0.011139695 -0.085180156 -0.05351869 0.00039437818
0000c0 ec 62 84 bd 42 58 57 3c 31 d9 36 bd 63 f4 4f 3c
       -0.0646418 0.013143601 -0.044640724 0.012692544
0000d0 f1 1a 95 bd 05 77 fd bc 25 8a 90 3c c3 61 46 bd
       -0.07280529 -0.030940542 0.017643997 -0.048433077
0000e0 8a 75 97 bc 06 f5 4f 3d 25 2f ad 3d fe f7 9a 3c
       -0.018488664 0.050770782 0.08456258 0.01891708
0000f0 4f 4a 5f bd 61 90 c9 bd fd fc d3 bd 36 36 b5 bd
       -0.054514226 -0.09841991 -0.10350988 -0.088482305
000100 d7 a1 86 3a 93 5f 98 bd 19 cd a5 bc ba 5e a7 bd
       0.0010271621 -0.07440104 -0.0202394 -0.081723645
000110 21 22 0e 3c f8 e3 3a 3c f0 0f 84 bd b3 da 13 bb
       0.008675129 0.011406891 -0.06448352 -0.0022560775
000120 a7 0f 72 bd 0a 8f c9 ba ae 51 9c 3d 42 76 e6 bd
       -0.05909696 -0.0015377712 0.07632767 -0.11253025
000130 fe 3e c4 3b 15 19 3d 3d ea 04 da bc e3 fd f9 bc
       0.0059889546 0.0461665 -0.026613671 -0.03051657
000140 e5 72 a8 bd 35 81 bf 3d ef e1 05 bd a1 a1 a7 bc
       -0.082250394 0.09350816 -0.03268617 -0.020462813
000150 0a 18 a2 3d 25 c6 bc bc da be 2e 3d 43 ba 8e bd
       0.07914741 -0.023043701 0.04266248 -0.0696912
000160 08 bd d1 3c d9 5f 5a bd 2f 54 6e bd d6 76 5e bc
       0.025602832 -0.053314064 -0.058185752 -0.013578137
000170 0a 8d 5c bd 02 cc c4 bb 75 a4 e4 bd 6c a6 60 bd
       -0.053845443 -0.006005765 -0.1116418 -0.054846212
000180 0a 69 f5 bc 9c 1e 91 bd c3 0a b1 bd 8b db 8f 3d
       -0.029957313 -0.070859164 -0.08644631 0.070242964
000190 fc 10 8c 3c 4c 34 8c bd 4e 7f 2a 3d e0 00 94 bc
       0.017097943 -0.06845912 0.041625313 -0.018066823
0001a0 61 13 4f bd d0 64 9b bc 81 d1 80 bc 1b a0 be bd
       -0.05055559 -0.01896897 -0.0157249 -0.093078814
0001b0 af 72 04 3d 86 0e b3 bc fb 94 84 3c a6 a9 44 bd
       0.032335933 -0.021857511 0.01618432 -0.04801335
0001c0 ca 26 af bb de 1a f1 bc 22 0f 89 bd 7e e2 63 bd
       -0.0053452 -0.029431757 -0.066923395 -0.05563592
0001d0 7b 93 97 bc 02 d9 de bb 92 2b 0e 3d d1 eb c9 3d
       -0.018502941 -0.0068007717 0.03470952 0.098594315
0001e0 03 71 95 3c 10 89 9a bd 29 7c 05 be 6d 3c 17 bd
       0.018242365 -0.07545674 -0.13035645 -0.03692286
0001f0 dd f6 9f bc ff b6 c5 bb 39 80 77 bd 47 e8 05 ba
       -0.019526893 -0.0060337777 -0.060425017 -0.00051081594

action_model._discrete_distribution.branches.0.weight f4 [4, 128]
000000 7b ba 21 be 0e 54 87 3d e1 63 ae bc 68 cf b5 3c
       -0.15793793 0.06607829 -0.02128786 0.022193626
000010 13 2c 24 bc 26 f0 6f 3d c0 02 02 3e 5d d3 be bc
       -0.010020274 0.058578633 0.12696362 -0.023294145
000020 7b 74 22 bc 43 9e 0d bd 34 95 1a bc 94 bd b4 3c
       -0.009915466 -0.03457476 -0.009434987 0.022063054
000030 5e fe de 3c e8 ff c9 3c ff 12 b9 bd 32 a6 00 3e
       0.027220901 0.024658158 -0.09036826 0.12563398
000040 ad 40 9b bd f8 db a5 3d 92 47 cf 3d 67 ad b8 3c
       -0.07580695 0.08098596 0.10121073 0.022543622
000050 0a ab 26 3d c4 ea ca bd a4 8f fa 3c 04 3c 01 3d
       0.04069046 -0.09908059 0.030586071 0.031551376
000060 2b 54 67 3a 13 7b 70 bc cc 0d 25 3d 25 7d 63 3e
       0.00088244927 -0.014677781 0.04029636 0.22215708
000070 2e 31 9c bc 73 47 f9 3d 36 50 cf 3d d5 a2 9a bb
       -0.01906642 0.12171831 0.10122721 -0.004719118
000080 77 c9 bc 3d 8f 53 ed 3c c1 9e 34 3e 7d 85 06 3e
       0.09218114 0.028970508 0.17638685 0.13136859
000090 e3 45 95 3d 02 09 9f 3d 24 c4 8c 3d 49 4e ad bd
       0.072887205 0.0776539 0.06873348 -0.08462197
0000a0 08 05 e1 3d 8d b1 53 bd 56 bb 8b 3c ed 3f 8b bc
       0.10987288 -0.051682997 0.017057102 -0.016998256
0000b0 6e 60 03 be 26 cb af bc 2d 05 b5 3d 22 9d 43 3b
       -0.12829754 -0.021459173 0.08838878 0.0029848297
0000c0 23 0f 3e bd 4d 42 04 3d 6b 9c 18 ba 97 0f aa bc
       -0.046401154 0.03228979 -0.0005821648 -0.020759387
0000d0 12 b8 35 3d 64 33 90 bc 3a ef 04 3d 8c 03 2d 3d
       0.044364996 -0.01760263 0.032454707 0.04223971
0000e0 a9 85 c2 3c 07 79 34 3d 00 72 29 3d 84 7c a4 bd
       0.023745375 0.044060733 0.041368484 -0.08031562
0000f0 71 1a 74 bc e4 b3 63 3d 2b 1e c4 3a 4a 2d 5f bd
       -0.014898882 0.05559148 0.0014962604 -0.05448655
000100 a8 6c 5c 3d 15 91 d9 3c 28 93 08 bd 97 d6 d4 bc
       0.05381456 0.026558438 -0.033343464 -0.02598123
000110 9d 9f 4c bd 9b ec 47 3d 17 07 bd 3d 9c dc 1f 3d
       -0.049956907 0.04880963 0.09229868 0.03902875
000120 d3 13 91 3d a0 82 d5 3d 3e f8 c3 3c 96 dc 07 bd
       0.07083859 0.10425305 0.023922082 -0.03316935
000130 8d ea 1c 3d d0 47 d7 bc 13 8b 34 3e 80 8d 89 3d
       0.038309623 -0.02627936 0.17631178 0.06716442
000140 dc 00 b3 3c a9 7e ff 3d 04 5c 92 3d 95 c5 8c 3d
       0.021850996 0.124753304 0.07146457 0.06873623
000150 89 93 6e 3d 47 69 16 bd 8d 66 66 bd f1 0d 10 bd
       0.05824617 -0.036721494 -0.056250144 -0.035169546
000160 e1 e1 a2 bd 0a 4e 13 3e ff 75 34 3e c7 b5 03 3e
       -0.07953239 0.14385238 0.17623137 0.12862311
000170 bd 01 99 bc e6 56 c0 3c 14 33 4a 3c 2a 34 95 bd
       -0.018677587 0.023478936 0.01234128 -0.0728534
000180 ce d0 75 bc fc be 26 3e d9 d0 c2 3d 08 e3 6e be
       -0.015003396 0.16283792 0.09512491 -0.23328793
000190 a5 0d a8 3d 14 b1 5c bc e0 1e 2c 3d a6 ac 80 3d
       0.082057275 -0.013469953 0.042021632 0.0628293
0001a0 8e 9b 4e bc 8c 82 07 bc be 06 59 bc 0b 37 7c 3c
       -0.012610329 -0.008270871 -0.013246236 0.015393983
0001b0 cb 1e 99 bc ae a3 26 bd 30 0e 04 3d a5 bb 62 bd
       -0.018691441 -0.04068344 0.032240093 -0.055354733
0001c0 fc 6e fc b9 93 b6 e1 3c 64 fb 3b bd 46 6b 44 3d
       -0.00048147875 0.027552878 -0.04589404 0.047953866
0001d0 41 70 d3 3d 45 d4 b8 3d 65 74 32 3d 45 f2 05 bb
       0.10324145 0.09024862 0.043568034 -0.0020438593
0001e0 a6 28 6d 3d fe 2a 18 3c 03 63 f5 bb 06 d2 9c 3d
       0.057900093 0.009287594 -0.0074886098 0.07657246
0001f0 a9 bc ad 3d d5 38 e2 3d f9 4d 06 bd 74 56 49 3d
       0.0848325 0.11045996 -0.032789204 0.049154714
000200 b3 52 7d bc 55 b8 9c 3d 1e 29 1c 3e 55 84 12 3d
       -0.015461612 0.07652346 0.1525006 0.035770733
000210 d8 e2 e0 bd 6d 00 9c 3c f9 7f 3f 3c 07 8a 64 3e
       -0.10980767 0.019043172 0.011688226 0.22318278
000220 83 58 71 3d 3c 76 64 bd 1c a6 cf 3a 9d fc 02 3d
       0.058922302 -0.05577682 0.0015842351 0.031979192
000230 d4 af 83 bd e2 87 41 3c 79 ba 7d bd 00 ff c1 3d
       -0.06430021 0.011812182 -0.061945412 0.094724655
000240 9f 44 06 bd 0e da 56 3d 40 65 7b 3d a7 0e 0c 3d
       -0.032780286 0.052454047 0.061375856 0.03419366
000250 b1 bb 31 3d d1 8a 80 3d bf f3 85 3c df 8b b2 3d
       0.043391887 0.06276477 0.016351579 0.087180845
000260 30 37 8c 3d a1 1d db 3c 9f 9f bc 3d 7d 6d 6a bd
       0.06846464 0.026747527 0.09210133 -0.057233322
000270 54 f3 fe bc b8 59 31 3e d9 0f 7d 3d a2 e8 a5 3c
       -0.031121887 0.17319381 0.06178269 0.02025253
000280 2b 70 9e 3d a1 e8 08 3e c2 08 0a 3d a7 52 74 3c
       0.07736238 0.13369991 0.03369976 0.014912284
000290 27 a7 44 3d 16 24 cd 3d 2d b9 0e be 87 65 7a bd
       0.04801097 0.100166485 -0.13937826 -0.06113198
0002a0 f4 35 f7 3d 3e bc fb 3d d9 d1 77 3e e0 77 c7 3d
       0.120708376 0.12291764 0.24201144 0.09739661
0002b0 29 09 9f bd b9 0d 56 3c 64 1a d2 3d 61 f5 0a 3c
       -0.07765419 0.013064795 0.1025894 0.008481354
0002c0 24 4a cb 3d 01 ac a1 bd 0f 2f 85 bd d9 4a 2d 3d
       0.099262506 -0.07894135 -0.06503116 0.04230771
0002d0 83 7f 03 bd 19 29 d5 3d c9 cc 88 bc c9 94 38 bd
       -0.032104027 0.104082294 -0.016699212 -0.045063768
0002e0 5c 73 51 3e c7 2a b8 bc 21 c6 15 bc d5 a1 30 bc
       0.20454162 -0.022481335 -0.009141476 -0.010780771
0002f0 65 88 10 3c 64 ab f3 3c 38 c8 b2 3c 3e e1 a7 bd
       0.0088215815 0.029744811 0.021823987 -0.081972584
000300 b5 a2 55 bd f6 53 1f bd 71 3a 1c be 1f 4b d2 3d
       -0.052157123 -0.03889843 -0.15256669 0.102682345
000310 bd 94 4f bc 20 42 8d bd 28 8e 37 bd dc b8 ba bb
       -0.012669739 -0.06897378 -0.044813305 -0.0056983065
000320 15 85 6a bd c5 bf ef 3d e8 36 87 be f5 d9 7d 3d
       -0.057255823 0.11706499 -0.26409078 0.06197544
000330 e0 35 9b 3b aa 47 67 be 2e 56 b1 bd 73 25 5e bd
       0.004736647 -0.22585931 -0.086590156 -0.054234933
000340 2b 13 bd 3c c2 34 31 bc a3 75 2d 3d 3c 02 22 3d
       0.023080429 -0.010815801 0.042348515 0.039552912
000350 6a 79 37 3d 07 a5 5c bd 5b ef 0a 3e 4c 89 61 bd
       0.044793524 -0.05386832 0.1356787 -0.055062577
000360 04 7a cf bd 1e 0e af bc 2d 8f a2 3a 09 19 83 bd
       -0.101306945 -0.021369036 0.0012402289 -0.064012595
000370 4a 8c 77 3d 78 da af bd 1a 56 e6 bc a1 3c cf 3d
       0.060436524 -0.085865915 -0.028117228 0.10118986
000380 21 a4 47 be e9 2e 7b 3d 79 d1 88 bd 47 98 6e 3c
       -0.19496204 0.061324034 -0.06680579 0.014562673
000390 e9 66 34 3d c2 61 8a 3c da d9 cb 3d 42 e4 03 bd
       0.044043455 0.016892318 0.09953661 -0.032200105
0003a0 8b 03 06 3e ef a7 fa 3d f3 17 aa 3d fd 46 df ba
       0.13087289 0.12239062 0.08305349 -0.0017034706
0003b0 43 36 90 3d 95 80 57 bd f8 42 73 bd ba 77 a1 bc
       0.070415996 -0.05261286 -0.05939004 -0.01971041
0003c0 67 b0 00 bc 06 0f 9b 3d ba 5a b7 bb 3a 44 70 bd
       -0.007854558 0.07571225 -0.0055955322 -0.058658816
0003d0 96 7c 9f bd e2 d3 bb 3d 89 a9 8d bd e0 97 dd 3d
       -0.07787435 0.09171273 -0.06917102 0.108199835
0003e0 b6 0c 49 3d b5 40 ab bb a9 32 2a 3d 13 b3 90 3d
       0.049084388 -0.0052262195 0.04155222 0.07065406
0003f0 d7 b4 65 bc 52 b5 c1 3d 44 dc c0 3b f8 ab 14 3e
       -0.014020166 0.09458412 0.0058856327 0.14518726

action_model._discrete_distribution.branches.0.bias f4 [4]
000000 12 52 70 bc 17 52 3a 3d e0 5a bb 3c b2 b3 14 bd
       -0.014668005 0.045488443 0.022870481 -0.036304183
