old_ppo/v3/v3-28911.pt (torch, 437228 bytes, 33 tensors)

network_body._body_endoder.seq_layers.0.weight f4 [128, 4]
0	0x3cefd34a	0.029275555
1	0xbf87be5b	-1.0604967
2	0xbf201e66	-0.62546384
3	0xbf463e0c	-0.77438426
4	0x3e955fba	0.29174596
5	0xbe926400	-0.2859192
6	0x3cf5f7ee	0.030025449
7	0x3f078da2	0.5295049
8	0x3e95ad42	0.29233748
9	0x3dfe64af	0.124215476
10	0x3d063659	0.032766674
11	0x3e952046	0.29126185
12	0xbf36ff19	-0.71483
13	0xbdd7c46d	-0.10535512
14	0xbe56d019	-0.2097782
15	0xbf16727a	-0.5876843
16	0x3d272162	0.04080332
17	0xbec5b5e0	-0.38615322
18	0x3ea3de01	0.32005313
19	0x3f1df3ff	0.61700433
20	0xbdc3fe7b	-0.09570023
21	0xbc687d22	-0.01418999
22	0x3f86822a	1.0508473
23	0xbf0dea62	-0.55435765
24	0x3e1de28c	0.15418452
25	0x3f6971fa	0.9118954
26	0xbeaf7185	-0.34266296
27	0xbf761459	-0.961248
28	0xbf46d3c6	-0.7766689
29	0x3ff5291f	1.9153174
30	0xbe6f83a0	-0.23390055
31	0x3e5aad3f	0.2135515
32	0x3e6cc0be	0.231204
33	0x3f51d6d3	0.8196842
34	0x3ed8cd2b	0.4234403
35	0x3f169675	0.5882333
36	0xbd35768b	-0.044302505
37	0xbe9d3835	-0.30706945
38	0xbeeeed63	-0.46665487
39	0x3e23b43a	0.1598672
40	0x3de808a7	0.11329775
41	0x3bc25377	0.00593036
42	0x3f1d78b8	0.6151233
43	0xbf06831f	-0.52543825
44	0x3e6783f0	0.22608924
45	0x3f034424	0.5127585
46	0x3eb17955	0.34662881
47	0xbdd15c1b	-0.10222646
48	0x3eb2f9ac	0.3495611
49	0xbe2ccdce	-0.16875383
50	0x3e9f18a4	0.31073487
51	0xbe96fc83	-0.29489526
52	0x3ef03f82	0.46923453
53	0xbe2d5742	-0.16927817
54	0x3e1b553a	0.1516923
55	0x3ea72da0	0.32651997
56	0x3c954722	0.018222395
57	0xbed672a9	-0.41884354
58	0x3ea6bd09	0.32566097
59	0x3f279e6f	0.65476125
60	0x3ed289de	0.4112081
61	0xbe716078	-0.23571956
62	0x3f635459	0.8880058
63	0xbe5e267e	-0.21694371
64	0x3e2cc11e	0.16870543
65	0xbcd8b507	-0.026453508
66	0xbdfbed2b	-0.123010956
67	0x3f0820bd	0.53174955
68	0x3f24a20a	0.6430975
69	0x3dcb1a84	0.09917167
70	0xbe1a57fb	-0.15072624
71	0x3d00887a	0.031380154
72	0xbe145434	-0.14485246
73	0xbd97050c	-0.073740095
74	0xbe9b0205	-0.30274978
75	0xbe600f95	-0.21880944
76	0xbf6372e5	-0.8884719
77	0xbeb1a89c	-0.3469895
78	0xbe9fa236	-0.31178445
79	0x3f14dd87	0.58150524
80	0xbdcb4587	-0.09925371
81	0xbf2b8557	-0.67000335
82	0xbe3aeca4	-0.18254334
83	0xbec9d470	-0.3941989
84	0x3f28e8da	0.65980303
85	0xbf15ed7b	-0.5856549
86	0xbed257be	-0.41082567
87	0x3f2ec892	0.68274796
88	0xbf1ba098	-0.6079192
89	0x3f3186e4	0.6934645
90	0xbdadf0f2	-0.08493222
91	0xbea92936	-0.33039254
92	0x3e66ee74	0.225519
93	0x3f86af72	1.0522292
94	0x3ef79e2a	0.48362857
95	0x3db305ef	0.08741366
96	0xbf1905be	-0.59774387
97	0xbdf13f47	-0.11779647
98	0xbefe16c8	-0.49626756
99	0xbf1287bf	-0.5723838
100	0x3e87f9de	0.2655782
101	0x3e93f748	0.28899598
102	0x3f87835f	1.0586966
103	0x3f02ec34	0.5114167
104	0x3ddca846	0.10774283
105	0xbf09d41e	-0.5383929
106	0x3ec28d5f	0.37998483
107	0x3dfd39aa	0.12364514
108	0x3dc0ed2e	0.094202384
109	0xbed0c74e	-0.40777057
110	0xbcf447c6	-0.02981938
111	0xbe5ac98f	-0.21365951
112	0xbc8fe173	-0.017563557
113	0x3dd843e9	0.10559828
114	0xbf951bb6	-1.1649082
115	0xbed8876e	-0.42290825
116	0xbeb9ae3b	-0.3626574
117	0x3e8a0db5	0.26963583
118	0x3ec44b49	0.38338688
119	0xbe929dbb	-0.28635964
120	0x3f90e83f	1.1320876
121	0xbf6d4cf3	-0.9269554
122	0x3f195b6a	0.5990511
123	0xbe656457	-0.22401558
124	0xbf65362c	-0.89535785
125	0x3f17f934	0.5936463
126	0xbe6059ba	-0.21909228
127	0x3f0cf8cd	0.5506714
128	0xbd32aa62	-0.04361952
129	0xbea9ac4e	-0.3313927
130	0x3ddb4e1d	0.10708258
131	0xbe9a92b0	-0.3019004
132	0xbf10780e	-0.5643319
133	0x3f899bff	1.0750731
134	0x3ef10329	0.47072724
135	0xbf30906d	-0.68970376
136	0x3f0a9ede	0.5414866
137	0x3e187912	0.14889935
138	0xbeb241a1	-0.34815696
139	0x3f2b85e7	0.67001194
140	0xbe3df78c	-0.18551463
141	0xbe3b4ede	-0.18291804
142	0x3eeba1c9	0.4602187
143	0x3e9a5eb6	0.30150384
144	0x3f9729e6	1.1809661
145	0xbef459dd	-0.4772481
146	0xbf38076a	-0.7188631
147	0xbfb1cae2	-1.389004
148	0x3d1fd5ad	0.039022136
149	0xbf66da06	-0.9017643
150	0xbf0c0712	-0.5469829
151	0xbe937b05	-0.28804794
152	0x3ddf07ac	0.10890135
153	0xbf54d540	-0.83137894
154	0x3d7545b4	0.059880927
155	0x3ef7f1f6	0.4842679
156	0x3ec29c1f	0.38009736
157	0x3d6578d4	0.056023434
158	0xbeb6b8c1	-0.3568783
159	0x3d3e810f	0.0465098
160	0x3e17230d	0.14759465
161	0xbedb96f2	-0.428886
162	0xbbf5d651	-0.007502355
163	0xbe91c709	-0.28472164
164	0xbf5d9081	-0.8654862
165	0x3f14bbe5	0.58099204
166	0x3f116efa	0.5680996
167	0x3f85ce71	1.0453626
168	0x3e626d70	0.2211206
169	0xbf209998	-0.62734365
170	0x3e92a460	0.28641033
171	0x3da226e7	0.07917576
172	0x3ee8bebd	0.45458022
173	0xbf38b71b	-0.72154397
174	0x3f3a4c69	0.7277284
175	0xbeacdc4f	-0.33761832
176	0x3e910dc5	0.28330818
177	0x3f3e7438	0.74396086
178	0xbd7f25c7	-0.062291887
179	0xbf617a66	-0.8807739
180	0x3e42ac9b	0.19011156
181	0x3e243ebe	0.16039559
182	0x3ea81f13	0.32836208
183	0x3e8b511d	0.27210322
184	0xbf519f5e	-0.818838
185	0xbeef27bf	-0.4671001
186	0xbd51c860	-0.051216483
187	0x3beabdb4	0.0071637277
188	0xbebf66ee	-0.37383217
189	0x3f049640	0.51791763
190	0x3d96e6ae	0.073682174
191	0x3f44d692	0.7688991
192	0xbf1b1191	-0.6057368
193	0xbebb12c7	-0.36537763
194	0x3dc05fd6	0.09393279
195	0x3ebfeb28	0.37484097
196	0xbe13219c	-0.1436829
197	0xbf1a0795	-0.6016782
198	0xbe9e229f	-0.3088579
199	0x3e8d2530	0.27567434
200	0x3fa0e854	1.2570901
201	0x3eb27ebc	0.34862316
202	0x3e66f59d	0.22554632
203	0x3e6b9074	0.23004323
204	0x3f6029a9	0.8756357
205	0xbe1fd992	-0.1561034
206	0x3efe87d9	0.4971302
207	0x3e12ba8d	0.14328976
208	0xbee7da36	-0.4528367
209	0xbea633ac	-0.32461298
210	0xbf04b44a	-0.518376
211	0xbe383c82	-0.17991832
212	0x3ee0d33d	0.43911162
213	0xbcd7aecd	-0.026328469
214	0xbecebf80	-0.40380478
215	0xbe604c6c	-0.21904153
216	0x3e8935ad	0.26798764
217	0xbf40d5f6	-0.7532648
218	0xbf1184cf	-0.56843275
219	0x3e0a2c0e	0.13493368
220	0x3e8ceb8d	0.2752346
221	0xbe17673a	-0.14785472
222	0xbf00afc2	-0.50268185
223	0x3eb3fa38	0.3515184
224	0xbeec4cfc	-0.46152484
225	0x3f7217df	0.94567674
226	0xbf01d843	-0.50720614
227	0x3d5725da	0.052526332
228	0xbe31c0ec	-0.1735875
229	0xbe25c15f	-0.16187046
230	0xbe63c71d	-0.22243924
231	0xbe744334	-0.23853761
232	0x3f17e0f9	0.59327656
233	0x3f7f3c52	0.99701416
234	0xbf3a1ecd	-0.7270325
235	0xbb16358f	-0.0022920107
236	0xbec3db21	-0.3825312
237	0x3edcb2df	0.43105218
238	0xbef6926b	-0.48158583
239	0xbf2acf6f	-0.6672277
240	0xbe36eeed	-0.1786458
241	0xbf54c0de	-0.8310679
242	0xbf0939df	-0.5360393
243	0xbca43d3d	-0.020048732
244	0x3df95517	0.12174433
245	0x3e36d94b	0.17856328
246	0x3ea663e8	0.32498097
247	0x3eafe9be	0.3435802
248	0x3eacafbb	0.33727822
249	0xbeac19f3	-0.33613548
250	0x3f6b98f8	0.92030287
251	0x3e975b94	0.29562056
252	0xbe4b79e4	-0.19870716
253	0xbecc652f	-0.39920947
254	0xbdf35299	-0.11880989
255	0x3ef2b580	0.474041

network_body._body_endoder.seq_layers.0.bias f4 [128]
0	0x3c3844af	0.011246844
1	0xba576acd	-0.00082175137
2	0xbc963450	-0.018335491
3	0x3b9ee0bf	0.004848569
4	0x3c0e0e8c	0.00867046
5	0xbc824769	-0.015903192
6	0xbb88e2c4	-0.004177423
7	0xbc0841b4	-0.008316446
8	0xbc25d627	-0.010121859
9	0xbb65a32d	-0.0035039887
10	0xbc9f9734	-0.019481279
11	0xbb129379	-0.0022365733
12	0xbb290d27	-0.0025795193
13	0xbcca2170	-0.024674147
14	0xbd0ef76f	-0.03490394
15	0xbd3754eb	-0.04475872
16	0xbd2f9440	-0.04286599
17	0xbd045de5	-0.032316107
18	0xbd250866	-0.040291212
19	0x3bf9421c	0.007606758
20	0x3af33f4c	0.0018558293
21	0xbce9c45e	-0.028536018
22	0xb98f4215	-0.0002732432
23	0xbc3c25fd	-0.0114836665
24	0xbcf78494	-0.030214585
25	0xbb870c74	-0.0041213576
26	0xbcc67d7b	-0.024229756
27	0xbc73a6be	-0.014871297
28	0xbd1d9953	-0.0384763
29	0x3c7d3861	0.015455336
30	0x3aac641d	0.0013152395
31	0xbc0fa72e	-0.008767886
32	0x3d80e7d6	0.06294219
33	0x3c2bae6c	0.010478597
34	0xbd04af6b	-0.032393854
35	0xbcc705f8	-0.024294838
36	0xbccd4e59	-0.025061773
37	0x3b3b3190	0.0028563477
38	0xbbe3e228	-0.00695445
39	0xbca5b17c	-0.020226233
40	0x3c62ef54	0.013851006
41	0xbbb51569	-0.005526234
42	0xbaf794f9	-0.0018889002
43	0x3c490d93	0.012271303
44	0xbd326720	-0.04355538
45	0xbcefbfc4	-0.029266246
46	0xbd36e2e4	-0.044649974
47	0x3c820324	0.015870638
48	0xbc5135b9	-0.012769156
49	0xbc1f8499	-0.009736204
50	0xbd43ac10	-0.047771513
51	0xbd1d7956	-0.038445793
52	0xbcbbf54b	-0.022944113
53	0x3d619602	0.0550747
54	0x3d2431f1	0.04008669
55	0x3c661906	0.014044052
56	0xbcfabbb8	-0.03060709
57	0x3bb01be0	0.0053744167
58	0xbc9fa780	-0.01948905
59	0xb8d9251a	-0.00010354277
60	0xbb4d6c97	-0.0031345242
61	0xbc990dfa	-0.018683422
62	0xbd28f9d0	-0.041253865
63	0x3c055262	0.008137317
64	0xbcf5d8cb	-0.030010602
65	0x3c5a033d	0.013306436
66	0xbc7f3c03	-0.015578273
67	0x3ce72f0f	0.028220681
68	0x3db76664	0.08955076
69	0xbd90b676	-0.07066052
70	0x3cc29124	0.023750849
71	0xbca850f9	-0.020546423
72	0xbc9b9807	-0.01899339
73	0xbd4d5d0b	-0.05013756
74	0xbbcf20c6	-0.0063210456
75	0x3ce1ad3a	0.027548421
76	0xbc60395d	-0.0136855515
77	0x3b8b127d	0.0042441473
78	0xbca7abf8	-0.020467743
79	0xba88678f	-0.001040684
80	0x3b471e78	0.003038315
81	0xbcb97d7c	-0.022642843
82	0xbd268573	-0.04065461
83	0x3cf1e68e	0.029528882
84	0xbd0f8559	-0.03503928
85	0xbba67250	-0.005079545
86	0x3c2d311f	0.010570793
87	0xbd9eb2e7	-0.07748967
88	0xbc96db78	-0.018415198
89	0xbc9f91a4	-0.019478627
90	0xbba45a8d	-0.0050156773
91	0x3b313dd6	0.0027044914
92	0x3ce87bb7	0.028379304
93	0xbcb5811c	-0.02215629
94	0xbd171fec	-0.036895677
95	0x3cf7e795	0.030261794
96	0xbd048690	-0.03235489
97	0x3d50b7c3	0.0509565
98	0xbc9d2632	-0.019183252
99	0xba1eccc2	-0.0006057733
100	0x3b5ba2b2	0.0033513722
101	0x3c15c3f8	0.009140961
102	0x3c8b4f4f	0.01700559
103	0xbad32343	-0.0016108531
104	0xbc69996d	-0.014257771
105	0x3d20c391	0.039249007
106	0xbd5a9ac4	-0.053370252
107	0xba23785c	-0.00062358915
108	0x3c86268f	0.016375808
109	0x3c9913f9	0.018686282
110	0x3c9611e0	0.01831907
111	0xbd1d73a4	-0.03844036
112	0xbce2d844	-0.027691014
113	0x3c17bb99	0.009261035
114	0xbd96c71d	-0.073621966
115	0xbcb9762b	-0.022639355
116	0x3d84f8b3	0.06492748
117	0xbba340fd	-0.0049821124
118	0xbcf97093	-0.030449187
119	0xbca4f237	-0.020135028
120	0x3c953de5	0.01821799
121	0xbb4edc3a	-0.003156437
122	0xbc6cb803	-0.014448169
123	0xbd139c06	-0.036037467
124	0x3d239723	0.039939057
125	0xbc7d42e8	-0.015457846
126	0x3d621a72	0.055201
127	0xbcbe216c	-0.023209296

network_body._body_endoder.seq_layers.2.weight f4 [128, 128]
0	0xbd3507cf	-0.0441969
1	0xbdf0641e	-0.11737846
2	0xbe0a41f0	-0.13501716
3	0x3e16cbba	0.14726153
4	0x3df5b828	0.11998016
5	0xbe192c2e	-0.1495826
6	0xbcdad14d	-0.02671113
7	0x3cfc0a68	0.03076668
8	0xbd525960	-0.051354766
9	0xbd8205ff	-0.063488
10	0xbe15bc31	-0.1462257
11	0xbdfd7a68	-0.12376863
12	0xbdce0d95	-0.10061184
13	0x3ccfa4b9	0.0253471
14	0xbdea5b7d	-0.11443231
15	0xbd598f56	-0.05311521
16	0xbdfa44b2	-0.12220134
17	0xbcafd066	-0.021461677
18	0xbcba9892	-0.02277783
19	0xbd8ae5bd	-0.067821
20	0xbd4ba4e2	-0.04971779
21	0x3daa7e65	0.08324889
22	0xbda59727	-0.08085471
23	0x3c9405d5	0.018069187
24	0x3cb88d49	0.022528308
25	0xbd80df82	-0.06292631
26	0x3cec3818	0.028835341
27	0xbe662ffb	-0.2247924
28	0x3d3eafd7	0.046554413
29	0xbdd5b973	-0.10435762
30	0xbe4290b3	-0.19000511
31	0xbe23d69d	-0.15999837
32	0xbd827e6c	-0.06371769
33	0x3dd3528b	0.10318478
34	0x3d8677be	0.06565808
35	0x3dbb4690	0.09144318
36	0xbc9703ba	-0.018434394
37	0xbcc3641a	-0.023851443
38	0xbe17ce1d	-0.1482472
39	0xbb4aa5c3	-0.0030921556
40	0x3d5f78b4	0.05455847
41	0xbd05278c	-0.032508418
42	0xbdfde743	-0.12397625
43	0xbd78b7d1	-0.060722176
44	0xbe456196	-0.19275507
45	0x3dc69d22	0.096979395
46	0xbe2cc762	-0.16872934
47	0x3d3dd905	0.046349544
48	0x3af46fa4	0.0018648994
49	0x3d4bfcab	0.04980151
50	0xbd8cec00	-0.06880951
51	0xbdb0fdf3	-0.08642187
52	0xbe0163e8	-0.12635767
53	0x3d8a81fd	0.067630745
54	0x3e1b12f8	0.15143955
55	0xbcf2ef51	-0.02965513
56	0xbe1cb76f	-0.1530435
57	0x3d53cd72	0.0517096
58	0x3c576957	0.013147674
59	0xbbb134b8	-0.005407896
60	0x3db0bf78	0.0863027
61	0x3db4486d	0.088028766
62	0xbd8a523e	-0.06753968
63	0x3df4046f	0.11914908
64	0xbd04ef36	-0.03245469
65	0x3d9af125	0.07565526
66	0xbd39169a	-0.04518757
67	0x3de82a1a	0.11336155
68	0x3d5389fe	0.05164527
69	0x3d37ae09	0.044843707
70	0xbd6d9d01	-0.05801106
71	0xbd03039c	-0.031985864
72	0x3b05e2e3	0.0020429424
73	0xbdc07c31	-0.09398688
74	0xbd1ab215	-0.03776749
75	0xbb7332c2	-0.0037109111
76	0xbdbda41b	-0.09259816
77	0x3a8b477c	0.0010626162
78	0xbd05c4ac	-0.032658264
79	0x3d55425f	0.05206525
80	0x3cf1b239	0.029503928
81	0x3e121daf	0.14269136
82	0x3d0d09f4	0.03443332
83	0xbc409f45	-0.011756723
84	0xbe82657d	-0.25468054
85	0xbd5672d5	-0.052355606
86	0xbc4b03e1	-0.0123910615
87	0x3d66d0ca	0.05635146
88	0x3d52dd73	0.05148072
89	0xbd344753	-0.044013333
90	0xbca55b75	-0.020185212
91	0xbcd26a5c	-0.025685482
92	0x3db6ae08	0.089199126
93	0x3dc523a9	0.09625942
94	0x3d9d63b4	0.076850325
95	0x3d1dd44f	0.03853255
96	0xbca926a6	-0.020648312
97	0x3e188ab1	0.14896657
98	0xbd2dea5f	-0.04245984
99	0xbdc9d977	-0.09855931
100	0xbe27459c	-0.16335148
101	0xbd6c39a1	-0.057672147
102	0xbe211e00	-0.157341
103	0x3cf07434	0.029352285
104	0x3c644760	0.013933033
105	0xbbd319ea	-0.006442298
106	0x3dd63c2a	0.10460694
107	0x3c688c81	0.014193655
108	0xbe090aef	-0.13383077
109	0x3c964c03	0.018346792
110	0x3d00de50	0.031462014
111	0xbd4f7cf6	-0.05065628
112	0x3becfe94	0.0072324965
113	0xbdcf1f1f	-0.10113358
114	0x3d67bd85	0.056577224
115	0xbd3bc307	-0.04584029
116	0xbcc8a6ea	-0.024493653
117	0xbda1285a	-0.078690246
118	0x39cb18c7	0.00038737638
119	0xbdf78d3b	-0.120874844
120	0xbbe3233d	-0.006931691
121	0x3df16579	0.117869325
122	0x3c6925a1	0.014230163
123	0xbdb37426	-0.08762388
124	0xbb8355f3	-0.0040080487
125	0x3de3e575	0.1112775
126	0x3e05bd72	0.13060549
127	0xbcfb50a1	-0.030678095
128	0x3cc44eb7	0.023963315
129	0xbd87ba11	-0.06627286
130	0xbd79e8f2	-0.06101317
131	0xbe0e11fd	-0.1387405
132	0xbbb60bda	-0.005555612
133	0xbd4b48b1	-0.04962987
134	0x3dd297cc	0.10282859
135	0x3e249d61	0.1607566
136	0xbe158db0	-0.1460483
137	0xbb2175a2	-0.0024636765
138	0xbd5e8535	-0.054326255
139	0xbd87adb4	-0.06624928
140	0x3dcfd91f	0.101488344
141	0x3d4810a0	0.04884398
142	0xbd11c9e1	-0.035592917
143	0x3e32a757	0.17446648
144	0xb99e716e	-0.0003022062
145	0xbe1025b4	-0.14076883
146	0xbd4de04e	-0.05026274
147	0xbc4887bb	-0.012239392
148	0xbd2e0f0f	-0.04249483
149	0x3e641097	0.22271954
150	0x3cc108e0	0.023563802
151	0xbdc4bd34	-0.096064
152	0x3a35836e	0.00069241866
153	0xbd527fd1	-0.051391426
154	0x3e0a66b6	0.13515744
155	0x3de81bc1	0.11333419
156	0xbd59f09d	-0.053207982
157	0x3d03b967	0.032159235
158	0xbe065788	-0.13119328
159	0x3debb03d	0.11508224
160	0x3c9ff165	0.019524286
161	0xbd24ad52	-0.040204354
162	0xbd8b3ee3	-0.06799104
163	0x3c92b2a3	0.017907446
164	0xbe4fa433	-0.20277481
165	0xbe759263	-0.23981623
166	0x3deff3fb	0.117164575
167	0xbd891695	-0.0669376
168	0xbe7377cf	-0.23776172
169	0xbc8eef8e	-0.017448213
170	0x3dcb8d37	0.09939044
171	0xbce342f4	-0.027741887
172	0xbe4a1a12	-0.19736508
173	0x3d2be440	0.041965723
174	0x3d14389a	0.036186792
175	0x3dd4c31f	0.10388779
176	0x3dfb0e8d	0.12258635
177	0xbd100e53	-0.03516991
178	0xbe0be1bd	-0.13660331
179	0xbe02187d	-0.12704654
180	0xbc321682	-0.010869624
181	0x3d22a512	0.039708205
182	0xbd6e8ab3	-0.058237743
183	0x3c055a65	0.0081392275
184	0x3bff921f	0.0077994014
185	0xbe6bbc50	-0.23021054
186	0xbd9e3812	-0.07725538
187	0xbd4a4303	-0.049380314
188	0xbd49aa61	-0.04923475
189	0x3d98dd41	0.07464076
190	0xbce9628d	-0.028489375
191	0x3e3ef6a9	0.18648781
192	0xbd6bcdbe	-0.057569258
193	0x3e3ad38a	0.18244758
194	0x3d58ebbf	0.0529592
195	0xbda353c8	-0.079749644
196	0xbe106129	-0.14099564
197	0x3c857ba8	0.016294315
198	0x3c1a976f	0.009435519
199	0x3bb926db	0.005650384
200	0x3d4e994c	0.050439164
201	0xbd854c81	-0.065087326
202	0xbd95c6f6	-0.073133394
203	0x3dafa387	0.08576112
204	0xbd814d61	-0.06313587
205	0xbe1f3990	-0.15549302
206	0x3d416402	0.047214516
207	0xbd426167	-0.04745617
208	0x3d892de5	0.06698207
209	0x3e4c4e3a	0.19951716
210	0xbc0ce0ab	-0.008598487
211	0x3c3a0cc7	0.011355585
212	0x3e2ba481	0.16761972
213	0x3d7f0552	0.062260933
214	0xbe18b6d4	-0.14913493
215	0x3da324a3	0.07965972
216	0x3cdb409e	0.02676421
217	0x3e3325dd	0.17494912
218	0xbe4ed8f3	-0.20199947
219	0xbde9c093	-0.11413684
220	0x3de2076d	0.110365726
221	0x3e1a1725	0.15047891
222	0xbd332a31	-0.04374141
223	0xbd5ed969	-0.054406557
224	0xbdf82f87	-0.1211844
225	0xbdb686c0	-0.0891242
226	0xbd104e02	-0.035230644
227	0x3d885d03	0.066583656
228	0xbd1e5ec4	-0.038664594
229	0x3cf248c1	0.029575707
230	0xbce9f38e	-0.028558519
231	0xbb86e09d	-0.0041161315
232	0xbd798985	-0.060922164
233	0xbcb7bb7e	-0.02242827
234	0x3d003a5a	0.03130565
235	0xbd6558b3	-0.055992793
236	0xbd5a5d88	-0.053311855
237	0xbdba29f6	-0.09090035
238	0xbd2e818e	-0.04260402
239	0x3c92f186	0.017937433
240	0xbd63043a	-0.055423953
241	0x3c653b70	0.013991222
242	0xbde4bbed	-0.111686565
243	0xbd3b3209	-0.045702014
244	0xbe2a19d1	-0.1661141
245	0x3d825ac5	0.06364969
246	0x3d1ce1d3	0.0383013
247	0xbda81f0f	-0.08209049
248	0xbcba7c94	-0.022764482
249	0xbde9d028	-0.11416656
250	0xbe339bea	-0.17539945
251	0x3c8d5fac	0.017257534
252	0xbe30c159	-0.17261256
253	0xbe5b1698	-0.21395338
254	0xbd3ea382	-0.046542652
255	0x3d12ca1d	0.03583728

network_body._body_endoder.seq_layers.2.bias f4 [128]
0	0xbc8b4941	-0.017002704
1	0x3c226df9	0.009913915
2	0xbc392718	-0.011300825
3	0xbcaf28d4	-0.021381773
4	0xbc7959cd	-0.015219164
5	0xbc3f8822	-0.011690171
6	0xbc97c9b0	-0.01852879
7	0xbcacbfd8	-0.021087572
8	0xbbc38a82	-0.005967439
9	0xbb1bf2d8	-0.002379587
10	0x3acbc829	0.0015547323
11	0xbc6458ec	-0.013937216
12	0xbcec9599	-0.028879927
13	0xbbef03fe	-0.007294177
14	0x3c4f2ae7	0.012644506
15	0xbc0ca4bd	-0.008584199
16	0x3b4598ab	0.0030150812
17	0xbcef1e64	-0.029189296
18	0xbc75ce30	-0.015002772
19	0x3b939580	0.004503906
20	0xbc7bf2ae	-0.015377684
21	0xbcbe9e6e	-0.023268905
22	0x3bc8db71	0.006129675
23	0xbcac12f8	-0.021005139
24	0xbd216d4d	-0.039410878
25	0xbb952457	-0.004551451
26	0xbc928fb9	-0.017890798
27	0xbba017f7	-0.0048856693
28	0x3cd8e767	0.026477529
29	0xbd1de379	-0.038547013
30	0x3b67714a	0.0035315328
31	0xbd0eb60c	-0.034841582
32	0x39f8d624	0.00047461793
33	0x39b56579	0.00034598613
34	0xbd3401dd	-0.04394709
35	0xbd2ae4dd	-0.041722167
36	0xbac050fb	-0.0014672572
37	0xbd128b92	-0.035777636
38	0x3bb32434	0.0054669622
39	0xbcf57ed2	-0.0299677
40	0xbc48c93d	-0.01225501
41	0xbc4f2a6c	-0.0126443915
42	0xbc7c6f68	-0.015407421
43	0xbd00ae67	-0.031416323
44	0xbc763022	-0.015026124
45	0x3ba50d76	0.005037005
46	0xbcc44e1e	-0.02396303
47	0xbbcfb1aa	-0.006338318
48	0x3cb41a84	0.0219853
49	0xbcbe1b13	-0.02320627
50	0xbc44cb82	-0.012011411
51	0x3bef825a	0.0073092403
52	0xbcdd9bab	-0.027051767
53	0xbcbace2b	-0.022803387
54	0x3bbb5418	0.005716812
55	0xbad5b877	-0.0016305585
56	0x3cb7f98b	0.022457859
57	0xbc297837	-0.010343603
58	0xbcaf0187	-0.021363033
59	0xbc75100b	-0.014957438
60	0xbc2adb8e	-0.0104283225
61	0xbd263603	-0.040578853
62	0xbc5a23f7	-0.013314239
63	0xbced7af7	-0.028989298
64	0xbca19f98	-0.01972942
65	0xbc3e7bb3	-0.011626172
66	0xbcaa7827	-0.020809246
67	0xba68cef3	-0.00088809355
68	0xb9de86dd	-0.0004244362
69	0xbc884c87	-0.016638054
70	0xbc9785ff	-0.018496512
71	0xbc958aec	-0.01825472
72	0xbc648172	-0.013946878
73	0xbcabf4d9	-0.020990776
74	0xbccaa48e	-0.024736669
75	0xbc3ac54b	-0.011399577
76	0x39486b72	0.00019113513
77	0xbccd2ae4	-0.025044866
78	0xbc608bd8	-0.013705216
79	0xbc45cf32	-0.012073325
80	0xbc8260ce	-0.0159153
81	0xbbaec62f	-0.005333684
82	0xbcb5d786	-0.022197496
83	0xbd1b477a	-0.037909962
84	0xbcb1a88a	-0.021686811
85	0xbc1c072c	-0.009523194
86	0xbd369e02	-0.04458428
87	0xbcb8ddc5	-0.022566685
88	0xbd1338a6	-0.035942696
89	0xbc1f3cab	-0.009719054
90	0x3c0571df	0.008144825
91	0xbce94c8a	-0.02847888
92	0xbcb226d1	-0.021747025
93	0xbc379dd0	-0.011207059
94	0xbb9c675c	-0.0047730636
95	0xbc2bbe32	-0.010482358
96	0xbc8a1225	-0.016854355
97	0xbcc7581f	-0.024334012
98	0x3ca89ab6	0.020581584
99	0xbc89f258	-0.016839191
100	0x3c634468	0.01387129
101	0xbbcde066	-0.006282854
102	0xbcac120b	-0.021004697
103	0x3940a5ec	0.00018372358
104	0xbcab775c	-0.020930938
105	0xbcd63b54	-0.026151337
106	0xbc0b2721	-0.008493216
107	0xbcc4511a	-0.023964453
108	0xbca863c8	-0.020555392
109	0xbb82c593	-0.003990838
110	0x3bd83d27	0.006599087
111	0x3c6c529a	0.014423991
112	0xbcefee68	-0.029288486
113	0xbc3cbd97	-0.011519811
114	0xbce3efe3	-0.027824348
115	0xbc957c6e	-0.01824781
116	0xbbf5b1ef	-0.007498018
117	0xbcb5a3a0	-0.022172749
118	0xbce15c05	-0.027509699
119	0xbba4f97f	-0.005034625
120	0xbd135724	-0.035971776
121	0xbaa7dadf	-0.0012806318
122	0xbbe5a8bd	-0.0070086406
123	0xbc9ac380	-0.01889205
124	0x3bb8fea8	0.0056455918
125	0xbce1f6fd	-0.027583594
126	0xbcba6771	-0.022754403
127	0xbcd305b1	-0.02575955

action_model._discrete_distribution.branches.0.weight f4 [4, 128]
0	0x3c2f0bda	0.010683978
1	0xbc85266e	-0.016253676
2	0xbd6130ef	-0.054978307
3	0x3bcdc822	0.006279961
4	0x3bf33ab0	0.0074227676
5	0xbc29bebe	-0.010360418
6	0xbc89750d	-0.016779447
7	0x3bb9f7fc	0.005675314
8	0xbc86abea	-0.016439397
9	0x3a65a6d1	0.00087605143
10	0xbd1711bb	-0.036882143
11	0x3cfd0d32	0.030890081
12	0x3b168faa	0.0022973814
13	0x3d1759fb	0.036951046
14	0xbb885b26	-0.0041612564
15	0xbc8c67a8	-0.01713927
16	0xbbda9996	-0.006671141
17	0xbb93f8dc	-0.0045157503
18	0x3c0c19c0	0.008551061
19	0xbcf5373c	-0.029933564
20	0x3a7745bf	0.0009432695
21	0xbca77904	-0.020443447
22	0xbcb60236	-0.022217851
23	0x3b8b7831	0.0042562713
24	0xb94a7aa6	-0.00019309911
25	0xb98f3ed2	-0.0002732189
26	0x3bcbbdf7	0.006217714
27	0xbbb611ff	-0.0055563445
28	0x3bc927de	0.0061387857
29	0x3b54d962	0.0032478203
30	0x3bf18454	0.007370511
31	0x3afcc95d	0.0019286085
32	0x3cb57745	0.022151599
33	0x3d5b9c0b	0.05361561
34	0xbb9e0058	-0.0048218183
35	0x3c0c07e3	0.008546802
36	0x3beb6cc7	0.007184598
37	0x3b4b74e4	0.0031045014
38	0x3d15b5b0	0.036550224
39	0x3a2e2cc9	0.0006644247
40	0xbbf80705	-0.007569196
41	0x3c16e826	0.009210622
42	0x3c04bce7	0.008101678
43	0xb8a94645	-8.071637e-05
44	0xbc90bc72	-0.017667983
45	0x3cdcd815	0.026958505
46	0x3c190806	0.009340292
47	0x3cef05bf	0.029177545
48	0xbccaf0d5	-0.02477304
49	0xbb3dd2b9	-0.0028964712
50	0x3b56892c	0.003273557
51	0xbdb561f6	-0.08856575
52	0xbba327dc	-0.004979117
53	0x3cfdf60e	0.031001117
54	0xbc8fe66c	-0.017565928
55	0x3cdb9220	0.026803076
56	0x3be46f75	0.0069712945
57	0x3afffaa7	0.0019529656
58	0x3b8c8000	0.0042877197
59	0x3cd62bc6	0.02614392
60	0xbafc3c36	-0.0019244018
61	0xbab43d37	-0.0013751154
62	0x3c899f0d	0.016799474
63	0x3b8a5803	0.0042219176
64	0x3c3cea0e	0.011530412
65	0xbc6a8eca	-0.01431627
66	0x3c14bcde	0.009078233
67	0xbc79322b	-0.015209715
68	0x3d210f7c	0.039321408
69	0x3c843f86	0.016143572
70	0xbc1e5073	-0.009662735
71	0x3b7ca1d6	0.003854861
72	0xbc303156	-0.01075395
73	0xbc9eab74	-0.019368865
74	0xbb8c94c4	-0.004290195
75	0x3d2019de	0.03908717
76	0x3c1b8c5a	0.009493912
77	0x3c817e8e	0.015807416
78	0xbd37a520	-0.04483521
79	0x3d1152b5	0.035479266
80	0xbc82d493	-0.015970504
81	0xbb1d5062	-0.002400421
82	0xbb26442b	-0.002537022
83	0xbbddabcc	-0.0067648645
84	0xbbd127bb	-0.00638291
85	0x3c31d6c5	0.010854428
86	0xbbdc0a35	-0.006715084
87	0x3b280039	0.0025634898
88	0x3c4bbaa5	0.012434636
89	0x3b976d5a	0.00462119
90	0xbb7d3cda	-0.0038641007
91	0xbbad95ee	-0.005297414
92	0xbc286bac	-0.010279577
93	0x3cd8ad7f	0.026449917
94	0x3d23397a	0.039849736
95	0xbc5ee1ff	-0.013603686
96	0x3c2caa8f	0.010538711
97	0x3b3770e3	0.002799087
98	0x3b1f86db	0.0024341855
99	0x3c25e806	0.0101261195
100	0xbcab765b	-0.02093046
101	0xbbf28ab8	-0.0074017905
102	0xbc1b7d92	-0.0094903875
103	0x3c184b99	0.009295368
104	0xbb05f961	-0.002044283
105	0x3c2dcc46	0.010607785
106	0x3d681e64	0.056669608
107	0x3b945f8e	0.0045279926
108	0xbb14f354	-0.0022728043
109	0x3d1859f9	0.03719518
110	0xbc805e69	-0.015670018
111	0xbc01f8d7	-0.007932863
112	0xbba2a6a4	-0.0049637128
113	0xbc6d372e	-0.014478488
114	0x3ce16522	0.027514044
115	0xbb3427d7	-0.0027489567
116	0xbcf7c453	-0.030244982
117	0xbbda86ee	-0.006668917
118	0x3d169357	0.036761608
119	0xbce616c3	-0.028087026
120	0x3c80b192	0.015709672
121	0x3ce6545f	0.028116403
122	0x3d829461	0.06375957
123	0xbbb412df	-0.0054954137
124	0xbb8657b9	-0.004099813
125	0xbc081403	-0.008305552
126	0xbb5be991	-0.0033555964
127	0x3cd15820	0.025554717
128	0x39ac4af9	0.00032862255
129	0xbc758423	-0.014985117
130	0x3afdeb02	0.0019372406
131	0x3c0abcff	0.008467912
132	0x3c299e87	0.010352737
133	0x3c57bb2b	0.013167183
134	0x3c287fa8	0.010284342
135	0xbc6ff772	-0.014646398
136	0xbd415904	-0.047204033
137	0x3c19e896	0.009393832
138	0x3c17a2fe	0.009255169
139	0xbd3a530c	-0.045489356
140	0x3bd717cf	0.0065641175
141	0x3b88af1f	0.0041712667
142	0xbd3107d8	-0.04322037
143	0x3cd5662d	0.026049698
144	0x3c23498a	0.009966264
145	0x3b12fe8d	0.0022429556
146	0xbc99b8d7	-0.018764896
147	0x3cfaa066	0.030594062
148	0xbc4ccc33	-0.012499857
149	0x3aa5c123	0.001264606
150	0xbda29949	-0.07939393
151	0xb9cced3c	-0.00039086665
152	0x3b9df460	0.0048203915
153	0xbacd97a0	-0.0015685447
154	0xba965fe9	-0.0011472675
155	0xbbdbbde4	-0.0067059863
156	0x3cbb4c5c	0.02286356
157	0x3c90492b	0.017613014
158	0x3bf71826	0.0075407205
159	0xbc5ae324	-0.013359819
160	0xbd8f12b0	-0.06985986
161	0xbc97fcb3	-0.018553114
162	0x3a890f22	0.001045678
163	0x3ad844ab	0.0016499957
164	0xbd3c5b08	-0.04598525
165	0x3bdf7ca0	0.0068202764
166	0xbd19585a	-0.037437774
167	0xbb9f5564	-0.0048624743
168	0xbd01f32c	-0.031726047
169	0xbc61c82f	-0.013780638
170	0xbc4c09f3	-0.012453544
171	0xbc6975e4	-0.014249299
172	0xbaf10970	-0.0018389653
173	0x3c079afb	0.008276696
174	0x3b36a14f	0.0027867144
175	0x3cdb52b1	0.026772829
176	0xbc388935	-0.011263181
177	0xbb6c9c64	-0.0036103958
178	0xbc92b65f	-0.017909227
179	0x3ca8d341	0.020608546
180	0xbb9b0935	-0.004731322
181	0xbc94a90d	-0.018147016
182	0xbb203904	-0.0024448046
183	0x3c09137a	0.00836646
184	0xbd292ee8	-0.0413045
185	0xbb988c34	-0.0046553854
186	0xbbf72392	-0.007542082
187	0xbbdb02b5	-0.0066836723
188	0xbcb4284e	-0.021991875
189	0x3b5f8712	0.0034107608
190	0x3b7b57d6	0.0038351915
191	0xbb1b8baa	-0.002373437
192	0xbc3debb2	-0.011591839
193	0x3b9246c3	0.004464002
194	0x3c84aade	0.016194757
195	0x3c2bdec4	0.010490123
196	0xbd7537c9	-0.059867654
197	0x3c770c04	0.015078548
198	0x3c58acdf	0.013224809
199	0x3cc6c1b8	0.024262294
200	0xbae83432	-0.0017715751
201	0xbc82e7f4	-0.015979744
202	0xbc11c3f5	-0.008896817
203	0x3c536cea	0.012904385
204	0x3b608833	0.0034260869
205	0x39747233	0.00023312196
206	0xbc1354b6	-0.008992365
207	0xbd1fee60	-0.03904569
208	0xbc4808b5	-0.012209107
209	0xbc8c7c6c	-0.017149173
210	0xbbe28909	-0.0069133085
211	0x3bccc7be	0.006249397
212	0xbc833318	-0.016015574
213	0x3cbbef37	0.022941215
214	0xbcd5b5ea	-0.02608772
215	0xbb8b7c73	-0.004256779
216	0xbc98bf9d	-0.018646056
217	0x39cca416	0.00039032166
218	0xbca142e8	-0.019685224
219	0x3c9ab366	0.018884372
220	0x3c3e76a3	0.011624965
221	0xbd98c8e9	-0.074601956
222	0xbdac99a8	-0.08427745
223	0x3bfc2e1e	0.0076959273
224	0xbc0b59df	-0.008505314
225	0xbb5c9992	-0.003366087
226	0x3d4220a8	0.047394425
227	0x3c854777	0.016269429
228	0x3c056adf	0.008143156
229	0xbb16c53c	-0.0023005744
230	0x3cb14387	0.021638645
231	0x3cba4019	0.022735642
232	0x3b80155f	0.0039087976
233	0x3b25d713	0.0025305196
234	0xbcc94341	-0.024568202
235	0xbc3138e2	-0.010816785
236	0xbca7da65	-0.02048988
237	0x3d003cf8	0.031308144
238	0x3cab3319	0.020898389
239	0x3d427b80	0.04748106
240	0x3cad078e	0.021121766
241	0x3bcc2b43	0.006230743
242	0xbd073f58	-0.033019394
243	0x3a193111	0.0005843798
244	0xba68ddf4	-0.0008883171
245	0xba942370	-0.0011302065
246	0xbd050cc9	-0.032482896
247	0x3c305966	0.010763502
248	0xbc7eb6f2	-0.015546547
249	0x3c5b925a	0.013401592
250	0xbd902360	-0.07037997
251	0x3baf1156	0.005342643
252	0x3ce08cd4	0.027410902
253	0x382bb912	4.0941937e-05
254	0xbc88111e	-0.016609725
255	0x3c138fd5	0.00900646

action_model._discrete_distribution.branches.0.bias f4 [4]
0	0xbc94fab3	-0.018185949
1	0x3b932b5a	0.004491252
2	0x3a34fa46	0.0006903749
3	0x3ca7a42e	0.02046403

exp_avg f4 [128, 4]
0	0x25869a36	2.3349792e-16
1	0xa5ee2a3a	-4.1315033e-16
2	0xa64242b8	-6.739769e-16
3	0xa533870e	-1.5571533e-16
4	0xbb238b25	-0.0024954763
5	0xbb5a68b8	-0.0033326577
6	0x3c4537a0	0.012037188
7	0xbc0b4073	-0.008499253
8	0xbaf70076	-0.0018844742
9	0xbbc5fa12	-0.0060417736
10	0xbbd44fe0	-0.0064792484
11	0xbbaf0979	-0.0053417054
12	0x33f78792	1.1526494e-07
13	0x34d7af88	4.0174587e-07
14	0x35665bd1	8.581529e-07
15	0x3480d7f7	2.3998993e-07
16	0x3c099413	0.00839712
17	0x3cd47038	0.025932416
18	0x3d0b52f7	0.03401467
19	0x3cc2e56b	0.023791036
20	0x3ad0685a	0.001590024
21	0x3bb78f76	0.0056018187
22	0x3c4932f0	0.012280211
23	0x3b5fa5cc	0.0034125922
24	0x38167c81	3.587874e-05
25	0x38c253b2	9.26623e-05
26	0x38e01b56	0.00010686244
27	0x38a14f49	7.691846e-05
28	0x3baabb8b	0.005210345
29	0x3c0f085a	0.0087300185
30	0xbce1b56a	-0.027552325
31	0x3ca037b0	0.019557804
32	0x3b5f4270	0.00340667
33	0x3c126354	0.0089348145
34	0x3c135220	0.008991748
35	0x3c1850b6	0.009296587
36	0xb8906d0a	-6.886765e-05
37	0xb925aa38	-0.00015799038
38	0xb86b7a94	-5.6142526e-05
39	0xb94deeec	-0.00019639329
40	0xba021a45	-0.0004963021
41	0xbb0ffe27	-0.0021971555
42	0xbb76510a	-0.0037584924
43	0xba822564	-0.0009929356
44	0x3b53d807	0.0032324807
45	0x3c23ea8a	0.010004649
46	0x3c367f52	0.011138754
47	0x3c188b93	0.009310621
48	0x3b465d80	0.0030268133
49	0x3c47644e	0.012169911
50	0x3cd35f10	0.025802165
51	0x3bf20e9c	0.0073869955
52	0xba01f275	-0.00049570884
53	0xb9ab06b4	-0.00032620656
54	0x3a031ac8	0.0005001244
55	0xb9ab63b8	-0.00032689958
56	0x3babd808	0.005244259
57	0x3c67e5cc	0.014153909
58	0x3c35330f	0.011059537
59	0x3c732f68	0.0148428455
60	0x3b4ed4d7	0.0031559968
61	0x3c601436	0.013676694
62	0x3cf8e562	0.030382816
63	0x3c00c181	0.007858635
64	0x3ae4c854	0.0017454722
65	0x3bac3a40	0.0052559674
66	0x3b4e74b3	0.0031502664
67	0x3bc2bcf9	0.0059429375
68	0xbb1e5f2a	-0.002416561
69	0xbc0302a3	-0.007996234
70	0xbbcc861f	-0.0062415744
71	0xbc0be02d	-0.008537334
72	0xb5a52583	-1.2304375e-06
73	0xb646f469	-2.9646565e-06
74	0xb4d53d0c	-3.971876e-07
75	0xb6758386	-3.6584402e-06
76	0xb8980f77	-7.250805e-05
77	0xb6b30ba0	-5.335969e-06
78	0x36b21a58	5.30788e-06
79	0xb76619d0	-1.3715078e-05
80	0xb1d44f8a	-6.1790546e-09
81	0xb2a4b209	-1.9173074e-08
82	0xb3424390	-4.5230593e-08
83	0xb25ba66a	-1.2785316e-08
84	0xbab2d43a	-0.0013643571
85	0xbb5aeb1b	-0.0033404294
86	0xbaac6992	-0.0013154021
87	0xbb813503	-0.003943087
88	0x3b39130a	0.0028240108
89	0x3c09edab	0.008418481
90	0x3c7dab56	0.015482744
91	0x3bb95ad8	0.0056565814
92	0xbbc1ef9b	-0.005918456
93	0xbc87718a	-0.016533632
94	0xbc5e7f08	-0.013580091
95	0xbc8ca2e4	-0.017167516
96	0xae408629	-4.3774904e-11
97	0xaf398351	-1.6872305e-10
98	0xaf987c7f	-2.77371e-10
99	0xaf0a7ba2	-1.259495e-10
100	0x3ac1f555	0.0014797846
101	0x3bbbda75	0.005732829
102	0x3c2c254d	0.01050694
103	0x3b92a405	0.004475119
104	0x3b891a4e	0.004184044
105	0x3c829d74	0.01594422
106	0x3d0a28a2	0.033730157
107	0x3c27ab3a	0.010233695
108	0xb643b6e1	-2.9163714e-06
109	0xb805bc8a	-3.188526e-05
110	0xb89a84c6	-7.368023e-05
111	0xb7a8e9ae	-2.0135976e-05
112	0xb2044db0	-7.701075e-09
113	0xb272b007	-1.4126278e-08
114	0xb0a445fc	-1.1952461e-09
115	0xb29b9d24	-1.8115834e-08
116	0xb9cb9366	-0.00038828998
117	0xba65ce30	-0.0008766381
118	0xbb22c2b3	-0.0024835288
119	0xba8f323e	-0.0010925008
120	0x3ac62d65	0.001511973
121	0x3bcbce46	0.006219658
122	0x3c6cd4b0	0.0144550055
123	0x3b866d6d	0.0041024
124	0x3b665e09	0.0035151264
125	0x3ac7b790	0.0015237201
126	0xbcd6bdca	-0.026213545
127	0x3c3667d4	0.011133153
128	0xb8969f05	-7.182177e-05
129	0xb99c8fde	-0.00029861828
130	0xba3d3bd8	-0.0007218695
131	0xb954d764	-0.00020298135
132	0x3b4f33d0	0.0031616576
133	0x3b8138cb	0.003943538
134	0xbc692950	-0.014231041
135	0x3c1b18c0	0.00946635
136	0xbb3872b6	-0.0028144545
137	0xbc1d0f40	-0.009586155
138	0xbb821b54	-0.003970543
139	0xbc37835b	-0.011200751
140	0x3a4344aa	0.00074488914
141	0x3a6111a8	0.00085857
142	0xba9cf606	-0.0011975176
143	0x3afee220	0.0019446053
144	0x34037422	1.2242575e-07
145	0x332fc30f	4.0922767e-08
146	0x34095014	1.2788252e-07
147	0x3319c67b	3.5803605e-08
148	0x2dbf6aba	2.1761582e-11
149	0x2ea53dcb	7.514308e-11
150	0x2d623aa3	1.2859633e-11
151	0x2f102479	1.3109681e-10
152	0xb8d9e7f8	-0.00010390574
153	0xb9a00086	-0.00030517968
154	0xbac75a34	-0.0015209378
155	0x388b6a70	6.647862e-05
156	0xbbf661c5	-0.0075189793
157	0xbc9076da	-0.017634798
158	0xbbd8be30	-0.006614469
159	0xbcb72b8d	-0.022359634
160	0x366c79d0	3.5237645e-06
161	0x384e9d8f	4.9260965e-05
162	0x38dc38b4	0.00010500979
163	0x37f58639	2.9268778e-05
164	0x39a79632	0.00031964626
165	0xbab4b262	-0.0013786072
166	0xbc377f2c	-0.011199754
167	0x3accfa48	0.0015638554
168	0x3b648dd6	0.003487458
169	0x3c5ff0cc	0.01366825
170	0x3cf9d6d0	0.030497938
171	0x3c0e7c13	0.008696574
172	0x3acce4e2	0.0015632177
173	0x3bb8a21a	0.0056345584
174	0x3c5461ac	0.01296274
175	0x3b70d5bd	0.0036748492
176	0xbaba6fdc	-0.001422401
177	0xbbc1c782	-0.0059136758
178	0xbc4cee1e	-0.012507943
179	0xbb59111c	-0.003312177
180	0xbb3d117b	-0.002884953
181	0xbc1a5d8c	-0.009421717
182	0xbc55ba38	-0.013044886
183	0xbc0b618b	-0.008507143
184	0x35399841	6.913943e-07
185	0xb41bf900	-1.4526086e-07
186	0xb606af54	-2.006961e-06
187	0xb465fcc8	-2.1419248e-07
188	0x3b87a41d	0.004139437
189	0x3bd700b3	0.0065613627
190	0xbc586a14	-0.013208885
191	0x3c5e61d1	0.013573126
192	0x399d4fda	0.00030004868
193	0x3a0c07f1	0.00053417595
194	0x3a0bf095	0.0005338279
195	0x3a17b6d0	0.0005787434
196	0xb700abb7	-7.669375e-06
197	0xb79ed6fa	-1.8935174e-05
198	0xb6f03b27	-7.1594436e-06
199	0xb7bda3dd	-2.260686e-05
200	0xbb36d6ca	-0.002789902
201	0xbc0e2aed	-0.0086772265
202	0xbc401908	-0.011724718
203	0xbbe3678f	-0.0069398354
204	0xbbe4c0a9	-0.0069809747
205	0xbc8b3219	-0.016991662
206	0xbb61acdd	-0.003443531
207	0xbcadb122	-0.021202628
208	0x30f3dbb0	1.7743016e-09
209	0x31e7271f	6.7274324e-09
210	0x30b80852	1.3390127e-09
211	0x325c01e0	1.2806112e-08
212	0xb972170a	-0.00023087501
213	0xba027337	-0.0004976275
214	0xb944d1d9	-0.00018770191
215	0xba281d4a	-0.0006413056
216	0x331fcf3a	3.7208544e-08
217	0xb2c4f770	-2.2929925e-08
218	0x33393eab	4.3130665e-08
219	0xb287d558	-1.5813086e-08
220	0xbbc62531	-0.006046914
221	0xbc6d772c	-0.014493745
222	0xbbb3bf64	-0.005485462
223	0xbc989a16	-0.018628161
224	0x3a515ad3	0.0007986251
225	0x3b1cd71a	0.0023931921
226	0x3aab5ba9	0.0013073582
227	0x3b18f940	0.0023341924
228	0xb563e1b8	-8.4892554e-07
229	0xb6863cbf	-4.000583e-06
230	0xb7323142	-1.06210955e-05
231	0xb603d379	-1.9643614e-06
232	0xbbc636f1	-0.00604903
233	0xbc6c959e	-0.014439968
234	0xbb8e9fcc	-0.0043525454
235	0xbc9d51e8	-0.019204095
236	0xb340fc5e	-4.493301e-08
237	0xb388f488	-6.3774735e-08
238	0x33312c12	4.1251106e-08
239	0xb3996bee	-7.14425e-08
240	0xb1096744	-1.9994824e-09
241	0xb24b7f8d	-1.1845157e-08
242	0xb11aa83e	-2.2505584e-09
243	0xb2b8d8c0	-2.1518986e-08
244	0x3bbc455e	0.005745574
245	0x3c73c253	0.0148778735
246	0x3bf4867e	0.007462322
247	0x3c8e8512	0.017397437
248	0x3acbbe5b	0.0015544401
249	0x3be3bf98	0.00695033
250	0x3c7b02c7	0.015320486
251	0x3b92b283	0.0044768467
252	0x3b14c7fb	0.0022702205
253	0x3bb30604	0.0054633636
254	0x3b0c9d2c	0.0021455986
255	0x3bea22a9	0.007145245

exp_avg_sq f4 [128, 4]
0	0x2d1f15e9	9.042969e-12
1	0x29cd6f9e	9.123191e-14
2	0x290c5b89	3.116564e-14
3	0x2a46eeb3	1.7668748e-13
4	0x39dfee9a	0.00042711647
5	0x3ac50cfe	0.0015033779
6	0x3a6910b9	0.00088907365
7	0x3add1816	0.001686814
8	0x393ab96d	0.00017807419
9	0x3a18fd02	0.0005836041
10	0x3a15a65e	0.00057086896
11	0x3a3e3739	0.00072561536
12	0x2d9f1c68	1.8088822e-11
13	0x2fabb6ff	3.1234745e-10
14	0x3099f52e	1.1201899e-09
15	0x2e50de7b	4.7491327e-11
16	0x3a55ace9	0.0008151071
17	0x3b5ded6f	0.0033863445
18	0x3ada1353	0.0016637839
19	0x3b7e3a12	0.0038791937
20	0x383bb283	4.4750526e-05
21	0x39355cd9	0.00017296094
22	0x392c190b	0.00016412527
23	0x3901b456	0.00012369579
24	0x382bb5a8	4.0938758e-05
25	0x38eebe4f	0.00011384172
26	0x38208206	3.8268066e-05
27	0x381f1976	3.7932266e-05
28	0x3b2aa3fd	0.0026037686
29	0x3c0df401	0.008664132
30	0x3be62a9f	0.007024124
31	0x3c2235ae	0.009900494
32	0x393de7d6	0.0001811081
33	0x3a2ac0af	0.00065136974
34	0x39d9e1f6	0.0004155782
35	0x3a373c0a	0.00069898425
36	0x3592e076	1.0943174e-06
37	0x364f4ccb	3.0890103e-06
38	0x3514ca8f	5.542906e-07
39	0x372e42db	1.0386774e-05
40	0x39b03e0e	0.0003361557
41	0x3a7d6e7d	0.0009667648
42	0x3a70ed9d	0.00091906806
43	0x3a499a00	0.00076904893
44	0x396d7f94	0.00022649608
45	0x3a4c92df	0.0007803868
46	0x3a31dddd	0.00067850744
47	0x3a7d892f	0.0009671626
48	0x390706af	0.00012877093
49	0x39a44ac2	0.00031336216
50	0x3a0495ba	0.00050577114
51	0x39a6fd86	0.00031850877
52	0x395d6a2e	0.00021115757
53	0x3a2ee6bb	0.0006671955
54	0x39a5f545	0.00031653992
55	0x3a3404d7	0.0006867176
56	0x3a03aada	0.0005022712
57	0x3b02e02b	0.001997004
58	0x3adb5438	0.0016733473
59	0x3b1af142	0.0023642336
60	0x39379189	0.00017506456
61	0x3a0c1801	0.0005344153
62	0x3a14c226	0.00056746823
63	0x3a249626	0.00062784774
64	0x392e3bfe	0.00016616282
65	0x3a2c3ef5	0.00065706606
66	0x39c6ea42	0.0003794004
67	0x3a3b0e83	0.00071356463
68	0x398b7041	0.00026595782
69	0x3a998e39	0.0011715359
70	0x3a299b2f	0.00064699625
71	0x3a84ba2b	0.0010126283
72	0x323240e5	1.0375719e-08
73	0x32f9a582	2.906268e-08
74	0x31b40ce6	5.240156e-09
75	0x32ab957a	1.9974994e-08
76	0x3738f8f9	1.1025223e-05
77	0x3891f2b4	6.959346e-05
78	0x372d324a	1.0323312e-05
79	0x394fde3f	0.00019823851
80	0x2d6aaaed	1.3339313e-11
81	0x2d821737	1.4789598e-11
82	0x2ec3fa25	8.912008e-11
83	0x2d6bce44	1.3404004e-11
84	0x390d1fbc	0.0001345863
85	0x39dbc14e	0.00041914958
86	0x38e376b3	0.00010846313
87	0x3a29dc56	0.0006479671
88	0x38a53848	7.878296e-05
89	0x3a0bdc57	0.00053352624
90	0x39e0cc32	0.00042876747
91	0x39ba5721	0.000355416
92	0x3a07dd5d	0.0005182827
93	0x3b028131	0.001991343
94	0x3aadbfa5	0.0013255967
95	0x3b0db317	0.0021621638
96	0x2c156557	2.1230428e-12
97	0x2e5836d7	4.916142e-11
98	0x2db0b590	2.0089513e-11
99	0x2d95aab5	1.7015148e-11
100	0x390ee482	0.00013627301
101	0x3a09f6c8	0.00052629085
102	0x39623464	0.00021572557
103	0x3a147871	0.0005663699
104	0x39300f08	0.00016790268
105	0x39bd2a88	0.00036080577
106	0x3a58262c	0.0008245434
107	0x3a28dfaf	0.0006442023
108	0x33a1fb87	7.542899e-08
109	0x32f3debf	2.8390216e-08
110	0x341a8e83	1.4394213e-07
111	0x33b6ea97	8.517707e-08
112	0x33075b9e	3.1515462e-08
113	0x33675b37	5.3866838e-08
114	0x30c7c125	1.4534051e-09
115	0x30b24c31	1.297286e-09
116	0x38cb24e7	9.686668e-05
117	0x39c3756c	0.00037280784
118	0x3a29181f	0.00064504327
119	0x39bab872	0.00035614107
120	0x39797304	0.00023789337
121	0x39f9226c	0.00047518627
122	0x3a852a79	0.0010159753
123	0x3a4f2c84	0.00079030567
124	0x3a9185cd	0.0011102498
125	0x3b7ac56f	0.0038264652
126	0x3affc42d	0.0019513421
127	0x3b981b0c	0.004641896
128	0x33abcb22	7.999758e-08
129	0x349b04cb	2.8874487e-07
130	0x35cc43ba	1.5218895e-06
131	0x341137b2	1.3524439e-07
132	0x3a314a3b	0.00067630754
133	0x3b2be04b	0.0026226218
134	0x3ac39b76	0.001492365
135	0x3b20a974	0.0024515064
136	0x39cca2d6	0.00039031234
137	0x3abd9b0d	0.0014465764
138	0x3a8ee914	0.0010903203
139	0x3ad0fd77	0.0015944679
140	0x38796176	5.9456994e-05
141	0x395f615e	0.0002130321
142	0x3947caf9	0.00019053732
143	0x3984b404	0.00025311124
144	0x36a44900	4.896079e-06
145	0x36895478	4.0927516e-06
146	0x3519a7c0	5.724105e-07
147	0x34693a22	2.1720965e-07
148	0x3017b492	5.5190086e-10
149	0x2d001a76	7.281833e-12
150	0x2d3965bb	1.0538621e-11
151	0x2f2b8625	1.5600017e-10
152	0x3828312a	4.010011e-05
153	0x384c53d3	4.8715458e-05
154	0x38de5951	0.000106024214
155	0x39794240	0.0002377117
156	0x3a3e0480	0.00072485954
157	0x3b322381	0.0027181807
158	0x3a518437	0.0007992419
159	0x3b59c1eb	0.0033227156
160	0x33a0a108	7.479872e-08
161	0x32072fe0	7.86892e-09
162	0x332f60b2	4.0833307e-08
163	0x3239dbd4	1.08184e-08
164	0x3903b49f	0.0001256042
165	0x39b65056	0.000347736
166	0x39d1c928	0.0004001346
167	0x39d7facc	0.00041194854
168	0x38adcf75	8.287925e-05
169	0x392b9609	0.00016363723
170	0x3a2898e6	0.0006431475
171	0x39af182a	0.00033396605
172	0x38953fa9	7.116731e-05
173	0x393ac8a4	0.00017813087
174	0x39e8a484	0.00044373062
175	0x39520675	0.00020029566
176	0x3879f85a	5.959752e-05
177	0x39750965	0.0002336852
178	0x391a3cca	0.0001470923
179	0x38f55f34	0.00011700243
180	0x38a2565f	7.74085e-05
181	0x3991986b	0.00027770115
182	0x396ae0a5	0.00022399666
183	0x39b26e43	0.00034032957
184	0x3104aace	1.930562e-09
185	0x318dba58	4.124825e-09
186	0x33088e5f	3.1794453e-08
187	0x33b62932	8.482529e-08
188	0x3a3ecd7d	0.0007278545
189	0x3b193f23	0.002338358
190	0x3aeb662b	0.0017959526
191	0x3b4085a6	0.0029376536
192	0x36d83527	6.4434894e-06
193	0x381d7553	3.7540984e-05
194	0x387fca1d	6.098497e-05
195	0x38ee5e1f	0.00011366256
196	0x363f41b4	2.8499462e-06
197	0x35a108a9	1.1997955e-06
198	0x37046b15	7.892745e-06
199	0x3844cefc	4.692281e-05
200	0x39fed180	0.00048602745
201	0x3ae70ff0	0.0017628651
202	0x3a9c8ae4	0.0011943248
203	0x3ad91b3c	0.0016563903
204	0x3a8c1ee2	0.0010690356
205	0x3b8327c4	0.004002543
206	0x3b2acd98	0.0026062485
207	0x3b9e2dfa	0.004827258
208	0x2d54d18c	1.20973336e-11
209	0x2dd286a4	2.3934028e-11
210	0x2dc23e9a	2.2083047e-11
211	0x2e7e2f36	5.7794845e-11
212	0x3844679a	4.6826528e-05
213	0x3873cf44	5.8128746e-05
214	0x36a25f55	4.8390743e-06
215	0x37e664c6	2.7465063e-05
216	0x355c1692	8.198923e-07
217	0x34075bb6	1.2606219e-07
218	0x33b77c0d	8.544166e-08
219	0x36219f17	2.4083472e-06
220	0x398c198b	0.00026721912
221	0x3aa52695	0.0012599999
222	0x3929d1a6	0.00016195196
223	0x3b0a1f0b	0.0021075632
224	0x38e689bb	0.00010992909
225	0x39ee2dcc	0.0004542902
226	0x3934273a	0.00017180751
227	0x3a065951	0.00051250035
228	0x3106e996	1.9632345e-09
229	0x31e182a6	6.563215e-09
230	0x322ac753	9.940623e-09
231	0x31c293f9	5.6629657e-09
232	0x3a65b23a	0.00087622146
233	0x3b6abb62	0.0035817255
234	0x3ad960e5	0.0016584663
235	0x3b7ea91f	0.0038858128
236	0x35c37e35	1.4565363e-06
237	0x36594546	3.2375842e-06
238	0x33bce07f	8.795268e-08
239	0x3328c1ef	3.929193e-08
240	0x2f0b7949	1.2685065e-10
241	0x2dc50e70	2.2402719e-11
242	0x2ff6f4b7	4.492102e-10
243	0x3140503e	2.798529e-09
244	0x3a171955	0.00057639676
245	0x3b1230e2	0.0022306968
246	0x3ab4a8d0	0.001378322
247	0x3b1f8591	0.0024341086
248	0x39422f88	0.00018518989
249	0x3a36f091	0.0006978596
250	0x39c6d8f8	0.00037927157
251	0x3a38dc99	0.00070519146
252	0x39173a64	0.00014422234
253	0x39a76470	0.00031927554
254	0x39521ec8	0.00020038628
255	0x3a4aaf55	0.0007731815

exp_avg f4 [128]
0	0xa3e9ace4	-2.5335133e-17
1	0x38c56a3c	9.41348e-05
2	0xb9c4bf00	-0.0003752634
3	0x33135b62	3.4309217e-08
4	0x3aeecf90	0.0018219817
5	0x3a0095bb	0.0004905124
6	0x36c2a9a1	5.801398e-06
7	0xb95c8bf8	-0.00021032977
8	0x3a185307	0.0005810712
9	0xb70a269a	-8.234429e-06
10	0xb91c2916	-0.00014892625
11	0x3a29bc7f	0.00064749265
12	0x3a87e54c	0.0010368018
13	0x368d1270	4.204274e-06
14	0x3a581ac9	0.00082437374
15	0x3a9c7710	0.0011937339
16	0x39980572	0.00028995756
17	0xb9f67e68	-0.00047014956
18	0xb4158ba6	-1.392751e-07
19	0xb5337fa8	-6.686846e-07
20	0xb0f95c03	-1.8143286e-09
21	0xb9314e51	-0.0001690921
22	0x3a2daba2	0.00066250016
23	0xba80442c	-0.0009785942
24	0xad6c9df6	-1.3450121e-11
25	0x39f5ae46	0.00046859885
26	0x3ab417da	0.0013740018
27	0xb644b72a	-2.9312891e-06
28	0xb088cbf8	-9.953274e-10
29	0xb8e8e942	-0.0001110607
30	0x3a17cb62	0.0005790499
31	0xb9e99be7	-0.0004455738
32	0xb7f242d5	-2.887977e-05
33	0xb906bd6c	-0.00012849801
34	0xb9ffa9ca	-0.00048763893
35	0x37dcc150	2.6316062e-05
36	0x31afc277	5.1152784e-09
37	0x2cf207e7	6.878931e-12
38	0xb83a07b8	-4.4353044e-05
39	0xba73e152	-0.00093032897
40	0x368cecc2	4.1998874e-06
41	0xb99a76aa	-0.0002946158
42	0x3aa06e66	0.0012239933
43	0x3a07ffc5	0.0005187954
44	0xba018814	-0.00049412367
45	0xba323cb4	-0.00067992066
46	0xb3817da2	-6.029883e-08
47	0x380ef318	3.4081837e-05
48	0x38106358	3.4424796e-05
49	0xb56e21aa	-8.8710897e-07
50	0xba1a55a8	-0.00058873976
51	0xba513582	-0.00079806906
52	0x3042a4b3	7.081084e-10
53	0xb7df5310	-2.662235e-05
54	0xb16ef864	-3.4774752e-09
55	0xba4ab2b7	-0.0007732319
56	0x38f5b770	0.00011716678
57	0xb4d880ce	-4.0326853e-07
58	0xba4691a7	-0.00075748045
59	0xaf620540	-2.0556445e-10
60	0xb09bbebe	-1.1331946e-09
61	0x3a50e099	0.0007968038
62	0x3a21ec75	0.00061768974
63	0x399ccc46	0.00029906834
64	0xb9af7eef	-0.00033473174
65	0x3a569b22	0.0008186569
66	0x37999104	1.830655e-05
67	0x39c97368	0.00038423692
68	0x363f70a2	2.8526779e-06
69	0x39235a12	0.00015578445
70	0xba0aed08	-0.00052996026
71	0x3a80cba6	0.0009826317
72	0xb73b42c8	-1.1161617e-05
73	0xb9c18423	-0.00036910278
74	0xb7aa0415	-2.026748e-05
75	0xba0d84f2	-0.00053985335
76	0x39934ce3	0.0002809531
77	0xb9b69b77	-0.00034829575
78	0x2f0f9b39	1.306092e-10
79	0x3a366e62	0.00069591973
80	0x38851ec0	6.347662e-05
81	0x39b06215	0.00033642413
82	0xb95c7370	-0.00021023839
83	0xb97f5a12	-0.00024352249
84	0xb7d06295	-2.4841438e-05
85	0x377679fc	1.4691144e-05
86	0x3a0cc774	0.0005370297
87	0x37fa02c0	2.9803603e-05
88	0x3990558b	0.00027529555
89	0xba0d5d11	-0.0005392591
90	0x3803f951	3.1465028e-05
91	0xb9ca1102	-0.00038541114
92	0xba2ea562	-0.0006662217
93	0xb8a6cd67	-7.953756e-05
94	0x37260e29	9.897668e-06
95	0x383a6f0d	4.444928e-05
96	0x39967ee8	0.00028704782
97	0x31f671ba	7.1724715e-09
98	0x33dbd518	1.0236744e-07
99	0xb9e56fc3	-0.00043761553
100	0x37065654	8.007122e-06
101	0x3837d2a6	4.382678e-05
102	0xb967f121	-0.00022119704
103	0xb0dd1a3f	-1.6087326e-09
104	0x2b9c785f	1.1117876e-12
105	0x395e04dd	0.00021173382
106	0xba21dbbc	-0.00061744056
107	0x3052b7a7	7.665854e-10
108	0xb8a6a62a	-7.946447e-05
109	0x39491ea6	0.00019180271
110	0x368eabcd	4.25193e-06
111	0xb4d08872	-3.8842296e-07
112	0x3a507d8e	0.00079532794
113	0xb8810be0	-6.153411e-05
114	0xb89b81f2	-7.41518e-05
115	0x38bf4fe2	9.122469e-05
116	0x316d6ac8	3.4548737e-09
117	0xb9a27f45	-0.0003099387
118	0x3a484e73	0.00076410844
119	0xba9bae8c	-0.001187758
120	0x383cbc95	4.4998324e-05
121	0xba306293	-0.0006728556
122	0xad273d5f	-9.506478e-12
123	0xb9dd25b8	-0.00042180507
124	0x35f8df11	1.8542361e-06
125	0x39afef68	0.00033556973
126	0x39d01a88	0.0003969262
127	0x3a9006cc	0.0010988354

exp_avg_sq f4 [128]
0	0x28bdd360	2.1074884e-14
1	0x36a455f3	4.8975867e-06
2	0x360cd5c9	2.0986065e-06
3	0x2d01e04c	7.382605e-12
4	0x372e6565	1.0394816e-05
5	0x3507aff7	5.054748e-07
6	0x3498597a	2.837731e-07
7	0x37f8f442	2.9677645e-05
8	0x3602111a	1.9381464e-06
9	0x32f2de35	2.8273556e-08
10	0x364749c4	2.9696248e-06
11	0x3645aff5	2.9457708e-06
12	0x35ae6050	1.2992041e-06
13	0x361160ed	2.1663102e-06
14	0x36e7211e	6.888192e-06
15	0x3606d0b3	2.0089035e-06
16	0x360c4a22	2.0904777e-06
17	0x365ccdac	3.2902271e-06
18	0x2f605753	2.0403705e-10
19	0x350a993c	5.163199e-07
20	0x2b478944	7.0889497e-13
21	0x35db22d5	1.6326909e-06
22	0x35cfa098	1.5469441e-06
23	0x36d10347	6.229067e-06
24	0x2b56373a	7.6104715e-13
25	0x35dd8e75	1.6507244e-06
26	0x3613362b	2.1936237e-06
27	0x3053f8b8	7.7114803e-10
28	0x2f15b17d	1.3614528e-10
29	0x35d12312	1.558192e-06
30	0x36331d29	2.6690052e-06
31	0x37557635	1.2723312e-05
32	0x31828f12	3.799763e-09
33	0x36fb19b6	7.483376e-06
34	0x36a117c0	4.8009388e-06
35	0x3557bc01	8.0367323e-07
36	0x328b4987	1.6215166e-08
37	0x2be23149	1.6071945e-12
38	0x3523494b	6.082889e-07
39	0x37080889	8.108219e-06
40	0x2f8eb40c	2.595758e-10
41	0x35bfa289	1.4277913e-06
42	0x35c3874e	1.4568011e-06
43	0x35863e23	1.0001862e-06
44	0x3521ed58	6.0322554e-07
45	0x358c68df	1.0461334e-06
46	0x2fb24c54	3.2432246e-10
47	0x370ba690	8.3238265e-06
48	0x349f23d3	2.9642123e-07
49	0x3409e97f	1.2844065e-07
50	0x36bca914	5.62252e-06
51	0x37601b9b	1.3357868e-05
52	0x2b8aa3b7	9.85093e-13
53	0x343c6f65	1.754939e-07
54	0x31ef40d5	6.963186e-09
55	0x369d4ef9	4.6881582e-06
56	0x35b769f6	1.3665401e-06
57	0x2f03079f	1.1917088e-10
58	0x372ab704	1.0175401e-05
59	0x31f2d6a9	7.067531e-09
60	0x2d13b2a7	8.395651e-12
61	0x36e45f13	6.8059976e-06
62	0x3612fc4a	2.1902547e-06
63	0x35e0d479	1.6751138e-06
64	0x3605e7cd	1.995347e-06
65	0x36b14ba6	5.2838177e-06
66	0x35c0990d	1.4349658e-06
67	0x36cf1238	6.1712017e-06
68	0x304d461c	7.4678197e-10
69	0x35de15c3	1.6546622e-06
70	0x36d63913	6.3843413e-06
71	0x372300f2	9.715777e-06
72	0x32cf1345	2.4106734e-08
73	0x360022bf	1.9093711e-06
74	0x31af215f	5.096964e-09
75	0x35b2c545	1.3319446e-06
76	0x36474ceb	2.9698083e-06
77	0x3663381b	3.3858294e-06
78	0x309af295	1.1273921e-09
79	0x36e1ec2d	6.733017e-06
80	0x34ae7d5a	3.250123e-07
81	0x3626f9ca	2.4881324e-06
82	0x3709c8a7	8.212554e-06
83	0x36e39838	6.782848e-06
84	0x34c254a3	3.6196897e-07
85	0x340873c2	1.27081e-07
86	0x34b6d7c5	3.4057135e-07
87	0x35a9b957	1.2645422e-06
88	0x354f7893	7.728897e-07
89	0x354a1723	7.528453e-07
90	0x341dca5d	1.4695384e-07
91	0x358094aa	9.58001e-07
92	0x35d39fc7	1.5767226e-06
93	0x33254ce4	3.8486988e-08
94	0x35544f8b	7.9091905e-07
95	0x351a57c7	5.7497203e-07
96	0x361f5195	2.3740333e-06
97	0x2b65fb5e	8.1705985e-13
98	0x2fc2cd1c	3.5434133e-10
99	0x37132a42	8.771722e-06
100	0x34301168	1.639761e-07
101	0x35a65914	1.2393889e-06
102	0x35aaa2d4	1.2713376e-06
103	0x32308e63	1.0276923e-08
104	0x29339f58	3.9884193e-14
105	0x3645692a	2.94165e-06
106	0x361bb3ee	2.3201533e-06
107	0x2b9f9c50	1.1341015e-12
108	0x357aec3d	9.347603e-07
109	0x35b5a806	1.3534452e-06
110	0x3420b4d7	1.496695e-07
111	0x2e9d39f7	7.14983e-11
112	0x368da176	4.220924e-06
113	0x35acd571	1.2877118e-06
114	0x35908090	1.0766253e-06
115	0x359ea09d	1.1818662e-06
116	0x2e8c9e97	6.394634e-11
117	0x36904d1e	4.300512e-06
118	0x3656d160	3.2010357e-06
119	0x37a0de3e	1.9176976e-05
120	0x34fb690c	4.6828825e-07
121	0x36228534	2.4217416e-06
122	0x2e97738b	6.8872096e-11
123	0x360d63f9	2.106883e-06
124	0x3126d531	2.4277365e-09
125	0x3783b029	1.5698448e-05
126	0x365413a0	3.1601885e-06
127	0x365fae86	3.3331175e-06
