old_ppo/v3/v3-27946.pt (torch, 437228 bytes, 33 tensors)

network_body._body_endoder.seq_layers.0.weight f4 [128, 4]
0	0x3f3891bf	0.7209739
1	0xbeeca49f	-0.46219346
2	0x3f0db53a	0.55354655
3	0xbee7c274	-0.45265543
4	0xbe1b03b2	-0.15138128
5	0x3f49da1f	0.7884845
6	0x3db55d09	0.08855636
7	0x3d6ce09f	0.057831403
8	0xbef9943f	-0.48745915
9	0x3e860d0c	0.2618183
10	0xbe9fe19f	-0.31226823
11	0xbe91eab4	-0.28499377
12	0x3edeb515	0.4349753
13	0x3e0c335e	0.1369147
14	0xbe5a8ba8	-0.21342337
15	0xbf02d0d4	-0.51099896
16	0x3f089408	0.5335088
17	0xbed5240a	-0.41629058
18	0xbf787ace	-0.97062385
19	0x3ec3b3d1	0.38223127
20	0xbed68987	-0.419018
21	0xbe8231a2	-0.25428492
22	0xbf12366e	-0.57114303
23	0xbeb242a0	-0.34816456
24	0x3e23e180	0.1600399
25	0xbebf9ba6	-0.37423438
26	0x3f03e021	0.5151387
27	0xbf1b062e	-0.60556304
28	0x3f07063a	0.52743876
29	0x3f1b5f2e	0.6069211
30	0xbf1440bc	-0.57911277
31	0xbe2baba3	-0.16764693
32	0xbed7db44	-0.42159474
33	0xbecfa784	-0.40557492
34	0x3e016aaf	0.12638353
35	0x3e4e5e36	0.20153126
36	0x3f1643cc	0.586972
37	0xbf42146b	-0.75812405
38	0x3e03c921	0.12869693
39	0x3f01de22	0.5072957
40	0xbe22916b	-0.15875785
41	0x3c61adfc	0.013774391
42	0xbf22bdb7	-0.6357073
43	0x3dcfc3a6	0.10144739
44	0xbee13f78	-0.43993735
45	0x3f298cab	0.6623027
46	0x3dafe09f	0.08587765
47	0xbc9cf7bb	-0.019161096
48	0x3f1fc0e3	0.62403697
49	0x3da4e316	0.08051126
50	0xbdb1c4a2	-0.08680083
51	0xbd952b79	-0.072836824
52	0x3d13f48a	0.036121882
53	0xbe60c74d	-0.21951027
54	0x3eee6bb2	0.4656654
55	0x3f017db6	0.50582445
56	0xbeddb85d	-0.4330472
57	0x3e9a6ec3	0.3016263
58	0x3e62f052	0.22161987
59	0xbe700362	-0.2343879
60	0x3f003371	0.50078493
61	0x3e2e2c42	0.1700907
62	0xbf2dbaef	-0.67863363
63	0x3f144a3c	0.5792577
64	0x3f1975e8	0.59945536
65	0xbe5cce42	-0.21563056
66	0xbccc2ad6	-0.02492277
67	0x3f8d6cf3	1.1048874
68	0xbeedd69c	-0.46452796
69	0xbd161253	-0.03663857
70	0x3e83a0e3	0.25708684
71	0xbe43e392	-0.1912978
72	0x3f1ceabf	0.61295694
73	0x3da78b0d	0.08180819
74	0xbf6cd4b5	-0.92512065
75	0x3eaa120c	0.33216894
76	0xbf33395e	-0.7000941
77	0x3f828a39	1.0198432
78	0x3dfdbe9a	0.1238987
79	0x3ec0c210	0.37648058
80	0x3e94f011	0.29089406
81	0x3cf6b65f	0.030116258
82	0x3f4d6c10	0.80243015
83	0x3e1f5775	0.15560706
84	0x3f3bb5b8	0.73324156
85	0xbf6c3beb	-0.9227893
86	0x3f3b0259	0.7305046
87	0xbd60163f	-0.054708716
88	0x3f9a002f	1.2031306
89	0x3e5fb0c5	0.21844776
90	0x3f121a3e	0.5707129
91	0xbf7e06e4	-0.99229264
92	0x3f2e20a1	0.6801854
93	0xbe84b792	-0.25921303
94	0x3cfd31d3	0.030907547
95	0x3df49635	0.11942712
96	0xbe5e6e97	-0.21721874
97	0xbee3919c	-0.4444703
98	0xbf11ebde	-0.5700053
99	0x3f6b46b7	0.9190478
100	0x3e99dbbe	0.30050462
101	0xbecdd7ca	-0.40203696
102	0x3f11006e	0.5664128
103	0x3f8da043	1.1064533
104	0xbf2e6c69	-0.6813417
105	0xbd529a4d	-0.051416684
106	0xbecb3666	-0.3968994
107	0x3dbd1a08	0.09233481
108	0x3e9a8503	0.30179605
109	0xbd0ba167	-0.034089472
110	0x3f4d9096	0.80298746
111	0x3daa6f75	0.0832204
112	0xbf0a3ef6	-0.5400232
113	0xbe1c8e88	-0.15288746
114	0xbe6f3f66	-0.23364028
115	0xbf4c2914	-0.7975018
116	0xbf6af925	-0.91786414
117	0x3f036687	0.5132832
118	0xbedf8e25	-0.43663135
119	0x3eb15155	0.34632364
120	0xbd16498a	-0.036691226
121	0x3e2778ec	0.16354722
122	0xbf546619	-0.8296829
123	0x3f07950c	0.529618
124	0xbeb274fa	-0.3485487
125	0x3e2279e8	0.15866816
126	0x3e7d777b	0.2475261
127	0x3d5678a0	0.05236113
128	0x3f3da1e6	0.7407516
129	0x3e988deb	0.29795775
130	0x3b9e27e2	0.0048265317
131	0xbf3ed84d	-0.745488
132	0xbe670e3e	-0.22564027
133	0xbda2b0f6	-0.07943909
134	0x3ee052b2	0.43813092
135	0xbdc1835b	-0.09448882
136	0xbe44365a	-0.19161358
137	0xbf1c6f33	-0.61107177
138	0x3f7a7811	0.97839457
139	0x3f4a7e67	0.79099125
140	0xbf0404df	-0.5156993
141	0xbbff14a8	-0.007784445
142	0x3dea6270	0.11444557
143	0x3e2514c9	0.1612121
144	0x3d96eb19	0.0736906
145	0x3f285063	0.6574766
146	0x3ebdef24	0.37096512
147	0x3f5520ea	0.8325335
148	0x3e812e66	0.25230712
149	0x3e5c5e9e	0.21520469
150	0x3e54df0f	0.20788215
151	0x3e9bab44	0.30404103
152	0xbef93ae2	-0.48677737
153	0x3f28f3ba	0.659969
154	0xbea815cc	-0.3282913
155	0xbedecb76	-0.43514603
156	0x3d8a2764	0.067457944
157	0xbe9f62c4	-0.3113004
158	0xbe343ce9	-0.1760136
159	0xbe8c100e	-0.27356
160	0x3e45edb5	0.1932896
161	0xbf317be7	-0.69329685
162	0x3fa2749c	1.2691836
163	0x3ca6b2a9	0.020348864
164	0x3e1aef58	0.15130365
165	0x3f1544cf	0.5830812
166	0x3f25a066	0.64697874
167	0xbf35e7ca	-0.7105681
168	0x3d4045fc	0.046941742
169	0xbd09d9c8	-0.033654958
170	0x3f2ac12c	0.66701007
171	0x3dd3c0dd	0.1033952
172	0xbf30b4ba	-0.69025767
173	0x3c2f4e8b	0.010699878
174	0x3ef590de	0.47962087
175	0xbbbe235e	-0.005802556
176	0x3d35349c	0.044239625
177	0xbe83a772	-0.25713688
178	0x3e605a3c	0.21909422
179	0xbeaf0a41	-0.3418751
180	0xbf63a058	-0.8891654
181	0xbd3219d4	-0.043481663
182	0x3f2896e7	0.6585526
183	0xbdced1f0	-0.10098636
184	0x3ea1841c	0.31546104
185	0xbd893881	-0.067002304
186	0x3dcf6f6f	0.10128676
187	0x3f5e993f	0.86952585
188	0xbf731a41	-0.94961935
189	0x3eea420c	0.45753515
190	0xbe25a492	-0.1617606
191	0xbf1b585a	-0.6068169
192	0xbf04bb75	-0.51848537
193	0xbf15c610	-0.58505344
194	0x3e8cd37b	0.27505097
195	0xbe80f81e	-0.25189298
196	0xbf403d7f	-0.75093836
197	0x3e823a66	0.2543518
198	0xbf65c8a2	-0.89759266
199	0xbc6823ee	-0.014168723
200	0xbeb9c41d	-0.36282435
201	0xbf74f947	-0.9569287
202	0xbfa33034	-1.2749085
203	0xbf09a469	-0.53766495
204	0xbe721ee1	-0.23644592
205	0x3fac74d1	1.347315
206	0xbe841a01	-0.2580109
207	0xbe9a852c	-0.30179727
208	0xbe3f276a	-0.18667379
209	0xbef8410c	-0.48487127
210	0xbf0e2257	-0.5552115
211	0x3f83c08b	1.0293134
212	0x3edb915c	0.42884338
213	0x3dfe8e29	0.12429459
214	0x3ec2b305	0.38027206
215	0x3d35d40e	0.044391684
216	0x3ede78af	0.4345145
217	0x3e01eb33	0.12687378
218	0x3f340665	0.7032226
219	0xbeaee961	-0.3416243
220	0xbf5b69cb	-0.857083
221	0x3f27b51b	0.6551072
222	0xbefeef4e	-0.4979195
223	0xbe7a68c2	-0.24454024
224	0x3dc102e7	0.09424382
225	0xbfdc2156	-1.7197673
226	0x3e777703	0.24166493
227	0xbeed8c25	-0.46395984
228	0x3f1d5585	0.6145862
229	0x3f56c1e5	0.8388961
230	0x3f30435b	0.68852776
231	0xbd08d966	-0.033410452
232	0xbf04c168	-0.51857615
233	0xbe9a24cc	-0.301062
234	0xbe88f583	-0.2674981
235	0x3e8973ac	0.26846063
236	0x3f32085a	0.69543993
237	0xbdcf8513	-0.10132804
238	0xbf6bf257	-0.92166656
239	0xbf43bdc9	-0.76461464
240	0x3d8d3ae3	0.068959974
241	0xbf11f0f0	-0.57008266
242	0xbe8b91c0	-0.27259636
243	0xbe19ac92	-0.15007237
244	0x3d37c199	0.044862363
245	0xbe22bb6a	-0.15891805
246	0xbd65e6ef	-0.05612844
247	0xbf5b4571	-0.85652834
248	0xbe134349	-0.14381136
249	0xbee4ceab	-0.44688925
250	0xbe83b551	-0.2572427
251	0x3ed08e7e	0.40733713
252	0xbf1e4668	-0.6182618
253	0x3efab907	0.4896929
254	0xbede099a	-0.433667
255	0xbf25ef4c	-0.64818263

network_body._body_endoder.seq_layers.0.bias f4 [128]
0	0xbd5fd82e	-0.054649524
1	0xbcaa6eb3	-0.020804739
2	0x3aa2f5ea	0.0012432907
3	0x3ba9c331	0.0051807393
4	0xbcf6d85e	-0.030132469
5	0x3dad063e	0.08448456
6	0xbca31d6d	-0.019911492
7	0x3c9e2090	0.019302636
8	0x3c1441b1	0.009048865
9	0xbc0d892a	-0.0086386595
10	0xbbee0d41	-0.0072647636
11	0x3abeacaa	0.0014547308
12	0x3b93c593	0.0045096367
13	0xbd27e7fc	-0.040992722
14	0x3ce68a29	0.028142052
15	0xbd011b92	-0.031520434
16	0xbcb83d5f	-0.022490202
17	0x3a8d1c08	0.00107658
18	0x3ce4c3d6	0.027925413
19	0x3921917c	0.00015408354
20	0x3bc49d07	0.0060001644
21	0xba4ffd7c	-0.00079341955
22	0xbd6a6d8f	-0.05723339
23	0xbd65ee36	-0.05613538
24	0xbc933239	-0.017968284
25	0xbd5dc7d4	-0.05414565
26	0xbd12f890	-0.03588158
27	0xbbd2bd63	-0.006431268
28	0x3d08479a	0.03327141
29	0xbc7f2833	-0.015573549
30	0x3c51ae7d	0.012797949
31	0x3c0da35f	0.008644908
32	0xbc8714cf	-0.016489414
33	0xbb28c8bc	-0.0025754413
34	0xbced6622	-0.028979365
35	0xbc7a70fc	-0.015285727
36	0xbc137843	-0.009000841
37	0xb9e87e72	-0.00044344697
38	0xbd4a8c7b	-0.04945038
39	0x3c99dc05	0.018781671
40	0x3ba3dcf1	0.0050007035
41	0x3c106850	0.008813933
42	0xbd1603b8	-0.03662464
43	0xbc4acad3	-0.012377459
44	0x3d4d9139	0.050187323
45	0xbd0f63f7	-0.035007443
46	0xbc5fdc41	-0.0136633525
47	0xbd920b55	-0.07131068
48	0x3d8e5785	0.06950287
49	0x3c6aea18	0.014338039
50	0x3d5775fa	0.052602746
51	0x3a6ad7ee	0.00089585676
52	0xbc0a2fd9	-0.008434259
53	0xbcfe9ca1	-0.031080546
54	0xbd8d0fa8	-0.06887752
55	0x3c83f026	0.016105723
56	0x3d5439c8	0.051812917
57	0x3ce3158b	0.027720233
58	0x3d0dc004	0.03460695
59	0x3d557e43	0.052122366
60	0x3d024842	0.03180719
61	0x3d7b2045	0.06131007
62	0x3b770ea3	0.0037697933
63	0x3d14e651	0.03635246
64	0x3bd19d0a	0.0063968943
65	0xbd50cc11	-0.050975863
66	0x3cf93f31	0.03042564
67	0x3d6917f5	0.056907613
68	0xbb1a010b	-0.0023499157
69	0x3d316452	0.043308564
70	0xbcb506c1	-0.022097947
71	0x3d1d61c1	0.038423304
72	0x3d19ee21	0.037580613
73	0xbce6fb42	-0.028195981
74	0xbc35b633	-0.011090803
75	0xbbb7a7ed	-0.005604735
76	0x3c920a44	0.01782716
77	0x3d24e222	0.04025472
78	0xbd022ea7	-0.031782772
79	0xbc86d0f6	-0.016457062
80	0x3c81b084	0.01583124
81	0x3b126d94	0.0022343146
82	0xbdcbef54	-0.099577576
83	0xbc9d3aa6	-0.019193005
84	0xbd1621df	-0.036653396
85	0xbd20e8f4	-0.03928466
86	0xbc7a94d6	-0.015294274
87	0x3d6c5af7	0.05770394
88	0xbc2df6a5	-0.010617887
89	0x3d233c61	0.039852504
90	0x3d9ffa39	0.07811398
91	0x3d5c3293	0.05375917
92	0xbb3d841f	-0.0028917862
93	0x3c993704	0.018702991
94	0xbceb02eb	-0.028687915
95	0xbcaf97fe	-0.02143478
96	0xbccb4a86	-0.024815809
97	0x3d4f452c	0.050603077
98	0xbd0d420a	-0.034486808
99	0xbd72db4d	-0.059291173
100	0xbd3bd378	-0.04585597
101	0xbd3a1040	-0.045425653
102	0xbd5d16a0	-0.053976655
103	0xbc48d951	-0.0122588435
104	0xbc8b3c52	-0.016996536
105	0xbcda1da8	-0.02662547
106	0xbc1db5d1	-0.009625868
107	0x3cfb706f	0.030693261
108	0xbc8c6fb0	-0.0171431
109	0x3dac1066	0.08401565
110	0xbd92cf81	-0.071684845
111	0xbc6c79e5	-0.014433359
112	0x3d08ddc2	0.03341461
113	0x3d4b0cac	0.04957263
114	0x3d8b9888	0.068162024
115	0x3c53ca95	0.012926717
116	0xbcb16f70	-0.021659583
117	0x3d20de5f	0.03927457
118	0x3c55df1f	0.0130536845
119	0xbae8bf7a	-0.001775726
120	0xbd2002ac	-0.039065048
121	0xbb94a9aa	-0.004536827
122	0xbce94696	-0.02847604
123	0xbc5abcc8	-0.013350673
124	0xbd2e2b8b	-0.042521995
125	0xbd3564fb	-0.044285756
126	0x3c457f02	0.012054207
127	0xbc41e411	-0.01183416

network_body._body_endoder.seq_layers.2.weight f4 [128, 128]
0	0xbd97b312	-0.07407202
1	0xbd2ba986	-0.041909717
2	0x3bd65695	0.006541083
3	0x3d4b9fd2	0.049712963
4	0x3cf8a109	0.030350225
5	0x3df3bcbe	0.11901234
6	0xbdb17e07	-0.08666616
7	0xbcd0813f	-0.025452254
8	0x3d5517f2	0.05202479
9	0x3d540a5f	0.051767703
10	0xbbd48cce	-0.006486512
11	0xbd8c2c32	-0.06844367
12	0x3d85b87d	0.06529329
13	0xbd6a2750	-0.057166398
14	0xbdc6fe89	-0.097165175
15	0xbe007f51	-0.12548567
16	0xbc8f8e6d	-0.017523969
17	0xbe039938	-0.12851417
18	0xbcee6e4e	-0.029105332
19	0xbdc8a16c	-0.09796414
20	0xbd43feaa	-0.04785029
21	0x3dbf9421	0.09354425
22	0x3d916e2d	0.071010925
23	0x3ce129b9	0.027485715
24	0xbd8e2c87	-0.06942087
25	0xbd97ee04	-0.07418445
26	0x3dcb3952	0.09923042
27	0x3de41a64	0.11137846
28	0xbd2c2741	-0.042029623
29	0x3ccf4949	0.0253035
30	0x3c90ad5b	0.017660787
31	0xbdb4efb1	-0.0883478
32	0xbd73656d	-0.0594229
33	0x3e0d5838	0.13803184
34	0x3d0f6cc8	0.03501585
35	0xbdce534c	-0.10074481
36	0xbc33be8d	-0.010970724
37	0xbd9c6911	-0.07637227
38	0x3e09fc6f	0.13475202
39	0x3dc2d6eb	0.095136486
40	0xbd4e2f69	-0.050338183
41	0x3db47e87	0.08813196
42	0x3dbabe02	0.09118272
43	0x3e00ccb6	0.12578091
44	0xbd95bd44	-0.0731149
45	0x3cbcc9fc	0.023045532
46	0xbce075dd	-0.027399952
47	0xbd9f259f	-0.077708475
48	0x3b405e34	0.0029353024
49	0xbd3571a9	-0.044297848
50	0x3da5892f	0.08082806
51	0x3df04d12	0.1173345
52	0x3c96822a	0.018372614
53	0xbe7940f0	-0.24341178
54	0xbe5397f4	-0.20663434
55	0xbe0967bc	-0.13418478
56	0x3e1ffd15	0.15623887
57	0xbc428ada	-0.011873925
58	0x3d801760	0.062544584
59	0x3dbcf20e	0.09225856
60	0xbc0a1124	-0.008426938
61	0x3d0f45c6	0.03497865
62	0x3d099ba3	0.033595692
63	0xbbab5c9d	-0.005229546
64	0xbd2c6788	-0.042090923
65	0xbca11fc6	-0.019668471
66	0x3e629100	0.22125626
67	0x3d0f1f48	0.03494194
68	0xbe5ed4e6	-0.21760902
69	0xbd71fd17	-0.059079256
70	0x3d58d71c	0.05293952
71	0xbe1640ed	-0.14673205
72	0x3cc9c3a7	0.024629427
73	0xbde71271	-0.11282814
74	0xbda601f9	-0.08105845
75	0x3e0c8327	0.13721906
76	0x3c0deae3	0.008661958
77	0xbd2929d9	-0.041299675
78	0xbd1ee091	-0.038788382
79	0x3dee32ff	0.116308205
80	0xbd3600b9	-0.044434283
81	0x3e1d95ab	0.15389125
82	0xbe036179	-0.12830152
83	0x3cdcda46	0.02695955
84	0xbd7371d9	-0.059434745
85	0x3d7c48fb	0.061593037
86	0xbd37aa9e	-0.044840448
87	0xbe2845a5	-0.16432817
88	0x3d874f0f	0.06606876
89	0x3dec24d1	0.1153046
90	0xbdea0dfb	-0.11428448
91	0x3d778c3e	0.06043648
92	0x3e2ab972	0.16672304
93	0x3d01f358	0.03172621
94	0xbc2cf130	-0.01055555
95	0xbd9ed0e2	-0.07754685
96	0xbda0ad4d	-0.078455545
97	0xbcc84c18	-0.024450347
98	0x3ad0d831	0.0015933571
99	0x3da24ced	0.07924829
100	0x3d872f8f	0.06600868
101	0xbd131275	-0.035906274
102	0x3d883b7b	0.0665197
103	0xbda129cf	-0.078693025
104	0xbd178848	-0.036995202
105	0x3a87cc98	0.0010360656
106	0xbd2e4c47	-0.042553212
107	0xbdf1ffaa	-0.11816342
108	0xbe570350	-0.20997357
109	0x3e075523	0.13216071
110	0x3dd10e49	0.10207803
111	0xbc4827ba	-0.012216503
112	0x3c82f74f	0.015987067
113	0x3c196bf9	0.009364122
114	0xbdec6862	-0.11543347
115	0x3e08415c	0.13306183
116	0x3c15624d	0.009117675
117	0xbdb84bdd	-0.08998845
118	0x3ccc3e35	0.024932006
119	0xbd1b0238	-0.037843913
120	0xbd78f60b	-0.06078152
121	0xbd08569b	-0.03328572
122	0xbd5b5bde	-0.05355441
123	0x3d83fbba	0.064444974
124	0x3e15af34	0.14617616
125	0xbd85493d	-0.0650811
126	0x3af33da2	0.0018557797
127	0xbe325563	-0.17415385
128	0x3d540c35	0.051769454
129	0x3af9cf95	0.0019059057
130	0x3e36c618	0.17849004
131	0x3de5b40b	0.11215981
132	0xbd8e8634	-0.06959191
133	0xbb964429	-0.004585762
134	0xbdcd615c	-0.100283355
135	0xbcd2d46e	-0.02573606
136	0xbd30be5a	-0.043150283
137	0x3d14e443	0.0363505
138	0xbd2ef622	-0.0427152
139	0xbe31f0a6	-0.17376956
140	0x3ddfe07d	0.109314896
141	0x3ce11a02	0.027478222
142	0xbdddfade	-0.10838865
143	0xbb7f1d9d	-0.0038927563
144	0xbe1818ef	-0.14853261
145	0xbd195610	-0.03743559
146	0x3db81c60	0.08989787
147	0x3aaf4980	0.0013373345
148	0x3de40693	0.111340664
149	0x3d2fb02c	0.04289262
150	0xbcaba420	-0.020952284
151	0xbd0bcf14	-0.034133032
152	0x3d0d8bd6	0.034557186
153	0xbe0ec254	-0.13941318
154	0x3e3a9a19	0.18222846
155	0x3dbe1531	0.09281386
156	0x3d66a838	0.05631277
157	0x3e1e3222	0.15448812
158	0x3c53300a	0.012889871
159	0x3dffae6d	0.12484441
160	0xbd7cce9d	-0.06172048
161	0x3dfdcbdd	0.123923995
162	0xbd4b525c	-0.04963909
163	0xbba3beac	-0.004997095
164	0xbb12651f	-0.0022338105
165	0x3e028788	0.12747014
166	0xbd6135e8	-0.05498305
167	0xbe025772	-0.1272867
168	0xbe12873f	-0.14309405
169	0x3e13730d	0.14399357
170	0xbdb7aade	-0.08968137
171	0x3b2a3f1f	0.0025977565
172	0x3e207ab2	0.15671805
173	0xbde041a2	-0.109500185
174	0x3e1ab331	0.15107419
175	0x3d24abb5	0.040202815
176	0x3e6169e6	0.22013053
177	0xbcb1ed19	-0.021719502
178	0x3e0e2b3c	0.1388368
179	0x3ac7f5aa	0.0015255709
180	0xbd83cd62	-0.06435658
181	0x3e0ec722	0.1394315
182	0xbcdf67fe	-0.027271267
183	0x3dc4d9d9	0.09611864
184	0xbdeb2fb4	-0.11483708
185	0xbde9bebc	-0.11413333
186	0x3d518228	0.051149517
187	0x3ce13d15	0.027494946
188	0xbdd1fe08	-0.10253531
189	0x3d0f2ff3	0.034957837
190	0x3e0cef54	0.13763171
191	0x3e85ba36	0.2611863
192	0xbdf5b4ec	-0.11997399
193	0x3d338622	0.04382909
194	0xbd1746b1	-0.03693265
195	0x3e0fde69	0.14049686
196	0xbd286342	-0.041110285
197	0x3e099771	0.13436677
198	0x3e1d77ec	0.15377778
199	0xbcd97315	-0.026544133
200	0xbbb1f8ac	-0.0054312553
201	0x3b9c56b8	0.00477108
202	0x3dfd2848	0.12361199
203	0x3dee4b3b	0.11635443
204	0x3cef0ae5	0.02918
205	0x3d305169	0.04304639
206	0xbd02e36e	-0.031955175
207	0x3ba338f1	0.004981153
208	0x3ceb1172	0.028694842
209	0x3ca9decf	0.020736126
210	0x3c2afd1e	0.010436324
211	0xbd4c3dac	-0.049863502
212	0xbe40d923	-0.18832831
213	0xbca9bd1a	-0.020720053
214	0xbd1c7663	-0.03819884
215	0x3d3e6769	0.04648534
216	0xbd9dbfd6	-0.077026054
217	0xbd1bcb08	-0.038035423
218	0x3cc1aca2	0.023641888
219	0x3e26f269	0.1630341
220	0x3da7426f	0.08166968
221	0x3d098c08	0.03358081
222	0xbe19093e	-0.14944932
223	0x3d2b8e23	0.0418836
224	0xbdada21b	-0.08478185
225	0x3dc632da	0.09677668
226	0xbc11b28f	-0.008892669
227	0xbd9e5eb7	-0.07732909
228	0xbc89998d	-0.016796852
229	0xbbd7ac0a	-0.006581788
230	0x3d14f57e	0.036366932
231	0xbdd746a9	-0.10511524
232	0xbdb4de1b	-0.08831426
233	0xbdb697de	-0.08915685
234	0x3d0e2fc2	0.034713514
235	0x3bc8c8a7	0.0061274352
236	0x3ce121c3	0.02748192
237	0x3d1ffc77	0.03905913
238	0xbae3e2da	-0.0017386333
239	0x3e08333f	0.13300799
240	0xbcc995fb	-0.02460765
241	0xbdc161d3	-0.094424866
242	0x3e2250f8	0.158512
243	0x3decf870	0.11570823
244	0xbd6383a9	-0.055545483
245	0xbd1154b9	-0.03548119
246	0xbda684d8	-0.08130807
247	0xbd057173	-0.032578897
248	0xbaed3d70	-0.0018099975
249	0xbd9f3a30	-0.0777477
250	0xbe24bc34	-0.16087419
251	0x3d1b8a76	0.037973844
252	0x3d1e8c9e	0.03870832
253	0xbe00b05b	-0.12567274
254	0xbdcc9a8c	-0.09990415
255	0x3c9f4a56	0.019444626

network_body._body_endoder.seq_layers.2.bias f4 [128]
0	0x3a84b408	0.0010124454
1	0xbcef41f7	-0.02920626
2	0xbc9ee51f	-0.019396363
3	0xbc8543ed	-0.016267741
4	0xbcbaeb5a	-0.022817302
5	0xbc570e18	-0.013125919
6	0x3cae53fa	0.021280278
7	0x3c88dc2a	0.016706545
8	0xbab2005f	-0.0013580433
9	0xbcd1878a	-0.025577325
10	0xbcf9ceaf	-0.030494062
11	0xbcabc774	-0.02096913
12	0xbc546f14	-0.012965936
13	0xbc0ef3d8	-0.008725129
14	0x3b49bca9	0.0030782616
15	0xbbf18381	-0.007370413
16	0x3b5fc744	0.0034145871
17	0xbcbfaf11	-0.023398908
18	0x3c83822a	0.016053278
19	0xbc3aea79	-0.011408442
20	0xbc011333	-0.007878113
21	0xbc84ec36	-0.016225915
22	0x3c69c74e	0.014268709
23	0xbca3816a	-0.01995917
24	0xbb8c313b	-0.0042783297
25	0x3d29ab8a	0.041423358
26	0xbccc504e	-0.024940636
27	0xbd2ada81	-0.041712288
28	0xbc10a9f6	-0.008829584
29	0xbd41c8c6	-0.047310613
30	0xbc3dd0fb	-0.011585469
31	0xbc0caae3	-0.008585664
32	0xbc7163bb	-0.01473325
33	0xbcb5641e	-0.022142466
34	0xbbbdf57e	-0.005797087
35	0xbcfe25a3	-0.031023806
36	0xbc04dbea	-0.008109072
37	0xbc3cd16b	-0.0115245385
38	0xbc916b0e	-0.017751243
39	0xbc44933d	-0.011997995
40	0xbc20668d	-0.009790075
41	0x3c6afb6e	0.014342172
42	0x3cd1b3f9	0.025598513
43	0x3c607e1f	0.013701945
44	0xbd6f264a	-0.058386125
45	0x3c99bff3	0.018768286
46	0xbd2ca471	-0.04214901
47	0xbca47713	-0.02007631
48	0xbcd870cd	-0.026420975
49	0xbc5e979f	-0.013585954
50	0xbb8319f4	-0.0040008966
51	0xbc008537	-0.007844261
52	0xbcd538cb	-0.026028058
53	0xbcc2ecc1	-0.023794534
54	0xbc7d6076	-0.015464893
55	0xbd026dd8	-0.031843036
56	0xbc984f15	-0.018592397
57	0xbca11cc0	-0.01966703
58	0xbcd1d8e0	-0.02561611
59	0xbccd8c2d	-0.025091255
60	0xbd05c2f5	-0.03265663
61	0x3b131c96	0.0022447458
62	0xbcb102f2	-0.02160785
63	0x3cae5787	0.02128197
64	0x3ca1cf7c	0.019752257
65	0xbc9a870a	-0.01886322
66	0xbcf07012	-0.029350314
67	0x3c08eacc	0.008356761
68	0xbcaf11d9	-0.021370815
69	0x3cbf562f	0.023356525
70	0x3a745c35	0.0009321601
71	0x3beba18b	0.0071908883
72	0x3bcc963d	0.0062434957
73	0xbc9134d7	-0.017725391
74	0xbc6752c9	-0.014118859
75	0xbcad7554	-0.02117411
76	0xbca5c1b9	-0.020233976
77	0xbb967048	-0.0045910217
78	0xbc946b96	-0.018117707
79	0xbbc2676d	-0.0059327395
80	0x3b571ab0	0.0032822303
81	0xbbfe1a29	-0.0077545834
82	0xbced3d57	-0.028959913
83	0x3bf0faaf	0.0073541026
84	0x3c5f511f	0.013630181
85	0xbcb82c85	-0.022482166
86	0xbc051c5b	-0.008124436
87	0xbd1c31b1	-0.038133327
88	0x3bd7a68c	0.006581133
89	0xbd1df903	-0.038567554
90	0x3b0ae005	0.0021190655
91	0x3c9178e0	0.017757833
92	0xbcf01934	-0.029308893
93	0xbc2ee26e	-0.010674102
94	0x3d8a3ae9	0.067495175
95	0x3c11c0d4	0.008896071
96	0xbb5813af	-0.0032970717
97	0x3b519e79	0.0031985326
98	0xbc950caa	-0.018194515
99	0x3c65a85e	0.014017193
100	0xbccc8d8c	-0.024969839
101	0x3b1f491b	0.002430505
102	0xbb052d4a	-0.0020321184
103	0xbc079ed7	-0.008277616
104	0x3c1f4128	0.009720124
105	0xba4cb14b	-0.0007808401
106	0x3c99abb9	0.018758642
107	0xbcf411c6	-0.029793631
108	0xbbc0a93b	-0.005879549
109	0xbc65e741	-0.014032186
110	0xbcd3ab9d	-0.025838668
111	0xbc29f8d9	-0.010374271
112	0xbd2396b6	-0.03993865
113	0xbcae3687	-0.021266235
114	0xbc6e4447	-0.014542646
115	0xbc8fe7c8	-0.017566577
116	0xbcc8a228	-0.024491385
117	0xbd31fa1b	-0.04345141
118	0xbd052a74	-0.03251119
119	0xbbf9ab3d	-0.00761929
120	0xb90d6cca	-0.00013487335
121	0x3b4980b2	0.0030746874
122	0xbc12d02a	-0.008960763
123	0xbc619fd7	-0.013771019
124	0xbcf830c1	-0.030296685
125	0xbc42b651	-0.011884288
126	0xbca77fea	-0.020446736
127	0xbc6d7a22	-0.014494451

action_model._discrete_distribution.branches.0.weight f4 [4, 128]
0	0x3c98c8d9	0.01865046
1	0x3c7c79e5	0.015409921
2	0x3c4df555	0.012570699
3	0xbcd04fc3	-0.025428658
4	0xb9717e87	-0.00023030686
5	0x3c3a479a	0.01136961
6	0xbd0af4ef	-0.033924993
7	0xbce5eb3b	-0.028066268
8	0xbc25839d	-0.01010218
9	0xbcc6cbc7	-0.02426709
10	0x3a98f527	0.0011669741
11	0xbd239b50	-0.03994304
12	0xbafbb7f7	-0.0019204606
13	0x3c813246	0.015771043
14	0x3ce6eb0d	0.028188253
15	0x3cdfa908	0.02730228
16	0xbd3dbb17	-0.046321
17	0x3c6f49cb	0.014604996
18	0xbc20b366	-0.009808397
19	0x3c904bd6	0.017614286
20	0xbc46ccf7	-0.012133828
21	0x3c889579	0.016672837
22	0x3c392b39	0.011301809
23	0x3c1d30e8	0.00959418
24	0xbad20fa5	-0.0016026391
25	0xbc00ba6d	-0.007856947
26	0x3d147808	0.036247283
27	0xbb0cee1f	-0.0021504236
28	0x3c0060ad	0.007835549
29	0xbc80a239	-0.015702354
30	0xbb436374	-0.0029813917
31	0xbd3b5add	-0.04574095
32	0x3c6c8bed	0.014437658
33	0xbc5f14be	-0.013615785
34	0x3cde43c6	0.027131926
35	0xbc51a216	-0.012794992
36	0xbc01de89	-0.007926592
37	0x3c129484	0.008946542
38	0xbb3be03a	-0.0028667585
39	0x3bc14a67	0.005898762
40	0x3a3da8fa	0.00072349573
41	0x3c6d9fbd	0.014503417
42	0x3d202db3	0.039106082
43	0xbbeb39eb	-0.007178535
44	0xbbe902df	-0.007110938
45	0x3ccc1a0f	0.02491477
46	0xbb8673b2	-0.0041031474
47	0xbafb8d20	-0.0019191839
48	0x3c534a7d	0.012896177
49	0x3ad85cf6	0.0016507197
50	0x3c4edd42	0.012625994
51	0x3b8dabb8	0.004323449
52	0x3c5fa6d2	0.013650613
53	0x3c760494	0.01501574
54	0x3b9f2e4c	0.004857814
55	0xbc2e1d96	-0.010627171
56	0xbc88c83a	-0.016697038
57	0x3c4e4194	0.012588877
58	0x3a40363d	0.0007332301
59	0xbbbd83d9	-0.0057835397
60	0xbcd43e12	-0.025908504
61	0xbbdea481	-0.0067945127
62	0x3caea71d	0.02131992
63	0x3d75daa2	0.060022958
64	0xbc43494d	-0.011919332
65	0x3bdd8327	0.0067600193
66	0x3c13a695	0.009011884
67	0x3c577d77	0.013152472
68	0xbbbb1664	-0.0057094563
69	0x3c6a5a69	0.014303782
70	0xbc2550b9	-0.010090047
71	0xbc5cd528	-0.013478555
72	0xbb4f862f	-0.0031665673
73	0x3b0f9ea5	0.0021914628
74	0xbd1d25f7	-0.038366284
75	0xbc683e96	-0.014175078
76	0xbc119962	-0.008886667
77	0x3ca54ae2	0.020177308
78	0xbccd8a4f	-0.025090365
79	0xbb1ffefb	-0.0024413455
80	0x3c5a7e7f	0.013335823
81	0x3c00d8e5	0.007864212
82	0x3c94883d	0.01813137
83	0x3ce2cccf	0.027685551
84	0x3d154bb4	0.03644915
85	0xb999480d	-0.00029236116
86	0xbe1b5a24	-0.15171105
87	0x3c5a34a4	0.013318215
88	0x3d0dd594	0.034627512
89	0xbc3b7dbc	-0.011443552
90	0x3bed04fb	0.0072332597
91	0x3d0ef29f	0.03489935
92	0xbd2b7f24	-0.041869298
93	0xbca9ce45	-0.02072824
94	0xbda7fa73	-0.08202066
95	0x3b915da6	0.0044362126
96	0x3c8b62b2	0.017014835
97	0xbc9a2301	-0.01881552
98	0x3c0373d3	0.00802322
99	0x3d473699	0.048636053
100	0xbc5aa769	-0.013345578
101	0x3c0f7c28	0.0087576285
102	0x3ba66357	0.00507776
103	0x3cdfa43f	0.027299998
104	0xbc5d7495	-0.013516565
105	0x3cdd4a30	0.027012914
106	0xbc92fd92	-0.017943177
107	0xbc0bd6fb	-0.008535142
108	0xbc47ca64	-0.01219425
109	0x3c171236	0.00922065
110	0x3cbe597e	0.023236033
111	0xbd9282df	-0.07153868
112	0xbb5314c2	-0.0032208418
113	0xbc52787c	-0.0128461085
114	0xbd41da4f	-0.047327336
115	0x3c651781	0.013982655
116	0x3cda41ca	0.026642699
117	0x3b28d42f	0.0025761237
118	0x3acc58db	0.0015590446
119	0x3bd3a18f	0.0064584683
120	0xbbdcfbf5	-0.006743903
121	0xbc95ed5b	-0.018301656
122	0x3a8a7b52	0.0010565317
123	0xbcedd9eb	-0.029034575
124	0x3cd00432	0.025392625
125	0x3d326d05	0.043561
126	0xbc0816cd	-0.008306217
127	0x3ce1c896	0.027561467
128	0x3b06a72a	0.0020546415
129	0x3c5e261e	0.0135588925
130	0x3c3f89df	0.011690586
131	0x3b481e14	0.0030535506
132	0x3b01fcc5	0.00198345
133	0x3bc26691	0.005932637
134	0x3c7413ca	0.014897296
135	0xbc985916	-0.018597167
136	0x3bbaff93	0.0057067364
137	0x3ba7d62f	0.005121968
138	0x3c0a42fa	0.00843882
139	0x3c19d0a7	0.0093881255
140	0x3ca83dfd	0.02053737
141	0xbbc32374	-0.005955154
142	0xbca7345b	-0.020410707
143	0xbccd1787	-0.025035633
144	0x3d0f05f4	0.034917787
145	0xbb3c86c7	-0.0028766857
146	0x3d96c0a1	0.0736096
147	0xbcb180cc	-0.02166786
148	0xbc18a4d1	-0.009316639
149	0xbbfcb266	-0.0077116964
150	0xbcb86654	-0.022509731
151	0x3b12bfc9	0.0022392145
152	0xbcffc0b9	-0.031219827
153	0x3d48eecf	0.04905587
154	0x3c5f740f	0.01363851
155	0xba95619f	-0.0011396891
156	0x3c045018	0.008075736
157	0x3b986bf5	0.0046515414
158	0x3aa2ba31	0.0012415109
159	0x3c6a0938	0.0142844245
160	0xbbcfc1e4	-0.0063402522
161	0xbbf49c54	-0.007464925
162	0xbc4a273c	-0.012338456
163	0x3bf30500	0.0074163675
164	0xbbff87b4	-0.0077981595
165	0xbc19f63a	-0.009397084
166	0x3c96bc3a	0.0184003
167	0x3bad2d21	0.005284921
168	0xbc347b0f	-0.011015668
169	0xbd2b5223	-0.04182638
170	0x3d4996e4	0.049216166
171	0x3c8f06c9	0.01745929
172	0x3c19fba2	0.009398373
173	0x3d84ea29	0.06489975
174	0x3be50471	0.006989055
175	0x3c9fc45f	0.019502817
176	0x3be25655	0.0069072642
177	0xbbf19cf9	-0.007373449
178	0x3c97426a	0.018464286
179	0xba894750	-0.0010473523
180	0xbc68675c	-0.014184799
181	0xbc1ed7c7	-0.009695
182	0x3c47c7d8	0.012193643
183	0x3b6668b8	0.0035157632
184	0x3a23b8ba	0.0006245483
185	0xbc9496bc	-0.018138282
186	0xbb0b8d3c	-0.00212939
187	0x3cb5695b	0.022144964
188	0x3bee2bc1	0.0072683995
189	0x3b6286b0	0.0034565143
190	0x3c184171	0.009292946
191	0x3c964935	0.018345455
192	0x3d6881c1	0.056764368
193	0x3c5b9716	0.013402721
194	0x3c21db73	0.009878981
195	0xbcab0e14	-0.020880736
196	0x3bfe9281	0.0077689295
197	0x3c979ebd	0.01850831
198	0x3c48ebe3	0.012263271
199	0xbb9da93f	-0.0048114355
200	0xbcae6917	-0.021290345
201	0xbb83d34e	-0.004022992
202	0x3d1e2265	0.03860702
203	0xbc35d6ef	-0.011098607
204	0x3cd48132	0.025940511
205	0xbcc389c6	-0.023869406
206	0x3c6282a4	0.013825092
207	0x3d151652	0.03639824
208	0xba5ce6a8	-0.00084267044
209	0x3cc95e26	0.024581026
210	0x3b829368	0.0039848574
211	0x3c998cc2	0.018743876
212	0xbc21ac5c	-0.009867754
213	0xbc12f84c	-0.008970331
214	0x3cb84603	0.022494322
215	0x3c22d5ba	0.009938652
216	0x3d728fa1	0.059219006
217	0x3b9d0d32	0.004792833
218	0x3d889b09	0.066701956
219	0xbd024c33	-0.03181095
220	0xbb512f67	-0.0031919123
221	0x39ca412d	0.00038577002
222	0x3cd4ec0c	0.025991462
223	0x3c3de8cb	0.011591147
224	0x3c4ce837	0.012506536
225	0xbc821b41	-0.015882136
226	0x3c409360	0.011753887
227	0x3c81423d	0.015778655
228	0x3d036caa	0.032086052
229	0x3c9d3b3d	0.019193286
230	0x3c27fa66	0.010252571
231	0x3bfae8fb	0.007657168
232	0xbbc731d5	-0.0060789385
233	0x3c99e1a8	0.01878436
234	0x3ce236a5	0.027613947
235	0x3c322d9a	0.01087513
236	0x3c7b5274	0.015339483
237	0x3bfd7245	0.0077345693
238	0xbb6fde74	-0.0036601098
239	0xbb74b065	-0.0037336585
240	0xbb361767	-0.0027784945
241	0xbb7e5f69	-0.0038814193
242	0xbba72192	-0.0051004374
243	0x3b65b5ac	0.0035050912
244	0x3d020ebe	0.03175234
245	0x3bc3ba19	0.0059731123
246	0x3b1617f6	0.0022902465
247	0xbca88eaa	-0.02057584
248	0xbcbf9d71	-0.023390504
249	0x3be60ae1	0.00702034
250	0x3a29970b	0.00064693455
251	0x3c4299a7	0.011877454
252	0x3cc0cece	0.023536112
253	0x3ca2db1b	0.019879868
254	0x3cb71d55	0.022352854
255	0x3bb51178	0.005525764

action_model._discrete_distribution.branches.0.bias f4 [4]
0	0xbcf6b059	-0.030113386
1	0xbb9c03ad	-0.0047611804
2	0x3cd1ff6d	0.025634492
3	0x3ba4de59	0.0050313887

exp_avg f4 [128, 4]
0	0x3b70e2ba	0.0036756233
1	0x39887ed2	0.0002603443
2	0x3a5d365c	0.0008438581
3	0x3a4685a9	0.00075730175
4	0xbbc8266b	-0.0061080954
5	0xbb0f8908	-0.0021901745
6	0xbba696e0	-0.0050839037
7	0xbab05b51	-0.0013454949
8	0x3404de0c	1.2374238e-07
9	0x343458cc	1.679611e-07
10	0xb1ee4380	-6.9343855e-09
11	0x34727b9f	2.258298e-07
12	0x3b782b73	0.0037867695
13	0x3a41515f	0.0007374491
14	0x3b5c0cf6	0.0033577061
15	0x3a6d57f8	0.0009053941
16	0x3750c69c	1.24440085e-05
17	0x36b6098f	5.4251354e-06
18	0x372bb404	1.0234307e-05
19	0x378be727	1.667773e-05
20	0x33e644c7	1.072272e-07
21	0x30a2a54d	1.1834033e-09
22	0x32fdac09	2.9531309e-08
23	0x337d9ec2	5.9050542e-08
24	0x3c030273	0.007996189
25	0x3a5a36b0	0.0008324189
26	0x3bad5d01	0.005290628
27	0x3ad2209a	0.0016031445
28	0xbb4c6564	-0.0031188363
29	0x399c78b0	0.00029844558
30	0xbad550b3	-0.0016274661
31	0xba22334e	-0.00061874546
32	0x39225a93	0.00015483265
33	0x38cd314b	9.784343e-05
34	0x39884eb2	0.00025998574
35	0x38616703	5.3740117e-05
36	0xbb373316	-0.0027954034
37	0xbaa71446	-0.0012747131
38	0xbb493d26	-0.0030706613
39	0xba5bb77f	-0.000838153
40	0x33cecbdd	9.629705e-08
41	0x32f2e6ba	2.827743e-08
42	0x342886ea	1.56953e-07
43	0x332cd977	4.0244654e-08
44	0xb8816ae0	-6.171106e-05
45	0x399c7388	0.00029840716
46	0x3a1262c0	0.0005584173
47	0x38b89c60	8.802931e-05
48	0x3b0b3664	0.0021242136
49	0x3a0fb617	0.00054821506
50	0x3a98fbdf	0.0011671743
51	0x39d0b2a5	0.00039805952
52	0xbb822c51	-0.003972568
53	0xb83bcc00	-4.4774264e-05
54	0xbace0928	-0.0015719282
55	0xba83093e	-0.0009997261
56	0x3acfad10	0.0015844423
57	0x3a2fd90e	0.0006708064
58	0x3b126207	0.002233626
59	0x39e24822	0.00043159822
60	0xbac2ed55	-0.0014871756
61	0x39f70470	0.00047114817
62	0xb9babdad	-0.00035618004
63	0xb8b7f5cc	-8.771903e-05
64	0xb9f2d655	-0.00046317527
65	0xb9e83db2	-0.00044296455
66	0xbaca3244	-0.0015426357
67	0xb9a11596	-0.00030724396
68	0x3902e8e0	0.00012484519
69	0x387f3cef	6.0853487e-05
70	0x392048c8	0.00015285902
71	0x38358102	4.327391e-05
72	0xb8a5f11d	-7.912724e-05
73	0xb8866def	-6.410095e-05
74	0xb8cdb3a3	-9.808622e-05
75	0xb8056dde	-3.1811993e-05
76	0x3c05d7dc	0.008169141
77	0x3b4676cc	0.003028321
78	0x3c439062	0.011936279
79	0x3b16b211	0.002299432
80	0xba562789	-0.00081693433
81	0xba83c13c	-0.0010052095
82	0xbacac908	-0.0015471289
83	0xb9c14b86	-0.00036868098
84	0x3baed1be	0.005335062
85	0x3a4f48cb	0.00079072703
86	0x3b8d221d	0.004307045
87	0x3aa0e821	0.0012276211
88	0xbbee2327	-0.007267374
89	0xbae55057	-0.0017495257
90	0xbc0079c2	-0.007841529
91	0xbacfe834	-0.0015862049
92	0x3987437c	0.00025799486
93	0xba3ace56	-0.00071260834
94	0xba485083	-0.0007641392
95	0x379f273c	1.8972547e-05
96	0xb85e1f6b	-5.2958185e-05
97	0x3792388a	1.7430884e-05
98	0xb7f163ed	-2.877597e-05
99	0xb8088b19	-3.255447e-05
100	0xba8d0666	-0.0010759353
101	0xb795f700	-1.7877202e-05
102	0x39c7fd30	0.00038144877
103	0xb9bf0c04	-0.0003643931
104	0xb0ea6940	-1.7055655e-09
105	0xb303f93d	-3.0727495e-08
106	0x3098e018	1.1123147e-09
107	0x32932043	1.7127723e-08
108	0x39e123d8	0.0004294205
109	0x3a8d69ad	0.001078894
110	0x3b18f076	0.0023336685
111	0x38a32d14	7.780842e-05
112	0xb2a7de8c	-1.9542561e-08
113	0xb44d0290	-1.9093045e-07
114	0xb1b1d585	-5.1756524e-09
115	0xb378a99c	-5.789626e-08
116	0x343855e9	1.716759e-07
117	0x35291fc3	6.3003625e-07
118	0x2fccb630	3.7236836e-10
119	0x330059a6	2.9883857e-08
120	0xb648797e	-2.987304e-06
121	0xb6946c38	-4.423342e-06
122	0xb69b1478	-4.621743e-06
123	0xb6ce7baa	-6.153675e-06
124	0x3ba661b2	0.005077564
125	0x3b3f56a2	0.0029195924
126	0x3bf8cf33	0.0075930594
127	0x3ac801ad	0.0015259288
128	0xba9efdb4	-0.0012130053
129	0xb8ea9e18	-0.00011187437
130	0xba560d0e	-0.00081653974
131	0xb90a2a80	-0.00013176538
132	0x3b4aac79	0.0030925556
133	0x3ae51aaa	0.001747926
134	0x3b891850	0.0041838065
135	0x3a4347f4	0.00074493815
136	0x3c131675	0.008977522
137	0x3b19a424	0.0023443783
138	0x3c0e1686	0.008672362
139	0x3b099965	0.0020995971
140	0xb87ef4c2	-6.0786268e-05
141	0xb8533620	-5.0356728e-05
142	0xb885764f	-6.363971e-05
143	0xb7b2c982	-2.1313088e-05
144	0xbc3ba98d	-0.011453998
145	0xbb3cbb93	-0.0028798326
146	0xbc385dfb	-0.011252875
147	0xbb334f05	-0.0027360332
148	0xbb1bfee1	-0.0023803043
149	0x3a3a3457	0.0007103136
150	0x3a05122c	0.0005076255
151	0xba16f734	-0.0005758882
152	0xb6095e64	-2.0469533e-06
153	0xb5d1a446	-1.5619523e-06
154	0xb594995a	-1.107149e-06
155	0xb4cd684e	-3.8260117e-07
156	0xb98f3098	-0.0002731129
157	0xb88b30da	-6.637136e-05
158	0xb9747d72	-0.00023316385
159	0xb870587a	-5.730286e-05
160	0x3bae72ba	0.005323735
161	0x3a0b6d14	0.0005318683
162	0x3b962962	0.00458257
163	0x3a8f9295	0.0010953719
164	0x3be09d37	0.006854679
165	0x3af1a406	0.0018435724
166	0x3be945c8	0.0071189143
167	0x3acf12c7	0.0015798443
168	0x3970e4d0	0.00022973423
169	0xbabd3e74	-0.0014438168
170	0xbacd7fc7	-0.0015678339
171	0x3882320a	6.2082036e-05
172	0xba663501	-0.0008781702
173	0xba2d88fc	-0.00066198385
174	0xbaab96b6	-0.001309118
175	0xb91bad6b	-0.00014846555
176	0xbac69b18	-0.0015152423
177	0xb92272c8	-0.00015492283
178	0xbae7029a	-0.0017624677
179	0xb8f7e598	-0.00011820643
180	0xbabd1264	-0.0014425036
181	0xba5e2c87	-0.0008475263
182	0xbb02cd8c	-0.0019958941
183	0xb9ba6269	-0.00035550006
184	0xbb5a1dd5	-0.0033281941
185	0xb9804a00	-0.00024469197
186	0xbb1f24ad	-0.0024283335
187	0xb9faa29d	-0.00047804872
188	0x33dfc7e0	1.0420604e-07
189	0x3480e6a9	2.4009685e-07
190	0x336b3869	5.4766506e-08
191	0x33cfab5e	9.67036e-08
192	0xb831506a	-4.227498e-05
193	0xb7b1e300	-2.120575e-05
194	0xb87a7512	-5.9713675e-05
195	0xb7725c5c	-1.4445828e-05
196	0xb347a2d1	-4.648138e-08
197	0xb44774ca	-1.8575807e-07
198	0xb32b977d	-3.9951818e-08
199	0xb3ab8904	-7.987731e-08
200	0xb12e5386	-2.536781e-09
201	0xb1db3dea	-6.3807777e-09
202	0xb12602d4	-2.4157787e-09
203	0xb1a602d4	-4.8315574e-09
204	0xbb12cb82	-0.0022399132
205	0xbab0316b	-0.0013442462
206	0xbb2a4794	-0.0025982605
207	0xb9e3762a	-0.00043384853
208	0x36f513ca	7.3038727e-06
209	0xb7a0adb2	-1.915437e-05
210	0xb6c4d1a2	-5.8656597e-06
211	0xb6ece6b0	-7.0602036e-06
212	0xba9e9f5f	-0.001210194
213	0x3a71bb42	0.0009221324
214	0x3a9710ae	0.0011525357
215	0xb980e5cc	-0.00024585275
216	0x3b859b66	0.004077363
217	0x3b0247fa	0.0019879327
218	0x3ba13116	0.0049191816
219	0x3a97395c	0.001153748
220	0xb53ccbe0	-7.0332135e-07
221	0xb628b0d0	-2.513687e-06
222	0xb4fd6020	-4.7194862e-07
223	0xb5833382	-9.775251e-07
224	0xb87ed70d	-6.07586e-05
225	0xb7889f6d	-1.6286702e-05
226	0xb8795e3e	-5.9453996e-05
227	0xb74b60fb	-1.2122323e-05
228	0xbc2fd013	-0.010730761
229	0xbb37b24e	-0.0028029862
230	0xbc0e1496	-0.0086719
231	0xbb15ead2	-0.002287556
232	0x33e08dc4	1.04566e-07
233	0xb44112e0	-1.7981392e-07
234	0x34a31e4e	3.0383165e-07
235	0xb28564aa	-1.5529015e-08
236	0x372ead4a	1.0411555e-05
237	0x366dc066	3.5427743e-06
238	0x372546bf	9.851238e-06
239	0x36143ff1	2.2090937e-06
240	0x373f52a1	1.1403726e-05
241	0x366e6d48	3.5528374e-06
242	0x3741b29b	1.1545281e-05
243	0x3671b502	3.601716e-06
244	0x39441603	0.00018700217
245	0x38caeef9	9.676623e-05
246	0x39853938	0.00025410368
247	0x3828e204	4.0264815e-05
248	0xb8514561	-4.9894097e-05
249	0xb6bfceea	-5.7163315e-06
250	0xb8134589	-3.511229e-05
251	0xb7c86974	-2.3890963e-05
252	0x328b1dfe	1.6195369e-08
253	0x34323121	1.6595415e-07
254	0x333e94a4	4.437301e-08
255	0x33cd6ba9	9.56564e-08

exp_avg_sq f4 [128, 4]
0	0x3a9bf3b6	0.0011898193
1	0x39b6ea71	0.00034888418
2	0x3a90cc0e	0.0011047141
3	0x3964f0bb	0.00021833454
4	0x3a95065a	0.0011369691
5	0x3a00da83	0.0004915373
6	0x3a854a38	0.0010169214
7	0x39de02f4	0.0004234534
8	0x343f5da6	1.782233e-07
9	0x35b2dd30	1.3326407e-06
10	0x34c33442	3.6359603e-07
11	0x33aa38d9	7.9265824e-08
12	0x3a97ca1d	0.001158062
13	0x39cd0b07	0.00039108863
14	0x3a30d629	0.00067457795
15	0x39457a30	0.00018832902
16	0x39e3b07e	0.0004342831
17	0x390b8e24	0.00013309025
18	0x382550e6	3.9414408e-05
19	0x39be598a	0.00036306336
20	0x32542002	1.2347302e-08
21	0x32ec1ad8	2.7486223e-08
22	0x31358846	2.641643e-09
23	0x3211d106	8.487637e-09
24	0x39e73a13	0.00044103022
25	0x38a2bbb2	7.759723e-05
26	0x39e1467a	0.00042967853
27	0x38612d78	5.3686526e-05
28	0x3a4c9a51	0.00078049774
29	0x39cf0c53	0.000394913
30	0x3a3c1c9c	0.0007175894
31	0x39516dbc	0.00019972672
32	0x3674f275	3.6499962e-06
33	0x362184c8	2.4068158e-06
34	0x3757f305	1.2871581e-05
35	0x3803fb3e	3.146682e-05
36	0x3a3004b6	0.0006714569
37	0x399a2409	0.00029400017
38	0x39f3fef3	0.00046538524
39	0x3977d490	0.00023634941
40	0x3513351a	5.483904e-07
41	0x355850b2	8.05837e-07
42	0x33512d8b	4.8703026e-08
43	0x3663bf7e	3.39371e-06
44	0x39c8e1e6	0.0003831528
45	0x39e0f4ad	0.00042906907
46	0x39c2b056	0.00037133944
47	0x395240e5	0.00020051336
48	0x39bc39d2	0.00035901234
49	0x391af353	0.0001477723
50	0x3988100b	0.00025951894
51	0x3982462e	0.0002484782
52	0x3abdcde8	0.001448092
53	0x3a1bf2f7	0.00059489853
54	0x3a90c79a	0.0011045814
55	0x39e98d32	0.00044546422
56	0x379ab6f3	1.8443423e-05
57	0x37bc0e69	2.2418057e-05
58	0x3854b54e	5.0713592e-05
59	0x36926bcb	4.363688e-06
60	0x3a38889c	0.00070393994
61	0x39a68f1b	0.0003176861
62	0x39f404d1	0.00046542895
63	0x39f655a0	0.00046984572
64	0x39b4d29a	0.00034489186
65	0x392d5af9	0.00016532456
66	0x39a6f52c	0.00031844655
67	0x3941b739	0.0001847417
68	0x36993411	4.5658167e-06
69	0x37089b06	8.142326e-06
70	0x37c59fd5	2.3558658e-05
71	0x35b1fb78	1.3260715e-06
72	0x3996aefc	0.00028740603
73	0x394af5e0	0.00019355817
74	0x38da210f	0.00010401208
75	0x3988b5e0	0.0002607545
76	0x3a989079	0.0011639736
77	0x3a4b2425	0.00077492214
78	0x3aabcf2c	0.0013108007
79	0x3a531121	0.00080515636
80	0x39d5052c	0.0004063038
81	0x39132ea2	0.00014036385
82	0x39886665	0.0002601623
83	0x394232c3	0.00018520192
84	0x3a599bf4	0.0008301132
85	0x39a546f0	0.00031524105
86	0x3a231ebf	0.0006222538
87	0x39e94865	0.0004449516
88	0x3a53549b	0.00080616184
89	0x39ebd76f	0.00044983203
90	0x3a2aa30e	0.00065092824
91	0x39a6d527	0.00031820798
92	0x396dcafe	0.00022677702
93	0x38d93511	0.00010357251
94	0x3961bfe0	0.00021529151
95	0x38b1f8aa	8.486335e-05
96	0x38bce847	9.0078036e-05
97	0x37ad6ec3	2.0674785e-05
98	0x381b77f2	3.7066588e-05
99	0x390a2e65	0.00013177989
100	0x3a7ab41b	0.0009563581
101	0x39b59787	0.00034635907
102	0x3a67c003	0.00088405627
103	0x39be8847	0.0003634116
104	0x32099c94	8.010051e-09
105	0x341ac782	1.4414948e-07
106	0x321a3869	8.976806e-09
107	0x3431e36a	1.6567142e-07
108	0x3a8294f9	0.000996261
109	0x39ad2a40	0.0003302861
110	0x3a8f55d8	0.0010935618
111	0x39a23a0e	0.00030942302
112	0x318650f0	3.909115e-09
113	0x329a9893	1.7997342e-08
114	0x31216b72	2.348966e-09
115	0x31925796	4.2591166e-09
116	0x368070e5	3.82784e-06
117	0x37b5a8bb	2.1655453e-05
118	0x367b245a	3.7423074e-06
119	0x3821f15e	3.8610182e-05
120	0x39abb680	0.00032751635
121	0x395677de	0.00020453284
122	0x3830de71	4.2168835e-05
123	0x39bdf4c3	0.0003623125
124	0x3a02b8ae	0.0004986626
125	0x39b43e62	0.00034378754
126	0x3a64e8cf	0.0008732201
127	0x3959b606	0.00020762542
128	0x3a2186b5	0.00061617355
129	0x39844df0	0.0002523507
130	0x3a0cd4ce	0.00053722865
131	0x393915d7	0.00017651111
132	0x3a06c683	0.0005141275
133	0x3933aa8f	0.00017134308
134	0x3a40527f	0.00073365116
135	0x38f1ee74	0.00011536191
136	0x3aa4b0bb	0.0012564877
137	0x39d5f769	0.0004081086
138	0x3aa8ec4e	0.0012887807
139	0x39dcf374	0.00042143057
140	0x363415a4	2.6834687e-06
141	0x37003077	7.640679e-06
142	0x36ecde02	7.059193e-06
143	0x380b9736	3.328101e-05
144	0x3a45de98	0.00075481227
145	0x39982ddc	0.00029025867
146	0x3a3c7cfb	0.00071902544
147	0x397f9628	0.00024374633
148	0x3abae74a	0.0014259603
149	0x39f1da3b	0.00046129696
150	0x3aa0c73a	0.0012266405
151	0x39b80bfe	0.0003510415
152	0x3730753c	1.0517713e-05
153	0x37dc56a9	2.6266398e-05
154	0x36aa83ee	5.0817534e-06
155	0x35f48b34	1.821993e-06
156	0x3606d816	2.0093335e-06
157	0x34301fe9	1.6402886e-07
158	0x350232ac	4.850251e-07
159	0x33c0d9fd	8.9803486e-08
160	0x3a597cdc	0.00082964986
161	0x398d2b2d	0.00026925784
162	0x3a65e662	0.00087699865
163	0x39efbbac	0.0004572546
164	0x3a45e0db	0.00075484597
165	0x3989836e	0.000262286
166	0x39ff7403	0.00048723826
167	0x399a606f	0.00029445018
168	0x3a5597f5	0.00081479485
169	0x39c9fcc6	0.00038526038
170	0x3a2912fc	0.0006449667
171	0x39c20221	0.0003700415
172	0x379fd310	1.905256e-05
173	0x379312c7	1.753251e-05
174	0x3889f025	6.5773995e-05
175	0x37227aa1	9.684504e-06
176	0x39cada21	0.0003869096
177	0x3888887b	6.510407e-05
178	0x3a09ee11	0.000526161
179	0x379e482a	1.8868672e-05
180	0x3793daba	1.7625618e-05
181	0x37895284	1.6370097e-05
182	0x38790c7d	5.9377857e-05
183	0x36e9c615	6.967001e-06
184	0x3a385983	0.0007032381
185	0x3972b30c	0.00023145619
186	0x3a32cf69	0.00068210677
187	0x39852a0d	0.00025399067
188	0x3509977e	5.125693e-07
189	0x36e07009	6.688763e-06
190	0x35b7fb73	1.3707744e-06
191	0x3424c537	1.5345437e-07
192	0x34c08f9e	3.5867282e-07
193	0x33e8fbda	1.08491534e-07
194	0x35f5e8bc	1.8321657e-06
195	0x344ffc1c	1.9370094e-07
196	0x32ccbfaa	2.3835884e-08
197	0x35b0d33f	1.3174503e-06
198	0x32b7852e	2.1364567e-08
199	0x3575b00b	9.152579e-07
200	0x2d8f0190	1.6257912e-11
201	0x2e138748	3.3544084e-11
202	0x2c5cd0da	3.1379816e-12
203	0x2d5b3960	1.24614485e-11
204	0x393af9c1	0.00017831383
205	0x391fb36c	0.00015230261
206	0x390f2af8	0.0001365355
207	0x389701fa	7.200609e-05
208	0x38d37311	0.00010082697
209	0x3803e759	3.1448293e-05
210	0x3814309d	3.5331224e-05
211	0x391ad7a7	0.00014766921
212	0x3a0a4eb7	0.00052760117
213	0x393faa1c	0.0001827855
214	0x3a044fcc	0.0005047291
215	0x390d6fc9	0.00013488451
216	0x3a20a567	0.00061281625
217	0x397508a3	0.00023368238
218	0x39cbadbf	0.00038848628
219	0x393d9277	0.00018079007
220	0x360c3682	2.0893353e-06
221	0x37efccee	2.8586448e-05
222	0x362725df	2.4906983e-06
223	0x372a0b69	1.0135446e-05
224	0x37888b0a	1.6277208e-05
225	0x33d32a93	9.8331974e-08
226	0x3778a747	1.4820899e-05
227	0x357a12dc	9.31597e-07
228	0x3a586fa5	0.00082563824
229	0x39c8f6e6	0.00038330926
230	0x3a3031f3	0.000672131
231	0x399aa794	0.00029498024
232	0x36301345	2.623726e-06
233	0x34ed96cc	4.425441e-07
234	0x35056ab6	4.9701646e-07
235	0x37d638fa	2.553732e-05
236	0x381d4691	3.7497437e-05
237	0x37a40c0d	1.9555935e-05
238	0x3699db73	4.5853026e-06
239	0x363ca1a9	2.8108282e-06
240	0x360e7555	2.1227945e-06
241	0x32f6500d	2.8674572e-08
242	0x33ffa75b	1.19048046e-07
243	0x357265a3	9.0299926e-07
244	0x350ecabf	5.3194157e-07
245	0x34382c4d	1.7152452e-07
246	0x3543cbe9	7.293989e-07
247	0x32a8a0d0	1.9630903e-08
248	0x37a1c595	1.9284702e-05
249	0x364b4e49	3.0294925e-06
250	0x367f5c30	3.8051621e-06
251	0x382fad31	4.188455e-05
252	0x35995f7b	1.1427177e-06
253	0x3738e8d6	1.1021466e-05
254	0x3583aac7	9.809963e-07
255	0x347f20d7	2.3760673e-07

exp_avg f4 [128]
0	0x38c3b8fe	9.332782e-05
1	0xb9a0afa0	-0.0003064843
2	0x33d89b95	1.0086584e-07
3	0x3958eb06	0.00020686918
4	0x353e8656	7.0976e-07
5	0x32fdbaff	2.9538112e-08
6	0x39aee387	0.00033357387
7	0xb8f3f6b3	-0.00011633094
8	0x37708b6f	1.4337579e-05
9	0xb944fe5b	-0.00018786771
10	0x323bd021	1.0932156e-08
11	0x37d4f210	2.5385089e-05
12	0x38a5e05f	7.9096055e-05
13	0xb916a47e	-0.00014366393
14	0x3901ad8e	0.00012367053
15	0xb7b0c4da	-2.1072501e-05
16	0xb8b25bff	-8.504837e-05
17	0x371fe12a	9.529564e-06
18	0xb6b73a60	-5.4606207e-06
19	0x3a2ec671	0.00066671433
20	0xb8bda6c3	-9.043284e-05
21	0x398f750b	0.0002736229
22	0xb9e8f279	-0.00044431144
23	0xb7f1cb48	-2.8824099e-05
24	0xb5f0d746	-1.7944046e-06
25	0xb7631fc0	-1.3537647e-05
26	0x321fd592	9.303578e-09
27	0x38ca6517	9.65094e-05
28	0xb30097d8	-2.9940423e-08
29	0x32804ec3	1.4936978e-08
30	0xb37eedb1	-5.9355163e-08
31	0x39ded657	0.00042502835
32	0xb82fef50	-4.194613e-05
33	0x396d5336	0.0002263308
34	0x3a074720	0.000516044
35	0xb68df766	-4.2309284e-06
36	0xba2fab12	-0.00067012117
37	0xb7dc459e	-2.6258462e-05
38	0x344dc691	1.9164351e-07
39	0xb7692e52	-1.3898667e-05
40	0x398e31f0	0.00027121557
41	0x39d7fc97	0.0004119619
42	0xb864f9a3	-5.459193e-05
43	0xb88757f4	-6.453684e-05
44	0xb8a77410	-7.984799e-05
45	0xb8e30c8c	-0.000108265405
46	0xb910dd8b	-0.00013815441
47	0x334bb29c	4.7427065e-08
48	0xb66b4abe	-3.5061234e-06
49	0xb32b8dba	-3.994294e-08
50	0xb12602d4	-2.4157787e-09
51	0xb911ad4d	-0.00013892837
52	0xb4b069d8	-3.2859566e-07
53	0x37d7db0c	2.5731999e-05
54	0x39969a4d	0.00028725193
55	0xb50389d9	-4.90019e-07
56	0xb67548c6	-3.6550205e-06
57	0xba0affee	-0.0005302419
58	0xb32c4cfc	-4.0116888e-08
59	0x350f8a69	5.3473065e-07
60	0x353d5e82	7.0545514e-07
61	0x3760a5a0	1.3390003e-05
62	0xb60dd0f8	-2.1132273e-06
63	0x33495fcf	4.6886097e-08
64	0x37cc00ec	2.4319124e-05
65	0x3822d124	3.8818587e-05
66	0xb431c5fb	-1.6556434e-07
67	0x37cb57b7	2.4240331e-05
68	0x3528b200	6.28439e-07
69	0x39375939	0.00017485478
70	0xb9c651e0	-0.00037826505
71	0x3922be7e	0.00015520488
72	0xb28bccc6	-1.627485e-08
73	0xb97c8120	-0.00024080696
74	0x39590216	0.0002069551
75	0x3a0f54b0	0.00054676365
76	0xb6f6bfee	-7.353715e-06
77	0x39f5b031	0.00046861314
78	0x38e3868e	0.00010849266
79	0xb5e0ae80	-1.6740087e-06
80	0x39b344eb	0.00034192888
81	0x33b4fa38	8.427418e-08
82	0x369ae6e4	4.616437e-06
83	0x3822a258	3.8775004e-05
84	0xb7ee0ad5	-2.8376855e-05
85	0xb91dfd3b	-0.00015067022
86	0xb64bb6c8	-3.035575e-06
87	0xb90805ce	-0.00012972133
88	0x37a4ea1d	1.9659341e-05
89	0xb2d69608	-2.4981105e-08
90	0x39a22dbf	0.0003093313
91	0x39f3f644	0.00046532054
92	0x332c45e3	4.0110432e-08
93	0x39577e85	0.0002055113
94	0xb990ff1f	-0.000276559
95	0x36312b84	2.6400385e-06
96	0x3735fdd2	1.0847538e-05
97	0x39237172	0.00015587153
98	0xb405dcb2	-1.2466879e-07
99	0xb7166f73	-8.9666455e-06
100	0x399043fd	0.00027516476
101	0xb8734b24	-5.8005695e-05
102	0x391ad8dc	0.00014767371
103	0x3929b552	0.00016184643
104	0xb891a81a	-6.94545e-05
105	0xb982ef26	-0.00024973712
106	0x3633c77a	2.678919e-06
107	0xb7df88aa	-2.664731e-05
108	0x37783b8c	1.4795816e-05
109	0xb6f54621	-7.309733e-06
110	0xb909372c	-0.00013085891
111	0xb6a7aab0	-4.9968585e-06
112	0xb99c7a5e	-0.0002984581
113	0xb8c03206	-9.164591e-05
114	0x36f02f46	7.1580607e-06
115	0x39de61af	0.0004241592
116	0xb9cd9f3e	-0.00039219292
117	0xb99116bd	-0.00027673497
118	0xb6a3a408	-4.8768743e-06
119	0xb6c221ae	-5.7855714e-06
120	0x39b44487	0.00034383332
121	0x3892463a	6.974903e-05
122	0x38174d3a	3.607313e-05
123	0x3961b3f3	0.00021524708
124	0x36931d80	4.3843756e-06
125	0x38a5b043	7.9006444e-05
126	0x396c4ed9	0.00022536087
127	0x39891bda	0.00026151427

exp_avg_sq f4 [128]
0	0x36a186e6	4.813878e-06
1	0x36a98cb2	5.0529716e-06
2	0x32534140	1.2296653e-08
3	0x368897ca	4.0707864e-06
4	0x35a48aed	1.2259385e-06
5	0x31129d93	2.1335367e-09
6	0x35c68523	1.4790897e-06
7	0x3666a38c	3.4367868e-06
8	0x33c5a08b	9.20273e-08
9	0x362e3c85	2.5963247e-06
10	0x3218915d	8.880616e-09
11	0x3635ee2c	2.7109736e-06
12	0x35d73ba1	1.6036103e-06
13	0x36c63834	5.9074027e-06
14	0x34b32f20	3.3375636e-07
15	0x36285f63	2.5089473e-06
16	0x35e1fdaf	1.6837638e-06
17	0x33d6a2f9	9.994796e-08
18	0x35b21a73	1.3269731e-06
19	0x37036e0d	7.833832e-06
20	0x35db0d6f	1.6320681e-06
21	0x365054a0	3.1043674e-06
22	0x3686f998	4.0225677e-06
23	0x3597659f	1.1279952e-06
24	0x34b0636c	3.2854894e-07
25	0x36920cc9	4.3526275e-06
26	0x30977cdd	1.1022184e-09
27	0x36a3c608	4.8808324e-06
28	0x3095425a	1.0860035e-09
29	0x343bc24d	1.7486418e-07
30	0x35c68efa	1.4793761e-06
31	0x3685fd95	3.9932297e-06
32	0x362b208e	2.5499935e-06
33	0x3646630e	2.9561957e-06
34	0x36bfa8cd	5.7118946e-06
35	0x33bf058a	8.895138e-08
36	0x36684af2	3.4614318e-06
37	0x36c0d4ec	5.7468333e-06
38	0x341ac045	1.4412315e-07
39	0x320c1116	8.152957e-09
40	0x366739de	3.4455365e-06
41	0x3624bd48	2.454808e-06
42	0x365ebb2d	3.3189528e-06
43	0x34843098	2.4622273e-07
44	0x3603ee41	1.9659203e-06
45	0x3485b652	2.4905836e-07
46	0x363f88d9	2.8540874e-06
47	0x32b8cc5f	2.1513356e-08
48	0x3234e7d0	1.0530087e-08
49	0x31d3cad4	6.163967e-09
50	0x2c5aae9d	3.1076593e-12
51	0x355afdcc	8.158065e-07
52	0x34c0a1d7	3.588054e-07
53	0x361b8d4f	2.3179052e-06
54	0x3616af59	2.2453808e-06
55	0x344d416e	1.9115916e-07
56	0x3355aa52	4.9747833e-08
57	0x36720255	3.6062168e-06
58	0x33354a37	4.2209845e-08
59	0x33eae7b0	1.0938618e-07
60	0x31d29a67	6.129358e-09
61	0x3187a180	3.9473775e-09
62	0x33c2c4c8	9.069623e-08
63	0x3320c5b5	3.7432716e-08
64	0x33a83a33	7.833696e-08
65	0x35d9d8bb	1.6230837e-06
66	0x3340a672	4.4854865e-08
67	0x351120b4	5.40643e-07
68	0x35a953a8	1.2615828e-06
69	0x35c4f281	1.4673716e-06
70	0x36107460	2.1525411e-06
71	0x36842590	3.9382794e-06
72	0x2fdb1c71	3.9856077e-10
73	0x36eb9aff	7.0215897e-06
74	0x362c7b89	2.5701904e-06
75	0x3639a75c	2.7664564e-06
76	0x355ed77f	8.301503e-07
77	0x36b631f3	5.4298375e-06
78	0x36641b3f	3.3990507e-06
79	0x36814d45	3.853495e-06
80	0x358a944e	1.0324964e-06
81	0x3280c66a	1.499139e-08
82	0x358fadd1	1.0704917e-06
83	0x37270b22	9.956568e-06
84	0x3571b589	9.0043665e-07
85	0x361e72da	2.3610687e-06
86	0x358360be	9.788416e-07
87	0x340b1edf	1.2956615e-07
88	0x3416232b	1.3982633e-07
89	0x3044313c	7.137435e-10
90	0x36dbc3f2	6.5495196e-06
91	0x35c517f3	1.4684614e-06
92	0x3125bd82	2.4118383e-09
93	0x3618d5c8	2.2774202e-06
94	0x37309146	1.0524242e-05
95	0x35bd1687	1.4088154e-06
96	0x3583a6c2	9.808793e-07
97	0x367898bb	3.704378e-06
98	0x351be3a0	5.807324e-07
99	0x36de3bc9	6.6230755e-06
100	0x35319b3f	6.616355e-07
101	0x36976fb5	4.513155e-06
102	0x359a27a9	1.1485437e-06
103	0x35e6d5e6	1.7198588e-06
104	0x36c3dded	5.8372884e-06
105	0x36dee99a	6.6433104e-06
106	0x3575afb4	9.1525294e-07
107	0x342b7901	1.5969637e-07
108	0x33f67fc4	1.1478508e-07
109	0x32ae4d46	2.0291406e-08
110	0x35fe0d2a	1.8928306e-06
111	0x3670317a	3.5791586e-06
112	0x36b6a2c9	5.4429734e-06
113	0x36eaf867	7.0026613e-06
114	0x34d6b34a	3.9991056e-07
115	0x36f3bf22	7.264215e-06
116	0x36862ccf	3.9987276e-06
117	0x3693606b	4.392166e-06
118	0x35b31be3	1.3344655e-06
119	0x33da0585	1.015242e-07
120	0x355232b5	7.8304885e-07
121	0x35ba3d92	1.3875999e-06
122	0x3538ab0c	6.879425e-07
123	0x35ddf6ee	1.6537649e-06
124	0x36265342	2.478439e-06
125	0x3576c734	9.193202e-07
126	0x3714195a	8.82739e-06
127	0x369f57c9	4.748789e-06
