old_ppo/v3/v3-74554.pt (torch, 437228 bytes, 33 tensors)

network_body._body_endoder.seq_layers.0.weight f4 [128, 4]
000000 4d f3 11 bf 71 0f 99 bf d3 ca b7 3e 75 46 10 be
       -0.5701187 -1.1957837 0.3589693 -0.14089377
000010 02 ce c1 be 94 a0 48 3f f2 1a 59 bf 51 3b 3f bf
       -0.37852484 0.7837002 -0.8480674 -0.74699885
000020 2a db c1 bd a8 01 9b 3c 21 1d 17 3f 60 22 03 3f
       -0.0946563 0.018921688 0.5902882 0.5122433
000030 4f 71 13 3f f3 89 7b 3d b9 55 b2 3e 1a c0 db bd
       0.5759477 0.061410856 0.34831026 -0.1073
000040 a5 35 28 3f f9 f7 d9 be bc 6d 31 be b6 ea ad 3c
       0.65706855 -0.42572 -0.17327017 0.021230083
000050 f4 ff 86 bf 28 cf a9 3e 2f 47 2c 3d 6b 69 fa 3d
       -1.0546861 0.3316586 0.042060073 0.12227138
000060 33 9c 0c 3e c4 98 0f bf 30 c7 c7 ba c5 e4 6a bd
       0.1373146 -0.56092477 -0.0015241858 -0.057347078
000070 5c 7b 13 3f ef 78 dd 3e 78 85 08 bf e0 32 ae 3e
       0.57610106 0.43256328 -0.5332866 0.3402319
000080 e3 67 be 3e ed cf 22 bf 66 61 b1 be 99 07 d9 3e
       0.37188634 -0.6359852 -0.34644622 0.4238861
000090 f8 7c 48 3f 1a 5d 72 bf 54 00 e2 3e 4f 60 ca bd
       0.7831569 -0.9467331 0.44140875 -0.09881651
0000a0 86 11 76 bf 61 b5 f4 bd 0a ac 46 3e 5e ee 3d be
       -0.9612049 -0.11948658 0.19401565 -0.18547961
0000b0 5e a9 47 3e 48 9a ab 3e af 20 5d bf 96 f2 7e be
       0.19498202 0.33516145 -0.86377996 -0.24897227
0000c0 e5 42 19 3d 05 2a e7 be 22 81 0e be 1b d5 ea 3e
       0.03741731 -0.45149246 -0.13916448 0.45865712
0000d0 38 ca da 3e 92 0f 1f bf fb 9f 88 3e 12 d2 e8 be
       0.42732406 -0.62133133 0.26684555 -0.4547277
0000e0 ca 39 38 3e f2 a0 0a 3f 31 17 38 bf 5d e0 88 be
       0.17990795 0.54151833 -0.7191039 -0.26733676
0000f0 ac 9e 5d bc 61 cd 99 be ce cc 07 3f 96 ea a8 bd
       -0.0135266 -0.30039504 0.5304688 -0.08247869
000100 0d 40 fe bd cc e8 14 bd e9 e3 6b bf 6a b5 e2 3d
       -0.124145605 -0.036354825 -0.9214464 0.11069758
000110 46 26 66 bf 41 63 24 3f f3 02 a1 be ff fc 07 bf
       -0.8990215 0.6421395 -0.31447563 -0.53120416
000120 29 07 2e 3f 3a d3 12 3e b1 ea a0 be d0 fe 05 be
       0.67979676 0.14338389 -0.31429055 -0.13085485
000130 3c d8 1d be 09 6b 4a bf 5d c3 b3 bd 83 f0 d9 be
       -0.15414518 -0.7906957 -0.08777497 -0.42566308
000140 df b0 f9 be 4c fb f6 be 0a 05 a4 bd 47 ee 89 be
       -0.48767754 -0.482386 -0.080087736 -0.26939604
000150 65 d4 e8 3c a8 c3 7d 3e 41 6b ac 3e 72 c1 30 bf
       0.02842159 0.24781668 0.33675578 -0.69045174
000160 08 99 39 be a5 c3 25 3a 9e 32 e2 3e f9 fd 91 be
       -0.18124783 0.0006323404 0.44179243 -0.28514078
000170 2e 13 a0 bd 6c 82 0d 3e 18 e3 15 bf b6 f2 d8 3e
       -0.07816158 0.13819283 -0.5854964 0.42372674
000180 5d 1e 0e bf a4 f6 42 be 64 a4 12 bf bc 10 5a 3e
       -0.5551508 -0.19039398 -0.5728209 0.21295446
000190 a7 07 84 3e d2 dd ec bd c1 d9 5b 3e b7 8e 8f bc
       0.25787088 -0.11565746 0.21469785 -0.017524106
0001a0 e0 6b c5 3e 05 9e 3d 3d 7d e1 1b 3f c5 38 6b 3e
       0.38558865 0.046293277 0.6089094 0.22970875
0001b0 c8 e5 28 3e 41 03 ec be 6d 0f 96 be e1 10 64 3e
       0.16493905 -0.46096233 -0.29308644 0.22272064
0001c0 2a 0c b6 be e2 1f 80 bd c9 71 9e bc c9 13 45 3d
       -0.35556155 -0.06256081 -0.019341366 0.04811457
0001d0 87 14 2a bf c6 79 9d 3b cd 1b eb bc 50 c4 04 be
       -0.6643757 0.0048057763 -0.02869978 -0.12965512
0001e0 b2 d8 b4 be ad b6 26 3f 36 94 a6 bf 54 23 1c bf
       -0.35321575 0.6512249 -1.301398 -0.60991406
0001f0 67 00 a9 3e 8c 41 22 3f f5 ea 0c 3e 25 ad e6 be
       0.3300812 0.63381267 0.13761504 -0.45053974
000200 2a 5b b7 be 0f 39 e7 3e d0 14 95 be 68 fd ff be
       -0.3581174 0.4516072 -0.2911744 -0.4999802
000210 19 9e 27 3e 29 c2 9c be 5d e3 79 bd 2f 22 2b 3f
       0.16368903 -0.30616882 -0.061007846 0.66849035
000220 90 30 f0 be 17 03 b1 bd 04 d8 10 3f 47 a0 8d 3e
       -0.4691205 -0.086431675 0.56579614 0.27661344
000230 34 98 f0 3d 5e 72 0a 3f e1 3c 35 3e 04 e8 4e 3e
       0.117477804 0.5408076 0.17699005 0.20205694
000240 9b 36 83 bd 59 3d 15 be 02 41 d9 3d 04 65 22 3e
       -0.064068995 -0.14574184 0.106081024 0.15858847
000250 71 a3 8f 3e bc 98 b6 bd 66 a1 22 bf 5b 2b 8c 3e
       0.28054383 -0.089158505 -0.63527524 0.27376828
000260 41 db 02 3f eb 8a 4a be af bc ad be 19 98 77 bf
       0.51115805 -0.19779555 -0.33933017 -0.9671646
000270 5a 7f 73 3f 1f b9 52 3f 7b bc 33 3e 64 be 55 3c
       0.951162 0.8231372 0.17552368 0.013045881
000280 c3 f4 f2 3e 0b b4 76 3e 8d 6b 83 bd ec c2 34 3f
       0.47452363 0.24092118 -0.06416998 0.7060993
000290 f2 f6 ea be 5c b4 a4 be c4 38 0d 3f be 4a 24 3e
       -0.4589153 -0.32168853 0.5516474 0.16044137
0002a0 ff 45 01 3f 01 27 f2 3e 6d 3e 67 be 7d 41 06 3f
       0.5049743 0.47295383 -0.22582407 0.5244368
0002b0 90 dc 79 bf ae ba a9 3d 7c de a6 3f 04 6c fa bd
       -0.97602177 0.082875594 1.3036647 -0.122276336
0002c0 2d 03 33 3f fc 77 a7 3e 69 ce 38 3e 4d ff c1 be
       0.6992672 0.32708728 0.18047489 -0.37890092
0002d0 92 f1 f7 be 39 24 2a bf 7e f8 48 bf 27 2b f6 3e
       -0.4842649 -0.6646152 -0.7850417 0.48079798
0002e0 ec 67 14 be 5e 8a ba 3c fd ac 37 3e 39 fb f7 bd
       -0.14492768 0.022771057 0.17937084 -0.12108464
0002f0 31 d2 f8 3d a5 ea 69 3e 97 0a 7d bf d2 cd 05 3f
       0.12149466 0.22843416 -0.98844284 0.5226718
000300 ad ef 09 bd 5b 6e c2 be ff c4 2a 3e ee 48 df bb
       -0.03367584 -0.3797482 0.1667671 -0.006814114
000310 99 f1 45 bf 48 98 fa bd 01 a6 36 3f e1 4a 06 bf
       -0.77321774 -0.122360766 0.7134705 -0.52458006
000320 dd 4f 37 be 70 90 31 bf 84 84 c2 bd ab a2 64 3c
       -0.17901559 -0.6936102 -0.094979316 0.013954799
000330 77 f0 90 bf c3 58 8e 3d 08 cd 24 3d 1d c5 b6 3e
       -1.1323384 0.06950524 0.040234596 0.3569726
000340 6c 5f 17 3e c9 71 ef be ea 31 ed 3e 98 57 4a bd
       0.14782494 -0.467665 0.46327144 -0.049399942
000350 03 dc 08 bf 9b 54 65 3e 76 89 83 3e cb bb 34 3f
       -0.5346071 0.22395556 0.25690812 0.7059905
000360 cb 30 91 bf a8 cd c2 3e d6 24 05 bf b0 30 ee 3d
       -1.1343015 0.38047528 -0.5200933 0.1163038
000370 9a d9 ac be 1b 56 bc bf af 69 c8 be ff 4e 1f 3f
       -0.33759767 -1.4713777 -0.3914313 0.62229913
000380 08 1d db 3e c8 ef 25 be 97 37 9b bd 52 97 6d 3f
       0.42795587 -0.1620475 -0.07578962 0.9280902
000390 50 c0 68 3e 99 a9 11 3f c0 15 9e 3d 7b 80 f0 be
       0.22729611 0.5689941 0.07718992 -0.46973023
0003a0 c2 07 46 be 22 af f9 3e 39 f5 43 bb e8 d0 27 be
       -0.19338897 0.48766428 -0.0029900803 -0.16388285
0003b0 b0 59 5f 3e 04 d5 86 3e 43 7a 0f 3e 02 be 1f bf
       0.21811557 0.26334393 0.14011483 -0.62399304
0003c0 a3 13 ac 3e 09 df 8f 3f 51 e2 a9 be a6 d9 36 bc
       0.33608732 1.123994 -0.33180478 -0.01116029
0003d0 49 36 82 bd 1d 4b 20 bf a0 ab 07 bf 88 f4 0a bf
       -0.0635801 -0.62614614 -0.52996254 -0.54279375
0003e0 4d 84 87 bf d3 6c ad 3e 5e ed 35 bf 92 d6 08 3e
       -1.058725 0.3387209 -0.7106532 0.13363102
0003f0 f7 2a ae 3e 31 0a 2d 3c 26 7d d5 be 09 7b ad 3d
       0.34017155 0.010561512 -0.41697043 0.08470733

network_body._body_endoder.seq_layers.0.bias f4 [128]
000000 85 eb 92 bb 20 93 92 3c 31 98 61 3c a6 0f 19 bd
       -0.0044836425 0.01789242 0.013769195 -0.03736844
000010 2a 42 6e 3d bd 29 ff bd 63 12 ba bd a0 32 98 bc
       0.058168568 -0.12459133 -0.09085538 -0.018578827
000020 3d a4 1b 3d 3e 85 bc 3c e6 82 a6 bd 16 bd 9b 3c
       0.037998427 0.023012754 -0.08130436 0.019011062
000030 63 a5 db 3c 1f 10 2e bd 93 04 3e bd 60 27 e1 ba
       0.026812261 -0.042495843 -0.04639108 -0.0017177872
000040 dc 82 60 bd 47 cf 1f b8 36 5a 8e bd 77 3d 6d 3d
       -0.054812297 -3.8101596e-05 -0.069508 0.057919946
000050 7d 0c 1b 3d bc 4e 68 bd 8b 5d 20 bd 9c 64 ff b9
       0.037853707 -0.056715712 -0.03915171 -0.0004871235
000060 58 ee b5 ba 6f ef fe bb 9e 27 80 bd 11 06 94 3d
       -0.0013880236 -0.0077800076 -0.062575564 0.072277196
000070 29 79 dc bc 34 4a 04 bb 4a a2 9a 3d 05 b2 13 bd
       -0.026913242 -0.002018583 0.075504854 -0.036058445
000080 51 4e ed bc c8 dd 02 bd ce bd 7a bc 08 df 4e 3c
       -0.028968008 -0.03194979 -0.015304042 0.012626417
000090 58 f3 af 3c ec f2 63 3d 23 8a 8f 3c eb 20 44 bd
       0.02147834 0.05565159 0.017521923 -0.047882956
0000a0 86 ea 58 bd 00 0a 1e bd 6c a6 04 bd ba 14 55 3c
       -0.052958034 -0.038583755 -0.032385275 0.01300543
0000b0 45 5e 1b bd 72 89 82 bc 4b 83 69 bd be 6c 83 bd
       -0.0379317 -0.01593468 -0.057009976 -0.06417225
0000c0 b6 46 9d bc f1 88 20 bd b8 16 57 3d a1 89 44 bd
       -0.019198757 -0.039193098 0.0525119 -0.047982816
0000d0 89 50 03 bd ae b6 89 bd d7 90 d4 3c d5 d8 d1 bc
       -0.032059226 -0.067242965 0.025947971 -0.025616089
0000e0 f5 7f 45 bd 63 22 1d bc b1 4b 78 bd 58 8f c8 bd
       -0.048217732 -0.009590718 -0.06061906 -0.09792966
0000f0 f5 8a 9c bd 56 18 e5 3c 58 67 05 bd 53 20 8c bd
       -0.076436915 0.027965706 -0.03256926 -0.06842103
000100 05 04 2b 3d d7 af 6e bd 32 c4 65 bd 0d 3a 51 bc
       0.04175188 -0.058273163 -0.05609531 -0.012770188
000110 f2 52 36 bc 28 a9 0a bd 14 36 78 bd 88 66 e0 bc
       -0.011128174 -0.033852726 -0.060598448 -0.02739264
000120 b2 c1 76 3d 4a 29 bd b8 b2 66 0d 3d f9 07 ff bc
       0.060243316 -9.019913e-05 0.034521766 -0.031131731
000130 63 54 08 bd 2f 87 22 bc 50 11 69 3c aa 78 78 bc
       -0.033283602 -0.009919926 0.014225319 -0.015165487
000140 53 12 85 bc 16 41 82 bc 2b b7 3a bb 69 55 78 3d
       -0.01624409 -0.015900176 -0.0028490524 0.06062833
000150 60 26 5b 3d 58 f5 02 3c 9e 1a a0 3b fc e4 8d 3b
       0.053503394 0.007993065 0.0048859855 0.0043302756
000160 bb 37 81 bd c4 af 66 bc 56 0a 0b bd 44 6a c6 bd
       -0.06309458 -0.014079992 -0.033945404 -0.09688237
000170 1d 84 86 bd a4 7f cf 3d 65 30 9c bd f4 7e cd bc
       -0.06568167 0.101317674 -0.07626418 -0.02508495
000180 ab b3 e3 bb 61 09 51 3d 7a 19 a2 bd 5c de b1 bd
       -0.0069489083 0.051034335 -0.079150155 -0.0868499
000190 89 2f d5 bc 4d df ec bd bb ba 22 bd f1 d4 42 bc
       -0.026023643 -0.11566029 -0.03972886 -0.0118915895
0001a0 73 ab 7c bd f0 42 b8 bc c7 ca d0 bd 58 a1 9f bd
       -0.061686944 -0.022492856 -0.10194927 -0.07794446
0001b0 62 fc c3 bc cc 1a 75 bc 58 4b 26 bd 99 3f 2f bd
       -0.023924056 -0.014960002 -0.040599197 -0.04278526
0001c0 b7 3a 5f 3d 2a 05 28 bd 23 84 32 bc 41 5b 88 bd
       0.054499354 -0.04102055 -0.010895762 -0.0665803
0001d0 06 00 32 bd 0f 06 b6 3c 57 78 17 bd dc d6 f6 3b
       -0.043457054 0.022219686 -0.03698 0.0075329375
0001e0 73 74 8d bc bc d8 fd bc 1f 5c 0d 3c e6 bc 95 3d
       -0.017267441 -0.030987136 0.00862792 0.0731142
0001f0 20 9d ec 3b b4 8e 3c bd 05 c0 85 bd 24 36 8c 3c
       0.007220879 -0.04603453 -0.065307654 0.01711566

network_body._body_endoder.seq_layers.2.weight f4 [128, 128]
000000 16 56 61 bd 75 fa 3a be 1b 75 05 bd fb ed 88 bc
       -0.05501374 -0.18259604 -0.032582384 -0.01671504
000010 df 8a b2 bd 82 d1 87 3d 6b 13 8e bd 4e 0e cd 3d
       -0.08717894 0.06631757 -0.069372974 0.10012494
000020 11 39 2d be a2 3a 7c bd 89 4e 49 bd a8 e1 51 3e
       -0.169163 -0.061579354 -0.049147163 0.20496237
000030 53 d9 be 3d dd 4e 26 3d 37 40 1a 3e 0e 5f 93 3c
       0.09318795 0.040602554 0.15063559 0.017989662
000040 20 05 a9 bd 51 4d 04 bd 3b f7 2e bd e6 a1 8c bd
       -0.08252931 -0.032300297 -0.042716246 -0.06866817
000050 d4 e9 ba bd b4 29 62 3e f2 1b a1 bd 9f 87 93 3d
       -0.091266304 0.22086221 -0.07866658 0.07203602
000060 66 2e 21 be 39 5e 02 3e 5b e8 f7 3c 45 0c 3b be
       -0.15740356 0.12731256 0.030262163 -0.18266399
000070 2f 64 96 bb ed cb 31 bd 9f e2 0d be f3 f8 30 3d
       -0.0045895795 -0.04340737 -0.1385598 0.043206166
000080 cc 54 3e be bd 0f 2d 3c a9 4e a0 3d f4 07 47 be
       -0.18587035 0.010562834 0.07827503 -0.19436628
000090 2f 42 07 3e 83 78 9f bb a3 55 82 bd c2 0c e1 3d
       0.13208841 -0.004866661 -0.0636399 0.109887615
0000a0 de f6 d4 bb 1c 4f 66 bd 8c a4 cd bc 76 aa d1 3d
       -0.0064991554 -0.05622779 -0.025102876 0.10237591
0000b0 1f 10 9c bd 08 7f 29 bd ba 46 10 bd 1d 3a af 3d
       -0.07620262 -0.041380912 -0.0352237 0.08556006
0000c0 60 2c 06 3e 7d 83 d5 3c c6 86 d9 bd 44 e6 6b 3b
       0.13102865 0.026063675 -0.10621409 0.0035995403
0000d0 9a f6 e8 b9 49 91 a4 3c 5f 35 03 bd fa 20 c8 bd
       -0.0004443422 0.020088809 -0.03203332 -0.09771915
0000e0 e9 eb 58 bd d4 2f c4 3d 3f 13 9c 3d 50 f4 0f 3d
       -0.052959356 0.09579435 0.076208584 0.035145104
0000f0 96 6b ed 3d e9 d7 88 bd 3d 34 b6 bd 76 fd 07 3e
       0.11592786 -0.066818066 -0.088966824 0.13280281
000100 7e ed 38 bd 3f 31 23 bb 58 1c 27 bc 79 59 c4 bc
       -0.045148365 -0.002490118 -0.010199629 -0.023968445
000110 02 10 5d 3d 11 4a 1b 3d d1 1f 0b 3e ac 6b 02 3e
       0.053970344 0.037912432 0.13586356 0.12736386
000120 84 85 bc bc 61 ee 5d bc 56 70 c1 bd 6c 26 1c be
       -0.023012884 -0.0135456035 -0.094452545 -0.15249032
000130 a8 4b 86 3b 10 2f a3 3d 99 61 02 bd 97 5f 07 3b
       0.0040983744 0.07967961 -0.031831358 0.0020656341
000140 8c 84 3e 3d c6 ec 05 3e 17 94 cd bd 14 94 64 bd
       0.046513125 0.13078603 -0.100380115 -0.05580528
000150 99 c0 7a 3d 63 0e 3d 3c 08 33 f6 bd ec 00 49 bd
       0.06121883 0.011539075 -0.12021452 -0.049073145
000160 a3 0c 65 3c c6 7c 96 bd 9d a5 9d bc 6b 99 fa 3c
       0.013980064 -0.073480174 -0.01924401 0.030590734
000170 81 9d 08 3e 12 e7 5b bd 54 e9 15 bc 33 4e c8 3d
       0.13341333 -0.053687163 -0.009149868 0.0978054
000180 ab 74 0a be 3e e4 ee bd a9 60 85 3d d1 28 ad 3d
       -0.13521068 -0.116646275 0.06512577 0.08455051
000190 8d 3b d2 3c d2 a2 f3 3c 1d 91 40 bb 1a 6e 01 be
       0.025663162 0.029740725 -0.002938337 -0.12639657
0001a0 1a 6b 3a 3c fd c3 c9 3d 73 d7 9a bd 51 2d 09 bd
       0.011378074 0.09851835 -0.07560625 -0.033490483
0001b0 30 15 19 bd 53 3e f5 3d 0c 58 28 be b4 d5 b8 3c
       -0.03737372 0.11974778 -0.16439837 0.02256284
0001c0 2f 2a 05 3e ab dd 8f 3c 3c 56 05 3e d5 c6 07 3c
       0.13004373 0.017561754 0.13021177 0.008287151
0001d0 d5 69 5d be e3 15 8b 3c d7 f1 c9 bc e0 f4 aa bd
       -0.21622403 0.01697821 -0.024651451 -0.083474874
0001e0 3d 7e 1b 3d b3 73 a7 bb ec 0a 8a bd 4a 6a 19 be
       0.037962187 -0.005110228 -0.067403644 -0.14981952
0001f0 9c c2 13 bd a8 34 7a 3c cf a4 b7 ba b6 af f0 3c
       -0.036074266 0.015271343 -0.0014010909 0.02938066
000200 59 87 70 3c d8 9d 9c bd ee 03 48 be 4f cd e3 bd
       0.014680707 -0.07647294 -0.19532749 -0.11123144
000210 42 12 91 3d d2 4a 49 bb a9 8e 8f 3c 18 ff e7 3c
       0.070835605 -0.0030714762 0.01752408 0.02831988
000220 2d 4b 4a 3d b5 b2 21 3e 5b 19 cc bd b6 ff 65 bd
       0.0493881 0.15790828 -0.09965774 -0.056152068
000230 9d 40 8e 3d 8b 9f 6e 3c d3 8a f2 bd bd 52 cd 3c
       0.06945918 0.014564405 -0.11842885 0.025063867
000240 1d bb dc 3d 02 1c c4 bd 81 e9 d2 3c 32 b2 ca 3d
       0.107778765 -0.095756546 0.025746109 0.09897269
000250 2a 13 58 3d 2d d4 15 be 4b 64 c9 bc a5 88 fa 3d
       0.05275265 -0.1463172 -0.024583956 0.12233094
000260 ca a1 c8 bc 65 0b 95 bd b9 7c 1b 3e 5c 12 11 3e
       -0.02449121 -0.07277564 0.15184297 0.1416716
000270 f5 12 b7 3d 51 d5 19 3c 7e e7 bc 3b 10 de 9c bd
       0.08939163 0.0093892375 0.0057649007 -0.076595426
000280 48 a0 bb 3d d2 c4 31 3e 94 65 78 bd 46 6a 0f bd
       0.091614306 0.17360237 -0.060643747 -0.03501346
000290 f1 e3 ed 3c 7e 8b e2 3d 1a f2 fb bd 27 7e 5f 3d
       0.029039355 0.11061762 -0.123020366 0.054563668
0002a0 1b 91 bc bd 15 59 0f 3d e4 ff cc bd cd be b9 bd
       -0.09207364 0.034997065 -0.10009745 -0.090695955
0002b0 fc 7d ca bd f1 e3 e7 3d 60 b1 a5 3d ff e7 1a 3d
       -0.09887311 0.11322773 0.08090472 0.037818905
0002c0 ac 88 f1 bd 4b f3 37 3e dd 81 16 be c9 b7 dc bd
       -0.11793646 0.17963903 -0.14697976 -0.10777242
0002d0 4f 41 2f be 40 6d 9a 3b e8 27 a8 bd f8 8d 34 3e
       -0.17114757 0.0047127306 -0.082107365 0.17632282
0002e0 4f db d7 bd 9c 3b a6 3b ee a9 9b bd 8e 22 b7 bd
       -0.10539877 0.005073024 -0.07600771 -0.08942138
0002f0 10 0a a3 3d 2b 45 8f 3d f8 d8 be bd 7c 10 2c be
       0.07960904 0.069956146 -0.09318727 -0.16803163
000300 49 0d 3d be ec d9 76 bb 87 63 26 bd d2 72 61 be
       -0.18462099 -0.0037666513 -0.04062226 -0.22016457
000310 7f f5 2b 3d 8f 0e 77 3c aa 9c 80 3d fd d4 18 3d
       0.04198217 0.015079155 0.06279881 0.037312496
000320 b7 a7 fc bd ef ac 0c be 01 87 30 be 42 ee e5 3c
       -0.123366766 -0.13737844 -0.17239 0.028067712
000330 4b 72 f5 bc 59 ef a0 bc 98 f7 80 bc f8 d2 39 3c
       -0.029961726 -0.01964538 -0.015743062 0.011341803
000340 68 17 de ba 42 fb b1 3d 16 56 e6 bd dc 94 aa bd
       -0.0016944231 0.08690502 -0.11246888 -0.08329174
000350 67 14 71 bd 6c b3 1f bc 70 d9 da bc ab a3 6a bd
       -0.058857348 -0.009747367 -0.02671501 -0.057284992
000360 94 5d 89 3d db da 0c bd 3d 43 44 bd a8 ab f8 3b
       0.06707302 -0.034388404 -0.047915686 0.0075888224
000370 fe c8 18 3e 70 cb d9 bd 8a 7b f6 bc 99 84 06 bd
       0.14920422 -0.10634506 -0.030088205 -0.0328413
000380 26 21 72 bc dd 8d 99 3d 25 87 e0 bc 55 6b a6 3d
       -0.014778411 0.074977614 -0.027408192 0.08125941
000390 19 b8 6a bd 3a a4 03 be ef 8f c1 3c 27 6c e6 bd
       -0.057304475 -0.12855616 0.023628203 -0.11251097
0003a0 1b 33 8f 3c 97 79 91 bd 26 cf 7c 3d d7 28 93 bb
       0.017480424 -0.071032695 0.06172099 -0.0044909525
0003b0 e9 d0 2f 3d 0a 31 96 bd bf fc b4 3d 91 64 7f bd
       0.04292384 -0.07333572 0.0883727 -0.062351767
0003c0 09 db 1d be 16 68 fd bd 5c b4 63 3e 0b a1 ed 3b
       -0.15415587 -0.123733684 0.2223677 0.007251864
0003d0 1a 82 5e bd f3 ae a8 3d 80 ff 2c 3e b8 34 52 3d
       -0.054323293 0.08236494 0.1689434 0.051319808
0003e0 05 b4 21 be 4a ed 14 3d 08 48 20 3b 63 1f 87 3d
       -0.15791328 0.03635911 0.0024456996 0.065977834
0003f0 f7 3c c7 3d c9 e6 3f 3d b9 62 f0 bc 10 2d 67 bc
       0.09728425 0.046850953 -0.02934395 -0.014109865

network_body._body_endoder.seq_layers.2.bias f4 [128]
000000 e7 28 b9 3c 95 32 fc bb 50 07 77 bc e6 69 d5 bb
       0.022602512 -0.0076964595 -0.015077427 -0.006512868
000010 c3 63 25 3d 50 a8 54 bd f4 ff 89 bc 4e bb c1 bc
       0.040378343 -0.051918328 -0.01684568 -0.023648884
000020 72 5f be bc 16 9d 02 bc 8f 45 b0 bc 08 b0 51 3c
       -0.023238871 -0.0079720225 -0.021517543 0.012798317
000030 e7 fc 19 bd 77 14 55 3d d1 69 b2 bc 1b b0 fa bc
       -0.037594702 0.05202147 -0.021778973 -0.030601552
000040 09 cc bb 3c 98 2c 91 bc e9 5e 15 bb 4b 16 b6 bb
       0.02292444 -0.01772146 -0.0022792167 -0.0055568567
000050 35 4c 8b 3c 3f af 2a 3c ad a1 2e 3d bf 43 a0 bc
       0.017004112 0.0104177585 0.042634655 -0.019563554
000060 d0 58 8d bc 02 50 93 3c ef 3f e2 bc 75 c1 3e bd
       -0.017254263 0.017982487 -0.027618377 -0.046571214
000070 34 c7 d7 3b f7 9c 98 3b 51 40 f0 bc fe 8d 66 3c
       0.006585026 0.0046573835 -0.029327543 0.0140719395
000080 44 44 9e bc 7b 36 81 3d 12 08 04 bc 22 1c 39 3c
       -0.019319661 0.063092194 -0.008058565 0.011298211
000090 18 0d 19 bb c6 57 e2 bc 6b ab e1 bc 2a 89 12 bd
       -0.0023353752 -0.027629744 -0.027547559 -0.03577534
0000a0 e1 3e ae 3b 01 cc cc bc 3d 2b 3d 3b 12 37 3b 3b
       0.0053175543 -0.02499962 0.0028864883 0.002856676
0000b0 45 0d a5 3c 57 e9 81 3c 9c 2d 2e bd c7 cd 82 3c
       0.020147929 0.015858335 -0.042523965 0.015967263
0000c0 cb 61 da 3c 6f fe 24 3c 3a 20 95 3c 8d 2c 06 bd
       0.02665796 0.010070427 0.018203843 -0.03275733
0000d0 e5 e0 9f 3c 17 e6 17 3c 16 19 47 3a aa 91 b4 3c
       0.019516418 0.009271166 0.00075949857 0.022042114
0000e0 95 c9 4f bc d9 13 09 3d d2 12 d9 3a 22 c5 8f bc
       -0.012682338 0.033466194 0.0016561395 -0.017550055
0000f0 3f 3d 37 ba ed 84 97 bb 46 29 cb bc f4 56 16 bd
       -0.00069900224 -0.0046240003 -0.024799954 -0.03670402
000100 4d ac 49 bc d7 77 8c 3c 46 14 15 bc 36 66 57 bc
       -0.012309146 0.017146988 -0.009099072 -0.013146928
000110 ef fc f3 bc 19 ee 6d bc b9 31 b8 3c 61 e3 91 bc
       -0.029783694 -0.014522099 0.022484647 -0.017808618
000120 e5 29 87 bc af 7e 69 bb e3 a4 ee bc e4 59 92 3c
       -0.016499469 -0.0035628488 -0.029131358 0.017865129
000130 54 9b f4 3c 4c e5 59 3c 48 cc cf bb 9e ce f6 3c
       0.029859222 0.013299298 -0.006341491 0.03012782
000140 a0 2b bc 3c 58 39 e3 3a f7 52 98 3b e9 d2 e9 3b
       0.02297002 0.0017335815 0.004648562 0.007135738
000150 41 e3 6f bb 16 ec 60 bc 29 bb be 3b 9e da fd 3c
       -0.003660396 -0.013728162 0.005820651 0.030988034
000160 e3 9d 6f bc 93 84 e0 bc 22 8a 08 3d 77 b9 ac bc
       -0.0146250455 -0.027406966 0.03333486 -0.02108453
000170 a9 1c bd bc 53 50 79 3a b8 21 13 bd 79 a1 85 3c
       -0.023084955 0.00095105654 -0.03592083 0.016312348
000180 91 05 41 3d f9 18 7f 3c da c8 59 3d cc d1 2e bc
       0.04712445 0.015569919 0.053170063 -0.010670137
000190 4c 10 d7 3c 0b e4 ee 3c 7f e8 3c 3c 33 23 40 3b
       0.026252888 0.029161474 0.011530041 0.0029317855
0001a0 cf 27 3f bc 8a f6 64 38 85 bf f4 bb 1c 08 21 3d
       -0.011667206 5.4589043e-05 -0.00746912 0.039314374
0001b0 f0 a1 ae bb c0 4d 65 bc 76 97 26 bd b1 57 b5 3c
       -0.005329363 -0.013995588 -0.04067179 0.022136541
0001c0 3a 41 f5 3b d0 34 e0 3c fe eb fc bc cd f6 8a bc
       0.0074845823 0.027368933 -0.030874249 -0.016963387
0001d0 56 b1 ae 3c 7d dc 22 3d f1 d3 0b bc 21 a5 33 3d
       0.021324795 0.039761055 -0.0085344175 0.04385865
0001e0 f1 8a 5f bc e2 00 cb bc 6f 47 0c 3c 15 93 9c bc
       -0.013643966 -0.024780694 0.008561953 -0.019113103
0001f0 d7 38 80 3c b9 ca 1a 3d a4 da 98 bc 0c 5e 1d bd
       0.015652103 0.037790988 -0.018658943 -0.03841977

action_model._discrete_distribution.branches.0.weight f4 [4, 128]
000000 40 ef 45 3c 88 e0 5f 3c d7 f0 0d bd 74 91 87 3c
       0.012080967 0.013664372 -0.03465351 0.01654885
000010 51 9b 82 bc 15 35 d6 bc da b5 36 bc 10 5d 1f 3c
       -0.015943201 -0.026148358 -0.011151755 0.009726778
000020 79 bc d1 bb 9a 18 06 3d 2d 9c 1d bc 9e 94 3d bd
       -0.0064006415 0.032738306 -0.009619755 -0.04628431
000030 64 49 5b 3c 42 04 8a 3c c4 9d 49 bc d8 00 4f bc
       0.013384197 0.016847733 -0.012305681 -0.0126344785
000040 c7 3c 27 bd 8b 19 54 bc 90 bf 96 3b 20 95 9d 3c
       -0.040829446 -0.012945543 0.0046004727 0.019236147
000050 0b 07 07 bd 9a 31 ae bd 42 0b 87 bd 2d d9 29 bd
       -0.0329657 -0.085055545 -0.06593944 -0.04146688
000060 ac b7 3d bd 4d 7c c8 3c e0 41 9a 3c f8 85 88 3c
       -0.04631774 0.024473334 0.01883024 0.016665444
000070 89 0e 60 3c 5c a1 59 bd dc d8 8f bc 45 13 e1 3c
       0.01367534 -0.0531324 -0.017559461 0.027475009
000080 be 10 57 bd 1b a4 69 bd 4a f4 52 bd 78 d0 e0 3c
       -0.0525062 -0.05704127 -0.051502503 0.027443156
000090 2e 3a e8 bb 9e 0a 85 3c 1a 5d 01 bd 23 b4 e1 bb
       -0.0070870137 0.016240414 -0.03158293 -0.006887929
0000a0 92 3e a7 3c 00 66 60 bc 32 e7 17 bd 81 88 60 bd
       0.020415578 -0.013696194 -0.03708572 -0.05481768
0000b0 df 05 59 bd 78 4d ad 3c 8e fe a7 3c cb 06 bf ba
       -0.052984115 0.021155104 0.020507123 -0.0014574168
0000c0 46 bb 82 bd a4 2c f4 bb b7 dc 3d 3a 78 a2 9e bc
       -0.06383376 -0.0074516106 0.0007242667 -0.01936458
0000d0 97 4e a0 bc f7 52 06 bd 1e 2b f5 bb eb b8 a9 3b
       -0.019568725 -0.032793965 -0.0074819466 0.0051795146
0000e0 30 52 7d bc 7d de 19 bd e0 22 64 bc 50 62 b0 3b
       -0.01546149 -0.037565697 -0.0139243305 0.0053828135
0000f0 e1 29 33 3c eb f8 c3 3c 94 71 d4 3c d3 5d 44 bc
       0.010935278 0.023922404 0.025933065 -0.01198526
000100 81 5a d9 3c 76 e5 96 bc 1f ab dc bc 98 c0 a5 ba
       0.026532413 -0.018419962 -0.026937066 -0.0012645898
000110 62 81 9e bc d5 f7 5b bb 0b 1e 9d bd 86 ed de bc
       -0.019348804 -0.0033564467 -0.07671746 -0.02721287
000120 a0 6b 7a bc a5 09 ad 3b 39 26 49 3c 4a bb 62 bb
       -0.015284449 0.0052806907 0.012277179 -0.0034596496
000130 20 e4 b6 bd 29 5c 7a 3c 76 13 3f bd 71 fa b4 bb
       -0.0893023 0.015280762 -0.04664942 -0.005523019
000140 3f ea 3e 3d d5 b0 d8 bb 2b 94 19 3c 99 28 1f 3c
       0.046610113 -0.006612877 0.009373705 0.009714269
000150 aa 23 fc 3b a1 30 c0 3c 24 f2 cd bc 89 bc 50 bd
       0.007694681 0.023460688 -0.025139876 -0.05096105
000160 bd e3 50 bc 43 29 eb 3c 04 1b 1d bd f0 f1 06 3c
       -0.01274961 0.028706199 -0.038355842 0.008236393
000170 d8 42 64 3c bb 42 c4 3c ea 8c 09 3c 42 24 64 bb
       0.013931952 0.0239576 0.008395413 -0.003481165
000180 46 76 83 bd a3 73 81 3b 63 a2 c1 bd 30 c8 ce bb
       -0.06419043 0.0039505525 -0.09454801 -0.0063104853
000190 10 7d 28 bd 4f 91 7c bc f9 57 94 bd de 92 b0 3c
       -0.041134894 -0.015415504 -0.07243342 0.021554407
0001a0 2d db 82 bb fe 95 df 3c 94 db b3 3c f0 06 b0 bd
       -0.003993413 0.027293202 0.021955289 -0.08595073
0001b0 aa 02 12 bc e6 5d 91 bc 4b 23 e2 3c 86 9e a7 bd
       -0.008911768 -0.01774497 0.02760472 -0.08184533
0001c0 03 d0 c7 bd c3 7a a1 bd 45 29 66 bd 32 bd 47 3b
       -0.09756472 -0.07884743 -0.0561917 0.003047776
0001d0 4e 2c 88 3a 75 66 20 bd 1f d5 a3 3b 74 8b 08 3d
       0.001038918 -0.03916021 0.0049997712 0.033336118
0001e0 45 9f a0 3c d2 67 6b bb fd e6 e9 bc 13 9c 17 bd
       0.019607196 -0.0035920036 -0.028552527 -0.03701408
0001f0 7d 49 40 bb 9a ca 07 bc 19 e4 55 bc de 2e 70 bc
       -0.0029340677 -0.00828805 -0.013054871 -0.0146596115
000200 a2 33 f1 bd d0 fb bf 3b 76 a2 25 3b 56 ab f6 3b
       -0.11777426 0.005858876 0.0025273836 0.007527749
000210 c0 ed 3a 3d b9 37 60 bc 33 29 d3 bb 80 58 ed bb
       0.045636892 -0.01368516 -0.0064441203 -0.007243216
000220 11 c1 ce ba 57 19 0b bd fe ef ba 3c 92 11 70 bd
       -0.0015774091 -0.033959713 0.022819515 -0.058610506
000230 dd dc 81 bb db 98 92 bd 60 ed a4 3b a6 85 74 3b
       -0.0039630965 -0.07158061 0.00503318 0.0037311106
000240 51 d0 a8 bc 5d 75 22 bd ba eb 3e bd a0 ee 83 bd
       -0.020607146 -0.039662708 -0.046611525 -0.064419985
000250 7d 30 f9 bd ff ef e7 bc 6a 7f e6 bd 4e f9 a9 bc
       -0.121674515 -0.028312681 -0.11254771 -0.02074876
000260 90 7f ab bc 00 95 0b 3d c9 65 0f bd ec 6f 6a bd
       -0.02093485 0.034077644 -0.03500918 -0.057235643
000270 a1 87 b0 bd c3 61 9e bd 73 62 25 bd ef 11 4f bd
       -0.08619619 -0.0773349 -0.04037709 -0.050554212
000280 1e d4 3d bd 1a 72 06 3c 2b 92 d7 3b e4 6e 14 bd
       -0.04634487 0.008205915 0.006578704 -0.036238566
000290 6e a6 77 bd 2a 34 b5 bc 36 0f 28 bd c9 6f 7a bc
       -0.060461454 -0.0221196 -0.04103013 -0.015285441
0002a0 62 93 bc bc 22 9c aa bc b8 47 ad bd 2f e6 3e bd
       -0.023019496 -0.020826403 -0.08460945 -0.04660624
0002b0 f1 9e 94 bd 0c f2 af bd 82 31 a1 bc ae 10 2f bd
       -0.07256878 -0.08591089 -0.019676927 -0.042740516
0002c0 4e fb c3 bd 8a fc a8 bd bc 71 e9 bc df 38 55 bb
       -0.09569417 -0.08251293 -0.028496616 -0.0032535119
0002d0 08 da 86 bd 4a fd e7 bc e0 ba 18 3b 6f 64 fa bd
       -0.06584555 -0.02831902 0.0023304746 -0.122261874
0002e0 8c 64 8e bc 79 d2 d6 bd 7b 7d 37 bd d5 2b 1d b8
       -0.017381929 -0.10489363 -0.044797402 -3.747254e-05
0002f0 24 7a aa bd 4c 36 91 bd a3 d1 25 bd d1 93 6f bb
       -0.08324078 -0.070904344 -0.04048313 -0.0036556611
000300 09 74 4c bd 04 aa 38 bd ae 61 35 39 fd f1 6a bd
       -0.049915347 -0.045084015 0.00017297894 -0.057359684
000310 bc 4e ce 3b e0 34 8e bd cf 14 47 bd 7d eb 27 bd
       0.006296007 -0.06943679 -0.04860383 -0.040996064
000320 b2 99 02 bd ef 0f 3c bd e1 43 28 bb f9 fd 6b bd
       -0.031884857 -0.045913633 -0.0025675225 -0.057615254
000330 18 ab bc bc 8b 25 dd bd 4e 1a 77 3c 34 05 cf bd
       -0.023030803 -0.107981764 0.015081955 -0.10108414
000340 ed b0 b1 3c 6b 21 df ba de 79 f1 bc 57 b2 a5 bd
       0.02169081 -0.0017023509 -0.029477056 -0.08090656
000350 6e e2 4d bd ba 7d d5 bc 57 33 ec bd 17 b3 88 bd
       -0.05026477 -0.026060928 -0.1153323 -0.06674784
000360 fe af 9c bd 82 ef 82 bc cd 88 d6 bd f1 2a 0e bd
       -0.07650755 -0.015983347 -0.104753114 -0.03470892
000370 af 57 a0 bc 56 82 d3 3c 52 c5 32 bd 99 a3 09 bd
       -0.01957306 0.025818985 -0.04364521 -0.033603285
000380 2f 8f 9a bd f0 f8 da 3c ab ae c2 bc 5b 7b 3f bd
       -0.07546841 0.02673003 -0.023764929 -0.0467485
000390 4d 9f ab bd 83 84 0e be d5 ad 66 bc 68 0d 8f ba
       -0.083799936 -0.13917737 -0.014079531 -0.001091403
0003a0 3a 17 22 bd bd c7 3e bd c3 58 de 3c 76 f0 2b bd
       -0.03957293 -0.046577204 0.027141934 -0.04197737
0003b0 88 ec 7a bd a8 ea f5 bb d7 ed df bc 60 fb 48 bd
       -0.06126073 -0.00750478 -0.02733509 -0.049067855
0003c0 a0 a5 b6 bd 41 6e c5 bd 0f 1c 6f bd 1a c1 49 bd
       -0.08918309 -0.0964017 -0.058376368 -0.04925642
0003d0 d4 d5 15 bd ff 0d 13 bd dd cb c8 bd d9 60 50 bd
       -0.036580876 -0.03590202 -0.09804509 -0.05087361
0003e0 00 48 8f bc 24 3c 04 bc e8 f1 81 bd 26 e1 57 bd
       -0.017490387 -0.008070979 -0.06344968 -0.052704953
0003f0 cd 63 90 bd 3a bf 1f be a6 00 84 bd aa 94 8b bc
       -0.070502855 -0.15600291 -0.06445436 -0.017038662

action_model._discrete_distribution.branches.0.bias f4 [4]
000000 d0 50 5d 3d 7c b5 07 3d 8e 29 33 3b 41 13 b2 bd
       0.054032147 0.03313206 0.0027338 -0.08695079

exp_avg f4 [128, 4]
000000 76 6e 25 b9 7c b6 7c b8 28 38 ac b9 d1 61 27 ba
       -0.00015776776 -6.0251434e-05 -0.00032848236 -0.000638512
000010 98 cf 8f 32 d1 65 82 32 5d ec 73 31 d3 e8 15 32
       1.6741794e-08 1.5180293e-08 3.549551e-09 8.72588e-09
000020 70 c5 96 3b 80 0d 6a 3b 86 2c 04 3c 28 4e 1d 3c
       0.004601173 0.0035713613 0.008067256 0.009601153
000030 0d 36 4f bb a5 d5 ae ba 6c 1c c4 bb 7c 98 06 bc
       -0.003161791 -0.0013338818 -0.0059848335 -0.008215066
000040 27 0e 6e bc b6 18 29 bc fa 37 c0 bc eb 2c 2b bd
       -0.014529741 -0.010320833 -0.023464192 -0.041790884
000050 ab fd 8a b9 c5 cd a2 b9 c8 17 a0 b9 4c 27 13 ba
       -0.00026510408 -0.00031052358 -0.00030535297 -0.00056134607
000060 0e 5c b7 36 c6 44 2a b8 63 65 ab 37 c8 11 a6 b6
       5.4645416e-06 -4.059521e-05 2.0432e-05 -4.9492555e-06
000070 b4 22 20 3b a8 ea dc 39 e2 ca 6a 3b 25 3c 8b 3b
       0.0024434747 0.00042136502 0.0035826494 0.004249113
000080 e5 96 12 bc 10 3a 9d bb 7e 25 5d bc 28 4a d2 bc
       -0.008947109 -0.0047981814 -0.013497708 -0.025670126
000090 92 62 eb bb 3d 76 8d bb 14 c2 67 bc 21 49 9f bc
       -0.0071833814 -0.0043170736 -0.014145393 -0.01944405
0000a0 08 4a 68 b8 d0 ae ba b7 3c 63 ee b8 30 da 5e b9
       -5.5382057e-05 -2.2254331e-05 -0.00011367208 -0.00021252851
0000b0 26 ba 19 b5 ad d1 11 b6 19 50 15 b6 2e c4 95 b6
       -5.7267823e-07 -2.172873e-06 -2.2249353e-06 -4.4633844e-06
0000c0 70 3a 81 bc 98 22 16 bc 2a c8 ea bc a9 82 28 bd
       -0.015774935 -0.009163521 -0.028659899 -0.041140232
0000d0 9b ff 9b 39 a4 c2 47 39 4c b4 31 3a ce af 4f 3a
       0.00029754345 0.00019050628 0.00067788805 0.000792262
0000e0 c6 4a 8b 38 7d ad af 38 0e 90 96 38 20 62 0f 39
       6.641964e-05 8.376965e-05 7.17939e-05 0.00013674097
0000f0 fc 38 3b bb c7 e1 13 bb 44 ee 98 bb ca 2b e2 bb
       -0.00285679 -0.0022564994 -0.0046670754 -0.0069021927
000100 57 f7 e5 b7 f9 67 eb b6 78 02 75 b8 ed 13 f5 b8
       -2.7414104e-05 -7.0156498e-06 -5.841485e-05 -0.00011686222
000110 9e 63 66 b2 a9 a6 07 b3 8c 98 af b2 38 30 1e b3
       -1.3410412e-08 -3.1583713e-08 -2.0442052e-08 -3.6831096e-08
000120 f6 5b 60 39 c8 52 e9 3a ea 51 42 3a d1 c0 94 3a
       0.00021396563 0.001780116 0.0007412719 0.0011348968
000130 8c e1 87 b5 3b d0 fc b4 d8 2d 2c b6 4e fe a8 b6
       -1.0123927e-06 -4.7090165e-07 -2.5656682e-06 -5.036395e-06
000140 13 67 10 b7 ed ec 4b b6 6c 12 91 b7 cf e7 0f b8
       -8.607068e-06 -3.0387266e-06 -1.7293925e-05 -3.4309745e-05
000150 3c c8 44 39 8f 96 20 39 ff 72 c4 39 e8 e0 91 39
       0.0001876661 0.00015314877 0.00037469712 0.00027824123
000160 05 f7 71 39 73 ac b1 3a 94 a4 1c 3b ca c8 b0 3a
       0.00023075573 0.0013555422 0.0023901807 0.0013487574
000170 58 f3 d2 3a 4c a4 88 3a f2 2f 82 3b 52 97 d8 3b
       0.0016094251 0.0010424941 0.0039730007 0.0066098357
000180 c3 6b 6a b9 51 c9 98 b8 38 6b ef b9 d9 55 6f ba
       -0.00022356123 -7.285423e-05 -0.00045665517 -0.0009129919
000190 08 59 6e 3a b9 41 c5 39 4c 41 c6 3a 06 5b 89 ba
       0.0009092246 0.00037623735 0.0015125661 -0.0010479398
0001a0 04 3c d5 b9 a0 9f b2 ba c0 94 c6 b7 b5 48 08 bb
       -0.0004067124 -0.0013627894 -2.3672706e-05 -0.002079529
0001b0 d2 f5 6f bb 04 04 5f ba e1 bc d2 bb f9 0a 47 bc
       -0.0036615026 -0.0008507373 -0.0064312075 -0.012148612
0001c0 e4 9c 0b 38 35 b5 c0 38 24 cf 12 b8 fc a8 a0 b9
       3.32863e-05 9.189026e-05 -3.5002027e-05 -0.0003064348
0001d0 d9 33 4d b8 56 7a 7b b7 08 6d d8 b8 19 05 58 b9
       -4.8924096e-05 -1.4989249e-05 -0.00010319991 -0.00020601264
0001e0 61 34 3f b1 77 44 0a b1 ea f2 bd ae 09 44 1a b0
       -2.7823932e-09 -2.012056e-09 -8.637875e-11 -5.612156e-10
0001f0 18 54 8d 3b 35 9e a6 3b 14 f4 ec 3b 9e 23 06 3c
       0.0043130033 0.0050847777 0.007231245 0.008187203
000200 96 b3 0a 35 b6 25 6e 35 e4 78 01 35 99 2e 77 35
       5.167034e-07 8.8716786e-07 4.8232164e-07 9.208248e-07
000210 19 08 67 bb 40 f9 2e ba 41 e4 af bb 7f e0 27 bc
       -0.003525263 -0.00066747144 -0.005367786 -0.010246395
000220 b7 e4 5e 3b f3 43 79 3b 54 ba be 3b 2a 80 3f 3c
       0.0034010836 0.0038034886 0.005820552 0.011688272
000230 3e e3 9d 3b a6 ab 8f 3b b4 f4 05 3c 25 25 58 3c
       0.004818349 0.0043844758 0.008176018 0.01319245
000240 58 3e d8 bb 7b cc ac bb ae ce 51 bc 72 44 94 bc
       -0.006599229 -0.0052733994 -0.012805624 -0.018099044
000250 a3 45 65 bb bf 01 51 bb 17 67 94 bb ea 9b 17 bc
       -0.0034984134 -0.003189191 -0.004528891 -0.009253481
000260 d8 69 95 b3 72 23 4a b3 db ee f0 af 85 e8 67 b2
       -6.957606e-08 -4.7064027e-08 -4.3825463e-10 -1.34988385e-08
000270 fc 77 94 3b ed 9c 05 3b 68 43 0d 3c 4c d9 5b 3c
       0.004530905 0.0020387725 0.008622028 0.013418507
000280 1e 45 16 bb f8 fb 69 b9 ca ab 8a bb d5 66 cc bb
       -0.002292938 -0.00022314477 -0.0042319046 -0.0062378445
000290 9e 5f 41 3b fb 8f 29 3b 98 97 a3 3b ea f0 18 3c
       0.0029506455 0.0025873173 0.0049924366 0.009334782
0002a0 9a 3a f9 3b 80 b3 47 3b ce 8b 7e 3c ef 60 ad 3c
       0.007605863 0.003047198 0.015536262 0.021164386
0002b0 4e 5f b8 b9 8d 93 3e bb c5 e3 b6 ba c3 5f d3 ba
       -0.00035166222 -0.0029079646 -0.0013953379 -0.0016126562
0002c0 25 65 94 bb e8 52 13 bb cf 28 08 bc 6a d4 e4 bb
       -0.004528659 -0.0022479836 -0.008310511 -0.0069833295
0002d0 7e 8a 44 b8 fa 2e cc b7 9c 1f e4 b8 1e e7 63 b9
       -4.6859022e-05 -2.434057e-05 -0.00010877775 -0.00021734505
0002e0 a8 71 04 bb 20 04 f9 ba b3 d1 b0 bb 99 25 89 bb
       -0.0020209346 -0.0018998422 -0.005396092 -0.00418539
0002f0 7b 46 36 ba ec 6b 90 39 f2 70 d9 38 ec d6 8e 39
       -0.00069532514 0.00027546228 0.00010368404 0.0002724448
000300 1c 16 78 ba ce eb 16 ba 2a 33 ab ba 30 a0 0e bb
       -0.0009463744 -0.00057571835 -0.0013061513 -0.002176296
000310 dd ef 86 b9 92 ca 8c b9 03 8c 5d ba e6 6f 23 ba
       -0.00025737184 -0.00026853808 -0.00084513443 -0.0006234631
000320 84 ff 6c b9 d6 77 96 b8 5c 42 ed b9 d7 0b 67 ba
       -0.00022601901 -7.1748786e-05 -0.00045253604 -0.0008813715
000330 e7 9d 7d 3a 2c 43 46 ba ee ea ed 3a 83 22 8f 3b
       0.00096747134 -0.000756311 0.001815168 0.004368128
000340 22 d1 af bb c8 dc 89 bb 5f 63 1a bc 92 5e 82 bc
       -0.0053655067 -0.0042072274 -0.009423106 -0.015914235
000350 f2 b8 9c 3b 03 de 85 3b 5c 5c fe 3b 61 cf 38 3c
       0.0047827894 0.0040853037 0.007762475 0.011279912
000360 bb fa 2d 34 47 6d 11 b7 56 30 c5 36 3a bc 50 37
       1.6203096e-07 -8.668117e-06 5.8766846e-06 1.2441591e-05
000370 f8 d4 66 ba 6a f2 3b b8 fc 7f 84 ba 60 e5 02 bb
       -0.00088055385 -4.481004e-05 -0.0010108943 -0.0019973144
000380 12 8d 16 bb cc 8f 0c ba b8 6f 7f bb 72 78 51 bb
       -0.0022972268 -0.00053620036 -0.0038976502 -0.003196266
000390 9a 54 bc ba 46 ec 13 bb 90 24 0f bb ea d0 57 bb
       -0.0014368475 -0.002257125 -0.0021841861 -0.003293092
0003a0 19 25 49 bb bc 85 b3 bb 75 30 82 bb a0 82 eb bb
       -0.0030692278 -0.005478589 -0.0039730617 -0.0071872026
0003b0 da 3f 32 39 fe 72 24 39 b7 51 cd 39 0a 02 b1 39
       0.0001699919 0.00015683097 0.0003916153 0.0003376159
0003c0 f4 89 04 bb 22 28 19 bb 20 30 58 bb c3 35 90 bb
       -0.0020223828 -0.0023369868 -0.003298767 -0.00440094
0003d0 0a 84 d0 b2 9a 20 f5 b1 d6 53 3f b3 93 3c bf b3
       -2.4274431e-08 -7.134145e-09 -4.45469e-08 -8.905149e-08
0003e0 0a 3f 29 b6 d9 7b 5e b6 a2 47 2c b6 f3 36 a6 b6
       -2.5219656e-06 -3.3152667e-06 -2.5671693e-06 -4.9535824e-06
0003f0 d9 48 cf b9 1c 3b 93 b9 86 92 92 b9 df 61 16 ba
       -0.00039536392 -0.00028082065 -0.00027956459 -0.000573663

exp_avg_sq f4 [128, 4]
000000 c0 b6 ae 34 f8 d1 ee 33 09 ff be 36 19 dc ca 35
       3.2542994e-07 1.1120932e-07 5.6921313e-06 1.511423e-06
000010 09 6e 4a 36 89 32 02 37 ab 85 c8 35 4e f4 ac 34
       3.0164395e-06 7.76037e-06 1.4940064e-06 3.2215252e-07
000020 d0 22 18 3a d9 bb 0e 3a 37 86 a4 3a 60 2d d4 3a
       0.00058035273 0.00054448616 0.0012552206 0.0016187839
000030 b1 39 9f 39 69 09 b1 39 65 f0 29 3a 67 d7 3b 3a
       0.00030369827 0.00033767082 0.000648266 0.00071655813
000040 91 8f 44 3b bd 45 f9 3a f5 fe 94 3b 7d a6 d8 3b
       0.0029992799 0.0019017976 0.004546995 0.006611644
000050 7a 96 17 38 88 2d 20 39 60 45 ad 39 53 bd da 39
       3.6141348e-05 0.00015275751 0.0003304882 0.00041721258
000060 33 39 87 36 0d 6f a6 35 53 33 36 37 51 a2 e6 36
       4.0299724e-06 1.2400284e-06 1.0859995e-05 6.8734303e-06
000070 d7 f9 0f 3a 00 2d ed 39 06 74 5f 3a a1 33 8f 3a
       0.0005492246 0.0004523769 0.0008524064 0.0010925421
000080 59 44 83 3a 46 c9 38 3a 40 ec f6 3a de 2a 5b 3b
       0.0010014876 0.0007049035 0.0018838719 0.00334423
000090 9d 86 42 3a c8 7a 17 3a e4 6a 04 3b 42 a7 0b 3b
       0.00074205716 0.00057784887 0.0020205313 0.002130941
0000a0 59 8a 7b 34 86 0e fa 35 a7 c5 80 37 27 d2 ae 35
       2.3426527e-07 1.8630678e-06 1.5350828e-05 1.3025173e-06
0000b0 e6 92 3e 39 c4 12 e2 38 a3 0d df 36 92 fd 5b 38
       0.00018174536 0.00010780015 6.6475054e-06 5.2449825e-05
0000c0 99 c3 22 3b c0 04 19 3b fd c2 08 3c 91 f2 30 3c
       0.0024835824 0.0023348778 0.00834727 0.01080002
0000d0 f1 1b 9c 38 14 3a b1 37 53 ff 61 39 c0 cb 84 38
       7.443864e-05 2.1127089e-05 0.00021552788 6.332202e-05
0000e0 76 a9 11 38 33 44 07 38 c6 2e 8d 36 47 96 90 37
       3.4728517e-05 3.2250024e-05 4.2075726e-06 1.7236116e-05
0000f0 53 7e 94 39 d4 bc 99 39 63 3f 52 3a 4b 20 40 3a
       0.0002832288 0.00029323122 0.00080203096 0.0007329031
000100 78 bf b7 34 bd c4 a0 34 41 5b c4 32 63 65 ab 34
       3.4225718e-07 2.9945468e-07 2.28589e-08 3.1925e-07
000110 59 e9 60 35 e4 ff 12 37 cf d9 2c 37 14 2d e8 33
       8.378607e-07 8.761857e-06 1.0302711e-05 1.08115415e-07
000120 ea 91 55 39 9f 53 84 39 1b 00 a4 39 3b 72 01 3a
       0.0002036762 0.00025239305 0.00031280596 0.0004937981
000130 02 d2 1c 31 4d f4 39 30 3c be 79 33 9e 58 b2 31
       2.2820363e-09 6.764978e-10 5.8147847e-08 5.1905564e-09
000140 32 ab 57 31 da ab 33 31 52 3a f3 33 c9 23 6b 32
       3.138393e-09 2.6145615e-09 1.1326178e-07 1.3686937e-08
000150 ed d2 58 39 80 e0 9c 39 a1 c2 eb 39 c0 bf 95 38
       0.00020677941 0.00029921904 0.00044967703 7.14059e-05
000160 d3 52 5b 3a 23 65 38 3a e0 c9 57 3b e6 29 21 3b
       0.0008366529 0.00070341135 0.0032926723 0.0024591624
000170 e5 6e 37 39 eb 93 57 39 6c 56 2e 39 b3 d0 01 3a
       0.00017493551 0.00020559102 0.00016626128 0.0004952058
000180 8a a4 f9 32 28 fc df 33 e2 55 91 33 e7 b3 07 35
       2.9062239e-08 1.0430114e-07 6.767711e-08 5.055321e-07
000190 46 20 8f 39 a4 4a c2 39 d1 8f 30 3a ab 64 57 3a
       0.0002729913 0.00037058175 0.00067352975 0.00082166
0001a0 98 03 78 39 6d fe 9b 39 bf 7c 1f 3a 76 e0 13 3a
       0.00023652462 0.00029753466 0.0006083957 0.0005641052
0001b0 11 06 56 38 e0 5e 86 37 a3 80 0f 38 75 78 c6 38
       5.1027226e-05 1.6018224e-05 3.421366e-05 9.4638126e-05
0001c0 bb 3a b2 35 80 06 02 36 69 47 c6 36 09 b8 ff 36
       1.3279126e-06 1.9375293e-06 5.909173e-06 7.6210167e-06
0001d0 94 fa 9a 33 88 cb 80 34 1b cb 70 35 d4 1f 16 35
       7.216764e-08 2.3989946e-07 8.9702525e-07 5.592567e-07
0001e0 b5 3f 20 36 58 71 c1 36 5f 69 70 34 2c 90 84 34
       2.387894e-06 5.765043e-06 2.2390076e-07 2.4691815e-07
0001f0 3c d7 cb 3a 54 8d bf 3a 6f 68 7a 3b d7 c5 87 3b
       0.0015551816 0.0014614263 0.003820922 0.0041434574
000200 77 ed 8a 36 7a aa 77 37 ef 17 9f 36 4e 52 ae 34
       4.140365e-06 1.4762039e-05 4.7413555e-06 3.246991e-07
000210 58 4f 43 3a 93 cb 33 3a 05 4c e7 3a 04 e5 1b 3b
       0.0007450483 0.0006858643 0.0017646557 0.0023787627
000220 37 75 22 39 73 95 41 39 87 55 06 3a 59 c1 0d 3a
       0.0001549319 0.00018461588 0.0005124439 0.0005407534
000230 19 b4 99 39 0c 87 97 39 29 4a 60 3a 27 95 7f 3a
       0.00029316617 0.00028901582 0.00085559726 0.00097497035
000240 36 7b 00 3a f3 c7 0b 3a 8f f8 f6 3a ff c9 0b 3b
       0.00049011724 0.0005332224 0.0018842387 0.0021330116
000250 9d 3f 02 3a df 48 d2 39 bb 7f 84 39 b3 22 6f 3a
       0.00049685856 0.00040108614 0.0002527217 0.0009122297
000260 63 50 e9 38 b9 2a 22 38 5f 95 5e 37 1a ca 03 37
       0.00011125279 3.86636e-05 1.3267009e-05 7.855264e-06
000270 a7 bf ec 39 6b e5 af 39 3e 91 56 3a 53 2f 64 3a
       0.0004515622 0.0003354953 0.0008185095 0.00087045616
000280 c9 83 a1 39 96 b9 95 39 05 39 48 3a 41 7f 77 3a
       0.000308065 0.00028557767 0.0007637891 0.00094412646
000290 dc a3 83 39 3d 9d 80 39 5c a1 68 3a 92 7f 82 3a
       0.00025108352 0.00024531214 0.0008874142 0.0009956232
0002a0 63 5b a1 3a 99 ef 8d 3a 96 d2 57 3b 06 1b 6d 3b
       0.001231056 0.0010828852 0.0032931915 0.0036179437
0002b0 a6 e1 ad 39 b9 9d c5 39 7b 09 7b 3a 2a aa 5f 3a
       0.00033165253 0.0003769228 0.0009576303 0.00085321313
0002c0 4a a9 95 3a 32 62 a7 3a 43 f6 59 3b 95 4b 68 3b
       0.001141825 0.0012770353 0.0033258356 0.003544544
0002d0 bc 5a c3 31 9b ad 14 32 a0 4d 94 32 8f e4 bf 33
       5.6855622e-09 8.654207e-09 1.7264767e-08 8.935705e-08
0002e0 d8 2d b3 38 27 1f 0b 39 1a f8 0b 3a d5 22 96 39
       8.543924e-05 0.00013267678 0.0005339399 0.0002863618
0002f0 1b 69 08 39 48 36 1e 39 d9 12 ca 38 86 07 a4 39
       0.00013009126 0.00015088276 9.635621e-05 0.00031286123
000300 a8 9c 90 38 91 fb 17 38 61 be ad 39 2c df 81 39
       6.8956346e-05 3.6235495e-05 0.00033138975 0.00024771073
000310 11 81 54 37 69 15 1f 38 ce fe 40 39 55 90 0f 38
       1.2666235e-05 3.7928494e-05 0.00018405469 3.4228276e-05
000320 09 6b ad 33 ae a5 10 33 b6 32 21 35 cd fc 18 35
       8.07541e-08 3.3678297e-08 6.005097e-07 5.6992286e-07
000330 37 65 a9 38 f7 b6 21 39 af 80 27 3a 0a ac 6b 3a
       8.077401e-05 0.00015422316 0.000638972 0.00089901744
000340 22 21 63 39 db 5e 8d 39 6f c9 41 3a 3f bc 35 3a
       0.0002166075 0.0002696429 0.00073923817 0.0006932653
000350 9b 75 67 39 38 5e 9b 39 24 21 29 3a 4d e5 0d 3a
       0.00022073688 0.00029634102 0.0006451777 0.00054128916
000360 17 7b 3f 33 49 eb 0e 35 7f 6d d2 33 60 e4 c2 35
       4.4582602e-08 5.324151e-07 9.798804e-08 1.4520592e-06
000370 db e5 86 35 3b 9f 7b 34 96 18 ec 36 0b 93 5a 37
       1.0050675e-06 2.3434124e-07 7.0362103e-06 1.3028049e-05
000380 b4 ba 13 3a 8f 7a f8 39 f0 cc b1 3a cb 88 c5 3a
       0.0005635426 0.0004739356 0.0013565104 0.0015070675
000390 fe 8b 64 39 35 ab 87 39 7c f8 f6 39 cc da 92 39
       0.00021795926 0.00025876766 0.00047105912 0.00028010306
0003a0 39 78 cc 39 e0 3f 1f 3a ca ab 2c 3a 17 76 58 3a
       0.00038999485 0.0006074887 0.0006586878 0.0008257343
0003b0 2c 9c 12 39 c5 c0 2b 39 e8 c7 68 39 fd 4f 15 38
       0.00013981824 0.00016379643 0.00022199715 3.5598863e-05
0003c0 af 03 9d 38 13 32 d2 38 ee 09 63 39 82 be 62 39
       7.4870295e-05 0.000100229074 0.00021652106 0.00021624009
0003d0 29 fc d7 2e 54 a4 75 2d 77 88 00 2e 87 e8 77 2d
       9.821861e-11 1.3963126e-11 2.9225036e-11 1.4091956e-11
0003e0 a6 e0 b4 32 90 14 d8 34 4c c7 f3 32 e4 01 56 35
       2.1056916e-08 4.0248096e-07 2.8379553e-08 7.9723964e-07
0003f0 c8 cc 29 38 b7 01 13 38 6b c7 8a 37 b6 ac 1b 38
       4.0483457e-05 3.504913e-05 1.6543743e-05 3.711573e-05

exp_avg f4 [128]
000000 60 86 27 b8 c3 9b 65 30 38 84 05 3a 6a f7 06 ba
       -3.994105e-05 8.3531065e-10 0.00050932495 -0.0005148562
000010 24 ee 14 bb ca 76 1d b8 f4 61 82 34 a2 2f 8e 39
       -0.002272495 -3.7542348e-05 2.4285657e-07 0.0002711984
000020 6b a8 ba ba d0 ab 8f ba c9 f5 5e b7 0d 18 9d b4
       -0.0014240866 -0.0010961238 -1.32894575e-05 -2.9261028e-07
000030 89 1a 14 bb 78 89 42 38 a5 26 d3 36 7b b1 b4 b9
       -0.0022598824 4.6381232e-05 6.292789e-06 -0.0003446451
000040 d3 aa f5 b6 e7 c5 fd b0 c0 84 4e 38 b8 da a9 b4
       -7.3214555e-06 -1.846442e-09 4.923786e-05 -3.1637842e-07
000050 37 30 10 b6 94 94 87 37 e8 8c 91 38 1a d3 c3 39
       -2.1485737e-06 1.6162441e-05 6.9403846e-05 0.0003735058
000060 29 8f 6f b8 c7 79 5d b8 98 19 b7 b8 d4 2a 3d ba
       -5.711537e-05 -5.280392e-05 -8.730887e-05 -0.000721616
000070 cb 32 d7 b7 72 13 59 b7 c7 60 ee ae 71 1f d3 39
       -2.565365e-05 -1.2938735e-05 -1.0840178e-10 0.00040268482
000080 15 a0 0b 33 f1 d9 28 ba 60 9a 24 3a 2d e0 2f 3a
       3.2509053e-08 -0.0006441167 0.0006279107 0.0006709125
000090 92 dc 69 ba 08 f8 0a ba fa 74 2d b1 53 9e 57 3a
       -0.0008921112 -0.0005301242 -2.5241307e-09 0.0008225191
0000a0 53 01 c4 b9 70 3c d3 39 c8 31 a7 3a 24 cc 1c b8
       -0.0003738502 0.00040290086 0.0012755925 -3.738342e-05
0000b0 7f 18 e5 b9 c1 b4 63 b7 8c 1a 83 b9 6e b3 0b 38
       -0.00043696535 -1.3572339e-05 -0.00025006046 3.330729e-05
0000c0 5c 05 ac b8 0f 17 1a b8 16 de 65 b8 c8 6d a5 39
       -8.2025974e-05 -3.6737936e-05 -5.480469e-05 0.00031553046
0000d0 b8 c8 59 ba 78 60 1e 3a 7e 81 89 35 85 ca 01 b9
       -0.00083078025 0.00060415966 1.0244983e-06 -0.00012377843
0000e0 75 a3 7b b9 b3 68 2a b9 9f 9e c0 b9 fc fe a1 37
       -0.00023998118 -0.00016251467 -0.00036739276 1.9311432e-05
0000f0 5e 79 80 b9 3b 43 bf b1 27 c4 85 b4 88 31 cc b7
       -0.00024504488 -5.566475e-09 -2.49159e-07 -2.434176e-05
000100 17 7c d7 36 6a 74 d8 ba d0 f1 4c b8 0a 04 88 b7
       6.4219453e-06 -0.0016514186 -4.8862596e-05 -1.6214344e-05
000110 b3 5b 4b 37 72 64 03 b8 d6 10 8d b9 d8 3c a5 39
       1.2121093e-05 -3.132638e-05 -0.0002690616 0.00031516585
000120 2c 95 bb 32 96 03 0a 2f 2b 01 0b b3 c0 97 23 b9
       2.18375e-08 1.2552301e-10 -3.236452e-08 -0.00015601423
000130 49 14 9f ba 6b 1c 1e b6 d9 b6 04 3a ab a2 11 3a
       -0.0012136783 -2.3560376e-06 0.0005062647 0.00055555505
000140 51 d9 06 38 4a f2 f8 37 4d 93 50 b8 1d 3d e5 32
       3.215048e-05 2.9676728e-05 -4.972825e-05 2.66869e-08
000150 d7 09 4b 35 38 37 77 38 ec 49 3d 36 3c 6d 16 ba
       7.563771e-07 5.8940816e-05 2.8206223e-06 -0.0005738323
000160 cd b6 a7 39 b2 8b 90 35 a3 9e df ba 80 c7 8c b9
       0.0003198892 1.0769493e-06 -0.0017060827 -0.0002685152
000170 6b 19 0d ba 66 67 01 30 ec 45 2d 39 69 d7 7f b5
       -0.0005382511 4.7076865e-10 0.00016524614 -9.5308366e-07
000180 d2 a1 66 ba 01 d0 9d 39 24 00 79 b7 23 84 4b 39
       -0.0008797917 0.00030100349 -1.4841589e-05 0.00019408813
000190 c0 ea 24 39 08 ec f6 39 20 94 a8 32 d3 a6 e9 3a
       0.0001572771 0.00047096633 1.9625134e-08 0.0017826207
0001a0 80 90 8f 2f 84 fb 44 b8 ea 9b c8 b2 9f 75 82 ba
       2.6114222e-10 -4.6964284e-05 -2.3353966e-08 -0.0009953267
0001b0 15 f9 50 39 e6 b3 0b ba da 16 41 38 6a 99 2f b8
       0.00019929216 -0.0005329236 4.6036068e-05 -4.186613e-05
0001c0 c5 31 be b8 29 06 ea 39 3a ad c9 b6 3f 7d ed 39
       -9.069176e-05 0.00044636548 -6.010433e-06 0.00045297478
0001d0 46 85 33 ba ce fe 21 ba fc f7 a9 39 04 e0 4f b8
       -0.00068481674 -0.00061796315 0.00032418955 -4.9561277e-05
0001e0 6a 87 e5 39 17 28 84 b9 cb 70 ce b8 46 4a 84 35
       0.00043779175 -0.0002520687 -9.843855e-05 9.856383e-07
0001f0 b4 f3 a2 ba 55 41 1b 39 7c f6 fe 2f 23 c5 f8 38
       -0.0012432248 0.0001480629 4.6377469e-10 0.00011862281
