Assets/bussinv32by2grid.onnx (onnx, 88407 bytes, 6 tensors)

network_body._body_endoder.seq_layers.0.weight f4 [128, 29]
-0.059903298 -0.38991365 -0.049917173 0.19487396 -0.12740095 -0.37239406 -0.024635183 0.38814017
0.1905445 -0.49081257 -0.2767019 0.0122037055 -0.087902874 -0.09265275 -0.11117238 0.17194866
0.055940058 -0.68913025 -0.24329783 -0.17765611 -0.39520398 0.07595631 -0.045987688 -0.05428219
-0.31057748 0.016737508 -0.037658498 -0.19982462 -0.31769007 0.16204041 -0.4199273 -0.0724533
-0.24141015 -0.23492265 -0.1276539 0.0553215 0.1969394 0.22135054 -0.23375942 0.14341916
0.12559004 -0.027249113 -0.1951487 -0.27187994 -0.09824704 -0.2486122 -0.05674709 0.45530093
0.027484523 -0.11233944 0.2353646 0.29262304 -0.12419684 0.10424274 0.056205172 -0.3834441
0.3229464 0.23451346 0.13489312 0.11017622 0.010578746 -0.10100148 0.20713061 0.13987526
-0.14898309 0.15658125 0.28897852 0.0053466577 0.34051588 -0.3133662 -0.0118101295 -0.12625399
0.78100115 1.1661713 -0.016706329 0.36619803 0.060785044 0.20274803 -0.038842414 -1.0415004
-0.12002524 0.08182638 -0.38270926 -0.23673238 0.21177357 0.12119027 0.10111674 -0.18885757
0.08562688 0.14649414 0.085142374 -0.31476465 -0.27362725 -0.34875613 0.057256058 -0.40150273
-0.18985572 -0.01560546 0.07737979 -0.20702137 -0.3028816 -0.052775156 -0.42057618 -0.08245983
0.12854542 -0.09073566 0.18546137 0.0062727206 -0.50765216 -0.16048619 -0.18867534 -0.033755023
0.020322843 -0.085181765 -0.25501376 -0.13755322 0.15697242 0.03619678 -0.21046945 -0.03301102
-0.098601095 0.27509376 0.61699694 -0.08214308 -0.21747829 0.34984472 -0.24397048 0.9053666
0.009499867 0.003093172 -0.3824406 -0.5776668 0.1237431 0.17047235 -0.3655199 -0.07478069
0.19531697 -0.62436825 0.069526866 -0.26918656 0.06742224 0.09893708 -0.036911346 0.21361203
-0.012096599 0.04930225 -0.1845458 -0.033628974 -0.12303113 0.100838766 0.12402572 -0.29481032
0.2790533 -0.03999669 0.11029158 -0.25121027 -0.5250742 0.027258271 0.17024375 -0.20114975
0.17401472 0.14820011 0.26172736 0.24864793 0.19497912 0.12616377 0.19440883 -0.24245316
0.23782173 -0.23184343 -0.35708293 -0.24182482 0.20960633 0.14390358 -0.41538954 -0.046953507
-0.09618989 -0.029277083 0.29637986 0.4046893 0.41680983 -0.0053484994 0.2452133 0.26527575
0.23008807 0.097410515 -0.040482383 -0.19035439 -0.17056894 -0.079238415 -0.054982454 -0.26490092
0.06999138 -0.050729167 -0.06568325 0.0798802 0.08591954 0.16269875 -0.13957432 0.05756295
-0.18859738 0.050556477 -0.25061288 -0.45139378 0.083632015 0.45773265 -0.05394847 -0.09895204
0.06879457 0.037257638 -0.48653337 -0.0012971313 -0.022103958 -0.06550475 -0.34349948 -0.42541358
0.20247926 0.14379553 0.31140944 0.41598818 0.21469368 -0.06896318 0.12880132 0.23142257
0.1568822 0.045823786 -0.04852789 0.16900454 -0.28333044 -0.19983965 0.2983261 0.22883427
-0.61864465 0.052022006 -0.1275421 -0.021156257 -0.26973712 -0.1711831 -0.31109515 0.012652471
-0.22384088 -0.00703599 -0.022576476 -0.14590141 -0.030517656 -0.079978585 -0.16219077 -0.25216806
0.05474634 -0.1025646 0.23674624 -0.1450868 0.18273477 -0.015358874 0.3848281 -0.11953888
00000000: 295d 75bd c3a2 c7be f375 4cbd 0a8d 473e
00000010: 6575 02be 6faa bebe b9cf c9bc 4fba c63e
00000020: 191e 433e c94b fbbe dfab 8dbe 0df2 473c
00000030: 6c06 b4bd bac0 bdbd 58ae e3bd 4f13 303e
00000040: 6721 653d d76a 30bf 1123 79be 7ceb 35be
00000050: 2d58 cabe fb8e 9b3d 965d 3cbd 0057 5ebd
00000060: 0304 9fbe 191d 893c cc3f 1abd d39e 4cbe
00000070: 46a8 a2be eced 253e b600 d7be 6562 94bd
00000080: 3934 77be 908f 70be b4b7 02be cc98 623d
00000090: 7baa 493e b7a9 623e a15e 6fbe 79dc 123e
000000a0: ad9a 003e 8839 dfbc 10d5 47be d933 8bbe
000000b0: be35 c9bd 3294 7ebe a36f 68bd 341d e93e
000000c0: 3927 e13c 3812 e6bd 6b03 713e b0d2 953e
000000d0: ea5a febd 387d d53d 6537 663d c952 c4be
000000e0: 3b59 a53e 4c24 703e 6c21 0a3e 12a4 e13d
000000f0: 7a52 2d3c ddd9 cebd 0c1a 543e 763b 0f3e
00000100: 068f 18be d656 203e fef4 933e 0433 af3b
00000110: 1958 ae3e 8971 a0be 467f 41bc ba48 01be
00000120: b1ef 473f 1a45 953f b6db 88bc 4f7e bb3e
00000130: bdf9 783d 2e9d 4f3e 3919 1fbd e34f 85bf
00000140: cbcf f5bd 9794 a73d 78f2 c3be f969 72be
00000150: 2cdb 583e 9b32 f83d 4b16 cf3d e163 41be
00000160: 255d af3d 8f02 163e 205f ae3d d528 a1be
00000170: df18 8cbe 2a90 b2be 5485 6a3d c491 cdbe
00000180: 8a69 42be 0bae 7fbc 4c79 9e3d 69fd 53be
00000190: 4c13 9bbe c32a 58bd c355 d7be b3e0 a8bd
000001a0: 69a1 033e 9ed3 b9bd 96e9 3d3e 658b cd3b
000001b0: 7ef5 01bf 7e56 24be 1c34 41be b542 0abd
000001c0: 177c a63c c773 aebd 2a91 82be c0da 0cbe
000001d0: 61bd 203e 1343 143d 4e85 57be 9036 07bd
000001e0: 5fef c9bd 17d9 8c3e 83f3 1d3f a23a a8bd
000001f0: a1b2 5ebe d91e b33e 66d3 79be 1bc6 673f
00000200: 55a5 1b3c d1b6 4a3b 41cf c3be f9e1 13bf
00000210: 066d fd3d 4e90 2e3e 6d25 bbbe 9e26 99bd
00000220: 2c01 483e 99d6 1fbf 1a64 8e3d d2d2 89be
00000230: ac14 8a3d 869f ca3d 5a30 17bd 1dbd 5a3e
00000240: d030 46bc 28f1 493d 93f9 3cbe 89be 09bd
00000250: bff7 fbbd 8e84 ce3d 3201 fe3d 61f1 96be
00000260: 13e0 8e3e 92d3 23bd 8de0 e13d a29e 80be
00000270: 436b 06bf bd4c df3c 6154 2e3e 33fa 4dbe
00000280: ea30 323e c5c1 173e 2101 863e 909d 7e3e
00000290: 9ba8 473e 1331 013e 1c13 473e a445 78be
000002a0: 8a87 733e 5d68 6dbe 93d3 b6be eda0 77be
000002b0: 0ba3 563e 765b 133e f0ad d4be 5252 40bd
000002c0: 34ff c4bd 7ed6 efbc 1abf 973e 7033 cf3e
000002d0: 1968 d53e 7742 afbb 3219 7b3e 39d2 873e
000002e0: 359c 6b3e 2a7f c73d dbd0 25bd 43ec 42be
000002f0: a0a9 2ebe c047 a2bd 4835 61bd 18a1 87be
00000300: a457 8f3d 63c9 4fbd f184 86bd 3b98 a33d
00000310: 95f6 af3d 809a 263e 92ec 0ebe 21c7 6b3d
00000320: ac1f 41be 4f14 4f3d 5550 80be 161d e7be
00000330: 4347 ab3d ef5b ea3e 12f9 5cbd 5ea7 cabd
00000340: 2be4 8c3d 779b 183d e71a f9be 8104 aaba
00000350: 5c13 b5bc 5b27 86bd 2adf afbe cfcf d9be
00000360: b956 4f3e 233f 133e 0f71 9f3e 67fc d43e
00000370: a9d8 5b3e 913c 8dbd 7ee4 033e 0afa 6c3e
00000380: baa5 203e b9b1 3b3d 2ec5 46bd 870f 2d3e
00000390: b010 91be c4a2 4cbe 33be 983e 8853 6a3e
000003a0: 7f5f 1ebf 0715 553d 659a 02be e34f adbc
000003b0: fc1a 8abe 9f4a 2fbe dd47 9fbe 4f4c 4f3c
000003c0: 8b36 65be 298e e6bb 4df2 b8bc 2e67 15be
000003d0: 2a00 fabc d0cb a3bd 5615 26be 2c1c 81be
000003e0: b33d 603d 640d d2bd 9b6d 723e a291 14be
000003f0: d31e 3b3e c9a3 7bbc 3008 c53e cdd0 f4bd

network_body._body_endoder.seq_layers.0.bias f4 [128]
-0.04696997 0.01512817 0.07303381 -0.056337897 -0.016637614 0.050741106 0.035675757 0.034218863
-0.10779769 0.0068359203 0.0281981 -0.13056853 -0.29047176 -0.0442782 -0.06479358 -0.27425736
-0.1171946 0.023902329 0.021188617 -0.041898098 0.09156076 -0.012762979 -0.07140456 0.031527888
0.09768971 -0.0154435 -0.057651974 -0.0054503796 -0.03893381 -0.047992963 -0.009662684 -0.16972929
0.0013018792 -0.09207821 0.0019195145 0.029716909 -0.23658495 0.03924575 0.021364287 0.00019528478
-0.028777735 0.097260356 0.013507751 0.06772675 0.09500203 -0.060314868 0.033931427 -0.02312256
-0.36647943 0.017064225 0.068038754 -0.04102948 -0.015548501 -0.058625303 -0.123136014 -0.22209807
0.0069879927 -0.07445047 0.093988165 0.033477277 -0.034522552 0.06708566 -0.11436909 -0.09951981
-0.01836512 -0.013435459 -0.023692977 -0.04292312 0.08124146 -0.018176487 -0.06445863 -0.01193961
-0.017463319 0.09027838 -0.07503964 -0.0009336352 -0.30341795 -0.04931846 0.06061284 -0.07468109
0.04550938 -0.011597016 -0.26566964 -0.1344884 -0.11175668 0.03432929 -0.03334706 0.11491162
-0.13678811 0.023025317 0.15062542 -0.002516076 -0.10842607 0.04910888 -0.062004536 0.043859184
-0.113631986 -0.15711828 -0.03307731 -0.04638604 -0.07827285 -0.03200822 -0.08728514 -0.024584606
0.024797374 -0.08116847 -0.103274904 -0.0058991387 0.035995804 -0.18064424 -0.049690552 0.084935546
0.033555187 -0.015489988 0.13821182 -0.06871651 -0.090501904 -0.010451164 -0.051499844 0.029740967
-0.066045634 0.02331592 0.1445548 -0.04264214 -0.062300794 -0.03894071 -0.10779416 -0.074313715
00000000: 9563 40bd 25dc 773c c092 953d 91c2 66bd
00000010: 9b4b 88bc e8d5 4f3d be20 123d 1429 0c3d
00000020: 09c5 dcbd dbff df3b b4ff e63c c2b3 05be
00000030: b7b8 94be 0f5d 35bd 7fb2 84bd 766b 8cbe
00000040: b903 f0bd d1ce c33c c093 ad3c 579d 2bbd
00000050: 3584 bb3d d01b 51bc 8e3c 92bd 6323 013d
00000060: 8b11 c83d bc06 7dbc 7a24 6cbd 1999 b2bb
00000070: 0f79 1fbd 4594 44bd 3c50 1ebc 84cd 2dbe
00000080: d1a3 aa3a 8093 bcbd 3898 fb3a e070 f33c
00000090: 5343 72be 27c0 203d 2804 af3c 5cc5 4c39
000000a0: 49bf ebbc 7030 c73d 9d4f 5d3c 53b4 8a3d
000000b0: 6d90 c23d b90c 77bd aefb 0a3d 866b bdbc
000000c0: 31a3 bbbe 46ca 8b3c e757 8b3d 870e 28bd
000000d0: 24bf 7ebc 1621 70bd bc2e fcbd ad6d 63be
000000e0: 88fb e43b 7d79 98bd de7c c03d 781f 093d
000000f0: 8567 0dbd 3564 893d 573a eabd 0bd1 cbbd
00000100: 7372 96bc 6620 5cbc c617 c2bc 27d0 2fbd
00000110: ec61 a63d dbe6 94bc e302 84bd 5b9e 43bc
00000120: 3c0f 8fbc dfe3 b83d 62ae 99bd 33bf 74ba
00000130: 9959 9bbe 2702 4abd 2b45 783d 66f2 98bd
00000140: 0b68 3a3d 6901 3ebc da05 88be 54b7 09be
00000150: b0e0 e4bd df9c 0c3d ed96 08bd c956 eb3d
00000160: 2f12 0cbe 979f bc3c 8d3d 1a3e c0e4 24bb
00000170: 7d0e debd 6526 493d 78f8 7dbd b0a5 333d
00000180: e3b7 e8bd 9de3 20be 137c 07bd 4aff 3dbd
00000190: 844d a0bd 0d1b 03bd 8dc2 b2bd a865 c9bc
000001a0: dd23 cb3c a83b a6bd cb81 d3bd 904d c1bb
000001b0: 5670 133d cefa 38be 5288 4bbd b0f2 ad3d
000001c0: 2a71 093d b8c9 7dbc 6687 0d3e 3ebb 8cbd
000001d0: 1059 b9bd 5c3b 2bbc 80f1 52bd 54a3 f33c
000001e0: ef42 87bd 0701 bf3c 2c06 143e 86a9 2ebd
000001f0: 1e2f 7fbd 4b80 1fbd 2fc3 dcbd ca31 98bd

network_body._body_endoder.seq_layers.2.weight f4 [128, 128]
0.19535847 -0.041880894 -0.30491266 0.014982099 0.26903787 -0.1267648 0.06335373 0.021291021
0.15288627 0.016519899 -0.12993526 0.24998066 -0.059852187 0.088041596 -0.026386283 -0.01356491
0.1309141 -0.019985775 -0.04491368 0.029210858 -0.02747913 0.141728 -0.18030477 0.23088735
0.28817594 0.05968832 -0.22581828 -0.027744284 0.19403517 0.08688944 -0.20756634 -0.08207923
-0.21566023 -0.07578122 -0.2237949 -0.22538042 0.17253739 0.102776 -0.18744442 -0.18723884
0.13210592 0.06210701 -0.026711373 -0.23746796 -0.32725403 0.28412202 -0.109515645 0.271615
-0.1545333 0.10637125 -0.27147707 -0.23996985 0.21935529 0.17416139 0.16204566 0.12758547
0.053504255 0.0031969647 -0.06225932 -0.10524026 0.106397286 0.15113625 0.08678947 0.20664476
0.043904174 -0.34415156 0.01334654 -0.30034453 0.10864943 -0.103166014 0.33730507 -0.05275101
0.020505944 0.1353909 0.13826236 -0.032312058 -0.07335557 0.20267858 0.24196045 0.076880604
-0.23945624 -0.1166763 0.15908778 0.027790915 -0.04854464 0.21029434 0.031984836 0.3296597
-0.016272126 0.09349419 -0.24711934 0.3059449 -0.23053242 0.029058265 0.36019185 -0.12971503
0.16223651 -0.105051816 0.18009107 0.06887926 -0.037568342 0.20273814 0.33841273 0.08023441
0.03128385 -0.16745369 -0.1389015 0.12660655 -0.0884011 -0.1546814 -0.08944449 -0.007599046
-0.08621717 0.010227027 0.3919465 0.20416076 0.15426882 0.38434207 0.22854887 0.051917795
0.20137575 -0.0036454662 -0.06849517 -0.026324373 0.20907772 0.31659684 0.3960967 0.19874795
0.5672006 0.20306127 -0.13633195 0.14229617 0.2945892 0.39076978 0.2521268 0.025899032
0.29788238 -0.1586629 0.0774527 0.19488133 0.07040583 0.32367957 0.03215332 0.036675397
0.3090317 -0.18973956 0.091967046 -0.14540407 0.11951348 0.26474974 -0.05570097 0.18865545
0.3409356 0.05320851 -0.022245469 0.14679576 0.28722876 -0.072685726 -0.24663186 0.11808037
-0.06833382 0.12650654 0.007385629 -0.112285264 -0.19645718 0.15580936 -0.15088043 -0.14235207
0.25635675 -0.15155438 0.059751097 -0.15495639 -0.052647855 0.15981765 -0.0823239 0.37208712
0.103172965 0.08348105 -0.23822135 0.12871845 0.40045822 0.3043719 0.15621665 0.15270759
0.32284352 0.28342536 -0.069616005 0.069761015 0.327796 0.19002914 0.2065176 0.2886639
-0.017228907 -0.16016084 0.1531138 -0.124568194 0.23614629 0.09226162 0.47239473 0.029348252
0.17503968 0.23701234 0.3067007 0.04244015 -0.0787717 0.2577502 0.3679751 0.17497952
-0.040951785 0.20009395 0.083587304 0.09646776 -0.12333589 0.44548634 0.015568931 -0.13955067
0.16583815 0.16565531 -0.34082943 0.16461673 0.1293187 -0.0063246023 0.29611507 -0.05893702
0.30613175 0.07418434 0.18889186 0.37460145 -0.038479526 0.23317054 -0.00437197 0.48370105
0.12726514 -0.18835394 -0.249611 0.15188368 -0.08721686 -0.050175868 -0.22200152 0.070117876
-0.19503434 0.00088425365 0.44629148 0.22684701 0.28140786 0.13023286 0.31531695 0.4240054
0.32667986 -0.09636586 -0.032306336 0.046241425 0.2373456 0.45000884 0.07039449 0.16924106
00000000: 0d0c 483e 4d8b 2bbd 831d 9cbe 7a77 753c
00000010: 55bf 893e a2ce 01be 9abf 813d 826a ae3c
00000020: 388e 1c3e bd54 873c c00d 05be eefa 7f3e
00000030: 9127 75bd 274f b43d 0c28 d8bc 5b3f 5ebc
00000040: 590e 063e 35b9 a3bc 68f7 37bd 9c4b ef3c
00000050: ea1b e1bc 2521 113e d0a1 38be bc6d 6c3e
00000060: cc8b 933e bd7b 743d e83c 67be fb47 e3bc
00000070: 28b1 463e 17f3 b13d 458c 54be 2819 a8bd
00000080: 09d6 5cbe 2f33 9bbd 7e2a 65be 20ca 66be
00000090: a4ad 303e 397c d23d 6ef1 3fbe 8abb 3fbe
000000a0: c646 073e ec63 7e3d cfd1 dabc cd2a 73be
000000b0: d78d a7be 7178 913e bd49 e0bd 1f11 8b3e
000000c0: fa3d 1ebe 2bd9 d93d 0bff 8abe a8ba 75be
000000d0: ac9e 603e 5d57 323e 4cef 253e c4a5 023e
000000e0: 4727 5b3d 2b84 513b a103 7fbd 3588 d7bd
000000f0: d2e6 d93d 76c3 1a3e adbe b13d af9a 533e
00000100: ddd4 333d a234 b0be 72ab 5a3c c2c6 99be
00000110: 9883 de3d b448 d3bd 40b3 ac3e 7111 58bd
00000120: 15fc a73c e9a3 0a3e a694 0d3e a659 04bd
00000130: 723b 96bd f98a 4f3e 7bc4 773e 9473 9d3d
00000140: 0434 75be fcf3 eebd e8e7 223e c6a9 e33c
00000150: bfd6 46bd 6657 573e 8802 033d 28c9 a83e
00000160: 1f4d 85bc e279 bf3d da0c 7dbe cfa4 9c3e
00000170: b110 6cbe 990b ee3c 116b b83e 04d4 04be
00000180: 5421 263e 6825 d7bd cb69 383e 9210 8d3d
00000190: 43e1 19bd 969a 4f3e 6f44 ad3e f051 a43d
000001a0: 7f23 003d fb78 2bbe 323c 0ebe 26a5 013e
000001b0: a30b b5bd cd64 1ebe ac2e b7bd 6b01 f9bb
000001c0: a192 b0bd 438f 273c 36ad c83e 850f 513e
000001d0: a5f8 1d3e 7cc8 c43e b708 6a3e c1a7 543d
000001e0: 7235 4e3e c6e8 6ebb 3247 8cbd 36a6 d7bc
000001f0: 7818 563e fb18 a23e 30cd ca3e 9584 4b3e
00000200: 0f34 113f 4bef 4f3e 9a9a 0bbe 16b6 113e
00000210: 65d4 963e fa12 c83e c416 813e 352a d43c
00000220: 0a84 983e 8778 22be 859f 9e3d f98e 473e
00000230: ef30 903d 54b9 a53e 33b3 033d f138 163d
00000240: 6739 9e3e 164b 42be 3859 bc3d cee4 14be
00000250: 7cc3 f43d 478d 873e b326 64bd e52e 413e
00000260: 1c8f ae3e 2bf1 593d 213c b6bc a151 163e
00000270: a60f 933e 41dc 94bd 108d 7cbe 1fd4 f13d
00000280: 9af2 8bbd ee8a 013e 2603 f23b d1f5 e5bd
00000290: 122c 49be 7d8c 1f3e 6680 1abe bec4 11be
000002a0: 3141 833e 1231 1bbe 91bd 743d e3ac 1ebe
000002b0: 47a5 57bd 3da7 233e 6f99 a8bd 3482 be3e
000002c0: 594c d33d 1df8 aa3d 4cf0 73be c5ce 033e
000002d0: dc08 cd3e a2d6 9b3e 42f7 1f3e 615f 1c3e
000002e0: bf4b a53e 211d 913e d692 8ebd ddde 8e3d
000002f0: e1d4 a73e 0097 423e 5a79 533e c1cb 933e
00000300: a323 8dbc 3401 24be ddc9 1c3e 9c1d ffbd
00000310: 55d0 713e a9f3 bc3d b9dd f13e bf6b f03c
00000320: 9a3d 333e 5db3 723e e007 9d3e b9d5 2d3d
00000330: 0f53 a1bd d6f7 833e 3b67 bc3e d52d 333e
00000340: 0fbd 27bd 6ee5 4c3e d22f ab3d e490 c53d
00000350: 8797 fcbd c916 e43e d414 7f3c 5fe6 0ebe
00000360: 7ad1 293e 8ca1 293e 3281 aebe 4a91 283e
00000370: 1f6c 043e 9c3e cfbb 659c 973e f267 71bd
00000380: 4dbd 9c3e f6ed 973d de6c 413e c3cb bf3e
00000390: b59c 1dbd 42c4 6e3e be42 8fbb aaa7 f73e
000003a0: cb51 023e dbdf 40be 079a 7fbe 6587 1b3e
000003b0: c19e b2bd 3685 4dbd 5e54 63be f699 8f3d
000003c0: 15b7 47be 42cd 673a 5180 e43e 954a 683e
000003d0: b114 903e c35b 053e 3971 a13e 3c17 d93e
000003e0: 9542 a73e 775b c5bd a653 04bd a667 3d3d
000003f0: ba0a 733e 8f67 e63e fd2a 903d 874d 2d3e

network_body._body_endoder.seq_layers.2.bias f4 [128]
-0.14693089 -0.24671228 -0.17074533 -0.097130544 0.12826589 -0.1474793 -0.11287678 -0.019152494
-0.19107734 0.13961665 -0.1578483 -0.15888585 -0.09081051 -0.075889215 0.10222099 -0.018795438
-0.12879372 -0.032109443 -0.08664751 -0.054723646 -0.16263053 -0.17905462 0.07046746 -0.16058615
-0.06557185 -0.06578943 0.15932932 -0.14441247 -0.16501242 -0.032179646 -0.17999889 -0.0919255
0.022336597 0.11499712 -0.03824603 0.07691849 0.07439659 -0.17913295 -0.11521156 -0.08348986
-0.20664088 -0.11223144 -0.11511027 -0.08272254 -0.029690163 -0.031272355 -0.045508556 -0.058907352
-0.09629563 -0.1363006 -0.08049866 -0.15327851 -0.17780307 -0.15360717 -0.16686021 -0.07513117
-0.08181243 -0.14451557 0.0020116696 -0.13197172 -0.09731468 -0.17038576 -0.019003753 0.03770764
-0.10165263 -0.08353188 0.0821504 0.020793192 0.030121153 -0.09051825 -0.1736188 0.024141785
-0.14283656 -0.1747075 -0.16557012 -0.07854872 -0.096054435 -0.17682998 -0.116215535 -0.14319706
-0.08635432 -0.11091131 0.076233156 -0.06808671 -0.09268671 -0.111722596 -0.15658407 -0.16280088
-0.16071858 -0.18846473 -0.097796336 -0.13896413 -0.08787961 -0.080277115 0.18445727 -0.13898644
-0.02614923 -0.14427936 -0.24123152 -0.024508491 -0.18373954 -0.0522713 -0.17054826 0.06413338
-0.05636222 -0.05269622 0.09082522 -0.13910809 -0.11037769 -0.10797393 -0.10677969 -0.055771798
-0.14159562 -0.0010418694 0.080745 0.084679455 -0.11850544 -0.121648654 -0.06275798 -0.02009998
-0.08400412 -0.09249129 -0.16634275 -0.064461 -0.2125021 0.0749123 -0.1288313 -0.14232431
00000000: 0d75 16be 25a2 7cbe ddd7 2ebe 61ec c6bd
00000010: 2258 033e d004 17be f12b e7bd b1e5 9cbc
00000020: c7a9 43be abf7 0e3e fca2 21be f9b2 22be
00000030: dcfa b9bd ce6b 9bbd 3d59 d13d e4f8 99bc
00000040: 80e2 03be 3185 03bd 4074 b1bd e725 60bd
00000050: 9e88 26be 185a 37be 3e51 903d b270 24be
00000060: 894a 86bd 9cbc 86bd 3a27 233e dde0 13be
00000070: 04f9 28be cece 03bd a151 38be 7043 bcbd
00000080: 3dfb b63c 9c83 eb3d dfa7 1cbd 7187 9d3d
00000090: 3d5d 983d a16e 37be 0af4 ebbd bbfc aabd
000000a0: ab99 53be 99d9 e5bd efbe ebbd 6f6a a9bd
000000b0: c938 f3bc 7117 00bd 2e67 3abd d648 71bd
000000c0: a536 c5bd 6292 0bbe 7bdc a4bd 0bf5 1cbe
000000d0: 0212 36be 334b 1dbe 67dd 2abe 5fde 99bd
000000e0: 468d a7bd e4fb 13be 37d6 033b 9823 07be
000000f0: eb4c c7bd 9b79 2ebe c2ad 9bbc 5473 1a3d
00000100: 412f d0bd c312 abbd 783e a83d 7c56 aa3c
00000110: a3c0 f63c a261 b9bd 20c9 31be fec4 c53c
00000120: bf43 12be 86e6 32be 378b 29be 27de a0bd
00000130: 30b8 c4bd eb12 35be 6902 eebd 40a2 12be
00000140: 89da b0bd 7825 e3bd 2120 9c3d 0c71 8bbd
00000150: 88d2 bdbd d1ce e4bd 9357 20be 46b5 26be
00000160: 6993 24be e6fc 40be 7249 c8bd 9d4c 0ebe
00000170: 3afa b3bd 5468 a4bd 5ee2 3c3e 7652 0ebe
00000180: e936 d6bc f8bd 13be 6505 77be 08c6 c8bc
00000190: 3826 3cbe 6e1a 56bd 34a4 2ebe 5d58 833d
000001a0: 12dc 66bd fed7 57bd 9302 ba3d 5a72 0ebe
000001b0: b30d e2bd 7021 ddbd 4faf dabd f870 64bd
000001c0: 71fe 10be 568f 88ba a25d a53d 6c6c ad3d
000001d0: fbb2 f2bd ee22 f9bd 4187 80bd b7a8 a4bc
000001e0: 5a0a acbd 136c bdbd c155 2abe 2104 84bd
000001f0: 279a 59be 9f6b 993d 5aec 03be 77bd 11be

action_model._discrete_distribution.branches.0.weight f4 [4, 128]
0.18203004 -0.12902978 -0.023904523 0.28013772 0.13103768 -0.16982 -0.23338473 0.22658807
0.039189927 0.0015936731 -0.16303518 0.06548918 0.35559264 0.17010592 -0.06870906 0.24068919
-0.14918865 0.08950839 0.107577786 0.11871138 -0.07700765 0.047703028 0.011005841 -0.18125999
0.08882635 0.16111028 -0.0038881053 -0.06989963 -0.2090398 -0.12720902 -0.12370998 -0.0031140167
-0.07537586 -0.18351273 0.0005879634 0.024658943 0.16186251 0.10105956 -0.10453037 0.14112313
0.18785205 0.38173318 0.17168558 0.22587708 0.06730933 0.03365195 0.08952112 0.14211695
0.17170179 -0.0058844574 0.1456622 -0.018773848 -0.190772 -0.22269881 -0.09780713 0.20515457
-0.22789858 -0.14396219 -0.004882666 0.0259769 -0.08893418 0.02223003 0.22574078 0.017723035
-0.14502037 0.057925 0.18105882 0.14520194 0.09696014 -0.12968534 -0.07222657 -0.06588185
0.035128377 0.07265279 0.042545386 -0.032509074 0.18139914 -0.015191471 0.077547505 0.10248821
-0.048201796 -0.15118581 0.19097237 -0.10310997 0.13269272 0.06346406 -0.1007633 -0.26546136
0.011045558 0.17561218 0.04811628 -0.07123021 0.1359743 -0.3627872 0.18041974 -0.061698094
-0.21432796 -0.080292836 -0.10785541 0.25800294 -0.21194743 0.1651997 -0.18511467 -0.042731408
0.06218739 0.10324414 -0.6082142 0.0027083114 0.07447358 -0.019313915 0.15561876 -0.030282725
0.10511555 -0.089567214 -0.23382063 -0.08825769 0.26397756 -0.09213863 0.11120349 -0.015983026
0.061316673 -0.07433404 -0.05729052 -0.09581498 -0.29688916 0.1374887 -0.11992887 0.0016337286
-0.38798594 -0.06349527 -0.12428469 -0.20683017 -0.47106493 0.019167673 -0.21876214 -0.011988396
-0.21466321 0.2338731 -0.14358754 -0.26699144 -0.2384217 -0.04636131 0.11122769 -0.10230065
-0.15177467 -0.10107218 0.0255421 -0.03251179 -0.15511848 -0.045280002 0.13933651 -0.21743079
0.12309301 -0.10922997 -0.43386918 0.08146185 -0.10654297 0.3032205 -0.0149252 -0.08928198
0.11941813 0.14538382 -0.07053693 -0.12147226 -0.27010047 -0.09157561 0.32901585 -0.27578443
-0.13183591 -0.18742715 -0.49987626 -0.06323805 -0.047436465 0.17060599 0.16404869 -0.3788611
0.07119556 -0.093890816 0.066931024 -0.19218141 -0.30021667 -0.28058887 -0.12503278 -0.17050539
0.200934 -0.30159542 -0.054404233 -0.02168 0.05970705 -0.2122744 -0.19602431 -0.045758616
-0.44926423 -0.18329099 -0.10506874 -0.120105945 0.34152266 0.13761236 0.22806014 0.011636744
-0.18950704 0.117303096 -0.17113209 -0.272114 -0.26419476 0.07168814 -0.22123861 -0.019630298
-0.15952252 0.21047693 -0.0044437116 0.21576957 -0.16961047 0.008454806 -0.23642485 -0.36553398
-0.3358959 -0.045488704 -0.10586002 0.29771596 -0.29622415 0.3394328 0.023083504 0.4344667
0.3958768 -0.13125658 -0.038919054 -0.20436151 -0.2384204 -0.114349015 -0.031342927 -0.32827535
-0.12982917 -0.10583476 0.05722599 -0.16740571 -0.3145279 0.078573726 -0.13472366 -0.026086502
-0.17536283 0.19872601 0.19986565 -0.40174592 -0.032435015 -0.07892792 -0.1454655 0.09741547
-0.23038553 -0.10901775 -0.2794058 -0.009921675 -0.27203554 -0.12577322 -0.272341 -0.13466103
00000000: 1566 3a3e 6220 04be 6bd3 c3bc 366e 8f3e
00000010: be2e 063e 4be5 2dbe 68fc 6ebe b406 683e
00000020: 9e85 203d cce2 d03a b2f2 26be 311f 863d
00000030: 3d10 b63e 3f30 2e3e 56b7 8cbd 3a77 763e
00000040: e9c4 18be 2d50 b73d be51 dc3d f41e f33d
00000050: 30b6 9dbd 4064 433d d851 343c 389c 39be
00000060: 97ea b53d 18fa 243e 95cf 7ebb 8a27 8fbd
00000070: 880e 56be 1543 02be a85b fdbd 8814 4cbb
00000080: a95e 9abd c3ea 3bbe 8e21 1a3a 8d01 ca3c
00000090: 49bf 253e 51f8 ce3d 0514 d6bd 9582 103e
000000a0: 4a5c 403e 8872 c33e 58ce 2f3e 524c 673e
000000b0: 79d9 893d a1d6 093d d956 b73d 1b87 113e
000000c0: 98d2 2f3e 68d2 c0bb 7928 153e 9dcb 99bc
000000d0: bc59 43be 280b 64be 1b4f c8bd 0a14 523e
000000e0: 3f5e 69be d36a 13be c5fe 9fbb 82cd d43c
000000f0: 2023 b6bd c01b b63c 9728 673e e62f 913c
00000100: 3880 14be c442 6d3d 7c67 393e d1af 143e
00000110: 0a93 c63d 3ccc 04be 86eb 93bd 10ed 86bd
00000120: c6e2 0f3d fcca 943d 1244 2e3d 3c28 05bd
00000130: b2c0 393e a6e5 78bc 3ad1 9e3d 57e5 d13d
00000140: 3f6f 45bd 74d0 1abe 438e 433e 522b d3bd
00000150: 9ae0 073e 72f9 813d fd5c cebd 8dea 87be
00000160: 6ef8 343c aed3 333e 9415 453d 25e1 91bd
00000170: d93c 0b3e 3ebf b9be f4bf 383e 24b7 7cbd
00000180: ca78 5bbe 9270 a4bd 4ce3 dcbd f618 843e
00000190: bf08 59be 1c2a 293e b38e 3dbe 2107 2fbd
000001a0: 34b8 7e3d aa71 d33d edb3 1bbf ed7d 313b
000001b0: 9b85 983d 3738 9ebc 865a 1f3e 7a13 f8bc
000001c0: d246 d73d 046f b7bd ad6e 6fbe 73c0 b4bd
000001d0: 1128 873e 2eb3 bcbd a8be e33d d6ee 82bc
000001e0: 3127 7b3d 723c 98bd 77a9 6abd a53a c4bd
000001f0: db01 98be d6c9 0c3e 449d f5bd d622 d63a
00000200: 18a6 c6be cf09 82bd f988 febd 4acb 53be
00000210: 6c2f f1be 8605 9d3c 2f03 60be fa6a 44bc
00000220: acd0 5bbe 6e7c 6f3e 9d08 13be 1ab3 88be
00000230: d124 74be 5be5 3dbd 58cb e33d 0183 d1bd
00000240: d26a 1bbe eefe cebd ab3d d13c 152b 05bd
00000250: 61d7 1ebe 8677 39bd 3bae 0e3e 2da6 5ebe
00000260: 3018 fc3d f6b3 dfbd 1a24 debe 78d5 a63d
00000270: 3333 dabd b83f 9b3e d388 74bc 79d9 b6bd
00000280: 7e91 f43d 7fdf 143e aa75 90bd 73c6 f8bd
00000290: 9c4a 8abe fe8b bbbd c474 a83e 9e33 8dbe
000002a0: feff 06be e7ec 3fbe c8ef ffbe f382 81bd
000002b0: bd4c 42bd 56b3 2e3e 61fc 273e 15fa c1be
000002c0: face 913d d449 c0bd 2213 893d 34cb 44be
000002d0: 00b6 99be 58a9 8fbe 9808 00be f798 2ebe
000002e0: a4c1 4d3e b76a 9abe f9d6 5ebd 419a b1bc
000002f0: 618f 743d 765e 59be 99ba 48be 636d 3bbd
00000300: f605 e6be a2b0 3bbe 482e d7bd 1bfa f5bd
00000310: 0fdc ae3e 41ea 0c3e 9988 693e 0ba8 3e3c
00000320: 220e 42be 9b3c f03d 403d 2fbe 8752 8bbe
00000330: 8944 87be 3bd1 923d 608c 62be b8cf a0bc
00000340: df59 23be 4487 573e 8e9c 91bb b3f2 5c3e
00000350: 5eae 2dbe 0786 0a3c 5b19 72be 4527 bbbe
00000360: 8cfa abbe 5d52 3abd 23cd d8bd 3a6e 983e
00000370: b1aa 97be 23ca ad3e 9e19 bd3c 6b72 de3e
00000380: 5db0 ca3e 2068 06be 9669 1fbd 2544 51be
00000390: 7a24 74be d12f eabd 7161 00bd b513 a8be
000003a0: f0f1 04be e5bf d8bd cd65 6a3d 676c 2bbe
000003b0: cd09 a1be 43eb a03d 00f5 09be 5cb3 d5bc
000003c0: 5092 33be d57e 4b3e 95a9 4c3e a4b1 cdbe
000003d0: 94da 04bd f6a4 a1bd e8f4 14be c381 c73d
000003e0: 2fea 6bbe b344 dfbd 470e 8fbe 858e 22bc
000003f0: 3e48 8bbe b2ca 00be 4870 8bbe 95e4 09be

action_model._discrete_distribution.branches.0.bias f4 [4]
0.027960572 0.09235351 -0.1337728 0.030749151
00000000: 920d e53c d623 bd3d bdfb 08be a5e5 fb3c
