Assets/Hivemind Agent.onnx (onnx, 169086 bytes, 9 tensors)

discrete_act_size_vector f4 [1, 2]
000000 00 00 80 41 00 00 20 41
       16.0 10.0

network_body._body_endoder.seq_layers.0.weight f4 [128, 160]
000000 59 e0 9e bc ce 08 72 bd ae 10 15 bd 98 6e ae 3d
       -0.019394087 -0.059090428 -0.03639286 0.08517188
000010 96 2a 72 bc d2 4a f8 bc 3b be 0b 3d 59 22 1e bd
       -0.014780661 -0.030309115 0.034116965 -0.038606975
000020 5c cf 68 3c 30 ad 9f 3d 91 fc 1b bd 2c eb e1 3d
       0.014209595 0.07796705 -0.038082663 0.110311836
000030 4b 6d 82 3d ca 38 2b 3c 24 28 88 3d 34 60 98 3c
       0.06368502 0.010450551 0.06648281 0.01860056
000040 cc c7 78 3d a1 3f d2 bd f5 4d 33 bd d3 26 bc 3d
       0.060737416 -0.102660425 -0.043775517 0.09187093
000050 2f d7 b8 3d 89 31 23 bc 15 13 c7 3d de eb 2e 3a
       0.09025418 -0.009960541 0.097204365 0.000667272
000060 83 f5 ab bd ed 8b da bd f5 ba d7 bd 3c 70 83 3d
       -0.08396437 -0.1067122 -0.10533706 0.064178914
000070 c9 e6 90 3d d2 f6 d3 3d 95 80 34 bd c0 8c f3 bd
       0.07075269 0.103498116 -0.044067938 -0.1189208
000080 7a 30 43 3e de 32 ae bb ef cf b4 bd 50 aa 79 bd
       0.19061461 -0.0053161224 -0.08828723 -0.06095344
000090 cc e5 84 bd 47 29 4e bd 36 47 9d 3b dc 25 ae bb
       -0.06489143 -0.050332334 0.004799749 -0.005314572
0000a0 8b 98 6a 3d f8 33 d8 ba a1 11 74 bd 5b b6 7d 3d
       0.057274383 -0.001649498 -0.059587125 0.061941486
0000b0 22 15 17 3d 74 0d 93 bd 3a cf 10 3e 98 b9 34 bd
       0.03688539 -0.071803 0.1414155 -0.04412231
0000c0 b1 a4 e2 3d a1 da 94 bc b8 6f 9f bd 94 d1 fd 3d
       0.11066569 -0.018170657 -0.077849805 0.123934895
0000d0 29 95 b8 bd c2 60 68 3d 62 9f ce bd ce a9 f5 bd
       -0.09012825 0.0567329 -0.100889936 -0.11995278
0000e0 21 d4 38 3d d4 31 a0 3d 02 60 f3 bd b2 92 91 3d
       0.045124177 0.07822004 -0.118835464 0.07108058
0000f0 cb 56 20 bc 8f 9b 14 3e 21 e9 83 bc 3c 6a 7e bd
       -0.009786318 0.14512466 -0.016102375 -0.06211303
000100 4c 03 8e bc ca 92 3b be ed 39 1c bc 4d b1 78 bb
       -0.017335556 -0.18317714 -0.009535295 -0.0037947476
000110 04 cb 6d 3a 94 e8 f5 3c 35 cd 67 3d 70 ed 80 3d
       0.0009071084 0.030018128 0.056592185 0.062952876
000120 39 1f 8e bd bc 5a 79 bc b5 9b 8c 3c 3b 5e ce bd
       -0.06939549 -0.015219387 0.01716409 -0.10076567
000130 a6 f1 db 3c 81 5d 20 be d9 49 c4 3d ce e2 d7 3d
       0.026848625 -0.15660669 0.09584398 0.105413064
000140 07 f2 28 bd bc c7 1f bd 63 cf 1d be c0 2c 92 bd
       -0.04124644 -0.03900884 -0.15411143 -0.07137442
000150 5e 1a b4 3d f5 f3 96 3c 3a 58 32 3d 87 5c 97 bd
       0.08794092 0.018426875 0.04354117 -0.07390695
000160 f9 32 85 3d 9e 78 c8 3d d6 d0 ee 3c 60 52 42 bc
       0.06503863 0.09788631 0.029152315 -0.01186046
000170 ba fb 53 3d 99 2f f5 ba 8e 26 be 3d ef 24 c7 bb
       0.051753737 -0.0018706202 0.092846975 -0.006077401
000180 b4 7a 28 bd 8e 98 bd 3d 00 5d a1 bd a6 c2 85 bd
       -0.041132644 0.09257613 -0.078790665 -0.06531267
000190 1d 04 67 3c 9c 8f f4 bc 86 0d 90 3c 55 70 7c 3d
       0.014100102 -0.029853635 0.017584573 0.061630566
0001a0 a3 4f 18 3e cc 07 a8 3d 77 b4 95 3d 54 3a d6 3c
       0.14874129 0.08204612 0.073098116 0.02615086
0001b0 62 41 a1 bd 28 b2 b9 3d 40 2c 81 b8 35 9b 3e 3d
       -0.07873799 0.09067184 -6.1594415e-05 0.046534736
0001c0 00 44 b9 39 ce f5 9c 3d be b9 8d bd 68 36 34 be
       0.00035336614 0.07664071 -0.06920193 -0.1759888
0001d0 54 ba 05 bb 5a 71 85 bc 36 51 e1 3c b0 b9 5e bc
       -0.002040525 -0.016289402 0.027504545 -0.013594076
0001e0 b7 5d f6 3d 4e 2b 1e bd fb 6e 10 bb 6e da 9b bd
       0.120295934 -0.038615517 -0.0022038806 -0.076100215
0001f0 c7 e0 d0 bc 07 5f a5 3d 3a 77 19 bd f3 2d 78 3c
       -0.025497807 0.08074766 -0.03746722 0.015147674
000200 11 12 80 bc 67 6c ce 3c 2f 76 c0 3d 63 5c ff bd
       -0.015633615 0.025198175 0.09397542 -0.12468793
000210 31 f9 dd bd 51 69 6b bd 87 3a 3b 3d eb c9 2a bd
       -0.10838545 -0.057473484 0.045710113 -0.04169647
000220 27 e7 fa 3c f4 11 95 bd 15 4d eb bd 45 bc d8 bb
       0.0306278 -0.07278815 -0.114893116 -0.0066142404
000230 58 9d 03 bd 7d d2 e9 3d 59 38 e9 3d 0c 5b c3 bc
       -0.032132477 0.114171006 0.113877006 -0.023847125
000240 4a 7b 9f bc 25 ef b0 bd 97 7f 0f be 37 b7 ce bd
       -0.019467968 -0.08639363 -0.14013515 -0.10093539
000250 8c 34 2b bd 94 52 e9 3c 27 55 ba 3d 04 43 80 3d
       -0.04179816 0.02848176 0.09098273 0.06262782
000260 45 76 4a bc af 3c e2 3c 73 64 f5 bd 81 a5 f9 3c
       -0.012357299 0.027616827 -0.1198205 0.030474426
000270 57 5a 08 be b8 88 2a bd 66 ae 48 bb fa 64 70 bd
       -0.13315712 -0.04163429 -0.0030621528 -0.05869005
000280 4b 46 51 bc 48 a3 57 3a 1c 96 45 bd 8b 74 7b 3d
       -0.012773107 0.000822593 -0.04823886 0.06139044
000290 3e 01 83 3d 9a 16 86 3c d2 2a 0b 3e 0c 8d c7 bd
       0.06396721 0.0163682 0.13590553 -0.097436994
0002a0 8c e5 0f 3d bd 2d 10 3d 31 b8 0e be 66 cf a9 3d
       0.035131022 0.03519987 -0.13937451 0.08291511
0002b0 82 22 ab bd 1b d2 88 3c 76 1f 69 bd 64 87 6f bd
       -0.08356191 0.016701749 -0.05691477 -0.058478728
0002c0 88 91 85 bc de 37 02 3e 1c 28 fa 3c 51 2a 82 bb
       -0.016304746 0.12716624 0.030536704 -0.0039723297
0002d0 73 9a e9 bb 21 e7 eb bd 1e f1 14 3e f2 c8 9b 3d
       -0.0071290075 -0.11518694 0.14545104 0.07606687
0002e0 75 c6 58 3d dd 48 30 bc 80 70 c3 3d 3c 17 55 3d
       0.05292364 -0.010759559 0.09542942 0.05202411
0002f0 97 ec ed bc 4e e0 e7 bd 20 3a 5b be 86 ce 45 bd
       -0.029043479 -0.113220796 -0.21408892 -0.04829266
000300 fb 5c d5 3d d3 82 63 3c 8c 67 2e 3e 16 96 34 3e
       0.10418125 0.013886171 0.17031687 0.17635378
000310 9f d6 28 bd 0b 79 2e bd 8c e3 9e bc 79 ee df 3d
       -0.041220304 -0.042595904 -0.019395612 0.10934157
000320 cb be cc bd 8d 94 1d be 8a ca 02 be e5 c6 ca bc
       -0.09997328 -0.15388699 -0.12772575 -0.024753043
000330 d1 0b ba 3c a3 b8 36 be 87 50 bb bd 70 de 6a bd
       0.022710713 -0.17843871 -0.09146219 -0.05734104
000340 72 6b b0 bd 5a 8a c0 bd 9b 75 34 3c 08 2e 3a be
       -0.086142436 -0.094013885 0.011014367 -0.18181622
000350 35 0c 89 3d 1a a2 6d 3d 1e bc 68 3d 96 9e 4c 3c
       0.066917814 0.05801592 0.056820028 0.012488982
000360 fa f9 38 3c f2 e7 bc 3c dc 96 dc 3d a1 41 2e 3e
       0.011290068 0.023059819 0.10770962 0.17017223
000370 99 9c f6 3c ed 98 22 3d 94 21 fe 3d 36 fd b7 bc
       0.030103968 0.039696623 0.12408748 -0.022459608
000380 37 5c 65 bc d5 35 37 3c 6e 0e ed bc 1d 5d 96 bd
       -0.0139990365 0.011182268 -0.028937545 -0.07341979
000390 ea b8 65 bc 97 b1 51 bd 3c 61 8d bc f5 c4 47 bd
       -0.014021138 -0.051194753 -0.017258279 -0.048771817
0003a0 5b 28 2c 3c 0f 0f 8d bd e0 97 c6 3d 6a 0b a2 3c
       0.010507668 -0.06887638 0.096969366 0.019780833
0003b0 8f 47 f8 bb 1e 7d 09 be a1 82 cd bc 0c c4 65 3c
       -0.00757689 -0.13426635 -0.025086703 0.014023792
0003c0 73 1f 8f 3d 02 90 9b 3d f6 a8 e3 3d a7 4f 87 bd
       0.0698842 0.07595827 0.11116211 -0.06606989
0003d0 52 b0 6d 3d 50 eb 06 3d cf bd 2e bd 71 0f 7a 3d
       0.05802948 0.032939255 -0.042661484 0.061049882
0003e0 74 9e d0 3d 46 e1 21 bd 79 d9 ff 3d 09 11 27 3c
       0.101864725 -0.039521478 0.124926515 0.010196933
0003f0 34 e4 11 be 71 e9 98 3d 32 c8 49 3d b5 e9 00 3e
       -0.14247209 0.074664004 0.049263187 0.12589152

network_body._body_endoder.seq_layers.0.bias f4 [128]
000000 a9 41 14 bb 85 95 71 3b 6d b6 27 3b 13 da 16 bb
       -0.0022622144 0.0036862802 0.0025590912 -0.0023018166
000010 a7 e3 0f b9 c6 e8 c8 3a bb 1c 00 39 f9 06 ae ba
       -0.0001372235 0.0015328161 0.00012217734 -0.0013277224
000020 77 4c 4b 3b d8 0a 59 3b 28 b0 0d 3b de 66 f2 ba
       0.0031020918 0.0033118036 0.002161989 -0.0018493792
000030 24 8e f3 ba 15 c6 3d bb fb 5d 1b 39 90 96 fd 39
       -0.001858179 -0.0028957177 0.00014816962 0.00048368098
000040 f8 e5 e6 3a 24 df f7 ba 25 21 1a 39 16 08 70 ba
       0.0017616143 -0.0018911106 0.00014698932 -0.00091564783
000050 30 71 6a ba da 67 44 3b 53 cc 53 39 37 a2 6a 3a
       -0.0008943258 0.0029969127 0.00020198645 0.00089505635
000060 74 47 db ba d1 cd 8f 3a 9c dc 5c 3a b2 24 5e 3a
       -0.0016729669 0.0010971372 0.00084252073 0.0008474096
000070 19 3c 8b 3a eb de 83 b9 79 63 02 3b b2 c3 07 3a
       0.0010622769 -0.00025152354 0.0019895716 0.0005179002
000080 ae 6c 1a 3a 3e 3f 09 3b 4c c1 6b 3a 10 26 ea 3a
       0.00058908283 0.0020942236 0.0008993342 0.0017864127
000090 74 68 4f 3b 95 cc 09 3b 7a e5 35 bb 48 18 9d 38
       0.0031647952 0.0021026481 -0.0027755187 7.490866e-05
0000a0 99 7b 11 ba ae 4c 2f bb 62 8b ff 37 db b2 2b 3b
       -0.00055497285 -0.0026748586 3.0463274e-05 0.0026199135
0000b0 4f 0c 8e ba 21 92 40 3b 01 4e c6 3a 01 dd 6b b8
       -0.0010837408 0.0029383975 0.0015129448 -5.6234192e-05
0000c0 22 00 6c 3b 52 ee 39 ba 57 9d 19 38 33 7f 11 39
       0.0036010821 -0.00070927024 3.6624577e-05 0.00013875663
0000d0 e4 95 a3 3a 35 e9 00 b8 ae 60 0d 3b cf 7a 64 3b
       0.0012480584 -3.073477e-05 0.0021572518 0.0034863239
0000e0 ee b2 1b ba 46 65 dd 3a 15 b1 ec b7 0d ef 98 ba
       -0.00059394434 0.0016891144 -2.8215853e-05 -0.0011667922
0000f0 18 4a 18 b9 d2 9e 01 bb 38 d5 1a 3b a8 3e 1a bb
       -0.00014523452 -0.0019778502 0.0023625623 -0.0023535881
000100 74 d0 fa 38 96 2d 09 3b af 3a 33 bb 3f 9b 63 39
       0.000119597564 0.0020931712 -0.002734821 0.0002170624
000110 f4 c2 34 3b f0 35 aa 39 69 bb 10 3b 83 6a 8a ba
       0.0027582021 0.00032465113 0.0022084361 -0.0010560307
000120 94 9f 99 b7 79 be 6c bb 24 c0 2c b9 48 05 06 3b
       -1.831333e-05 -0.0036124273 -0.00016474776 0.0020449925
000130 d8 65 f6 b9 f7 35 47 3b 2a 3e e5 ba 9d fa e0 3a
       -0.00046996656 0.0030397156 -0.001748984 0.0017164532
000140 b5 9a 33 3b 5c 79 17 bb d3 0e 48 ba dc da 13 3b
       0.0027405445 -0.0023113107 -0.00076316035 0.002256087
000150 2b 7c bf ba de 0f 27 3b 6b e6 43 ba af 6b 5c 3b
       -0.0014609148 0.0025491635 -0.00074729946 0.003363352
000160 16 83 87 bb d5 54 be ba c0 e4 2c 36 c9 41 36 3b
       -0.0041354997 -0.0014521132 2.5763147e-06 0.0027810207
000170 6a f1 25 3b 6c 30 23 3b 28 2b 8f 3a 22 18 6a 3b
       0.0025320896 0.0024900688 0.0010922896 0.003571995
000180 cd 4b 16 3a 14 2d 33 3b ef 04 6f 3a 5d 66 96 3b
       0.0005733341 0.00273401 0.00091178616 0.0045898394
000190 c7 1a b8 ba 8b 5d 09 bb 9b 54 e2 3a 6a 3b 13 3b
       -0.0014046066 -0.0020960297 0.0017267646 0.0022465833
0001a0 b1 ef 58 3a ac d0 1c bb c3 35 73 ba d1 80 d5 ba
       0.0008275463 -0.002392809 -0.00092777255 -0.0016289001
0001b0 b1 15 8f 3a 89 c4 2d 3b 00 dd c0 b9 97 52 62 3b
       0.0010916499 0.002651485 -0.00036785752 0.003453409
0001c0 1d 23 7c 3b 56 da 55 3b f5 a4 eb ba 0e a2 1c 3b
       0.0038473078 0.003263136 -0.0017978238 0.0023900303
0001d0 05 d0 47 3b 5f a2 98 3b 28 5c 0d ba e4 93 27 bb
       0.003048898 0.004658028 -0.00053924555 -0.0025570327
0001e0 a4 b6 56 3b f1 a3 bf b9 31 a6 50 3a 1b 8a 79 bb
       0.003276267 -0.00036552505 0.0007959335 -0.0038076702
0001f0 d9 64 8c ba df dd ac 3a d2 6b 61 bb fc 58 37 ba
       -0.0010711207 0.0013188681 -0.0034396541 -0.00069941557

network_body._body_endoder.seq_layers.2.weight f4 [128, 128]
000000 d3 29 2c 3e f1 31 cc 3c b8 1b ac 3b 59 5e 06 3d
       0.1681283 0.024926158 0.005252328 0.03280482
000010 85 56 a3 3d a1 94 da bc a2 c4 e6 3c 3f bb 02 3e
       0.07975487 -0.0266822 0.028169934 0.12766741
000020 68 59 00 bd c0 c5 fd bc e5 55 3d bd f0 bb 28 bd
       -0.031335264 -0.030978084 -0.046224494 -0.041194856
000030 42 95 89 3d 7a 9f 86 bd f1 ef 17 3e 0b 82 ae bd
       0.06717922 -0.065733865 0.14837624 -0.085208975
000040 92 ef 40 bd 64 3b b2 3d c8 80 2d 3d 4a 00 3b 3d
       -0.047103472 0.08702734 0.042359143 0.045654573
000050 94 3f 41 3c db a5 84 bd 27 48 ba 3d 88 86 65 bd
       0.011794943 -0.06476947 0.09095793 -0.056036502
000060 74 5a 8c 3d b3 fa 51 3e bf 9f 66 bc e6 57 69 bd
       0.0685319 0.2050579 -0.014076172 -0.056968592
000070 1e 26 70 3d a9 7a af bc ec d8 c2 bd 40 ca 16 3d
       0.0586301 -0.021420794 -0.09514031 0.036813974
000080 09 11 85 3d 54 71 a1 bd 57 58 9a 3c d1 34 c6 bc
       0.0649739 -0.07882944 0.018840952 -0.024195107
000090 40 cb 8f 3d 62 9d 37 3b 9a 1c 52 bd c3 46 1c be
       0.07021189 0.0028017391 -0.051296808 -0.15261368
0000a0 87 2e 00 bd fe 7e df bd 1f 08 14 3e 03 63 4e bc
       -0.031294372 -0.10912894 0.14456223 -0.012596848
0000b0 31 1d e9 bd ec 2a 4d bb ea 9a 1c 39 6b d5 1e bd
       -0.11382521 -0.00313061 0.0001493503 -0.03877775
0000c0 ab 14 26 bc fb 71 0d be 7f de c7 bc c6 6b 72 3d
       -0.010136764 -0.13813011 -0.024398087 0.059184812
0000d0 ac c5 c1 3c 63 40 5e 3d d6 5a 08 bd a0 1c 81 be
       0.023653828 0.054260623 -0.033289753 -0.25217152
0000e0 69 11 8b bd 7f eb 8e 3e 64 e4 30 bd 75 42 be bd
       -0.0679043 0.27914044 -0.04318656 -0.092900194
0000f0 c0 88 c7 bd bb 65 44 3e 51 be 06 3d 51 9e 69 bd
       -0.0974288 0.19179432 0.032896344 -0.057035748
000100 0f 06 b2 3d 00 89 0a bc 91 b0 aa 3b cd e8 dc bd
       0.08692562 -0.008455515 0.0052090366 -0.10786591
000110 5d b4 76 bd ca 22 7b 3d a7 34 f1 3d 8e dd c3 bc
       -0.0602306 0.061312474 0.11777621 -0.023909356
000120 73 aa 21 bd f2 0a 5c 3d fa 21 9d bc 64 0a 98 3d
       -0.039469194 0.053721376 -0.01918124 0.07423857
000130 60 4a 06 3d 56 68 20 3d e6 3d e5 3c 16 a4 e0 3d
       0.032785773 0.039162003 0.027983617 0.10968797
000140 88 d3 b9 3d da d2 b3 bd d7 d2 f0 bd 0d 69 c5 bc
       0.090735495 -0.08780451 -0.117589645 -0.024097944
000150 9b 4f fb 3c 16 c6 a2 3d 6d 1f 48 bd 9c fa ca 3c
       0.030677607 0.07947938 -0.048858095 0.024777703
000160 93 2f 99 3d 0e f0 3b bd 88 dd b8 3c 1b c1 1e 3d
       0.07479777 -0.04588323 0.022566572 0.03875838
000170 8c c9 88 be 61 8f 82 3d 16 6a c2 bd 73 90 3a bd
       -0.26716268 0.063750036 -0.094928905 -0.045547914
000180 a1 e7 e4 3d 5a 59 65 bd 13 69 4c bc 6d 89 cc bc
       0.11176992 -0.055993415 -0.0124762235 -0.024967873
000190 9b 34 0b 3e 08 ae 52 3e 53 75 a4 bd 3a 8c 48 bd
       0.13594286 0.205742 -0.0803019 -0.048961855
0001a0 47 fe b4 3d 25 44 00 3e 6f db ab bd 4d 3c e8 3c
       0.08837562 0.12525995 -0.08391463 0.028349066
0001b0 4f 25 cf bd 17 04 67 bc 1e 0b 85 3d 0c 04 c0 bc
       -0.10114538 -0.014100096 0.06496261 -0.02343943
0001c0 48 54 0e 3e b2 09 07 3d d9 d8 3a 3c 9d 67 75 3d
       0.13899338 0.03296823 0.01140424 0.059913266
0001d0 58 7e 9c 3d 4a 37 bd 3c ff 12 ba 3d 13 d0 b3 bb
       0.07641286 0.023097653 0.090856545 -0.005487451
0001e0 c2 90 15 bd ca f1 03 3e ec 66 35 bd b2 66 50 bd
       -0.036515005 0.12885204 -0.044287607 -0.050879188
0001f0 3b b5 dc 3d e8 50 9a 3c 8e 67 de 3c 43 2d 03 3e
       0.107767545 0.018837407 0.027148988 0.12810235
000200 61 78 de 3d 24 ba 3b bd 70 a0 8a bc e6 4e 3f be
       0.10862804 -0.045831814 -0.016922206 -0.18682441
000210 0c 98 b4 bd 0a 06 07 3d b3 77 1a be ba 6c cc bd
       -0.08818063 0.032964744 -0.15084724 -0.099816754
000220 62 14 0e be db 02 80 bc eb 5c 72 3b ca 61 ec 3c
       -0.13874963 -0.015626362 0.0036981653 0.028855223
000230 91 67 95 bd 43 47 5f bd 55 9b c9 3d 8a d2 17 bb
       -0.07295144 -0.05451132 0.0984408 -0.0023166263
000240 a5 15 6f bd c9 c2 0c bd 10 0a 88 3d 8c d1 83 3d
       -0.05837025 -0.03436545 0.06642544 0.06436452
000250 7b 2a be bd 5a b0 7d bd bf c1 ab 3d 6e 67 32 3d
       -0.09285446 -0.06193576 0.083865635 0.04355567
000260 b2 7c 0e 3e c6 3b 37 bd 3f e3 3b bc c0 4d 27 be
       0.13914755 -0.04473474 -0.011467754 -0.16338253
000270 86 13 d9 bd 59 41 d4 bc 00 77 0d be 4b 4a 58 bd
       -0.10599427 -0.025910066 -0.13814926 -0.052805226
000280 90 03 d8 3d f3 cc 76 3d be 30 9d 3c a1 8a 08 be
       0.105475545 0.06025405 0.019188281 -0.13334133
000290 12 ea 05 3c a9 03 ea bb 8c 25 cf 3c 23 8e e4 bd
       0.0081734825 -0.0071415496 0.025286458 -0.11159923
0002a0 01 a2 4b 3e 96 49 05 3e 23 5a 23 3d 90 0b 8d 3c
       0.19886018 0.13016352 0.039880883 0.017217427
0002b0 03 e3 c5 bd ca c8 96 3d 41 7b 13 3e 9c 7e 44 3b
       -0.0966244 0.07362516 0.14402486 0.0029982692
0002c0 7d d7 3a be 29 7c d4 bc 07 79 c5 3d 26 34 9f 3c
       -0.18246265 -0.02593811 0.09642225 0.019434046
0002d0 3d 75 14 bc 58 8a 4c 3a 2a 78 06 3e d4 17 34 be
       -0.009061155 0.0007802597 0.13131776 -0.17587215
0002e0 ce 9f 67 bd ba 88 d2 3d 98 bb d8 ba fa ca 58 3d
       -0.056548886 0.10279985 -0.00165354 0.05292795
0002f0 b4 5c 02 3e 38 8c 01 3e fe 0d 07 3d e2 e9 46 3d
       0.12730676 0.12651145 0.03297233 0.04856289
000300 61 59 c9 3c 2c d9 f9 3d 40 09 b6 3c 78 0f a9 bd
       0.024578752 0.121996254 0.022221208 -0.082549036
000310 75 0c b3 3d a7 f6 25 bd 0c 6f ce 3d 97 57 f1 3d
       0.0874261 -0.04051843 0.10079774 0.117842846
000320 86 a6 1e 3d 4c c4 8e bd 70 a7 e0 bd b9 bb 06 be
       0.038733028 -0.069710344 -0.10969436 -0.13157548
000330 69 d3 df 3b 75 d5 fe bd ce cf 6e 3d df 66 54 be
       0.006830622 -0.124430574 0.058303647 -0.20742367
000340 29 f8 6b bd 3a 66 33 bc 83 26 d9 3c a1 cc fd 3d
       -0.05760971 -0.010949666 0.026507622 0.123925455
000350 91 2a 1d 3d 9f 24 b8 3d db 08 0d 3e 23 d5 0c bd
       0.038370673 0.0899136 0.1377291 -0.03438295
000360 61 02 80 bd f3 79 35 3d 3e d0 bd 3d 11 0d 45 bd
       -0.06250454 0.044305753 0.09268235 -0.048108164
000370 12 8a 30 3d 9d f1 4f be 52 fc 21 bc 9c 3e 91 3d
       0.043100424 -0.20307012 -0.009886818 0.0709202
000380 19 29 2f bd ee cc 8a 3d 8b 8c cf bd 11 5b 95 3d
       -0.042763803 0.067773685 -0.10134228 0.0729276
000390 3d e7 c6 3d ea 3c 1c 3e 9f 7e 6e bd 92 51 31 3b
       0.09712074 0.15257612 -0.058226224 0.0027056676
0003a0 1e 21 a3 3c 6c fb 39 bd 78 d8 07 3e d0 f9 91 bd
       0.019913252 -0.04540579 0.1326617 -0.07127726
0003b0 59 b6 a9 bb 5e f9 8b bc 5e a3 54 be ec 6e a2 3c
       -0.0051792082 -0.017086681 -0.20765445 0.019828282
0003c0 71 ea 99 3c b1 7a c8 3d 58 e1 9f 3c 75 08 06 3e
       0.018788548 0.097890265 0.019516632 0.13089164
0003d0 b2 1b 86 ba 4a 37 a1 3d 92 ef df bc f5 5f 57 3d
       -0.0010231643 0.07871874 -0.027335916 0.052581746
0003e0 d0 72 d7 bd a6 d1 fe bc 27 3b ea 3c 79 79 d5 bd
       -0.105199456 -0.031105828 0.02859266 -0.1042356
0003f0 78 70 e5 3d fc 39 9b bc 32 5e 11 3e 5a b0 9f 3b
       0.11203092 -0.018948548 0.14196089 0.0048733177

network_body._body_endoder.seq_layers.2.bias f4 [128]
000000 40 0f 05 b9 6c fd 3f 39 12 d3 22 ba fc 99 cb ba
       -0.0001268955 0.00018309586 -0.00062112615 -0.0015533562
000010 1d 85 51 3b 39 88 45 bb 27 67 ed b9 e9 c1 2b 3b
       0.003197021 -0.003014101 -0.00045281017 0.0026208109
000020 1b 34 20 b9 6b ec cf 3a c8 56 c1 ba 21 97 44 3b
       -0.000152782 0.0015863305 -0.0014750594 0.0029997306
000030 c5 65 61 3b d5 5e 7b 38 c6 d1 4c bb a0 c5 10 bb
       0.0034392935 5.9931383e-05 -0.0031252964 -0.002209045
000040 e8 40 1a bb 06 f2 8c 3b 88 45 12 3b 5f 5b 8a 3b
       -0.0023537222 0.0043013124 0.0022319276 0.004222318
000050 82 94 5d 3a 65 40 66 3b 52 17 f9 b8 f0 f1 c2 ba
       0.00084526103 0.0035133597 -0.00011877589 -0.0014873128
000060 9a 5a 1a bb 4e 43 82 bb 2b ee 94 ba 7f ff df b7
       -0.0023552538 -0.0039753085 -0.0011362483 -2.6702646e-05
000070 87 95 3e bb 6d 4a 86 ba 17 98 1a 3b 5d d1 01 3a
       -0.0029080824 -0.0010245569 0.0023589188 0.0004952157
000080 5d 54 8f bb 9c 24 cb 39 e8 81 f7 3a f9 fe 90 bb
       -0.0043740706 0.00038746453 0.001888332 -0.0044249264
000090 d2 6a a4 b9 98 3e eb 3a e4 b7 4e 3a f0 1b 31 bb
       -0.00031360105 0.0017947732 0.0007885678 -0.0027024709
0000a0 fa 1f 20 3a a3 72 41 3b 46 c1 29 ba f9 5b 8a b9
       0.00061082805 0.0029517792 -0.00064756384 -0.00026389936
0000b0 5b 6a 13 3b ee 98 94 ba 0f dd 78 bb 2b 36 2d 3b
       0.0022493813 -0.001133708 -0.0037973558 0.0026429992
0000c0 08 af 3a bb f6 f8 21 bb 39 17 45 bb fa 98 77 bb
       -0.0028485674 -0.0024715043 -0.0030073656 -0.003778039
0000d0 05 66 78 3b e9 f5 87 bb 80 d6 92 39 10 07 1d 3b
       0.0037902605 -0.004149188 0.00028007105 0.0023960508
0000e0 e9 21 80 bb 52 62 5b bb ae 41 26 ba 3f f9 45 3b
       -0.0039102924 -0.0033475352 -0.00063421845 0.0030208377
0000f0 fd c7 90 bb 4e 8d a2 3a ab 25 db ba 81 ba 54 3b
       -0.0044183717 0.0012401731 -0.00167196 0.0032459798
000100 34 48 65 3b 9e 43 37 3a 6f 42 b5 3a 33 ba cb 39
       0.0034985663 0.0006990972 0.0013829003 0.00038857906
000110 c8 e3 20 ba 16 fa 3e bb 26 f3 0a 3b 54 f7 63 3b
       -0.00061374577 -0.0029140762 0.0021202057 0.003478487
000120 4c 69 78 3b 21 56 32 bb 22 e5 2f bb 88 65 11 bb
       0.0037904559 -0.0027211981 -0.0026839455 -0.0022185761
000130 c5 19 58 b9 b1 33 f5 3a 0e f5 70 b8 15 a6 4f bb
       -0.00020608965 0.0018707422 -5.7448684e-05 -0.0031684686
000140 92 82 83 3a 56 42 99 bb 1e 27 8b ba cb 01 05 38
       0.001003342 -0.0046770973 -0.0010616516 3.171134e-05
000150 02 4d 91 b9 7f 58 0a bb 24 97 ae b9 0b 55 df ba
       -0.0002771393 -0.0021109877 -0.00033300475 -0.0017038895
000160 fb e0 a8 3a 94 7f 29 3b 30 9e 0b bb 7a ac 5a 3a
       0.0012884432 0.0025863396 -0.0021304004 0.0008341741
000170 91 d1 96 3b a1 7e be ba 59 54 80 3a 0a aa 1c bb
       0.004602619 -0.0014533588 0.0009790763 -0.0023905062
000180 5f ba 85 3b ac d1 59 ba ed db de 3a 1d bd cc 38
       0.004081055 -0.00083091366 0.0017002799 9.762703e-05
000190 e5 51 6d bb d8 50 6e b9 d6 50 31 bb 4a b1 a1 3b
       -0.0036212143 -0.00022727565 -0.0027056239 0.0049344646
0001a0 d8 6e bd 39 15 52 54 3b 7d 19 de ba d1 ea 4d bb
       0.00036131474 0.0032397558 -0.0016944852 -0.003142048
0001b0 5e 57 fe 3a c3 64 82 3a 88 7a 1a 3b 37 a5 ae ba
       0.00194047 0.0009948242 0.002357157 -0.0013324384
0001c0 8a bb 5a 3b 59 a7 0e 3b be 7d 2d ba c2 ca 13 bb
       0.0033375942 0.0021767227 -0.00066181633 -0.0022551273
0001d0 be b8 52 3a 6e 6f ee 3a a1 98 cd ba 0c 83 06 3b
       0.0008038393 0.0018191168 -0.0015685746 0.0020524887
0001e0 67 6b 0d 39 ab d1 9a ba fa e2 bd ba e2 d7 2d bb
       0.00013486818 -0.0011811754 -0.00144872 -0.0026526381
0001f0 5a af 58 ba 24 40 5b 3b 9c 7b d0 ba 70 82 89 3b
       -0.00082658755 0.003345498 -0.0015905979 0.0041964576

action_model._discrete_distribution.branches.0.weight f4 [16, 128]
000000 25 77 eb 39 87 f8 bf 3b 31 f9 d0 bb 63 cd 3d 3c
       0.00044911462 0.005858484 -0.006377362 0.011584613
000010 ac 26 25 bc 30 2e 00 bc bb a5 2e bb de 51 13 3c
       -0.010080021 -0.007823512 -0.0026649076 0.008991687
000020 6c fe 0e bc 86 e2 e6 3b d6 95 a7 3b 35 24 0d bb
       -0.008727651 0.0070460467 0.0051142974 -0.0021536474
000030 60 57 cd bb 7f 97 d2 bb fb d3 f0 3a 52 20 77 3c
       -0.0062665194 -0.006426751 0.0018373722 0.015083389
000040 40 e1 98 3c da d9 8a bc f4 8a 52 bb 78 ff 79 bb
       0.018662095 -0.016949583 -0.003212628 -0.0038146656
000050 3f 9d f1 3a bf ce 5c 3a 7d 52 a5 3c 29 67 f2 ba
       0.0018433704 0.00084231416 0.020180935 -0.0018493879
000060 63 9a 9a 3b 44 93 c1 bb 55 e6 a6 bb a3 d2 44 bc
       0.0047181114 -0.005907448 -0.0050933757 -0.01201311
000070 2d a5 4e bc 07 32 a1 bb 31 07 35 3a 5e b5 77 3b
       -0.012612623 -0.004919294 0.00069056737 0.0037797312
000080 91 76 f8 3a de 86 d7 bb 99 76 c6 bb 67 82 16 bc
       0.0018956234 -0.0065773567 -0.0060566184 -0.009186364
000090 78 71 33 bb 7d 3c 3b bc 2e ad 34 3b 66 67 32 3b
       -0.0027380865 -0.011427996 0.0027569043 0.0027222275
0000a0 f8 06 b8 bb 3f 4b 23 3b f6 80 1c bc ef 1e 4d 3c
       -0.005616065 0.0024916676 -0.009552231 0.012519582
0000b0 72 a7 e1 bb 74 76 da bb 78 6d 4a 3c cf 00 74 3b
       -0.006886416 -0.0066669527 0.012355201 0.0037231927
0000c0 f8 b2 04 bc c5 e7 eb bb 3d 0a a9 ba a5 63 45 3b
       -0.00809931 -0.00719926 -0.0012896728 0.0030119207
0000d0 ef f9 25 3c dd 82 eb 3a 03 19 65 bb 48 ac 21 3b
       0.01013039 0.0017968077 -0.0034957535 0.0024669338
0000e0 96 4a 25 3c 53 d5 6e bc c0 fe c3 3b 1f 6d 85 3b
       0.010088583 -0.014577228 0.0059812963 0.004071846
0000f0 36 df 71 bb 0b 18 0e 3c 8f 0a 48 bc d5 79 6d bc
       -0.0036906726 0.0086727245 -0.012209549 -0.014494379
000100 a9 04 1e 3b 29 49 5f ba 45 35 00 bb 0c 83 20 3c
       0.0024111664 -0.00085176766 -0.0019563 0.009796869
000110 16 6b 43 bc 97 30 21 3c 0d 19 61 3b 25 5b ca bb
       -0.011927387 0.009838245 0.0034347207 -0.006175416
000120 4d d3 2d 3b c6 ee 49 3b a8 a0 59 3c 35 14 e3 b9
       0.002652365 0.0030812486 0.013282932 -0.0004331187
000130 4b cf e3 bb 6b 33 fc ba 26 2a f8 3b 64 aa 94 3b
       -0.0069522015 -0.0019241398 0.007573384 0.0045369137
000140 ae 85 c7 3a 1c 15 97 b9 48 53 03 bb 85 06 db 3b
       0.0015222335 -0.00028816692 -0.0020038653 0.006684127
000150 72 c7 a4 3b a8 f5 05 bb f6 9a 89 3c 3f 3e 7b bb
       0.0050286585 -0.0020440612 0.016797524 -0.0038336662
000160 e4 09 59 bb 8e 91 76 ba 01 78 1d 3c c2 08 ca 3b
       -0.0033117468 -0.00094058446 0.009611131 0.006165595
000170 c4 48 5e bc 7f c3 e0 3b ba 39 5e bc e7 36 3b 3b
       -0.013567153 0.0068592425 -0.013563568 0.002856666
000180 54 bf 42 bc b7 f7 bf 3b 99 de 53 3b 9a 21 d7 3b
       -0.0118864365 0.0058583873 0.0032328723 0.006565285
000190 6e f8 da bb 3c 9e 0a bc 38 6e 86 bc dd 13 26 3b
       -0.006682447 -0.008460578 -0.016409978 0.002534143
0001a0 f3 5d 15 3c 92 61 d3 3b a6 7c 38 3b 61 80 83 ba
       0.0091166375 0.0064508403 0.0028150468 -0.0010032767
0001b0 ee a4 03 bc 9e 4c 9e 3a d4 a0 52 3c d2 14 b9 bb
       -0.008034928 0.0012077277 0.012855727 -0.005648234
0001c0 5d 14 91 bc 31 21 08 bc 77 f1 02 bb 26 b0 c8 39
       -0.017709905 -0.008308695 -0.001998035 0.00038278213
0001d0 ee 3d 88 3b 71 03 5c bc 35 1f 4d 3b f4 60 f4 ba
       0.004157773 -0.013428555 0.0031299118 -0.0018644617
0001e0 f8 5c 09 3b aa f5 79 3b 47 c7 20 bb fd 56 6b 3c
       0.0020959955 0.0038140812 -0.002453284 0.014364001
0001f0 7c 9e 8c ba cd 9c 51 bb eb b6 37 bb 02 c8 ed bb
       -0.0010728384 -0.003198433 -0.0028032612 -0.007256509
000200 95 dd b2 bb fe 99 9b 3b 48 b3 09 3c b0 c5 03 bc
       -0.0054585435 0.004748582 0.00840456 -0.008042738
000210 21 3b 48 bb d9 5e a4 bb 41 b2 1a 3b b7 e1 a8 3c
       -0.0030552822 -0.0050161895 0.0023604783 0.020615442
000220 54 9d 41 3b 0e bb d0 3b 78 30 18 bc be a3 33 3a
       0.0029543238 0.006369955 -0.0092889 0.00068527076
000230 4b 09 c1 3c 96 92 26 3c 1e a7 43 3a a9 11 91 bc
       0.023564002 0.010166785 0.0007463562 -0.017708616
000240 a0 a0 30 bb 01 9e 0e bc 05 84 b2 bc 64 3b b4 3b
       -0.0026951209 -0.008704663 -0.021791467 0.005500244
000250 8d fb 26 3c e0 96 e0 3b 2e 94 95 3b 3e 7f ae 3b
       0.01019181 0.006853923 0.0045647835 0.005325227
000260 16 0a 13 3a 69 34 8f bc 81 13 fe 3b ce 7b 0d 3b
       0.0005609108 -0.017481046 0.00775379 0.0021588686
000270 a0 81 72 b9 b4 78 98 bc 63 e2 92 3a 7c 0a 74 bc
       -0.00023127208 -0.018612243 0.0011206385 -0.014895078
000280 ca bd 01 bc 15 0e f0 bb 3c a6 50 3c 4b b7 01 39
       -0.007918784 -0.0073258975 0.012734946 0.0001237068
000290 88 bc 6d 3c d3 47 fa bb 8b f1 17 3b e2 f7 05 bc
       0.014510281 -0.0076379566 0.0023184742 -0.008176776
0002a0 00 26 2b bc 81 2e 39 bb 56 6d 0d bc 8c 5d 3b 3c
       -0.010446072 -0.0028256478 -0.008632025 0.0114358775
0002b0 81 71 c3 3b a7 3a 9b bb fb 52 7d 3a 85 f3 bf bb
       0.0059644585 -0.0047372165 0.0009663549 -0.005857887
0002c0 b8 9f 01 3c 7d 18 f7 bb 60 5c 0a bb 83 6b d8 3b
       0.007911615 -0.007540761 -0.0021112189 0.0066046133
0002d0 8b 78 1b 3b e0 c1 ed 3b 2f b3 f9 bb d8 01 eb 3b
       0.0023722972 0.0072557777 -0.0076202373 0.0071718507
0002e0 d2 58 55 bc d8 18 0a 3b b7 41 74 bc 1d a5 7a bc
       -0.013021665 0.0021071937 -0.014908246 -0.015298155
0002f0 53 d0 9e bc 9d c0 bc 3b 63 d4 0a bc b4 61 83 3b
       -0.019386446 0.005760266 -0.0084734885 0.00400945
000300 2b 63 ab 3b 15 62 11 3c 29 bd 67 3b a6 d0 d2 3b
       0.0052303276 0.008873482 0.003536055 0.0064335642
000310 8f fc 19 bc 80 dd d2 bb f0 82 44 3c 7f 33 a6 3a
       -0.009398594 -0.0064350963 0.011994109 0.0012680142
000320 bc 32 a1 3c 52 b4 93 bb c6 1d de bb 61 64 28 3a
       0.019677512 -0.00450758 -0.0067784516 0.0006423649
000330 32 67 be 3b a2 be 16 3c 0b f4 c6 bb 07 ee b0 bb
       0.0058106417 0.009200724 -0.0060715727 -0.005399469
000340 70 3a 80 bc 14 63 4b 3c 56 45 12 3b 5c 5a 3e 3c
       -0.015652865 0.012413759 0.002231916 0.011618223
000350 72 2f 03 bb 67 19 31 3c 60 eb b4 ba 32 ba e3 bb
       -0.0020017293 0.010809279 -0.0013803057 -0.0069496864
000360 65 2a 32 bc a3 7e 80 ba 9c 3e 30 bb 51 45 39 3b
       -0.010874365 -0.0009803366 -0.0026892787 0.0028270076
000370 05 3a 35 bc af 92 03 3b c4 85 60 3c 1d 46 fd b8
       -0.011061196 0.0020076444 0.013703767 -0.0001207704
000380 8f 67 03 3c 0e b9 a1 3b 9b 1f 9f 3c 4c 7c e2 bb
       0.008020296 0.0049353903 0.01942425 -0.00691179
000390 91 e1 00 3c 9c cd e6 bb e9 0b a9 3a 1b b8 87 bb
       0.007866279 -0.0070435535 0.0012897226 -0.00414182
0003a0 91 aa 9a bc 51 ff 89 3b 50 55 7c 3b 4d fa 20 bb
       -0.01888016 0.0042113443 0.0038502999 -0.0024563253
0003b0 ae b2 82 3b 24 7e 04 bb 7e d5 ed 3b ea d4 b4 3b
       0.0039885854 -0.0020216787 0.0072581163 0.0055185454
0003c0 14 34 9b 3c 9a 4e 3e bc 87 35 ba 3b 28 2e 28 bc
       0.018945731 -0.01161542 0.0056826505 -0.010264911
0003d0 36 9e 94 3b a8 b4 2a 3b 19 3c 39 bc db 2b 19 3b
       0.004535462 0.002604762 -0.011305832 0.0023372087
0003e0 62 33 c6 bb 28 c1 96 bc f0 2a 24 bb 6a f2 43 bb
       -0.006048606 -0.018402651 -0.0025050007 -0.0029899129
0003f0 de 7a ae 3b 9e 22 85 3c 5f fa 72 bb de 46 35 3c
       0.0053247055 0.016251858 -0.0037075502 0.011064259

action_model._discrete_distribution.branches.0.bias f4 [16]
000000 2d fa 5b ba b3 f0 44 3b 15 d9 aa 39 b3 fd b6 ba
       -0.0008391466 0.0030050694 0.00032586665 -0.0013961106
000010 a4 35 63 b9 6a c9 6a ba a7 8d 71 3a f4 41 d6 3a
       -0.0002166839 -0.00089564046 0.0009214528 0.001634656
000020 44 c0 ba 3a 98 26 0d b8 5c a4 37 bb 11 c5 d2 ba
       0.0014247973 -3.3652963e-05 -0.002802155 -0.0016080459
000030 77 b2 49 ba df 7f 09 bb 08 60 da 3a 92 ec 19 3a
       -0.0007694135 -0.0020980758 0.00166607 0.00058717385

action_model._discrete_distribution.branches.1.weight f4 [10, 128]
000000 18 6e 95 3b fe c6 ca bb f8 8c aa 3b 75 b9 19 3b
       0.0045602433 -0.0061882725 0.005204793 0.0023456488
000010 de db b0 3b 1e 21 d5 bb 22 cf e6 3a 11 c2 0a 3c
       0.005397304 -0.006504192 0.0017609338 0.008469121
000020 db 43 b1 3b f5 c7 50 bc 76 8a bb bb fc d4 2c bc
       0.0054097003 -0.012742986 -0.005723293 -0.010548826
000030 ec a1 8d 3b 47 3b 12 3c 07 9c 89 bb 86 8f 56 bc
       0.004322281 0.008925266 -0.004199508 -0.013095742
000040 4e 49 99 bb cd ab 99 3b 3e 4c ec 3b 14 0d d9 3b
       -0.004677928 0.0046896697 0.007211237 0.0066238735
000050 87 98 27 3c 9c 4f 10 3c 47 ee 40 bc f3 76 0e 3b
       0.010229236 0.008808043 -0.01177556 0.002173838
000060 53 df b6 bc e0 13 e1 bb 19 c9 19 3c 9e ec 3d 3c
       -0.022323286 -0.0068688244 0.009386324 0.011592058
000070 32 6d 24 bc 14 43 a6 3b 34 ce 7a bb 9d 8e 44 3c
       -0.0100358 0.0050739143 -0.003826988 0.011996892
000080 06 7b 5e bb a8 4e b4 bb 9d 3e 05 bc 57 21 e2 bb
       -0.003394784 -0.0055025406 -0.008132604 -0.006900947
000090 df 11 1b 3c bf 73 06 bc 6b c6 71 3b 13 6a 00 bc
       0.00946471 -0.008206307 0.0036891948 -0.00783779
0000a0 92 1a 3d bc 72 c9 8b 3b 98 fd 4f bc 1f 1c 3a 3c
       -0.011541979 0.0042659575 -0.012694739 0.011359244
0000b0 3f bc 3a 3c 81 39 10 3c cf 52 cd 3b e4 c1 24 bc
       0.01139742 0.0088027725 0.006265975 -0.010055993
0000c0 6b be d1 bb 12 61 83 bc 02 e2 dc 3b 8c 1f 64 3b
       -0.0064008734 -0.016037498 0.0067408094 0.0034808842
0000d0 98 22 2f bc 06 47 d5 3b 39 6e a5 3b 78 37 93 3b
       -0.0106894 0.006508711 0.00504854 0.0044926964
0000e0 9c d3 c9 ba bc 07 cd bb 6e c2 6d 3b a5 5d 5f 3c
       -0.0015398148 -0.0062570255 0.003627922 0.013633166
0000f0 aa 2d 48 3c 66 f0 1b bc 88 cf 64 bb a1 e9 48 3c
       0.012217918 -0.009517765 -0.0034913737 0.012262733
000100 98 85 f5 3b 15 cb ea 3b 39 bd 88 3b 5f 47 a5 3b
       0.0074927323 0.0071653225 0.0041729477 0.0050439085
000110 70 b2 1c 3b 7c 5e 20 3c 7c eb 4a bb 40 bc 13 3c
       0.0023910068 0.009788152 -0.0030963114 0.00901705
000120 fa 62 41 bc 2c f2 ce 3b 71 1d 62 3c 6b 2d 37 bb
       -0.011803383 0.00631549 0.013800965 -0.0027950655
000130 67 15 e4 ba 8c 96 fa 3b b2 8d b4 3b ed 29 3d 3a
       -0.0017401398 0.007647341 0.0055100555 0.0007216025
000140 72 60 30 3b db 2d 0b bb cd c4 fe 3a 87 ae 86 38
       0.0026912955 -0.0021237049 0.0019437313 6.422126e-05
000150 48 f6 7a bb df d4 66 ba 29 94 84 bc d9 5c a7 3a
       -0.0038293768 -0.0008805524 -0.01618393 0.001276876
000160 97 0b d5 38 a4 9f b4 3c 60 05 95 bb f6 15 8e bb
       0.0001015879 0.022048779 -0.00454776 -0.004336114
000170 a7 0d 42 3c e9 f7 c3 3b f2 99 86 b9 b2 f8 a9 3b
       0.011844075 0.005980481 -0.0002567317 0.0051871175
000180 dc 6d c2 3b 3c 61 03 3c e9 b6 55 bb 69 04 bd bb
       0.0059335064 0.008018788 -0.0032610244 -0.005768348
000190 42 7c 56 3c 92 42 03 3b 97 cf 40 bb 13 f6 3d 3c
       0.013091149 0.0020028693 -0.0029420608 0.011594313
0001a0 c4 9f 22 bc a9 6b 40 3c e4 72 70 bb 66 ff 76 bb
       -0.009925786 0.011744418 -0.0036689574 -0.003768885
0001b0 33 49 e5 bb f4 88 73 3c 6e 16 85 3b a5 ab 1c bc
       -0.0069972514 0.014864195 0.0040615117 -0.009562408
0001c0 2f 8b 6e bc 40 29 12 bc 51 49 61 3c 96 cf a2 3b
       -0.014559551 -0.008920968 0.01375039 0.004968594
0001d0 8b d1 b5 bb eb 29 d6 3b 9c 2b b3 bb 42 7d ba bb
       -0.005548661 0.0065357587 -0.005467845 -0.0056912014
0001e0 7e 7b 1c 3c 38 ba db 3b 46 72 23 3c 12 fa d3 ba
       0.009550927 0.0067055486 0.009975975 -0.0016172549
0001f0 43 93 2d bb 2f 0f d4 3b aa b9 d2 3c 83 7d 08 ba
       -0.002648548 0.0064715366 0.025723297 -0.0005206691
000200 62 a0 a3 bb ed 33 d2 3a 6c 2a 09 3c 51 44 35 3c
       -0.0049934844 0.0016037204 0.008371931 0.011063651
000210 1a f7 71 bc 31 0c 7d 3c 93 f4 41 3b c8 0b 1c bc
       -0.014768386 0.015444801 0.002959524 -0.009524293
000220 f6 61 b2 3b 21 ef 25 bb eb f5 ae 3a 10 72 b8 bb
       0.0054438068 -0.0025319534 0.0013348436 -0.0056288317
000230 c2 40 a3 bb 50 78 e0 bb 98 91 79 3c 45 a5 3c 3b
       -0.004982085 -0.00685028 0.015232466 0.0028785032
000240 d1 f4 3a 3c 0d a9 54 bc ea 2b c1 ba d3 50 5c bc
       0.011410908 -0.012979758 -0.0014737819 -0.013447004
000250 b0 35 02 3b 39 15 3b bc 3d 1b 4d bb 6a c0 0d bc
       0.0019868426 -0.011418634 -0.0031296753 -0.008651832
000260 96 19 7a 3c b3 ec ce 3c 2f 1f a3 3b 54 4b 0a bc
       0.015264889 0.025259351 0.0049780826 -0.008440811
000270 28 75 a5 3b 68 fe fc 38 3d 28 0d bc 31 9b 88 ba
       0.0050493665 0.00012063683 -0.008615551 -0.0010422227
000280 f8 5b 9b 3c d9 15 57 3c 84 97 59 ba 6e 88 5e 3c
       0.018964753 0.0131277675 -0.00083004707 0.013582332
000290 dd 8b a4 3b 44 52 6e bc 6b c6 40 b8 cb 29 18 3c
       0.005021556 -0.014545981 -4.596116e-05 0.009287308
0002a0 93 e3 f2 39 7e 2f 7d bb 0f 6e b4 3a f3 9f 2a 3a
       0.00046327393 -0.0038633044 0.001376571 0.00065088196
0002b0 5b b7 78 3b 71 55 88 3b 81 c7 97 3b c7 6b 80 bc
       0.0037951085 0.004160576 0.004631937 -0.015676392
0002c0 b8 65 92 3b 23 3a 12 3c e3 e4 86 3c 65 0f 81 3c
       0.004467692 0.008924994 0.016466564 0.015754411
0002d0 70 bd 4b bc 97 2e a5 3c 94 6e 8d 3b 94 2b 31 bc
       -0.012435302 0.020163817 0.0043161605 -0.0108136125
0002e0 e4 da 8b 3c ec 3d 70 3c 91 f0 81 bb 3a 6a 84 bb
       0.017072149 0.014663201 -0.0039654453 -0.0040409835
0002f0 32 23 6e 3b 51 db 5e bb c3 8e a0 3a d1 90 21 bc
       0.0036336896 -0.0034005234 0.0012249578 -0.009861187
000300 62 70 88 bc bf 8c 08 3a d4 ad 80 39 50 cd a6 bb
       -0.01665515 0.0005208961 0.00024543575 -0.005090393
000310 b5 cc 11 3c 07 2d e6 3b 71 f7 56 bb fc 6e 59 bb
       0.008898904 0.0070244106 -0.0032801295 -0.0033177724
000320 01 45 9c bc c0 24 be 3b 32 ed 03 bb ae 35 79 3c
       -0.019075872 0.005802721 -0.0020130393 0.015210552
000330 f1 d0 fb ba e9 f9 bb bc b7 46 28 ba 04 2f ec 3a
       -0.001921205 -0.022946315 -0.0006419229 0.0018019383
000340 30 d2 c6 3a c4 82 0c 3c 79 66 d2 3b ac 34 40 bb
       0.0015168842 0.008576099 0.006420907 -0.002932827
000350 e9 fd c8 3a 57 74 52 3c d4 b6 a0 bc 24 26 47 3c
       0.001533446 0.01284512 -0.01961843 0.0121550895
000360 6c e0 9c bc f7 7d e9 ba 6c 98 13 bc 05 31 8f 3b
       -0.019149981 -0.001781403 -0.009008508 0.0043698573
000370 a9 59 91 bb cd d5 db 3b 62 ff 90 3b 0e 6a 11 3c
       -0.004435737 0.0067088366 0.0044249753 0.008875383
000380 33 1c 2e bc 8c ff b3 bb 93 07 1a bc e8 5c b9 3a
       -0.01062684 -0.00549311 -0.00940122 0.0014142068
000390 cc 4c 6b 3c c6 04 2b 3b 5a d0 a4 ba ad 30 61 bc
       0.0143615715 0.0026095374 -0.0012574301 -0.013744515
0003a0 44 10 0c bb 75 7f 23 bc 23 14 94 bb ad e3 3e 39
       -0.0021372 -0.009979119 -0.004519002 0.00018204628
0003b0 16 1b 73 bc f5 88 7e ba 80 b4 00 bc 7c f4 10 b8
       -0.014838001 -0.0009709739 -0.007855535 -3.455997e-05
0003c0 26 a4 32 bc 51 f6 14 ba 94 b5 37 3c 33 4c 1e 3c
       -0.010903394 -0.0005682456 0.011212725 0.009661722
0003d0 b8 9a 81 bb 38 52 64 bb d2 c6 d9 3a 14 cf a7 3a
       -0.0039552115 -0.0034839045 0.0016615039 0.0012802803
0003e0 d6 e6 35 bc 25 e3 ca ba 9e 04 4a 3c 8d d4 9d 3b
       -0.011102399 -0.0015479071 0.012330202 0.004816598
0003f0 2e 03 f3 3a 68 ee b8 bb 51 d1 17 3c b0 f4 0c bc
       0.0018540376 -0.0056436546 0.0092662135 -0.00860326

action_model._discrete_distribution.branches.1.bias f4 [10]
000000 a8 69 c8 3a db f7 a0 bb 65 af 9b 3a e4 25 63 3b
       0.0015290277 -0.004912359 0.0011877833 0.0034660036
000010 c6 63 a9 39 27 46 c1 39 c1 7f 08 3b 8f 66 d5 39
       0.0003230853 0.00036864096 0.00208281 0.00040702938
000020 9b 93 2b 3b 3a b7 f3 ba
       0.002618051 -0.0018594034
